drl_deep_project/src/bomberman_rl/envs/agent_code/our_agent/models/dqn_20250122_112234.pt (torch, 78784 bytes, 6 tensors)

layer1.weight f4 [128, 80]
000000 90 40 c5 bc 5a bc 93 bb 18 26 b4 3d 3a fd e9 bc
       -0.024078637 -0.0045085372 0.08796328 -0.02856313
000010 96 e6 93 be 45 d6 8d 3d ba b9 20 be df 31 89 3d
       -0.2888686 0.06925634 -0.15695849 0.06698965
000020 e3 23 13 bf 52 2a 53 3c 96 2c a2 be 8f 4a a2 3d
       -0.57476634 0.012888508 -0.3167464 0.07924377
000030 80 b2 58 3e 8f 62 04 3d f9 03 70 3c 9e e5 9a be
       0.21161842 0.032320555 0.014649385 -0.3025331
000040 9e 0f cf be 0c e9 1a 3e a7 97 ce bd 8c be 3e 3c
       -0.40441602 0.15127963 -0.10087519 0.01164211
000050 84 42 46 3d ea 59 b1 3d 00 96 46 bc 39 65 0c 3e
       0.048403278 0.08659728 -0.012120724 0.13710488
000060 e3 b3 17 bd 8d 19 24 be 7d 9e cf be 47 d4 1c 3e
       -0.037036788 -0.16025372 -0.40550604 0.15315352
000070 62 2e 97 be e1 c4 0d bd 0a aa 3a bd c9 04 30 3d
       -0.29527575 -0.034611586 -0.045572318 0.042973313
000080 d6 0a 2d 3e a3 e1 52 3e 80 0a 0b be 57 8e ce 3c
       0.16898665 0.20593886 -0.13578224 0.025214357
000090 9f 9a 25 3d b7 c2 bf 3d 65 1a 19 be 24 3f 33 3c
       0.04043066 0.09363311 -0.14951475 0.010940347
0000a0 3b 74 c9 bd e7 3c d3 3d 49 90 b4 bd f8 cb bd bd
       -0.09836622 0.103143506 -0.08816583 -0.092674196
0000b0 c4 9d dd bc e2 1f 98 3d 1f 8d d4 3d 53 22 30 3d
       -0.027052768 0.07427956 0.10378479 0.043001484
0000c0 61 5d 67 3d c3 9d b0 3d 77 07 4e 3d 74 8b 21 bd
       0.056485537 0.08623841 0.050300088 -0.039439633
0000d0 ff 79 4c be 60 8c cb bd 6b ad 0f be 83 f8 70 be
       -0.19968413 -0.09938884 -0.14030997 -0.235323
0000e0 21 ff 97 3d 93 b0 4a be ef b5 46 be ad f4 b6 bd
       0.07421709 -0.1979392 -0.1940534 -0.08933387
0000f0 cb 29 df bd 69 23 ef bc d5 09 47 bb be 56 27 be
       -0.10896643 -0.02919169 -0.003037085 -0.16341683
000100 56 24 39 3d d0 75 04 3e 3e 3d 00 3d 2d bc b2 3b
       0.04520067 0.12935567 0.031308405 0.005454561
000110 47 bc 1e 3c 14 5b 87 3d b6 93 f0 bd c8 23 d9 3d
       0.0096884435 0.06609169 -0.117469236 0.10602528
000120 57 80 41 bd 57 e7 2d bb 0f 97 9c be 9b 4c af bd
       -0.047241535 -0.0026535594 -0.30584 -0.08559533
000130 0c 5a fc bd f0 9e e7 3d 65 88 0a bd 31 15 2d 3e
       -0.123218626 0.11309612 -0.033821482 0.16902615
000140 ca 90 55 3c f6 d8 15 be 5f b5 12 3e bd c7 11 3d
       0.013035009 -0.14633545 0.14327 0.035590876
000150 63 41 a1 bd 66 f1 75 3e 49 53 65 bd 97 32 26 3e
       -0.078738 0.24017867 -0.05598763 0.16230236
000160 1b 7e de 3d fd d6 4c 3e 8c 5f 43 3e 8c 4a 2a 3e
       0.108638965 0.20003887 0.19079417 0.1663
000170 2c 96 84 be 64 85 31 3e de 81 c6 3d 4e 0b c8 3c
       -0.25895822 0.1733604 0.09692739 0.024419453
000180 4a d1 25 bd fd d7 2d 3d 44 0b c1 be 09 54 17 3e
       -0.040482797 0.04244231 -0.37703907 0.1477815
000190 96 e7 a2 be cc c8 f8 bd f6 4e a1 3d 55 9b 27 3d
       -0.3181731 -0.12147674 0.07876389 0.04091962
0001a0 d1 01 2f 3e 17 f7 40 be 27 98 38 be c0 89 bf 3c
       0.17090537 -0.18844257 -0.18026792 0.023381114
0001b0 5f ec cf 3d 61 e6 f9 3c cc 97 93 bc 61 b9 57 3d
       0.10152506 0.030505361 -0.018016718 0.052667025
0001c0 9e 3d 5b 3b de e9 57 3e 1d e3 3e be d9 eb 4b 3d
       0.0033453475 0.21085307 -0.18641324 0.04978547
0001d0 d9 25 2a bd d4 04 fa 3d 16 9e d1 3d 26 f7 39 be
       -0.04154 0.12207952 0.102352306 -0.18160686
0001e0 e0 e0 5d 3d d5 87 0a 3e b3 aa ce bd 6e 4c 18 3d
       0.054169536 0.13528378 -0.10091152 0.037182264
0001f0 3a 39 55 be c3 3b 8d 3d bf 2d 84 bc 3a 69 02 3e
       -0.20822611 0.06896164 -0.016135095 0.12735453
000200 96 7a a6 bc 1f 59 bb 3c 6a 4b b3 3a d0 81 e9 3d
       -0.020322125 0.022869645 0.0013679091 0.11401713
000210 d5 ae 39 be 6c c3 c4 bd a6 67 62 3e a6 d9 84 be
       -0.181331 -0.09607586 0.22109851 -0.25947303
000220 db f0 8b bd bb 2c 4e 3e 19 5b 9c bd 50 0a 2e 3e
       -0.06833049 0.20134251 -0.07634563 0.16996121
000230 98 c0 8d 3e da 4d f8 3d fd 43 fa 3d 16 fe 5a bd
       0.27686 0.12124224 0.12219999 -0.05346497
000240 70 9f 98 3b 27 04 b9 3d 42 b0 90 3e 96 cb b1 3e
       0.0046576783 0.09033995 0.28259474 0.34725636
000250 65 43 00 be 38 24 69 3e 45 e6 29 bd f7 35 6b 3d
       -0.12525709 0.22767723 -0.041479368 0.05742451
000260 90 a7 0f bd df ff e2 3d 4f 1d cc bc 68 47 eb 3d
       -0.03507191 0.1108396 -0.02491632 0.11488229
000270 05 0f aa bc be 79 23 3c 1e 16 40 3d 77 49 5d be
       -0.020759115 0.009977756 0.046896093 -0.21610056
000280 2f c4 18 3e f8 7c 84 bd 3a 86 17 3e e1 1c d5 bb
       0.14918588 -0.064691484 0.14797297 -0.006503687
000290 cc 88 a0 bd a6 db cf bc 7f c1 0b 3e b8 de 3c 3e
       -0.07838592 -0.025373291 0.13648032 0.18444335
0002a0 d1 3c 55 be d4 4a 11 be 93 c3 ea bd 8d a5 c6 3e
       -0.20823981 -0.14188701 -0.11463084 0.3879818
0002b0 8e fe b9 3d 52 bb 38 bf d0 c0 27 be cb 85 04 be
       0.090817556 -0.7216083 -0.16382146 -0.12941663
0002c0 de b9 1b bc ce 5d ef bb 6d 32 d8 be d2 dd 06 3d
       -0.009504763 -0.0073048836 -0.42225972 0.032926388
0002d0 d8 f4 62 3e f5 0a 57 3f 77 3f 48 be 91 dd ac be
       0.22163713 0.84001094 -0.1955546 -0.33762792
0002e0 a2 0c da be 2a 9c 51 bb 03 83 29 be 26 b4 f7 3d
       -0.42587763 -0.003198395 -0.16553883 0.120949075
0002f0 ff 08 af be 36 09 a5 bc 03 05 42 be f2 be b2 bd
       -0.3418655 -0.020145994 -0.18947224 -0.08727826
000300 bc 32 d0 bd e9 58 a2 be 0e de 90 3d 97 46 65 3d
       -0.10165927 -0.31708458 0.070736036 0.055975523
000310 c0 7a 50 bc 90 d3 b9 3d 04 6f c4 be 47 74 61 bc
       -0.012724578 0.090735555 -0.38365948 -0.013760633
000320 fc d9 61 bc 70 4d 8f 3e e6 6e 87 3e 07 bb 5e bc
       -0.013784882 0.27988768 0.26451796 -0.0135943955
000330 00 3f d9 3d 7c 6d 9d 3c 85 9a 26 3e f5 4d 06 3e
       0.106077194 0.019217245 0.16269882 0.13115676
000340 09 4b bc 3e fc 67 3b 3e a4 d4 18 bc 1d 6f ba 3e
       0.36775997 0.18301386 -0.009328041 0.36412898
000350 8f 41 0c be 33 be db bd cb d5 ba 3d 86 50 00 bd
       -0.13696884 -0.10729637 0.09122809 -0.031326793
000360 64 0e e0 3c cb ad 14 be 04 44 81 3d a3 25 b3 3c
       0.027350612 -0.14519422 0.06311801 0.021868533
000370 97 13 c2 3d e9 88 24 3d d1 05 89 3c 1a 6c b2 3e
       0.09476393 0.04016963 0.016726406 0.348481
000380 0d 48 04 be 44 de 91 3d 26 03 4c 3e dc b6 df 3d
       -0.1291811 0.07122472 0.19923076 0.109235495
000390 3d 46 3b be cf e8 c7 3e 19 b1 1f 3e 9f a2 e8 bd
       -0.18288513 0.39044806 0.15594901 -0.113591425
0003a0 16 2a 84 bd 2f ac 4b bf 84 e8 9a be 98 98 73 3d
       -0.0645334 -0.79559606 -0.3025552 0.059471697
0003b0 42 11 46 bd 8b d2 4c 3e b5 0f 94 bd 9f 29 e0 3e
       -0.048356302 0.20002191 -0.072295584 0.43781754
0003c0 34 a8 34 be 2f 3f b0 bc 80 e5 7d bd 34 59 87 3d
       -0.1764229 -0.021514503 -0.061986446 0.06608811
0003d0 f3 e4 f5 3d f3 67 ec 3d c9 6a f9 bd ac 39 6e bb
       0.12006559 0.11543264 -0.12178571 -0.0036350293
0003e0 88 6e 14 be f0 21 e1 3d de cc 44 3f b9 79 07 3f
       -0.1449529 0.10992801 0.768751 0.5292011
0003f0 87 5a a6 bc 2b 91 c3 3e a7 a4 54 3c 5e 0e ef bd
       -0.020306839 0.38196692 0.012978709 -0.11672662

layer1.bias f4 [128]
000000 de 41 af bd bd bb b5 bd ce 85 3b bc 23 52 83 bc
       -0.08557485 -0.08873699 -0.011445476 -0.016030377
000010 9c 1b f2 bd a4 f2 e6 3c 01 37 82 3d 5e 5f 50 3d
       -0.11821672 0.028191872 0.063581474 0.0508722
000020 10 9f 2d bd e4 ad 79 3d e3 74 86 3d f5 58 82 3d
       -0.042388022 0.06095685 0.06565263 0.063646235
000030 4a 94 83 3d 64 f1 a6 3d 83 f4 1b 3e 61 0c 36 3d
       0.06424768 0.0815151 0.15229993 0.0444454
000040 dd d8 8c 3d 01 97 16 bb 81 00 03 3d 26 3a 3e 3d
       0.06877301 -0.002297819 0.031982902 0.046442173
000050 da b2 6c 3d 4d a9 03 be 96 f0 3e bd 02 24 f4 bc
       0.057787754 -0.12857552 -0.04661616 -0.029802326
000060 0f ba e8 3c 93 56 6c 3c 18 29 3d 3c 24 45 ef 3c
       0.028409032 0.014424938 0.011545442 0.029207774
000070 30 19 20 3d d0 3a ee 3c 66 6a ae 3c 72 d8 33 bd
       0.03908652 0.029080778 0.02129097 -0.04390759
000080 0f 1b 98 3c bb d7 d5 3d ad 49 74 3d c2 98 fd 3c
       0.01856759 0.10441538 0.059640575 0.03095663
000090 64 6c 9b 3d 90 1a 0a 3d 69 5f f6 3c be 05 99 bc
       0.07589033 0.03371674 0.030074792 -0.018679496
0000a0 e1 38 83 3c 29 06 43 3d 68 e6 c9 3c e0 d1 2e 3d
       0.016018333 0.047613297 0.024646 0.04268062
0000b0 56 2e 86 3c bc c1 57 bd 20 d6 4a 3d 24 0a 16 3d
       0.016379517 -0.052674994 0.04952061 0.036630765
0000c0 c6 55 ef bc 47 45 96 ba 49 55 c8 3d ea 21 ac bc
       -0.029215705 -0.0011464738 0.09781892 -0.021012265
0000d0 55 40 0a bc 0a b3 cc 3c 00 9d 1c 3d 5e 37 03 bd
       -0.0084381895 0.024987716 0.038235664 -0.032035224
0000e0 61 42 52 bc 29 41 56 bd b9 45 76 3c a3 82 78 3d
       -0.012833209 -0.052308235 0.015031272 0.06067146
0000f0 1b 97 0f 3c 71 71 88 bc ca 13 02 be c3 6a 38 bc
       0.008764054 -0.016655656 -0.12702861 -0.011255923
000100 52 92 47 3d d7 f9 05 be 56 61 a0 bc 51 e5 1a bd
       0.048723526 -0.13083588 -0.019577663 -0.03781635
000110 5e dc 14 3c f0 a8 95 bd 04 c8 c0 3c a7 a5 ff 3b
       0.009085743 -0.07307613 0.023532875 0.0078017297
000120 b1 ad f8 bc 2b 4c 03 3d b6 bb 28 3d 4c c5 7d bd
       -0.03035626 0.03205506 0.04119464 -0.061955735
000130 d8 bb 23 3d 5a 07 91 3d b3 54 69 bc 47 43 10 3e
       0.039974064 0.0708148 -0.014241385 0.14088164
000140 a7 2e 56 3d 2e 94 69 bc 26 60 17 bd 0d 53 1f 3e
       0.052290585 -0.01425652 -0.03695693 0.15559025
000150 15 ff 1c 3d 92 0b a8 3d 44 46 8b 3b f0 ea ab bd
       0.038329203 0.08205332 0.0042503197 -0.0839442
000160 79 0e 0d 3d 22 f1 c2 3d 0e a4 1b bd cb 6b 33 3c
       0.03443763 0.09518649 -0.03799825 0.010950993
000170 91 41 9a 3c 6f 06 73 bc 9b 92 2f bd 18 1d 83 bd
       0.018830093 -0.014833077 -0.042864423 -0.064020336
000180 cc 38 64 3c 11 79 e8 3a 26 60 23 bd 1c 31 00 3e
       0.013929557 0.0017736276 -0.039886616 0.12518734
000190 ae b8 81 bb 7b 20 17 3e 0c 90 80 3a 81 20 83 3d
       -0.003958783 0.14758484 0.0009808554 0.06402684
0001a0 cd 70 e0 3c b2 b8 76 3c 7f 85 5e bd 2a dc 8c 3d
       0.027397538 0.015058683 -0.05432653 0.068779305
0001b0 f9 8c 19 3d f6 92 93 bd 66 86 4e 3d 87 da 8c bb
       0.037487958 -0.07205765 0.05042114 -0.0042985114
0001c0 5c eb 32 3e 0f 14 f9 3d 79 0a 0c 3c 67 f4 d9 bc
       0.17472595 0.12162029 0.008547419 -0.026605798
0001d0 4d bf 07 3e ad 5b 45 3d e7 79 b1 ba f3 e4 ed bd
       0.13256569 0.048183132 -0.0013540358 -0.11615934
0001e0 9f 1b a5 3c a8 e0 09 3d 24 b2 2b bc 81 af 65 bc
       0.020154772 0.033661515 -0.010479484 -0.014018894
0001f0 b4 98 48 3e f6 93 e4 3d a1 27 07 3d 5c c5 33 bd
       0.19589502 0.11161034 0.032996777 -0.04388939

layer2.weight f4 [64, 128]
000000 a7 9d f7 3d c6 fd 93 bd 55 8f 69 be bf 71 2b 3d
       0.12090617 -0.07226138 -0.22808583 0.041856524
000010 f6 ca 60 3d 0e 34 c4 bd d8 1f b8 3c 18 30 89 bd
       0.05488106 -0.09580241 0.022476122 -0.06698626
000020 70 93 7c 3e 9a ad ea bd b4 0b 83 bd 18 17 85 be
       0.24665618 -0.11458893 -0.063987166 -0.25994182
000030 d9 8b 5d 3d 2d 2c 4e bd ed 87 c4 bb b3 12 db bc
       0.054088447 -0.050335098 -0.005997649 -0.026742315
000040 4d 2c 57 3e d3 98 36 3e b0 51 40 be 94 b6 a3 3d
       0.21012993 0.17831735 -0.18781161 0.079938084
000050 64 44 a3 bd 75 0a ce bd b0 a6 3a 3e c2 e1 81 3d
       -0.07972029 -0.10060588 0.18227649 0.06341888
000060 59 6a 72 be 9e 82 17 bd 2d b6 0c be 14 14 d2 3b
       -0.23673381 -0.0369898 -0.1374137 0.006411085
000070 bf 0d f0 3c a6 0c 76 3d e7 5b d5 bd cf c2 8c be
       0.02930343 0.060070656 -0.104179196 -0.27492377
000080 7c 3a ec 3d 9f 41 9e bd 0c 76 ea bd 14 cc 2b 3d
       0.115345925 -0.0772736 -0.11448297 0.04194267
000090 a4 36 33 3e d6 91 ac bd 37 92 36 3e 73 2b 34 bd
       0.17501312 -0.084262535 0.17829214 -0.04398675
0000a0 9e cf 65 3d 5f 91 a7 bb 5b 2b 67 be f4 bd dc bb
       0.056106202 -0.005113765 -0.22575133 -0.0067365114
0000b0 b9 1e 39 be 26 15 72 bd 2e e9 6e be a6 95 ea bd
       -0.18078126 -0.0591022 -0.23331138 -0.114543244
0000c0 cd f4 39 3d 63 1d 89 3d 69 53 60 be 84 cf 8c be
       0.045399476 0.06695058 -0.21906818 -0.27502072
0000d0 62 02 22 3e 64 d4 6f bd c2 3b 0a 3d 1b fb 2f 3e
       0.15821221 -0.05855216 0.033748396 0.17185633
0000e0 d3 d5 82 3d df df 22 3e 46 97 ed bd 21 b6 84 3d
       0.0638844 0.15905713 -0.11601119 0.06480051
0000f0 bc 8c e7 3c 6a 5e 73 bd bd 79 d3 bd d8 27 00 bd
       0.02826535 -0.059416212 -0.10325954 -0.031287998
000100 72 dc f7 3d 46 f4 0b 3e 92 0c 33 3e 5c 0c 3c 3c
       0.121025935 0.13667402 0.17485264 0.011477556
000110 9a 7e b0 3c 94 c6 a9 3d af 9d 87 3d 72 91 e1 3c
       0.021544743 0.08289829 0.06621873 0.027535174
000120 8b c3 c9 3d 86 14 87 bd a8 db 15 3d 26 78 a5 3d
       0.0985175 -0.065957114 0.036586434 0.08079557
000130 0b 42 ea bd f6 db b6 bd 22 70 00 be e8 5f 83 3d
       -0.11438378 -0.08928673 -0.12542775 0.06414777
000140 dc 31 e4 3d 74 7c cd 3d b1 c6 1b be f8 50 57 3e
       0.111423224 0.10033503 -0.15212514 0.21026981
000150 d9 ce 67 3e 8c db ea 3c c2 bc dc 3e e5 88 2f 3c
       0.226375 0.028669141 0.4311276 0.010713791
000160 a7 52 b8 bd 58 e9 98 be 15 91 b6 bc 6f e8 9d 3e
       -0.0900014 -0.29865527 -0.022285977 0.30841395
000170 86 ea 5d 3d 9f db 2f 3d 8d 90 af 3c 9a 29 94 be
       0.054178737 0.042934056 0.021431232 -0.2893799
000180 1d 52 25 bd ca fe 47 3e 2e 79 d6 3d 00 e4 66 3e
       -0.040361512 0.19530788 0.10472332 0.22547913
000190 b9 d3 99 3d 99 1c 4e be d3 c7 c7 3e fa 28 3f 3d
       0.07511086 -0.20128097 0.3901964 0.046669938
0001a0 b8 5a c1 bd dd 0c 5b 3d 1d bd 05 bd 7d f5 95 3d
       -0.09441131 0.053479064 -0.032651056 0.07322214
0001b0 8e bf a2 bd e7 16 b5 3b 51 b1 bf bd e6 f2 cd 3b
       -0.079466924 0.005526412 -0.09359992 0.0062850593
0001c0 c5 b1 74 ba d2 97 da 3d bc 89 24 3e 5d af 5b 3d
       -0.0009334351 0.10673489 0.16068166 0.053634036
0001d0 04 40 f5 bd 8a 45 59 3d 85 5a 17 3d 40 ca 08 be
       -0.11975101 0.053044833 0.03695156 -0.13358402
0001e0 7b 09 0e 3c fa 33 91 bd a1 26 93 3e f7 5d 82 3e
       0.0086692525 -0.07089992 0.2874041 0.25462314
0001f0 d5 00 5d be 53 7e 51 3e 38 5c 2c 3e 69 4e 4e 3e
       -0.21582349 0.20458345 0.16832054 0.20147099
000200 1a 01 99 3e 43 9d 18 be d9 04 2d 3e 99 a0 d3 3c
       0.29883653 -0.1490374 0.1689638 0.025833415
000210 dd 18 a4 be 9e 12 d1 3c 3c 38 85 bd 7f dd 91 3e
       -0.3205022 0.025521573 -0.065048665 0.284893
000220 6c 52 41 3e 2f 1a 70 be 9d 27 99 3c a9 ae cb 3b
       0.18879098 -0.23447488 0.018695647 0.0062158895
000230 31 ca 45 bd d1 c5 b8 bd 19 a7 f9 bd 37 a1 3e 3e
       -0.048288528 -0.090221055 -0.121900745 0.18616186
000240 63 d3 c6 3e ce 13 67 3e 0d 5d 65 3d 9a 78 f3 bd
       0.3883315 0.22566149 0.055996943 -0.11888237
000250 3f 1e 02 be a7 e1 13 bf 36 a0 89 3d 1d 47 85 3d
       -0.1270685 -0.57766193 0.06720011 0.065077044
000260 43 f2 b6 3e 1d e9 a0 bd f8 ae 95 3d 18 68 27 3e
       0.35731706 -0.07856963 0.07308763 0.16348302
000270 b7 8a 2c bc 2b c6 08 3c 6b b7 8c bd ae d2 08 bd
       -0.010531119 0.008348028 -0.06870922 -0.033404045
000280 68 91 92 3d 11 96 3a 3d 6a 9a be be 96 2a 4b bd
       0.0715664 0.04555327 -0.37227184 -0.04960116
000290 ba 14 6c bd 91 f2 5c 3d ba d6 1c 3e 65 b2 e0 bd
       -0.057636954 0.053942267 0.15316287 -0.10971526
0002a0 99 1f b0 be 25 89 46 3d be 27 a0 3e 86 b4 4d be
       -0.34399107 0.048470635 0.3128032 -0.20088395
0002b0 b7 9d 19 be 84 fb e9 3d 53 4e 77 3e a8 21 40 bf
       -0.1500157 0.11424926 0.24150972 -0.75051355
0002c0 73 73 bd 3c a9 f3 ce be fb 15 3e 3d 51 28 82 bd
       0.02312634 -0.40420273 0.04640768 -0.06355346
0002d0 c2 b0 2f 3e a9 c0 48 3e 8d 9a b4 bd c5 1d be 3d
       0.17157272 0.19604744 -0.08818541 0.09283022
0002e0 d1 aa 02 3f e5 44 b7 be 58 15 80 bd a0 e7 02 3e
       0.51041895 -0.3579475 -0.06254071 0.1278367
0002f0 d0 95 93 3d 1f b8 38 3d aa 18 c8 3d 55 cc 67 be
       0.07206309 0.045097467 0.09770329 -0.2263654
000300 5e 9c fd ba 5b 37 22 be 16 3b e2 3d d9 73 3f be
       -0.0019348969 -0.15841429 0.11046426 -0.18696536
000310 86 46 97 bd 21 1b 0d 3e eb 9d d6 3e 9b d7 ae be
       -0.07386498 0.1377988 0.41917357 -0.3414887
000320 c2 6e 7c be 89 3a 23 3e e5 f3 8f 3d 31 04 02 be
       -0.24651626 0.15940298 0.07028941 -0.12696911
000330 94 9e d8 be 24 d7 e7 bd 2e 1e 66 3d 1c c8 66 3e
       -0.42308486 -0.11320332 0.056181125 0.22537273
000340 d5 e9 6f bc 2c 91 9e 3c 2b 36 57 be 93 c8 7e 3e
       -0.014643152 0.019356333 -0.21016757 0.248812
000350 2f 01 92 3e cd 19 91 be 04 e7 dc bc 5f 4a d0 3b
       0.28516528 -0.28339997 -0.026965626 0.006356522
000360 c8 c1 89 be b5 5d 80 3d 64 d3 40 3e de 7b 23 3e
       -0.26905656 0.06267873 0.18830639 0.1596522
000370 dc a9 d5 3e dd c9 b5 bd c8 ad cf 3d 13 7b e5 bd
       0.41731155 -0.08876393 0.10140568 -0.11205115
000380 7b 34 43 be 19 2b b1 3d e2 9d 8c 3e fa 40 40 bf
       -0.19062988 0.08650798 0.27464205 -0.75099146
000390 b2 3d fc 3e 95 c5 06 bd 62 c4 88 3e 40 3e bc 3e
       0.4926582 -0.032903273 0.26712328 0.36766243
0003a0 dd fe a7 be 5c 5a f5 3d c2 95 24 3e 28 8c 93 3c
       -0.32811633 0.11980125 0.16072753 0.018011168
0003b0 93 09 27 be f1 ec 05 3e de 73 16 be e5 3e bb be
       -0.16312246 0.13078667 -0.14692637 -0.36571422
0003c0 6f 02 af be 72 44 21 3d 20 58 a5 3e 44 de 23 be
       -0.34181544 0.039371915 0.32293797 -0.16002756
0003d0 00 2d 38 3d 7b ec 95 be 74 43 30 3e c5 b1 33 be
       0.04496479 -0.29281983 0.17213231 -0.17548282
0003e0 2b 87 33 3f 8b ff 2f be 85 8a 03 bd 7a e1 98 3e
       0.70128125 -0.17187326 -0.032114524 0.29859525
0003f0 0e 44 94 3a a1 40 04 be 95 00 4e be fd 3d a1 3d
       0.0011311786 -0.12915279 -0.2011741 0.078731515

layer2.bias f4 [64]
000000 9d b0 c8 3c 7b 62 a9 3d 95 b8 15 3c 41 22 18 bc
       0.024498278 0.08270737 0.009138246 -0.0092855105
000010 ba 9e 10 3d 76 6f 04 b9 02 2d c6 bc fd 24 32 bc
       0.035307623 -0.00012630023 -0.024191383 -0.0108730765
000020 bf c9 7a 3c 3f 65 c1 bb f7 36 3a 3d 38 63 05 bd
       0.015306889 -0.005901962 0.045462575 -0.032565325
000030 0a 30 e3 3c 99 2c fe bb 02 9a c4 3c ae 32 8f bc
       0.027732868 -0.0077567813 0.023999218 -0.01748022
000040 60 6b 8c bb 87 1f 6a bd db bc e7 3c d4 53 c4 3a
       -0.004285261 -0.057158973 0.028288295 0.0014978596
000050 71 0a a7 3d 91 72 72 bd b2 65 be bb b1 6f 29 3e
       0.081562884 -0.05919129 -0.005810463 0.16546513
000060 94 75 b3 bb 2b 3c c7 3c a3 4b 0f bd 0f a1 80 bd
       -0.005476663 0.024320683 -0.034984242 -0.062807195
000070 e7 86 5e 3d f6 a7 42 3d 2a 98 6b 3d d8 a6 28 bd
       0.05432787 0.04752346 0.05751816 -0.04117474
000080 b3 96 20 3c 6a 9d 10 3e a9 90 0f bd e1 fe 49 bd
       0.0098015545 0.14122549 -0.035050068 -0.049315337
000090 cf 2f e7 bb cf 3f c2 bc 7c 72 fd 3d ce 7a 0b 3e
       -0.00705526 -0.023712067 0.12375352 0.13621065
0000a0 ef 33 a6 ba 23 0c ba bb ec 05 ab bd d3 25 cb 3c
       -0.0012680272 -0.0056777163 -0.08350739 0.02479831
0000b0 99 e8 ac 3c 25 6f 1b 3c 8a 62 7b bd 8d f7 9d 3c
       0.021107005 0.009486948 -0.06137327 0.01928308
0000c0 ed 34 a9 bd 53 22 56 bc 37 99 bf 3c 17 55 95 bd
       -0.08262048 -0.013069707 0.023388488 -0.0729162
0000d0 86 c8 f7 3c f3 e7 9a 3d 91 57 0a be 3d bb 4c bd
       0.030246984 0.07563772 -0.13509966 -0.04998325
0000e0 f2 26 95 3d d3 6a ad bd 2d 51 84 3c 86 fc d2 3b
       0.07282819 -0.08467641 0.016151989 0.0064387945
0000f0 86 9f a7 bd c4 72 bc 3d 05 d0 47 3c cd 88 00 bc
       -0.081847236 0.09201577 0.012195592 -0.007845116

layer3.weight f4 [6, 64]
000000 32 3e cf be 01 24 80 bf b1 c0 89 3e 53 a3 ea be
       -0.4047714 -1.0010988 0.26904824 -0.45827731
000010 5b 67 85 bf c0 c2 23 3f 83 9a f0 bf cc ad 50 3e
       -1.0422167 0.6396904 -1.8797153 0.20378798
000020 be 52 e1 3f 4f 43 4e be f9 f9 80 3f 4c f8 eb bf
       1.7603376 -0.20142864 1.0076286 -1.8435149
000030 75 1d 8e bf e8 c0 da be dc 16 dc 3d b4 7b 86 bf
       -1.110274 -0.427253 0.107465476 -1.0506501
000040 7c 11 31 bf 39 47 7e 3d 8f 83 64 be b1 bf e9 3e
       -0.69167304 0.062079642 -0.2231581 0.4565406
000050 e4 2a 1e be 23 c7 0c 3f 16 9c 3a 3f 14 e8 f5 3d
       -0.15446049 0.5499136 0.7289442 0.12007156
000060 95 b1 2a 3c 9d 57 24 3f d6 b5 c9 bc 08 b2 31 be
       0.010418315 0.6419619 -0.024622839 -0.1735307
000070 cc a8 58 3f df b4 19 3e 92 67 39 3f 41 1c f3 3e
       0.84632564 0.15010403 0.7242366 0.47482494
000080 49 12 a1 3e c3 8f 34 3e d3 94 2e be 6a ef 14 bf
       0.31459263 0.17632966 -0.1704896 -0.58177817
000090 ff 42 49 bf f6 ea b3 be fc 26 3e be e4 f8 af 3e
       -0.7861785 -0.35140198 -0.18569559 0.34369576
0000a0 97 d0 11 bf 9c 9c 2c bf 43 1e 5c 3f a4 2e 21 3f
       -0.5695891 -0.67426467 0.85983676 0.6296179
0000b0 2d be 96 3e 2d 4a a2 3e 78 3b da be ca b3 95 bf
       0.29441968 0.31697217 -0.42623496 -1.1695492
0000c0 f3 c7 03 3f 79 87 8a bf ea 41 74 bd e4 85 5c 3d
       0.51476973 -1.0822593 -0.059633173 0.053838626
0000d0 09 27 1c c0 81 36 2a bf 0d 27 be be b1 0c 1e bd
       -2.4398825 -0.66489416 -0.37139168 -0.038586322
0000e0 a9 6a 8a be 62 c4 09 3f 75 99 21 3f e8 3e 67 bf
       -0.270345 0.5381528 0.6312478 -0.9033036
0000f0 53 98 3a bf c3 65 1f 3e df c5 e5 3d 62 da 99 3e
       -0.7288868 0.15566163 0.112193815 0.30049425
000100 33 98 53 be 84 be 28 3e 76 1d 72 3f 49 7f 5d be
       -0.20663528 0.16478926 0.94576204 -0.21630587
000110 fb 0f b5 3e 73 31 93 3e 84 f8 9b 3b da 31 fb 3d
       0.35363755 0.28748664 0.00475985 0.12265368
000120 da bd a7 3f 66 18 db bf 4a 0f 2c 3e 07 10 21 bf
       1.3104813 -1.7116821 0.16802707 -0.6291508
000130 a2 22 69 bd 78 9c 44 be c3 74 43 be af 6f ef bf
       -0.056917794 -0.19200313 -0.1908751 -1.8705958
000140 db 4f 46 bf dc ef 12 c0 d5 30 5a bf 83 a5 91 bd
       -0.774656 -2.2958899 -0.8523076 -0.07111647
000150 75 dc 2b be 23 98 c7 be 8b ad ba bf f0 19 89 3d
       -0.16783316 -0.3898326 -1.4584211 0.066944
000160 03 3d b3 be 62 22 87 3e 84 07 32 3d 5b 7c d7 bf
       -0.35007486 0.2639342 0.0434642 -1.6834825
000170 f0 e3 86 3f 26 39 58 3d 78 a7 0b be f0 1a 9a bf
       1.0538311 0.052788876 -0.13638103 -1.2039471
000180 63 97 82 3d 28 47 c1 3e 07 ac 70 3f 5c d3 6e bf
       0.06376531 0.377496 0.9401249 -0.9329126
000190 db 5b 85 bd 45 83 e0 bf 4e b0 90 3e d2 05 65 3e
       -0.06511661 -1.754006 0.2825951 0.22365502
0001a0 d9 71 4a be ba 2c 93 be 63 ee fe be 7a 86 fc be
       -0.19769992 -0.2874506 -0.4979125 -0.49321347
0001b0 08 73 6f 3f 17 a3 67 be 7c bc 6f be c0 23 1f 3f
       0.935349 -0.22620808 -0.23411745 0.62163925
0001c0 c6 ac 99 3f b1 c4 06 be 98 df 68 3f 5d be aa 3e
       1.2005851 -0.1316097 0.90966177 0.3334836
0001d0 51 8f dc 3d 4a 08 07 be 99 e2 7b bd 88 ef eb be
       0.10769523 -0.13186756 -0.061495397 -0.46081185
0001e0 16 71 dd 3e bf 99 96 bf b1 46 0b 3f ea 34 d7 be
       0.4325034 -1.176567 0.5440474 -0.42032558
0001f0 98 15 19 3f e3 13 4a be 44 a3 9e bf ac ee 63 bf
       0.59798574 -0.19734149 -1.2393575 -0.8903606
000200 ac ce e4 be 19 98 84 bf 91 85 6e bf 38 35 e4 bc
       -0.44688928 -1.0358917 -0.93172556 -0.027857408
000210 0f 28 b3 bf 3e 67 e3 3d 5e ca 9c 3f 5d c5 64 3c
       -1.39966 0.11103676 1.2249258 0.013963071
000220 24 00 ba 3f c7 a8 07 bd 99 2d b7 bf 5d f7 8c 3e
       1.4531293 -0.033119943 -1.431079 0.27532473
000230 54 57 4c be c7 18 80 bf 28 05 85 be 4e 39 a5 3f
       -0.19955188 -1.0007561 -0.25980496 1.2908113
000240 34 6e c1 be 51 1b ea 3e 29 38 95 bf 8f fa f7 3e
       -0.3777939 0.45723966 -1.1657764 0.4843335
000250 6a 83 3d be 8a 1b 23 c0 4a ae 64 3f 12 f1 a7 3e
       -0.18507162 -2.5485559 0.89328444 0.3280111
000260 ac 28 1a c0 a4 da a1 3e 8b 14 84 bc 39 3a ee be
       -2.4087324 0.31612122 -0.016123077 -0.46528795
000270 a7 d7 18 3e 61 9d a3 c0 b0 51 7b 3f 17 17 a7 bf
       0.14926015 -5.1129613 0.9817152 -1.3053921
000280 aa d1 72 bf 44 45 64 3e c7 da a0 3f ce 39 33 bf
       -0.9485117 0.22292048 1.2566766 -0.7001008
000290 ee de 14 bf 1b d3 28 bf d6 bb 37 3d 07 a6 8c 3d
       -0.58152664 -0.6594712 0.04485687 0.06867605
0002a0 5a 91 78 3e 97 6f 90 3d d0 8a a9 3f f1 46 5b 3c
       0.24274197 0.07052534 1.3245487 0.013383613
0002b0 3e 32 09 3f f8 1f f8 be dd f6 50 bf a5 81 5d bf
       0.5359229 -0.4846189 -0.81626683 -0.86525947
0002c0 21 59 50 3d fb 2d 57 bf 10 88 40 3e 04 f1 83 3f
       0.05086625 -0.84054536 0.18801904 1.0307927
0002d0 50 4c 1a 3e e9 ce 67 3f 05 25 fb bd 8f 0e 1d 3e
       0.15068173 0.90550095 -0.1226292 0.15337585
0002e0 2f 67 96 3e b2 fe 85 bf eb 02 f6 3e 6e 62 4d bf
       0.29375598 -1.0468352 0.480491 -0.80228317
0002f0 14 17 bc bd 03 c6 df 3d 71 21 ee 3e 27 78 1d 3f
       -0.09184089 0.109264396 0.4650989 0.6151146
000300 5e bf 8e bd ab d5 e9 3e 96 75 c2 bf 3f 78 56 c0
       -0.06970094 0.45670828 -1.5192134 -3.3510892
000310 b8 b4 e7 3e c2 05 66 3f 2f ee 35 bf 07 c8 85 c0
       0.45255065 0.89852536 -0.71066564 -4.1806674
000320 de 5b 3e 3f 2c 9d d2 be 61 b6 be be fd d3 98 be
       0.7435893 -0.41135538 -0.3724852 -0.29849234
000330 f3 86 f9 3e 2e 9f b7 be 08 8c 7f bf ca 37 3b bf
       0.4873577 -0.35863632 -0.99823046 -0.73132
000340 6f dc 41 bf 8c 20 de 3d 48 ad d9 bd 91 f4 ac 3e
       -0.7572698 0.108460516 -0.10628754 0.3378034
000350 34 5e 5d be 70 75 19 3f f9 81 f4 bf ae 85 82 bd
       -0.21617967 0.5994482 -1.9102165 -0.063731536
000360 b0 e6 82 bf cf 9e ea 3e 3a d9 b7 bc 12 ea 2c 3f
       -1.022665 0.45824286 -0.022442449 0.6754466
000370 e8 d6 4a 3f ce f4 a1 3d 50 5d 08 bd b1 9f b2 3f
       0.7923417 0.07908021 -0.033292115 1.3954984
000380 fb bf 1e bf 58 22 dc 3e 39 ae 56 3f f5 d3 36 3f
       -0.6201169 0.42994952 0.8385959 0.7141717
000390 b8 89 98 bf 97 c7 12 bf a4 87 a4 3e 6f 34 41 3e
       -1.1917028 -0.573358 0.32134736 0.18867658
0003a0 f5 08 19 be 9e 07 02 bf b4 d5 28 bf 12 59 66 3e
       -0.14944823 -0.5079287 -0.65951085 0.22494915
0003b0 03 e0 d5 bf af 9c b0 be 6b 3c 01 be 5d 0f e0 bf
       -1.6708988 -0.3449454 -0.12620704 -1.7504689
0003c0 31 ad ac bd 5f c2 aa 3e c7 5c 8d bf d3 98 a4 3e
       -0.08431471 0.33351418 -1.1043938 0.32147846
0003d0 6d 76 eb bd 49 84 98 3f 0e dc ab 3f 12 58 4e 3f
       -0.11497197 1.191537 1.342653 0.80603135
0003e0 fa ec b5 3e 90 40 d9 bf bb 01 e9 3e 2d 2e a8 be
       0.3553236 -1.6972828 0.45509133 -0.3284773
0003f0 26 05 92 be 9d b6 72 3e 56 1f 62 bf 1b 7c f9 3e
       -0.28519553 0.23702474 -0.88329065 0.48727497

layer3.bias f4 [6]
000000 5e e4 ff bc dd 8a 6f 3d 8b 21 6d 3d b2 d1 fd 3c
       -0.031236824 0.05848204 0.057893317 0.03098378
000010 40 60 1c 3e 48 ca 5b 3d
       0.15271091 0.053659707
