drl_deep_project/scripts/our_agent/model.pt (torch, 8460 bytes, 2 tensors)

layer1.weight f4 [6, 289]
0	0xbd166b8c	-0.03672366
1	0xbc100e11	-0.008792416
2	0x3cc3ae1a	0.023886729
3	0x3b8b9817	0.004260074
4	0xbd1f4f8d	-0.038894225
5	0xbd18bc70	-0.037289083
6	0x3d201939	0.039086554
7	0x3b07e899	0.0020738004
8	0xbc9af304	-0.018914707
9	0xbc13360f	-0.008985057
10	0xbbd314d0	-0.00644169
11	0xbca9e908	-0.020741
12	0x3d084e88	0.03327802
13	0x3ca6374e	0.020290043
14	0xbd58ed52	-0.0529607
15	0xbbc47143	-0.005994947
16	0xbd5f3578	-0.05449435
17	0x3ce0681b	0.027393391
18	0x3d17460c	0.036932036
19	0x3d64c58f	0.05585247
20	0x3a131127	0.0005610161
21	0xbd01f4d9	-0.031727646
22	0x3c67b5c8	0.014142461
23	0x3d8498ce	0.06474458
24	0x3b97a4c7	0.0046277973
25	0xbd08b88f	-0.033379134
26	0x3ba3a8c3	0.004994483
27	0x3bf40472	0.007446819
28	0xbc97fe6a	-0.018553931
29	0x3d6240b5	0.05523749
30	0x3c8590b3	0.01630435
31	0x3c1ef788	0.009702571
32	0xbd1676bb	-0.036734324
33	0x3be2b855	0.0069189467
34	0xbc5dc4ea	-0.0135357175
35	0x3d88d7ea	0.06681807
36	0xbc110e39	-0.008853489
37	0x3da0edfc	0.07857892
38	0x3d512470	0.05106014
39	0x3d01afa3	0.03166164
40	0xbd7f0699	-0.06226215
41	0x3d37e8cf	0.044899758
42	0xbd81c072	-0.06335534
43	0xbd5589ee	-0.052133493
44	0xbc950f71	-0.01819584
45	0xbd0cd177	-0.03437945
46	0xbd808965	-0.06276206
47	0xbd4355b7	-0.047689166
48	0x3cb6c539	0.02231084
49	0x3d176dff	0.036970135
50	0xbadc122d	-0.0016790085
51	0xb952865c	-0.00020077213
52	0x3ce845b9	0.028353559
53	0x3d4078d2	0.046990223
54	0xbd0088f5	-0.031380612
55	0xbd602c7d	-0.054729927
56	0x3c76c19e	0.01506081
57	0xbc6a2e23	-0.014293226
58	0xbd5d5737	-0.054038253
59	0xbd19dbac	-0.03756301
60	0x3bb3fd40	0.0054928362
61	0xbd5d2a59	-0.053995464
62	0xbba00a8e	-0.0048840707
63	0x3d4feaa2	0.050760873
64	0xbb657b91	-0.0035016278
65	0xbc89072e	-0.016727056
66	0x3d03ff57	0.032225933
67	0x3d088d75	0.03333803
68	0x3c0a23de	0.008431403
69	0xbcd666ff	-0.02617216
70	0x3c1b7f17	0.00949075
71	0x3d0815f2	0.033224054
72	0x3d10573e	0.03523945
73	0x3c877a2a	0.016537745
74	0x3d3e1a64	0.046411887
75	0x3bbf583c	0.005839376
76	0x3b90219b	0.0043985373
77	0x3d6b6f6a	0.0574793
78	0x3c84b2ea	0.016198594
79	0xbd3878a9	-0.045036945
80	0xbd7c78ef	-0.06163877
81	0x3da0953d	0.07840965
82	0xbcedd4d8	-0.029032156
83	0x3d1b3bf1	0.03789896
84	0x3d1d1432	0.038349338
85	0xbd6102cc	-0.054934308
86	0x3cc59a1d	0.024121339
87	0x3d49cef7	0.049269643
88	0xbc8d9a51	-0.017285498
89	0x3cd76ea2	0.026297871
90	0x3d4dd4df	0.050251838
91	0x3cead10c	0.028664134
92	0x3cb653f8	0.022256836
93	0xbcd024b1	-0.02540812
94	0xbaedabc9	-0.0018132861
95	0xbcd42d00	-0.025900364
96	0x3d34d479	0.044147942
97	0x39922c12	0.00027880125
98	0x3c390d82	0.011294724
99	0xbced1fc8	-0.028945819
100	0x3c97997c	0.018505804
101	0x3d03e99f	0.03220522
102	0xbbe82c28	-0.007085342
103	0xbcc65208	-0.024209037
104	0x3c5bed35	0.013423254
105	0x3c97fdf0	0.018553704
106	0x3d15e0de	0.036591403
107	0xbcee705f	-0.029106317
108	0x3bf392e1	0.007433281
109	0x3c57e3cf	0.013176872
110	0xbd215867	-0.039390948
111	0xbd1d8c1b	-0.038463693
112	0x3c72cfcb	0.0148200495
113	0xbd018f5d	-0.031630863
114	0x3ce74e82	0.028235678
115	0x3cf3e1e3	0.029770797
116	0xbb913419	-0.0044312594
117	0xbd1955a0	-0.037435174
118	0xbd2fb035	-0.042892653
119	0xbc8c4564	-0.017122932
120	0xbd266cbd	-0.040631045
121	0x3cefc25f	0.029267488
122	0xbcbf957c	-0.02338671
123	0xbd48b262	-0.048998244
124	0xbc3cc02d	-0.011520428
125	0xbd53c348	-0.051699907
126	0xbc38070b	-0.011232148
127	0xbceb137d	-0.028695816
128	0x3d3b4604	0.04572107
129	0x3ca20dbc	0.01978194
130	0xb9e2bdbd	-0.00043247445
131	0xbd6cb3c1	-0.057788614
132	0x3d55027f	0.052004334
133	0xbd097c30	-0.0335657
134	0xbcf0d8be	-0.029400226
135	0x3cfffacc	0.031247519
136	0xbd1e8e2e	-0.038709812
137	0x3cba1ef6	0.022719841
138	0x3cd96d99	0.026541518
139	0x3d1c8376	0.03821131
140	0xbc8ca57e	-0.017168757
141	0xbd4f2164	-0.050568953
142	0xbd79c521	-0.060979012
143	0x3cdcbb0c	0.02694466
144	0x3d06718d	0.032823134
145	0xbd25f4b2	-0.040516563
146	0x3d1f3a63	0.03887404
147	0xbca5929a	-0.020211507
148	0xbbcf1e53	-0.0063207536
149	0x3d4f38ed	0.050591398
150	0xbc9bdf34	-0.01902733
151	0xbd7e44aa	-0.062077202
152	0x3d37567a	0.044760205
153	0xbcbfbf61	-0.023406686
154	0x3d05348b	0.032520812
155	0x3d6bfc4e	0.057613663
156	0xbd5f5e48	-0.054533273
157	0xbb58bc48	-0.0033071209
158	0xbcee1db0	-0.02906689
159	0x3bebfab9	0.0072015193
160	0x3d2b2a6d	0.041788507
161	0xbd19ffd6	-0.0375975
162	0x3ccbd5d7	0.02488224
163	0xbc88962c	-0.01667317
164	0xbd6ab909	-0.05730537
165	0xbcf283d8	-0.029603884
166	0x3ce70ff6	0.028205853
167	0xbd193da9	-0.03741232
168	0xbbbd606e	-0.0057793176
169	0xbd0b0e73	-0.033949327
170	0xbcd1bf14	-0.025603808
171	0x3aff88b9	0.0019495703
172	0xbd79c79e	-0.060981385
173	0x3d079257	0.033098545
174	0x3bea047b	0.0071416474
175	0xbb49d901	-0.003079951
176	0xbd14ed3d	-0.03635906
177	0x3b7a355c	0.0038178777
178	0x3d201b8c	0.03908877
179	0xbd3b2b13	-0.045695376
180	0xbd22ef67	-0.039779093
181	0x3ce7b014	0.028282203
182	0xbd370695	-0.04468401
183	0x3d389be9	0.045070563
184	0xbcf3559a	-0.029703904
185	0xbb034515	-0.002003019
186	0x3c7d02f6	0.0154426005
187	0xbc2d5f85	-0.010581856
188	0xbcacfd1a	-0.021116782
189	0x3daa63e3	0.08319833
190	0xbb21463a	-0.0024608509
191	0x3c85e90c	0.016346477
192	0xba05eb49	-0.00051086076
193	0xbd4769dc	-0.04868494
194	0xbd287c6f	-0.041134294
195	0x3cc8f51e	0.024530943
196	0xbc4767f9	-0.012170785
197	0x3cfdeda3	0.030997103
198	0x3c39c392	0.0113381315
199	0x3c61e7ed	0.013788206
200	0x3d00806b	0.03137247
201	0x3d045e63	0.032316577
202	0xbd886559	-0.066599555
203	0x3c93c5f9	0.018038737
204	0x3c28e3d2	0.010308223
205	0xbb0b42d6	-0.0021249554
206	0xbd86ee31	-0.065884
207	0xbcf2d0d6	-0.029640596
208	0xbb7e35c1	-0.0038789364
209	0xbcea50cc	-0.02860298
210	0xbb832415	-0.004002104
211	0xbd3e80e8	-0.046509653
212	0x3c9d5922	0.01920754
213	0xbceb5627	-0.028727604
214	0xbc0689f4	-0.0082116015
215	0xbc77a490	-0.015114918
216	0x3bc1db71	0.005916052
217	0x3d1196ae	0.03554409
218	0xbd7a7512	-0.061146803
219	0x3d0198d2	0.03163988
220	0xbd2620cd	-0.040558625
221	0xbd1d8d69	-0.038464937
222	0x3d3201c1	0.043458704
223	0xbc85b033	-0.01631937
224	0xbc7e8779	-0.015535229
225	0x3c21c222	0.009872945
226	0xbc2b847e	-0.0104686
227	0x3d1d60e3	0.038422477
228	0xbd4651c8	-0.048417836
229	0x3cf4f89b	0.0299037
230	0xbcc5cfaa	-0.024146874
231	0x3c1edc3c	0.009696063
232	0xbd22ae0e	-0.039716773
233	0xbcf8cb6f	-0.030370442
234	0x3cdcb4d3	0.026941692
235	0xbd219bdf	-0.03945529
236	0x3cd914d7	0.026499195
237	0xbd371b8e	-0.044704013
238	0x3d2a0c0e	0.041515402
239	0x3cfc40bf	0.030792592
240	0x3c6d282b	0.014474909
241	0x3cf7f601	0.030268671
242	0x3ceab827	0.028652264
243	0x3c939e1d	0.01801973
244	0xbd5e3e92	-0.05425889
245	0xbc3be475	-0.011468043
246	0x3c69adc3	0.014262619
247	0xbd44b775	-0.04802652
248	0x3d522338	0.05130312
249	0xbccaa952	-0.024738941
250	0xbc5a9448	-0.013341017
251	0xbd481f1d	-0.048857797
252	0x3d481e27	0.04885688
253	0x3d09f999	0.0336853
254	0xbc89e5f4	-0.016833283
255	0x3cc854e2	0.024454538

layer1.bias f4 [6]
0	0x3d67e4a3	0.05661453
1	0xbc1f18aa	-0.00971047
2	0x3d267150	0.040635407
3	0x3cee227c	0.029069178
4	0x3d0c5211	0.034257952
5	0xbd19b8a0	-0.037529588
