drl_deep_project/scripts/our_agent/models/dqn_20250119_221714.pt (torch, 29440 bytes, 6 tensors)

layer1.weight f4 [64, 32]
-0.02998571 -0.030378103 -0.05801577 0.12875943 -0.028030211 -0.20747277 0.07435081 -0.028492328
0.06637495 -0.09551105 0.04079045 0.02410047 -0.09202831 -0.0091756 0.019604519 0.045430284
-0.17373367 -0.071899064 -0.02192344 0.033233713 0.76220876 0.011713842 -0.18233271 -0.0563048
-0.28353253 0.038048577 0.10676829 0.27958092 0.24396938 0.064399414 0.068498895 -0.014997216
0.006961502 0.19817808 0.14221556 0.1311657 -0.009198738 0.07175418 -0.08461193 0.20967793
-0.35998696 -0.036723997 0.051261485 0.09084478 -0.22948088 0.027346252 -0.014960389 0.05132255
-0.5903848 0.08366876 0.029895578 0.09566741 -0.25935596 0.07673316 0.070197836 -0.018925473
0.97172165 0.040638678 0.13048948 0.17244244 0.12396717 0.00825588 -0.0205398 0.11695234
-0.034920804 0.013032398 -0.038575318 0.04787668 -0.010522583 -0.027817992 -0.019888762 0.011177989
0.055008937 -0.0038254533 -0.0066176 0.020770926 -0.0214651 -0.09262569 -0.15605019 0.0037848298
-0.34782273 -0.059556343 0.1114239 0.035042234 0.93931067 -0.04221391 -0.13710542 -0.07043855
-1.0581629 0.026190702 0.13769612 0.3151123 0.07708408 -0.030873004 0.12032935 0.031436622
0.07577842 0.052190084 0.034115724 0.121555336 0.041164905 0.14856875 -0.04603345 -0.031207869
0.04457034 0.049087238 0.07705533 -0.096941665 -0.122085944 0.08612072 0.06470838 -0.03697037
0.0572405 -0.023532962 -0.092531465 0.0067315362 -0.3970226 -0.06774621 -0.060952578 -0.049111642
0.31871313 0.16227056 0.13960841 -0.1367461 0.24207395 0.015080089 0.08357735 0.16037843
-0.014366751 0.21444474 0.064170755 -0.041252956 -0.0047115316 0.0026854868 0.023626965 -0.034755662
-0.30138147 0.005405087 0.12649603 0.011364742 0.075598896 0.048876222 -0.19309537 -0.005427524
-0.12379885 -0.07597662 0.13276742 -0.031103332 0.3408333 0.047250383 -0.005004289 -0.06701642
-0.116751656 0.029672416 0.11558062 0.34412518 0.02637315 0.051509067 0.055800844 0.020946011
0.008439255 -0.10704735 0.016629752 0.16251044 -0.12283598 0.017093718 -0.054022994 0.10531198
-0.44096392 0.08968223 0.16102633 0.023876455 -0.2966402 -0.0899137 0.3927283 -0.016622914
-0.32215407 0.07709225 0.13752922 0.07227962 1.1848718 -0.08409452 -0.012023029 0.0027086816
-0.036179516 -0.031336207 0.115707055 0.25010678 0.16112415 0.048723415 0.13795716 -0.13477443
0.13758641 0.09945584 -0.056684744 -0.036477514 0.052483793 0.065304436 0.038926087 -0.011551952
0.15788695 -0.029572425 -0.14410095 -0.02280237 -0.5619627 0.022550296 0.0647796 0.022805039
-0.6994517 -0.013911433 0.2561525 0.028556041 -0.8931352 0.012360659 0.047268722 0.015896406
0.4433212 0.010767787 -0.037788343 0.12788552 -0.12779434 -0.07775802 0.061415136 0.03652703
0.07760137 0.13457888 0.05396299 0.027492536 0.080821455 0.088658184 0.1581937 0.07132289
0.0839007 0.039173134 0.25249964 -0.08784246 0.18959749 0.0292669 0.052452914 -0.039756224
-0.29337248 0.08357183 0.021349965 -0.038629297 0.1904292 -0.0019368427 0.052061692 0.06282877
-0.0386881 -0.21038806 0.0655354 0.15670767 0.38576815 0.05453547 -0.22603984 -0.0012194755
00000000: 97a4 f5bc 80db f8bc f2a1 6dbd 83d9 033e
00000010: 9d9f e5bc be73 54be 3d45 983d be68 e9bc
00000020: 97ef 873d 4c9b c3bd e313 273d 596e c53c
00000030: 5779 bcbd 4155 16bc a899 a03c 1b15 3a3d
00000040: 3de7 31be d13f 93bd c998 b3bc 1320 083d
00000050: 1d20 433f 6aeb 3f3c 6db5 3abe dd9f 66bd
00000060: 2d2b 91be d3d8 1b3d 55a9 da3d 3b25 8f3e
00000070: 1cd3 793e d7e3 833d 2649 8c3d e2b6 75bc
00000080: 501d e43b 32ef 4a3e f5a0 113e 4d50 063e
00000090: 4eb6 16bc dbf3 923d 0549 adbd d0b5 563e
000000a0: 3650 b8be e76b 16bd 90f7 513d d40c ba3d
000000b0: 09fd 6abe 3f05 e03c 6b1c 75bc 9837 523d
000000c0: 7523 17bf 875a ab3d 92e7 f43c 46ed c33d
000000d0: 4eca 84be 4626 9d3d e2c3 8f3d 9809 9bbc
000000e0: c0c2 783f be74 263d 099f 053e c094 303e
000000f0: 80e2 fd3d ac43 073c 1543 a8bc b584 ef3d
00000100: 1e09 0fbd d785 553c 2701 1ebd 561a 443d
00000110: e966 2cbc 8fe2 e3bc c2ed a2bc e223 373c
00000120: 0d51 613d 75b4 7abb 74d8 d8bb ca27 aa3c
00000130: 94d7 afbc 8ab2 bdbd 9fcb 1fbe e80a 783b
00000140: d215 b2be 5af1 73bd 3732 e43d 7288 0f3d
00000150: aa76 703f 7ee8 2cbd 5d65 0cbe 1642 90bd
00000160: e271 87bf e28d d63c 3600 0d3e 6656 a13e
00000170: 42de 9d3d 62e9 fcbc 3c6f f63d b0c3 003d
00000180: b731 9b3d 45c5 553d eebc 0b3d 01f2 f83d
00000190: 889c 283d 6822 183e 928d 3cbd a5a7 ffbc
000001a0: 648f 363d b30f 493d 2fcf 9d3d 5a89 c6bd
000001b0: 3208 fabd 0f60 b03d d485 843d 3e6e 17bd
000001c0: 0475 6a3d 33c8 c0bc 2381 bdbd 3894 dc3b
000001d0: 8c46 cbbe 86be 8abd 69a9 79bd 4a29 49bd
000001e0: 5e2e a33e 412a 263e 82f5 0e3e 2b07 0cbe
000001f0: 3ce2 773e 7a12 773c 9a2a ab3d 3e3a 243e
00000200: 8562 6bbc 6797 5b3e f56b 833d dcf8 28bd
00000210: 3163 9abb fefe 2f3b 568d c13c f45b 0ebd
00000220: ac4e 9abe 281d b13b 2d88 013e 2f33 3a3c
00000230: 98d3 9a3d 6f32 483d cbba 45be 5fd9 b1bb
00000240: 408a fdbd a199 9bbd 2ff4 073e 6acc febc
00000250: b481 ae3e 9e89 413d 05fb a3bb e83f 89bd
00000260: 7e1b efbd 9113 f33c 88b5 ec3d 2d31 b03e
00000270: 810c d83c 2cfb 523d 6d8f 643d f896 ab3c
00000280: cd44 0a3c a43b dbbd 1e3b 883c 2369 263e
00000290: 6e91 fbbd 2008 8c3c 3747 5dbd cfad d73d
000002a0: 06c6 e1be 51ab b73d 16e4 243e 8e98 c33c
000002b0: 39e1 97be ad24 b8bd af13 c93e c72c 88bc
000002c0: 61f1 a4be 8be2 9d3d 76d4 0c3e 5607 943d
000002d0: e1a9 973f bf39 acbd 3dfc 44bc 2384 313b
000002e0: f930 14bd 655a 00bd d2f7 ec3d ff0d 803e
000002f0: bbfd 243e 3492 473d a444 0d3e 4f02 0abe
00000300: 74e3 0c3e 81af cb3d 432e 68bd 7269 15bd
00000310: 3ff9 563d 55be 853d f670 1f3d 6644 3dbc
00000320: 1ead 213e df41 f2bc 338f 13be 09cc babc
00000330: cadc 0fbf 66bb b83c 2bab 843d a2d1 ba3c
00000340: 440f 33bf c7ec 63bc 6c26 833e 5cee e93c
00000350: 82a4 64bf 5d84 4a3c d99c 413d 2e39 823c
00000360: fffa e23e 5f6b 303c f3c7 1abd 6cf4 023e
00000370: 85dc 02be 993f 9fbd 708e 7b3d 5e9d 153d
00000380: 78ed 9e3d 0ccf 093e 4c08 5d3d 0738 e13c
00000390: b885 a53d 6c92 b53d 87fd 213e bc11 923d
000003a0: 21d4 ab3d 0274 203d a247 813e bfe6 b3bd
000003b0: d825 423e 23c1 ef3c ded8 563d 6cd7 22bd
000003c0: eb34 96be b527 ab3d 1fe6 ae3c c139 1ebd
000003d0: dfff 423e a8dd fdba a43e 553d 5fac 803d
000003e0: 6a77 1ebd f86f 57be 6c37 863d fa77 203e
000003f0: 6783 c53e 9660 5f3d fd76 67be cfd6 9fba

layer1.bias f4 [64]
0.04183631 -0.0031865882 0.011945212 0.16742179 0.16740145 0.15273604 0.1367233 0.2129155
0.1352843 -0.057259697 0.26088962 0.18678522 0.035862762 0.04622946 -0.1130572 0.30048588
0.16828333 0.015657965 0.034516346 -0.0026574165 0.1530541 -0.023890369 0.005030789 0.11048533
-0.014972496 0.117655866 -0.09817294 0.12912735 -0.008222783 0.05018545 0.022235645 0.11934018
-0.03822694 0.21900162 0.033103578 0.116352946 -0.0014702559 0.03357371 0.17834254 0.04937685
-0.0076321876 0.1158628 0.06080373 0.026880004 0.19936538 0.13494654 -0.009056804 0.14644662
0.0059161056 -0.00064122997 0.078802004 0.16732147 0.09769381 0.059931297 0.18833816 0.09337219
0.2571393 0.08998889 0.040023528 0.2187357 0.10335303 -0.108692005 0.059175372 0.07815374
00000000: 8d5c 2b3d 14d6 50bb dab5 433c 9e70 2b3e
00000010: 496b 2b3e d666 1c3e 3101 0c3e 8506 5a3e
00000020: f887 0a3e 2589 6abd 5393 853e a044 3f3e
00000030: d5e4 123d 1a5b 3d3d 898a e7bd 49d9 993e
00000040: 7752 2c3e 2245 803c 0361 0d3d 0d28 2ebb
00000050: 37ba 1c3e bcb5 c3bc 51d9 a43b 2246 e23d
00000060: 334f 75bc 8ff5 f03d e50e c9bd f639 043e
00000070: dab8 06bc 428f 4d3d 8727 b63c a068 f43d
00000080: da93 1cbd f641 603e 9e97 073d 744a ee3d
00000090: 9ab5 c0ba 9684 093d 6d9f 363e 613f 4a3d
000000a0: 6e17 fabb 7a49 ed3d 550d 793d 7433 dc3c
000000b0: 7026 4c3e 6d2f 0a3e fd62 14bc 1af6 153e
000000c0: e4db c13b 3718 28ba f262 a13d 5256 2b3e
000000d0: b113 c83d 857a 753d b8db 403e eb39 bf3d
000000e0: c3a7 833e 184c b83d b6ef 233d 40fc 5f3e
000000f0: c1aa d33d ea99 debd e061 723d 110f a03d

layer2.weight f4 [64, 64]
0.19802895 0.14707293 0.95098716 -0.11660752 0.16833277 0.1675505 -0.076362655 0.14437214
0.23104152 0.105731405 0.05047458 0.07553365 0.6802752 0.110457696 -0.1299261 0.10506587
0.091283225 0.42610905 -0.21725562 0.10697158 0.027507856 0.1554465 0.19273002 -0.100565396
-0.1566424 0.033873253 0.04268598 0.12329841 0.07866474 0.2479646 0.15647133 -0.37454432
0.06642008 -0.21566145 0.96761584 0.11775665 0.9280324 0.039171744 -0.045487776 -0.14108203
0.1507708 0.028163578 0.3737775 0.09913336 0.14322458 -0.08609045 0.041359156 -0.15468171
-0.14945045 0.21483839 0.58038956 0.08954354 0.15037161 0.14914861 -0.050637934 0.121429674
0.15257595 -0.01259131 0.102651566 -0.13119376 0.19643171 0.6064377 0.041439362 -0.18707271
0.31859478 0.12922254 0.97795457 -0.05443621 0.040146794 0.25425422 -0.17093624 0.21707305
0.043378044 0.060497392 -0.017861776 0.048349045 0.47807834 0.100151055 -0.20174745 0.015417496
0.07886518 0.19777972 -0.20132805 0.01866821 0.04474052 0.062388424 0.17238535 0.11956328
-0.09674638 -0.028728424 -0.007049607 0.06061736 0.07200827 0.23576601 0.15237422 -0.10880095
-0.08520048 -0.08290722 0.92948586 0.16402313 0.64746153 0.061338376 -0.05750005 -0.1911592
0.26964727 0.11419609 0.20677225 0.07665834 0.017527053 0.030405909 0.11047689 -0.12322151
-0.054476008 0.229458 0.5332236 0.06238944 0.053451847 0.07066833 -0.04841112 0.11612895
0.18809922 -0.035039343 0.06950436 -0.13009107 0.090120375 0.43132868 -0.061855145 0.063576855
0.22297269 0.13597612 0.96592146 -0.0486573 0.19615072 0.28082502 -0.08855711 0.07527918
0.17799276 0.11632185 -0.03695117 0.10217801 0.5779449 0.13805564 -0.18601811 0.1588198
0.14804254 0.4105684 -0.2262107 0.065753534 0.030006707 0.1389402 0.119808644 0.05201848
-0.26047283 -0.05451878 -0.021357588 0.17010795 0.120346665 0.31825295 0.20306665 -0.30756277
0.038857844 -0.29219672 1.2776097 0.20826325 0.7979343 0.14992803 -0.09403116 -0.1804777
0.20107874 0.15906331 0.34945357 0.15051506 0.08836205 0.0053760996 0.08400444 -0.19687021
-0.1074644 0.362465 0.7353958 0.15188897 0.1614286 0.20856138 -0.0913119 0.12961791
0.20323713 0.036444582 0.12647185 -0.18802299 0.21494617 0.6109792 -0.12823585 -0.10687772
-0.0015437653 -0.026644979 0.007542334 -0.023220075 -0.04205262 0.019134598 0.060936976 -0.0066980883
-0.06255033 -0.031700503 -0.044745956 0.012729092 -0.0195396 0.00538182 -0.039384764 0.022205867
-0.015576279 0.007087826 0.012162881 0.02370252 -0.009036781 0.05660566 0.047844175 0.06486096
-0.060787454 -0.056166135 -0.025789395 0.05765734 -0.009568873 -0.027984077 -0.044799175 0.028466994
-0.044281613 -0.033459775 0.04951434 -0.002111521 0.0524322 0.010387506 0.022381986 -0.004075227
-0.056342226 0.024673954 -0.05267217 -0.016582454 -0.047059216 -0.048282593 -0.017505063 -0.057968367
0.046182014 0.0562066 0.0012961217 -0.049029034 0.0071364315 0.033267923 -0.021058053 0.0022772467
0.019434216 0.0035262858 -0.06846084 0.020730643 -0.032951895 0.012814457 0.0406076 -0.05825829
00000000: 1ac8 4a3e 499a 163e e573 733f eccf eebd
00000010: 6d5f 2c3e 5c92 2b3e 0664 9cbd 4ad6 133e
00000020: 2696 6c3e b589 d83d 6fbe 4e3d 63b1 9a3d
00000030: 8426 2e3f a537 e23d 590b 05be c62c d73d
00000040: b3f2 ba3d f72a da3e 4278 5ebe ea13 db3d
00000050: 2858 e13c 5e2d 1f3e 055b 453e 3bf5 cdbd
00000060: de66 20be aebe 0a3d 7fd7 2e3d e083 fc3d
00000070: fb1a a13d 6fea 7d3e 053a 203e 46c4 bfbe
00000080: 4007 883d 5bd6 5cbe acb5 773f 662a f13d
00000090: 8893 6d3f 8d72 203d 6451 3abd cf77 10be
000000a0: a963 1a3e 4eb7 e63c c45f bf3e 6e06 cb3d
000000b0: 77a9 123e 3150 b0bd 3868 293d e264 1ebe
000000c0: 8a09 19be 98fe 5b3e 6994 143f 9a62 b73d
000000d0: 04fb 193e 6aba 183e b969 4fbd 1fb0 f83d
000000e0: df3c 1c3e c84b 4ebc fc3a d23d a857 06be
000000f0: 6525 493e 803f 1b3f 52bc 293d fd8f 3fbe
00000100: db1e a33e ea52 043e 3b5b 7a3f 81f8 5ebd
00000110: f770 243d 9c2d 823e e909 2fbe 6648 5e3e
00000120: 2dad 313d 1dcc 773d dc52 92bc a609 463d
00000130: afc6 f43e ff1b cd3d e296 4ebe aa99 7c3c
00000140: 1184 a13d c486 4a3e f128 4ebe 13ee 983c
00000150: d641 373d 018b 7f3d c985 303e 98dd f43d
00000160: f722 c6bd df57 ebbc 6400 e7bb e949 783d
00000170: 1279 933d a56c 713e fd07 1c3e 08d3 debd
00000180: 977d aebd 43cb a9bd c9f2 6d3f aef5 273e
00000190: 0ac0 253f f33d 7b3d 2c85 6bbd 3dbf 43be
000001a0: 350f 8a3e a4df e93d 1bbc 533e 0cff 9c3d
000001b0: e594 8f3c d015 f93c b541 e23d 8f5b fcbd
000001c0: 3c22 5fbd 0af7 6a3e 5881 083f 128c 7f3d
000001d0: 53f0 5a3d 8fba 903d bd4a 46bd 04d5 ed3d
000001e0: 159d 403e 6a85 0fbd 4d58 8e3d 9836 05be
000001f0: 0891 b83d 1dd7 dc3e d25b 7dbd 9534 823d
00000200: f452 643e 533d 0b3e a146 773f e14c 47bd
00000210: bcdb 483e 4cc8 8f3e 6e5d b5bd f92b 9a3d
00000220: bc43 363e 263a ee3d 1c5a 17bd b442 d13d
00000230: 32f4 133f 755e 0d3e 887b 3ebe a8a1 223e
00000240: 7798 173e 0536 d23e c7a3 67be caa9 863d
00000250: a0d0 f53c 5746 0e3e 3c5e f53d 5411 553d
00000260: b25c 85be 164f 5fbd 1cf6 aebc c730 2e3e
00000270: 5078 f63d 0df2 a23e b4f0 4f3e de78 9dbe
00000280: 6729 1f3d cf9a 95be b788 a33f f642 553e
00000290: 6c45 4c3f bc86 193e 6993 c0bd 25cf 38be
000002a0: 96e7 4d3e 7ee1 223e 94eb b23e 9f20 1a3e
000002b0: 2af7 b43d fe29 b03b 850a ac3d 5898 49be
000002c0: 4c16 dcbd 0395 b93e e642 3c3f c888 1b3e
000002d0: 8a4d 253e 1d91 553e bc01 bbbd 8fba 043e
000002e0: 651d 503e ea46 153d d681 013e 1989 40be
000002f0: d91a 5c3e 2269 1c3f 4250 03be b5e2 dabd
00000300: 2b58 caba 9246 dabc af25 f73b 0738 bebc
00000310: 5e3f 2cbd 29c0 9c3c 0d99 793d a37b dbbb
00000320: 631a 80bd 63d8 01bd 8947 37bd ae8d 503c
00000330: 8311 a0bc fa59 b03b eb51 21bd 14e9 b53c
00000340: a633 7fbc fe40 e83b d246 473c ca2b c23c
00000350: 020f 14bc 56db 673d 41f8 433d d3d5 843d
00000360: 44fc 78bd 760e 66bd 4844 d3bc 1a2a 6c3d
00000370: c3c6 1cbc dd3e e5bc 577f 37bd 9d33 e93c
00000380: a360 35bd 1e0d 09bd 8ccf 4a3d 7261 0abb
00000390: 26c3 563d 5c30 2a3c 6d5a b73c 7b89 85bb
000003a0: 1bc7 66bd 0821 ca3c c6be 57bd edd7 87bc
000003b0: 2ac1 40bd f8c3 45bd c766 8fbc 3d70 6dbd
000003c0: 5a29 3d3d e438 663d a1e2 a93a abd2 48bd
000003d0: bad8 e93b f243 083d f081 acbc dc3d 153b
000003e0: 8134 9f3c 4219 673b 3235 8cbd 4fd3 a93c
000003f0: 91f8 06bd baf3 513c 2854 263d 3fa0 6ebd

layer2.bias f4 [64]
0.039226424 0.01855516 -0.004253455 -0.066808365 -0.039749585 -0.05443832 0.039458446 0.0923897
0.16890343 0.01628323 -0.26196408 0.11522528 0.07492715 -0.060223687 -0.16667281 0.019529974
0.045519732 -0.04334153 0.1357467 0.15927477 -0.030620296 0.12227969 -0.090728916 0.047090724
0.14847653 -0.062300365 0.12423761 0.11073262 -0.042064443 -0.026963467 0.06374977 0.07771048
0.042789925 0.10337237 -0.017095715 0.00071861834 0.005913809 -0.050826862 -0.057224534 -0.056603197
-0.034131877 0.028247112 0.15970042 0.06745391 0.14052975 0.12160587 0.11299127 0.12269876
0.21406163 0.03664875 0.06103196 0.016564064 0.051384017 0.066111095 0.04079031 -0.019582603
-0.011683121 0.0017319071 -0.034312475 -0.008151696 0.10544275 0.067547746 0.014706638 0.102000065
00000000: e3ab 203d fe00 983c 9160 8bbb d3d2 88bd
00000010: 76d0 22bd b7fa 5ebd 2e9f 213d d036 bd3d
00000020: 05f5 2c3e 6964 853c 2820 86be 3bfb eb3d
00000030: 6873 993d 1dad 76bd 47ac 2abe 53fd 9f3c
00000040: e672 3a3d e386 31bd 2f01 0b3e ed18 233e
00000050: 6ad7 fabc c66d fa3d 15d0 b9bd 34e2 403d
00000060: 3b0a 183e ab2e 7fbd 4a70 fe3d c9c7 e23d
00000070: c44b 2cbd 7de2 dcbc 3d8f 823d ac26 9f3d
00000080: 7d44 2f3d e5b4 d33d 500c 8cbc a961 3c3a
00000090: a0c8 c13b d42f 50bd 4664 6abd c1d8 67bd
000000a0: decd 0bbd 7d66 e73c 8288 233e 4725 8a3d
000000b0: 08e7 0f3e 800c f93d f867 e73d 7d49 fb3d
000000c0: f932 5b3e 001d 163d a6fc 793d 5cb1 873c
000000d0: 0c78 523d 4165 873d bd13 273d b26b a0bc
000000e0: 906a 3fbc 2901 e33a 3d8b 0cbd b18e 05bc
000000f0: 5ef2 d73d 7956 8a3d 1cf4 703c 69e5 d03d

layer3.weight f4 [6, 64]
0.17858778 0.15922312 0.17034157 0.025357625 -0.06698113 0.23204991 0.008798249 -0.04503997
-0.14470457 0.06068327 -1.2385492 -0.16898035 0.10655184 -0.06320618 0.827072 -0.17844948
-0.16699046 -0.19330335 -0.23340213 -0.17137572 0.080721095 -0.10200122 0.20677921 0.1518765
-0.24463618 0.02075086 -0.17872496 -0.33821535 0.004491604 0.5295404 0.015169057 -0.19085966
-0.022359496 -0.17737675 -0.15754643 0.18972291 -0.12326778 -0.022518277 0.19564113 -0.09619635
0.11673687 0.08843953 -0.68173987 -0.102809355 -0.28111246 -0.07937745 0.111522354 -0.26111987
-0.24940562 0.15093084 0.15982571 0.14811924 -0.2638407 0.2800315 0.20922047 0.15770824
-0.15837231 -0.059584174 -0.36355233 0.06478826 0.17615344 -0.6464087 -0.06304418 -0.51748997
0.2222877 0.16895472 0.1544707 0.037757196 -0.010512925 0.23801117 -0.4904685 -0.0036974575
-0.19754739 0.010291161 0.28110906 -0.30249065 0.2940444 -0.004881577 -0.59635764 -0.07660546
0.650481 0.39495057 -0.332148 -0.22197762 0.14913592 -0.07230577 0.2176391 0.18445835
-0.2436948 0.2060522 -0.18325955 -0.03656435 0.044087246 0.42531893 0.62999636 -0.26274338
0.15262061 0.23746473 -0.6352991 0.23043537 -0.26623526 -0.25952306 0.49149168 -0.084552474
0.13445345 0.22044191 -0.66304296 -0.7615189 -0.12824808 -0.32808203 -0.34442398 -0.46381682
-0.09650498 0.19429028 0.10368395 0.17025746 0.15512185 -0.35323685 0.04336508 0.11868104
-0.39347303 0.13761747 0.018897347 0.3085778 0.10930299 -0.44752923 0.43814835 -0.1066585
0.08967205 0.17026566 0.13703662 -0.035153788 -0.06083264 -0.05929764 -0.13310967 -0.18946438
-0.13354315 -0.027926158 -0.61487013 -0.27967274 -0.06544636 0.008206466 0.56216455 -0.62627435
-0.5421494 -0.09756744 -0.11507955 -0.18313158 0.12769435 -0.12421743 0.19889057 0.06519081
-0.3096989 0.24617553 -0.16849183 -0.08489169 -0.05785458 -0.26847497 0.104299724 -0.042895246
0.14421135 -0.27253762 0.2664755 0.12606211 -0.30346367 -0.015685868 0.2530869 0.1699861
-0.092720814 0.092272684 -0.5640147 -0.0076374025 -0.18258889 -0.2447129 0.24325514 -0.35701782
-0.15048544 -0.30607128 -0.013667765 0.15279481 0.1192088 -0.3582007 0.119361095 0.24511462
-0.024863629 0.038945418 -0.4790026 0.0062231477 -0.10422961 -0.14857039 0.044790424 -0.09756691
0.36961436 0.47183806 0.43316296 0.04580481 0.023791142 0.43471023 0.22131202 -0.11346955
-0.17781433 -0.017832628 0.06961285 -0.8949921 0.39844164 -0.06319806 -0.63567525 0.22097182
1.0820514 0.8329987 -0.36588833 -0.04963057 0.39227092 -0.29687408 0.2453236 -0.4200087
-0.25069097 0.037543777 -0.248996 -0.50006765 -0.05667846 0.80978817 -1.0151724 -0.26763874
0.24827525 -0.68256015 0.22394858 0.34186518 -0.14152856 0.2160282 -0.113945626 0.19563632
-0.11329631 0.4365553 -0.8595581 -0.7372877 -0.043942884 -0.19930683 -0.54450315 -0.5671609
-0.2445255 0.4076774 0.061815776 0.18464014 -0.056637865 0.39837104 0.21457179 0.35133585
-0.63606894 0.3609034 0.087782435 0.3681067 0.42343792 0.018641751 0.4893888 -0.2360415
00000000: b7df 363e 630b 233e 056e 2e3e cbba cf3c
00000010: 672d 89bd 7e9e 6d3e 8826 103c d57b 38bd
00000020: 6f2d 14be 058f 783d c888 9ebf 2f09 2dbe
00000030: da37 da3d 3e72 81bd feba 533f 76bb 36be
00000040: 8cff 2abe 50f1 45be f800 6fbe 1e7d 2fbe
00000050: 1a51 a53d 04e6 d0bd eebd 533e 8385 1b3e
00000060: e881 7abe b5fd a93c ad03 37be 902a adbe
00000070: 4e2e 933b f68f 073f a387 783c b770 43be
00000080: 432b b7bc 40a2 35be da53 21be b946 423e
00000090: d173 fcbd 4078 b8bc 2656 483e 9802 c5bd
000000a0: bd13 ef3d c91f b53d 8186 2ebf b68d d2bd
000000b0: f9ed 8fbe a590 a2bd d565 e43d 81b1 85be
000000c0: 3064 7fbe 9d8d 1a3e 5aa9 233e 92ac 173e
000000d0: 2116 87be 4a60 8f3e e43d 563e 457e 213e
000000e0: 5a2c 22be 890e 74bd 8823 babe b5af 843d
000000f0: 9161 343e 0a7b 25bf 4f1d 81bd 397a 04bf
00000100: 639f 633e 7702 2d3e 912d 1e3e 4aa7 1a3d
00000110: 673e 2cbc 33b9 733e b01e fbbe 0b51 72bb
00000120: dd49 4abe 429c 283c 87ed 8f3e 0ee0 9abe
00000130: fd8c 963e a3f5 9fbb e5aa 18bf 53e3 9cbd
00000140: ec85 263f f636 ca3e 4d0f aabe 1a4e 63be
00000150: 16b7 183e 0c15 94bd c9dc 5e3e a6e2 3c3e
00000160: 218b 79be 59ff 523e 64a8 3bbe 80c4 15bd
00000170: d494 343d 67c3 d93e 7147 213f 4d86 86be
00000180: 9448 1c3e f429 733e f6a2 22bf 40f7 6b3e
00000190: fd4f 88be 35e0 84be cca4 fb3e d929 adbd
000001a0: 2aae 093e 86bb 613e 2fbd 29bf e7f2 42bf
000001b0: 7753 03be 5efa a7be 5758 b0be 6679 edbe
000001c0: 67a4 c5bd 08f4 463e 4058 d43d f957 2e3e
000001d0: 43d8 1e3e 76db b4be 959f 313d 0c0f f33d
000001e0: 4c75 c9be 98eb 0c3e 9cce 9a3c e9fd 9d3e
000001f0: 3fda df3d 8d22 e5be fb54 e03e c66f dabd
00000200: fba5 b73d 1f5a 2e3e 5453 0c3e 6bfd 0fbd
00000210: a52b 79bd 15e2 72bd e74d 08be f302 42be
00000220: 89bf 08be 66c5 e4bc 2168 1dbf 4431 8fbe
00000230: be08 86bd 6a74 063c 04ea 0f3f 8453 20bf
00000240: 4eca 0abf 70d1 c7bd d4ae ebbd d886 3bbe
00000250: 4fc2 023e b565 febd f8a9 4b3e c282 853d
00000260: db90 9ebe 7015 7c3e 1f89 2cbe b2db adbd
00000270: edf8 6cbd 8d75 89be 189b d53d edb2 2fbd
00000280: 24ac 133e 0d8a 8bbe 7a6f 883e 6d16 013e
00000290: 975f 9bbe a67f 80bc 9b94 813e d610 2e3e
000002a0: 69e4 bdbd 76f9 bc3d 4463 10bf 2d43 fabb
000002b0: 95f8 3abe 0596 7abe e017 793e 0acb b6be
000002c0: db18 1abe 60b5 9cbe c3ee 5fbc 3e76 1c3e
000002d0: be23 f43d 1566 b7be 9773 f43d 54ff 7a3e
000002e0: cfae cbbc 3b85 1f3d d43f f5be 8ceb cb3b
000002f0: 5576 d5bd d622 18be 2a76 373d 29d1 c7bd
00000300: 183e bd3e c294 f13e 89c7 dd3e d39d 3b3d
00000310: a4e5 c23c 5792 de3e 9e9f 623e b962 e8bd
00000320: f614 36be bb15 92bc 2f91 8e3d 341e 65bf
00000330: 8b00 cc3e fc6d 81bd 9dbb 22bf 7046 623e
00000340: a980 8a3f 673f 553f b755 bbbe 6d49 4bbd
00000350: bcd7 c83e e1ff 97be 1c36 7b3e 610b d7be
00000360: 915a 80be 81c7 193d cff8 7ebe 6f04 00bf
00000370: ac27 68bd 474e 4f3f 2bf1 81bf f207 89be
00000380: de3b 7e3e 43bc 2ebf c752 653e f408 af3e
00000390: ddec 10be 7f36 5d3e 535c e9bd e354 483e
000003a0: e507 e8bd 2d84 df3e 000c 5cbf e3be 3cbf
000003b0: 74fd 33bd 1717 4cbe 8f64 0bbf 7531 11bf
000003c0: e564 7abe 18bb d03e 8a32 7d3d 4e12 3d3e
000003d0: 1bfd 67bd 4af7 cb3e b5b8 5b3e 4be2 b33e
000003e0: 6ad5 22bf 55c8 b83e 47c7 b33d 7b78 bc3e
000003f0: dbcc d83e 96b6 983c 2b91 fa3e ddb4 71be

layer3.bias f4 [6]
-0.06566991 -0.04544192 -0.07355005 0.023014266 0.052231517 -0.08928626
00000000: f27d 86bd 4f21 3abd 69a1 96bd 6a88 bc3c
00000010: b7f0 553d b7db b6bd
