drl_deep_project/scripts/our_agent/models/dqn_20250121_170021.pt (torch, 56320 bytes, 6 tensors)

layer1.weight f4 [128, 36]
0	0xbda322af	-0.079656
1	0xbca9b69d	-0.02071696
2	0x3dccfc48	0.10009056
3	0xbe1fbfa4	-0.15600449
4	0x3e0c4727	0.13699017
5	0xbdd5260c	-0.104076475
6	0x3ca4eeec	0.020133458
7	0xbdbbb41b	-0.09165212
8	0xbce83da2	-0.028349701
9	0x3dad08d2	0.08448948
10	0x3dc4ad9a	0.09603424
11	0xbd1df4ec	-0.038563654
12	0xbe243a7e	-0.16037938
13	0x3d237ff0	0.039916933
14	0x3d01d41c	0.031696424
15	0x3da2c1a6	0.07947092
16	0x3df74e5e	0.12075494
17	0xbd372a62	-0.044718154
18	0xbd933353	-0.07187524
19	0xbdb6281e	-0.088943705
20	0xbd383e66	-0.044981383
21	0xbd0f6844	-0.035011545
22	0x3dc31956	0.09526317
23	0xbd5fbdca	-0.054624356
24	0x3e1b2409	0.15150465
25	0x3ddecc3e	0.108788
26	0x3e2018c5	0.15634449
27	0xbc9ec71c	-0.019382052
28	0x3ca03448	0.01955618
29	0xbcc917a4	-0.024547406
30	0x3e175858	0.14779794
31	0xbe0e4277	-0.13892542
32	0xbceeefff	-0.029167173
33	0xbc03662c	-0.008019965
34	0xbde02db7	-0.109462194
35	0xbe18ef14	-0.14934951
36	0x3d8c2a2f	0.068439834
37	0x3e185b30	0.14878535
38	0x3df9b5a2	0.12192847
39	0x3e07c99e	0.13260505
40	0xbdf6c76b	-0.12049755
41	0xbe195d75	-0.14977057
42	0xbdb3dad3	-0.08781972
43	0xbe0d46de	-0.13796565
44	0x3bdcdf9c	0.0067405235
45	0xbd98d2c8	-0.07462078
46	0x3d9279ca	0.07152136
47	0x3dcc892e	0.099871024
48	0xbe0a8efc	-0.13531107
49	0x3daf5d0e	0.08562671
50	0x3c2312b4	0.00995319
51	0xbdcd22a3	-0.10016372
52	0x3e174c11	0.14775111
53	0x3e2419ca	0.16025463
54	0xbd67b234	-0.056566432
55	0x3bccff88	0.0062560476
56	0x3d06c4d0	0.03290254
57	0x3c160378	0.0091561
58	0xbe237ecc	-0.15966338
59	0xbcd3aed0	-0.025840193
60	0xbd521d58	-0.051297516
61	0xbdaa1d14	-0.083063275
62	0xbdd857e0	-0.10563636
63	0x3d2c95b0	0.04213494
64	0x3d8be7fb	0.06831356
65	0xba9b15fd	-0.0011832115
66	0xbd43167d	-0.04762887
67	0x3e1d6b38	0.15372932
68	0xbe1c5629	-0.15267242
69	0xbd4040d3	-0.04693682
70	0xbceead3b	-0.029135337
71	0xbd953ead	-0.07287345
72	0xbd882365	-0.06647376
73	0xbc0b9ad5	-0.008520802
74	0x3e2501d8	0.16113985
75	0xbcea8bb5	-0.02863107
76	0x3d74d780	0.05977583
77	0x3cd991db	0.026558807
78	0x3dd40636	0.10352747
79	0xbca6faac	-0.020383202
80	0x3d66999c	0.056298837
81	0x3e23c417	0.15992771
82	0xbc917bf8	-0.017759308
83	0xbdbaeaee	-0.091268405
84	0xbcb2a370	-0.021806449
85	0x3d1f9864	0.03896369
86	0xbe241e4f	-0.16027187
87	0x3d75eb00	0.060038567
88	0xbc160c68	-0.009158231
89	0xbddd6ae8	-0.108114064
90	0xbe18f6c3	-0.14937882
91	0xbe071aa6	-0.1319376
92	0xbd35c186	-0.04437401
93	0x3cff0ae4	0.031133123
94	0x3e1099d9	0.14121188
95	0x3a63f4f4	0.00086958637
96	0x3c04656c	0.0080808215
97	0x3da22e2c	0.07918963
98	0x3c1e2794	0.009652991
99	0xbda01aba	-0.07817598
100	0xbd055364	-0.03255023
101	0x3da0f377	0.07858937
102	0x3e1c664b	0.15273397
103	0x3d2e229b	0.04251347
104	0x3d2f17e6	0.0427474
105	0xbce9ad28	-0.02852495
106	0x3d1c377b	0.038138848
107	0xbbdf59c2	-0.00681612
108	0xbd92e5c0	-0.071727276
109	0x3d8c17d5	0.06840483
110	0xbdb3144e	-0.08744107
111	0x3e130852	0.14358643
112	0xbc20cad4	-0.009813983
113	0xbe14b5a0	-0.1452241
114	0x3e212b71	0.15739228
115	0xbd43d2b8	-0.04780838
116	0x3e0acfc1	0.13555814
117	0xbd393de0	-0.045225024
118	0x3bda2848	0.006657634
119	0x3d83774a	0.06419237
120	0x3cb512a8	0.022103623
121	0x3c6a4ad0	0.014300063
122	0x3de08726	0.109632775
123	0x3dfae282	0.12250234
124	0x3d14b9c4	0.036309972
125	0x3de35949	0.11101014
126	0x3e021b15	0.12705643
127	0xbe1e102a	-0.15435854
128	0xbd14c74c	-0.036322877
129	0xbe0cefe8	-0.13763392
130	0xbd7e05a2	-0.06201709
131	0x3e076fa5	0.13226183
132	0xbcae64b0	-0.021288246
133	0xbde0cf0f	-0.10976993
134	0xbe1e5b20	-0.15464449
135	0x3dcec78a	0.10096653
136	0xbda3a316	-0.079900905
137	0x3d8c0de5	0.06838588
138	0xbe27274d	-0.16323586
139	0xbd835e13	-0.064144276
140	0x3c6c1358	0.014408909
141	0x3dbdaa5b	0.09261008
142	0x3de5e909	0.112260886
143	0xbcc2c0d6	-0.023773592
144	0x3d15e3dc	0.036594257
145	0xbda24344	-0.07922986
146	0x3de8714c	0.11349735
147	0xbd992f97	-0.0747978
148	0xbbdbadf4	-0.0067040864
149	0x3dd3a447	0.10334068
150	0xba05f32c	-0.0005109783
151	0x3db5e93a	0.08882375
152	0x3e284692	0.1643317
153	0x3a928bf8	0.001118063
154	0xbd6217c0	-0.05519843
155	0xbc52d498	-0.012868069
156	0xbd7c6892	-0.061623164
157	0xbe24c548	-0.16090882
158	0x3ddfe882	0.10933019
159	0x3e270369	0.16309895
160	0x3e21b531	0.15791775
161	0xbdba18d9	-0.090867706
162	0x3dae235a	0.085028365
163	0xbd49011c	-0.049073324
164	0xbe2aa14a	-0.1666309
165	0xbdaeb393	-0.08530345
166	0x3e0d60b7	0.13806425
167	0xbd3f5d9c	-0.046720132
168	0xbdf6cd28	-0.12050849
169	0x3d111e94	0.035429552
170	0x3da61cc2	0.08110954
171	0x3bfe0dac	0.0077530947
172	0xbd892c97	-0.06697958
173	0xbcf33584	-0.029688604
174	0x3cdff11c	0.02733665
175	0x3e18fc4f	0.14939998
176	0x3e18ac28	0.14909422
177	0xbda98fc7	-0.082793765
178	0xbe10e2ee	-0.14149067
179	0xbd603c10	-0.05474478
180	0xbe11ec55	-0.1425031
181	0x3d255542	0.04036451
182	0xbe1c58d2	-0.15268257
183	0xbda31b1f	-0.07964157
184	0xbdf92a1f	-0.12166237
185	0x3db54393	0.088507794
186	0xbdc55c3a	-0.096367314
187	0x3c02bdbc	0.0079798065
188	0x3e1d0d8b	0.15337197
189	0xbe2a3860	-0.16623068
190	0x3e170071	0.14746262
191	0x3e010525	0.12599619
192	0x3c83fdb4	0.016112186
193	0x3de6eece	0.11276017
194	0x3d954310	0.07288182
195	0xbcecb238	-0.028893575
196	0xbc134aa8	-0.008989967
197	0xbc8d6725	-0.017261097
198	0xbde5272f	-0.11189114
199	0xbde2ffba	-0.11083932
200	0xbddfefec	-0.10934433
201	0x3dcfd236	0.101475164
202	0xbd8eb0ec	-0.06967339
203	0x3d51d318	0.051226705
204	0x3dc7726a	0.097386196
205	0x3e24693f	0.16055773
206	0xbd8022ac	-0.06256613
207	0x3e09084d	0.13382073
208	0x3d9647c7	0.07337909
209	0xbd5dcf5e	-0.05415284
210	0x3cb4ddf1	0.022078486
211	0x3d2f4c3d	0.042797316
212	0xbe27c38f	-0.16383193
213	0x3e2b07c7	0.16702186
214	0x3e130d23	0.1436048
215	0xbd233d16	-0.039853178
216	0xbd5becdb	-0.05369268
217	0x3dcc41e6	0.09973507
218	0x3e03d2a3	0.1287332
219	0xbdebb210	-0.11508572
220	0xbdc7ef87	-0.09762483
221	0xbdc08b2f	-0.09401547
222	0xbe1ed49f	-0.15510796
223	0x3e0d6a03	0.13809972
224	0x3e06cd38	0.13164222
225	0x3d84a452	0.06476654
226	0xbd6b0f20	-0.05738747
227	0xbe026c7e	-0.12736699
228	0x3d6df450	0.058094323
229	0x3d407f98	0.046996683
230	0xbc61a774	-0.013772834
231	0x3c40ed2c	0.011775296
232	0xbe1854c4	-0.14876086
233	0xbd7112ff	-0.058856007
234	0xbc222a14	-0.0098977275
235	0xbe0de130	-0.13855433
236	0x3cd32ae8	0.025777295
237	0xbda0ef5f	-0.078581564
238	0xbd5068d8	-0.050881237
239	0xbd4e1444	-0.050312296
240	0x3db3fb02	0.0878811
241	0xbd98e766	-0.07466011
242	0x3dec35da	0.11533709
243	0xbe01a074	-0.12658864
244	0x3e0ae93b	0.13565533
245	0xbe27c14e	-0.16382334
246	0x3cc2c5b8	0.02377592
247	0x3dc06a61	0.0939529
248	0xbda255c7	-0.07926517
249	0xbd67bd89	-0.05657724
250	0x3d447d1a	0.04797087
251	0xbd7f7825	-0.062370438
252	0x3d81cf96	0.06338422
253	0x3d67c03c	0.056579813
254	0x3d79bd03	0.06097127
255	0x3de5a310	0.11212742

layer1.bias f4 [128]
0	0x3d99e2fe	0.075139984
1	0x3c534bec	0.012896519
2	0xbd5d44c0	-0.054020643
3	0x3d7bbdab	0.06146018
4	0x3b24c542	0.002514199
5	0xbcbf53a4	-0.023355313
6	0x3d6e51c2	0.05818344
7	0xbdd862bb	-0.10565706
8	0xbe13568a	-0.14388481
9	0x3e19c347	0.15015899
10	0xbe0d26ff	-0.13784407
11	0x3dda32a4	0.1065419
12	0x3db7687e	0.08955477
13	0x3dc7019a	0.09717102
14	0xbddd1f52	-0.107969895
15	0xbe0aaeb0	-0.135432
16	0xbe072fbc	-0.13201803
17	0x3d83b658	0.06431264
18	0xbcd71c6a	-0.026258666
19	0xbda46f98	-0.08029097
20	0xbdafc639	-0.0858273
21	0x3de5f3f2	0.112281695
22	0xbe101b7d	-0.14072986
23	0xbdb99f3f	-0.09063577
24	0xbd85dea8	-0.06536609
25	0xba7b18b5	-0.0009578572
26	0xbc5f3a91	-0.013624803
27	0x3e1dbb48	0.15403473
28	0x3cb1baa7	0.021695448
29	0xbbc1fdf8	-0.005920168
30	0xbd8a5dc7	-0.06756168
31	0xbd2dffa5	-0.04248013
32	0xbe019047	-0.12652694
33	0x3d790832	0.06079883
34	0x3d729cd6	0.0592316
35	0xbe0ebde4	-0.13939625
36	0x3e205e52	0.1566098
37	0x3d74f881	0.059807304
38	0xbddb5de0	-0.107112646
39	0x3dce98b6	0.10087721
40	0x3d93a2c8	0.072087824
41	0x3d26c08f	0.040710982
42	0x3d9e08eb	0.07716545
43	0x3ce97c34	0.028501607
44	0x3df22e8f	0.118252866
45	0x3e16d20a	0.14728561
46	0xbdf9db7e	-0.12200068
47	0xbda85ed1	-0.0822121
48	0xbe13e5b1	-0.14443089
49	0x3d7ea507	0.0621691
50	0xbe079eae	-0.13244125
51	0xbdc18763	-0.09449651
52	0xbccb4d18	-0.024817035
53	0x3d3f273b	0.046668272
54	0xbd968391	-0.07349313
55	0x3d343cd7	0.044003334
56	0x3ac16a7a	0.0014756464
57	0x3d986b0e	0.07442294
58	0xbd8e4234	-0.06946221
59	0x3d5918f2	0.053002305
60	0xbd490e80	-0.049086094
61	0xbcc5dc53	-0.02415291
62	0xbd7104fe	-0.05884265
63	0x3dc066a6	0.09394579
64	0x3dc5ada0	0.09652257
65	0x3dbdab4c	0.09261188
66	0x3d12871b	0.035773378
67	0xbd666ff1	-0.0562591
68	0x3d8d3866	0.06895523
69	0xbcffb5d2	-0.031214628
70	0xbe154825	-0.14578302
71	0x3ddd5811	0.10807813
72	0x3d8cdd53	0.06878152
73	0x3e25b329	0.16181625
74	0x3ce5a248	0.028031483
75	0xbd0a6888	-0.033791095
76	0xbd79af85	-0.060958404
77	0x3cf68319	0.03009181
78	0xbddaf51f	-0.106912844
79	0x3e1269e5	0.14298208
80	0x3de107ff	0.10987853
81	0x3e1ce378	0.15321147
82	0x3d94d7aa	0.07267697
83	0xbcbf2b3c	-0.023336045
84	0x3e0ed91d	0.1395001
85	0xbe13100a	-0.14361587
86	0xbe03ddaf	-0.12877534
87	0xbdd3ab23	-0.10335376
88	0x3c9c528b	0.019082328
89	0x3dfff808	0.1249848
90	0x3e093b61	0.13401558
91	0xbcde711c	-0.027153544
92	0x3ca59c06	0.020216
93	0xbe124bd3	-0.14286737
94	0x3c03c245	0.008041923
95	0xbe0c4843	-0.1369944
96	0xbdf6774b	-0.12034472
97	0xbd934881	-0.071915634
98	0x3d21551a	0.0393878
99	0x3e18d175	0.14923652
100	0x3d839300	0.064245224
101	0xbdc7ebbe	-0.09761761
102	0x3d786329	0.06064144
103	0x3de88c54	0.113548905
104	0x3e10af29	0.14129318
105	0x3e20d801	0.15707399
106	0xbdf0f044	-0.11764577
107	0x3dd3e9a2	0.10347296
108	0x3dca4254	0.09875932
109	0x3ce26a1a	0.027638484
110	0x3d0364c4	0.03207852
111	0xbaab13d7	-0.0013052177
112	0x3bed9ba2	0.007251219
113	0x3de8ecad	0.11373267
114	0xbba871e2	-0.005140529
115	0xbd14cbc3	-0.036327135
116	0xbde54dc4	-0.11196473
117	0xbe0fb65f	-0.14034413
118	0xbe171f15	-0.1475795
119	0x3d4c3ccc	0.049862668
120	0x3d876bb2	0.06612338
121	0xbd623d63	-0.055234324
122	0xbd5e6528	-0.05429569
123	0xbc8a570c	-0.01688721
124	0x3da0b720	0.07847428
125	0xbde3711a	-0.11105557
126	0xbd300b00	-0.04297924
127	0xbd0d232c	-0.03445737

layer2.weight f4 [64, 128]
0	0xbcf82ff4	-0.030296303
1	0xbd9bc640	-0.076061726
2	0x3b8dc5fc	0.00432658
3	0x3dad05b1	0.08448351
4	0xbd2525fa	-0.04031942
5	0xbcfd0360	-0.030885398
6	0xbd38cac9	-0.045115266
7	0x3cb3db24	0.02195508
8	0xbd0ec8a4	-0.034859315
9	0xbd57d661	-0.052694682
10	0xbd2d67e7	-0.042335417
11	0xbcd9ebf2	-0.026601765
12	0xbd5f1f18	-0.054473013
13	0xbdad3c71	-0.08458794
14	0xbca534b0	-0.020166725
15	0x3d3c6146	0.045991205
16	0xbd951c40	-0.07280779
17	0x3d3b21c2	0.04568649
18	0x3d012f2e	0.031539135
19	0xbdb3d41c	-0.08780691
20	0x3cdbc5b0	0.026827663
21	0x38461d5c	4.723422e-05
22	0xbcd5a470	-0.026079386
23	0xbc49d7fc	-0.012319561
24	0xbd0536ea	-0.032523073
25	0xbd2e8fce	-0.04261761
26	0xbd6dbf5d	-0.058043826
27	0x3d847fc1	0.064696796
28	0xbda6111d	-0.08108733
29	0xbd2190e5	-0.039444823
30	0xbd94909a	-0.07254143
31	0x3d901eeb	0.07037147
32	0xbca84cb4	-0.020544387
33	0xbd43eb43	-0.047831785
34	0xbd2654c6	-0.04060819
35	0xbd637ffd	-0.05554198
36	0xbd3172c1	-0.04332233
37	0xbcb4c690	-0.022067338
38	0xbd1842ee	-0.037173204
39	0x3d0d3fa2	0.034484513
40	0x3d972c61	0.073815115
41	0xbd1afaa0	-0.03783667
42	0x3da8f53d	0.082499005
43	0x3d94e7a9	0.07270748
44	0x3c145cb0	0.009055302
45	0xbd92fa97	-0.071767025
46	0x3d4fc9ca	0.05072955
47	0x3da5b99d	0.080920435
48	0xbd9e26cc	-0.07722244
49	0xbd4b218c	-0.04959254
50	0x3d411322	0.047137387
51	0x3d92d165	0.07168845
52	0xbd361363	-0.044452082
53	0xbdb0f0b2	-0.08639659
54	0xbc86e80c	-0.01646807
55	0x3d37dc36	0.044887744
56	0xbb7f53ac	-0.0038959784
57	0x3cb93bc0	0.022611499
58	0x3d53f1be	0.051744215
59	0x3d55324a	0.052049913
60	0x3d82a5af	0.06379258
61	0xb9b5bd90	-0.00034664245
62	0x3daa5e5d	0.083187796
63	0xbccbfaa0	-0.02489978
64	0x3cf76574	0.030199744
65	0xbcf696ee	-0.030101266
66	0xbbf23ba0	-0.0073923618
67	0xbda8c085	-0.08239845
68	0x3d93e201	0.07220841
69	0xbd1f1ed1	-0.03884775
70	0x3d2d8026	0.04235854
71	0xbdafbe34	-0.085812
72	0x3ccc8c08	0.024969116
73	0x3d3e3cda	0.04644475
74	0xbda00050	-0.078125596
75	0xbd303727	-0.043021347
76	0xbd86c944	-0.06581357
77	0x3d8a7af7	0.06761735
78	0x3cd56ac4	0.026051886
79	0x3c5933d8	0.013256989
80	0x3d8f1921	0.06987215
81	0x3bb9dcd0	0.005672075
82	0xbd947640	-0.07249117
83	0x3dacaf2f	0.08431851
84	0x3d579d2e	0.052640133
85	0x3c644cbc	0.0139343105
86	0xbdaf491e	-0.08558868
87	0x3c80d3d0	0.015726
88	0x3d7ead6e	0.062177114
89	0xbd000f88	-0.03126481
90	0xbce9861e	-0.028506335
91	0x3c80a164	0.015701957
92	0xbbc37f8c	-0.0059661325
93	0xbd476e94	-0.04868944
94	0x3d4a26ae	0.049353294
95	0xbd9909ea	-0.07472594
96	0xbda38adc	-0.0798547
97	0x3d71c0e2	0.059021838
98	0x3cef3ce0	0.029203832
99	0xbd8430f7	-0.06454652
100	0xbdb4a334	-0.08820191
101	0x3ca08f84	0.019599684
102	0x3d29cd56	0.04145559
103	0xbd82a75e	-0.06379579
104	0xbdad99b0	-0.08476579
105	0xbd67b7a7	-0.05657163
106	0x3db398a7	0.087693505
107	0x3d4fbbde	0.050716273
108	0xbdb35971	-0.08757294
109	0xbcb9e5f4	-0.022692658
110	0xbd85087e	-0.064957604
111	0x3d217f66	0.039428137
112	0xbd9e81fa	-0.07739635
113	0xbd8805d2	-0.06641735
114	0xbc772c68	-0.015086271
115	0xbd1f1b4b	-0.038844388
116	0x3cfa3b58	0.030545875
117	0x3cc1a004	0.023635872
118	0x3d2db09e	0.042404763
119	0x3d86e70f	0.0658704
120	0x3d536f1a	0.051619627
121	0x37405d5c	1.1465829e-05
122	0xbd830c8e	-0.06398879
123	0x39a5f8c4	0.00031656597
124	0xbdb368d5	-0.087602295
125	0x3acdbf68	0.0015697302
126	0x3d96a63b	0.07355925
127	0xbd5f6803	-0.054542553
128	0x3b899ede	0.0041998466
129	0x3d116b96	0.035502993
130	0x3d9c6127	0.07635718
131	0xbd8d0b32	-0.06886901
132	0xbd0dec90	-0.03464943
133	0xbcfea797	-0.031085772
134	0x3d48850f	0.04895502
135	0xbc7dd972	-0.0154937375
136	0xbd93da3f	-0.072193615
137	0x3da40f52	0.080107346
138	0xbda1b8d9	-0.07896585
139	0xbd24fa62	-0.040277846
140	0xbcf66536	-0.030077558
141	0xbcaafa84	-0.020871408
142	0x3d2bc734	0.04193802
143	0x3daccb9b	0.08437272
144	0x3daf2a37	0.08552974
145	0x3c2ac607	0.01042319
146	0xbcc61cea	-0.02418371
147	0xbc20472b	-0.009782593
148	0x3d16ba12	0.036798544
149	0x3ca0abaf	0.019613115
150	0xbcec43a5	-0.02884085
151	0x3c4098a5	0.011755143
152	0xbd3b70d3	-0.045761894
153	0x3d20129d	0.03908025
154	0xbd9227f3	-0.07136526
155	0x3d8e40a1	0.06945921
156	0xbd77a0c6	-0.06045606
157	0xbb10e343	-0.0022108115
158	0xbdb1ea2a	-0.086872414
159	0xbd947cc5	-0.072503604
160	0xbc444ddf	-0.011981457
161	0x3c9f96f9	0.019481169
162	0xbcd55044	-0.02603925
163	0xbd829df8	-0.063777864
164	0x3d7da441	0.061924223
165	0x3ba32de6	0.0049798368
166	0x3d818bd6	0.063255
167	0x3d04ad42	0.032391794
168	0xbcd67731	-0.026179882
169	0x3d0411a6	0.032243393
170	0x3d1e8cc5	0.038708467
171	0x3cca801b	0.024719289
172	0x3c9e331e	0.019311484
173	0xbceb0cff	-0.02869272
174	0x3d3d5e08	0.046232253
175	0x3d9a7200	0.07541275
176	0x3d56086f	0.052254137
177	0xbd9789c2	-0.07399322
178	0x3cf64668	0.03006287
179	0x3bf7ed5d	0.0075661377
180	0x3db17e08	0.08666617
181	0x3d6753ea	0.05647651
182	0x3cf8ee9c	0.030387215
183	0x3bf62649	0.007511888
184	0x3da71aaf	0.08159386
185	0xbc4a86f2	-0.012361275
186	0xbd8b779d	-0.06809924
187	0x3d497806	0.04918673
188	0x3da7a95d	0.081866
189	0x3d9b63c9	0.07587392
190	0xbda9a122	-0.08282687
191	0xbc5b20f2	-0.013374554
192	0x3c2f887f	0.010713696
193	0x3ccba5af	0.024859278
194	0x3caf77c4	0.021419413
195	0xbd682b49	-0.056681905
196	0x3d955ac8	0.07292706
197	0x3d8e01b9	0.06933922
198	0xbc8923ef	-0.016740767
199	0x3d317337	0.043322768
200	0x3db80b16	0.089864895
201	0xbda5ec51	-0.081017144
202	0x3da95dc9	0.08269841
203	0x3d53ab19	0.051676843
204	0xbce0bb08	-0.027432933
205	0x3d70971d	0.058737863
206	0xbd06d454	-0.032917336
207	0xbd959caa	-0.07305272
208	0xbd7ae55b	-0.061253887
209	0xbd8e5d8f	-0.06951439
210	0xbd2b512b	-0.041825455
211	0xbc97ebc4	-0.018545039
212	0xbdbab1a1	-0.09115911
213	0xbd10a893	-0.035317015
214	0x3d9a49d2	0.07533611
215	0x3d073a52	0.033014603
216	0x3db1cac7	0.08681255
217	0xbd4c9a27	-0.0499517
218	0x3d4b7be3	0.049678694
219	0xbc6014bc	-0.013676818
220	0xbb19b4aa	-0.0023453631
221	0x3d5dfdea	0.05419723
222	0x3ccafe91	0.02477959
223	0x3d965603	0.07340624
224	0xbd480224	-0.048830166
225	0xbd1c1a71	-0.038111154
226	0xbce02fee	-0.027366605
227	0xbd8a2f27	-0.06747275
228	0x3d56bac5	0.05242421
229	0x3bb8a4a2	0.00563486
230	0x3cffe43e	0.031236764
231	0x3a0e3263	0.00054243783
232	0x3d830ad2	0.06398548
233	0x3c55d510	0.013051286
234	0xbc4df253	-0.012569982
235	0x3cd96cc8	0.026541129
236	0xbd2d5108	-0.042313606
237	0x3d39e67b	0.04538582
238	0x3da8721f	0.08224892
239	0xbd83f942	-0.064440265
240	0xbd1f8d63	-0.038953196
241	0xbc702eda	-0.014659608
242	0xbd178d56	-0.037000023
243	0xbd16bf28	-0.036803395
244	0x3da371fd	0.07980726
245	0x3d2e2150	0.042512238
246	0xbd9f2453	-0.077706
247	0x3d44ed66	0.048077963
248	0x3ca47b51	0.020078333
249	0xbd997f2e	-0.07494961
250	0xbd9992a9	-0.07498676
251	0x3d5e0f00	0.054213524
252	0xb9c9d0f8	-0.000384934
253	0x3d1a4c32	0.03767032
254	0xbd2bf609	-0.041982684
255	0xbd940ac6	-0.07228617

layer2.bias f4 [64]
0	0x3cf9f444	0.030511983
1	0x3db5439b	0.08850785
2	0x3d65ba6a	0.05608598
3	0x3c2e72a3	0.010647449
4	0xbc47864c	-0.012178015
5	0xbd7c49c2	-0.06159378
6	0x3b58b53e	0.0033067013
7	0xbd95e208	-0.07318503
8	0x3cdad7b7	0.026714189
9	0xbcb8c58b	-0.022555133
10	0xbcba02c0	-0.02270639
11	0x3d7af2cb	0.0612667
12	0x3c1dfaa8	0.009642281
13	0x3d8bae34	0.06820336
14	0x3d6cbdd8	0.057798237
15	0xbb033b96	-0.002002453
16	0x3b267f26	0.0025405376
17	0x3c31025c	0.010803785
18	0xbd2d61e7	-0.042329695
19	0xbbea835e	-0.0071567735
20	0x3d0b2a57	0.033975925
21	0xbd57ab77	-0.052653756
22	0x3d2617e5	0.04055013
23	0xbc83d87d	-0.01609444
24	0xbbe8e70a	-0.00710762
25	0xbdae36ba	-0.08506532
26	0xbcb5ca24	-0.022191115
27	0x3b8a7f2f	0.0042265872
28	0xba548b5a	-0.0008107923
29	0xbbf3a586	-0.0074355034
30	0xbc481095	-0.012210985
31	0xbda674bd	-0.08127735
32	0xbd84a503	-0.06476786
33	0xbc12509b	-0.008930351
34	0xbd9d6dfb	-0.07686993
35	0x3d55a52d	0.052159477
36	0x3c419e2c	0.011817496
37	0xbd9eb9ae	-0.07750259
38	0x3daf4aca	0.08559187
39	0x3d9665ba	0.073436216
40	0x3db8d4f3	0.09024992
41	0xbb3e467c	-0.0029033711
42	0xbd961502	-0.07328226
43	0xbd741478	-0.059589833
44	0x3c1169fb	0.008875365
45	0xbbd60117	-0.0065308916
46	0xbc9cc263	-0.01913566
47	0x3aedb739	0.001813627
48	0xbd2d81fc	-0.04236029
49	0x3d4044f6	0.046940766
50	0xba979e68	-0.0011567594
51	0xbd9c2158	-0.07623547
52	0xbc431fb3	-0.011909413
53	0xbbd3b349	-0.0064605814
54	0x3d6d9ed6	0.058012806
55	0x3d2d3c2a	0.042293705
56	0xbc848b2a	-0.01617964
57	0xbd9b4c78	-0.07582945
58	0xbc588268	-0.013214685
59	0x3c4ee068	0.012626745
60	0xbd55c36f	-0.052188333
61	0xbc06deba	-0.008231813
62	0xbd0c2287	-0.034212615
63	0x3d7adb20	0.06124413

layer3.weight f4 [6, 64]
0	0x3cb09e50	0.021559864
1	0xbb983918	-0.004645478
2	0xbdb1b9d5	-0.08678023
3	0xbdf0241e	-0.11725639
4	0xbd750080	-0.05981493
5	0xbb54e368	-0.0032484178
6	0x3d96fba0	0.073722124
7	0x3da462bd	0.08026645
8	0x3d318a37	0.043344703
9	0x3d8d167c	0.06889054
10	0x3d0f9340	0.035052538
11	0xbc11204e	-0.0088578
12	0x3dac2528	0.084055245
13	0xbdb08bae	-0.08620392
14	0xbd9b6ce9	-0.07589132
15	0xbe015ab0	-0.12632251
16	0xbda3ee0f	-0.080043904
17	0x3deaf3f8	0.114723146
18	0xbdbb745e	-0.09153055
19	0xbcd6f1f0	-0.026238412
20	0x3cc8a20e	0.024491336
21	0xbd8a0fec	-0.06741318
22	0xbddeea5c	-0.10884544
23	0x3dc23ffe	0.09484862
24	0xbdaa9733	-0.0832962
25	0x3c4ed95e	0.012625067
26	0x3ddcdabc	0.10783908
27	0xbdfbab3a	-0.12288518
28	0x3de46e5d	0.111538626
29	0x3d0fa5ef	0.035070356
30	0x3b640234	0.0034791352
31	0x3de3d5cf	0.11124765
32	0xbd801ff0	-0.062560916
33	0xbd19b705	-0.037528057
34	0xbdaf14ba	-0.08548875
35	0x3deafe3c	0.114742726
36	0x3d560068	0.05224648
37	0x3bc7c3c9	0.0060963375
38	0xbdf02136	-0.117250845
39	0x3c59266a	0.0132537875
40	0x3c9fcd10	0.019506961
41	0x3b2b8104	0.0026169429
42	0x3d86f730	0.06590116
43	0xbd8c99b2	-0.068652526
44	0x3d23a6c7	0.039953973
45	0xbdaa3da3	-0.083125375
46	0x3d35f068	0.044418722
47	0x3dc5d6cd	0.096601106
48	0x3d8c2d6c	0.06844601
49	0x3db61dfd	0.088924386
50	0xbcbf2fd8	-0.023338243
51	0xbdc07dcc	-0.09398994
52	0xbd365ab4	-0.044520095
53	0x3d53cc2a	0.051708378
54	0x3ca3d081	0.019996883
55	0x3da6c71d	0.081434466
56	0xbdb0bdd2	-0.08629955
57	0x3dd7d735	0.10539094
58	0xbc650014	-0.013977069
59	0x3dd8c4ce	0.105844125
60	0x3dbba31e	0.091619715
61	0x3cc10bd9	0.02356522
62	0x3daaa444	0.083321124
63	0xbdf6203b	-0.12017866
64	0xbd81d3e4	-0.06339243
65	0xbc10a36f	-0.008828028
66	0x3dd51cd8	0.10405892
67	0xbded6cdd	-0.1159303
68	0x3c5a4d28	0.01332406
69	0xbce46abc	-0.027882926
70	0xbd64404e	-0.05572539
71	0x3d484462	0.04889334
72	0xbd1957b4	-0.037437156
73	0xbd3f0f6c	-0.046645567
74	0x3cffc42c	0.031221472
75	0x3d92da2a	0.07170518
76	0xbc538906	-0.012911087
77	0xbdc9a31f	-0.09845566
78	0x3de90daa	0.11379559
79	0x3da52112	0.08062948
80	0x3c9e73e3	0.019342368
81	0x3d82abf1	0.063804515
82	0xbdf4ca8f	-0.119526975
83	0xbcde223c	-0.027115934
84	0xbd197aae	-0.037470512
85	0x3b21a444	0.002466456
86	0xbd3c3604	-0.04594995
87	0x3bef7ef3	0.0073088347
88	0x3d87fb77	0.0663976
89	0x3dcbdbd4	0.09954038
90	0x3caf99d8	0.021435663
91	0xbc71b570	-0.014752731
92	0xbc2336df	-0.009961813
93	0x3db3ad0b	0.0877324
94	0x3ddb3374	0.10703173
95	0x3db443cd	0.088019945
96	0xbd584988	-0.0528045
97	0x3dd1f626	0.10252027
98	0x3d269c87	0.04067662
99	0xbd59408e	-0.05304008
100	0xbc41f72c	-0.0118387155
101	0xbd9305bc	-0.07178828
102	0xbdce6383	-0.10077574
103	0x3d5c8a81	0.053843025
104	0xbcadb4d7	-0.021204395
105	0xbc41dbfc	-0.0118322335
106	0x3db3b694	0.087750584
107	0x3d831aa0	0.06401563
108	0x3cf47cdb	0.029844692
109	0x3d468d87	0.048474815
110	0xbd8c810f	-0.068605535
111	0x3d838439	0.06421704
112	0xbd43b364	-0.047778502
113	0x3c274dc5	0.010211413
114	0x3d43d931	0.04781455
115	0x3d7c12e0	0.061541438
116	0xbdf002d8	-0.117192924
117	0x3dedce64	0.116116315
118	0xbde79134	-0.11306992
119	0xbe035589	-0.12825598
120	0x3d2ebba9	0.042659435
121	0xbde6b56f	-0.112650745
122	0xbd15ed14	-0.03660305
123	0x3d0230a2	0.03178466
124	0xbd7c803c	-0.06164573
125	0xbd1ae883	-0.037819397
126	0xbcfb44f4	-0.030672528
127	0xbd24e39c	-0.040256128
128	0x3ce60294	0.028077401
129	0x3d05bd47	0.032651212
130	0xbdc3b275	-0.09555522
131	0x3d35b2d2	0.04435999
132	0x3de67bc8	0.11254078
133	0x3cf4cd08	0.029882923
134	0xbdd1f028	-0.10250884
135	0x38148952	3.541384e-05
136	0xbdda4c74	-0.106591135
137	0x3d1c93e4	0.038226977
138	0x3dedb526	0.11606817
139	0xbd51a6ab	-0.051184338
140	0xbbdc211a	-0.006717813
141	0x3d99d177	0.075106554
142	0xbd653ebc	-0.05596803
143	0xbd2d4331	-0.042300407
144	0x3dafce1e	0.085842356
145	0xbccc00bf	-0.0249027
146	0xbdd34859	-0.103165336
147	0x3cf3bf7f	0.029754398
148	0xbdcea171	-0.10089386
149	0xbd9056de	-0.070478186
150	0x3d85b673	0.0652894
151	0x3d95dd4b	0.07317599
152	0xbd35d731	-0.044394676
153	0x3d41a011	0.04727179
154	0x3d767514	0.06017025
155	0xbc82ca69	-0.015965657
156	0xbdf643ac	-0.12024626
157	0xbd050f8c	-0.03248553
158	0xbc104258	-0.00880488
159	0x3d917c5e	0.07103799
160	0xbd9f730c	-0.07785615
161	0x3d93eecb	0.072232805
162	0x3dbfce14	0.09365478
163	0x3db4793c	0.08812186
164	0xbd90553c	-0.07047507
165	0xbd057531	-0.032582466
166	0x3d0fbb7a	0.0350909
167	0x3da3304a	0.07968195
168	0xbdaa903a	-0.0832829
169	0x3c2f50b0	0.01070039
170	0x3dadf64a	0.084942415
171	0xbd729fe0	-0.0592345
172	0x3db968b9	0.090531774
173	0x3d2f92e2	0.042864688
174	0x3dd20135	0.102541365
175	0xbdcf666c	-0.10126957
176	0xbd903b88	-0.07042605
177	0xbd8a09e3	-0.06740167
178	0x3da281c2	0.079349056
179	0xbdc795e8	-0.09745389
180	0x3d7d81f8	0.061891526
181	0xbd39713d	-0.045274008
182	0xbdb68508	-0.089120924
183	0x3d67eff5	0.056625325
184	0x3cc8a7ae	0.024494018
185	0xbde1cfeb	-0.11025985
186	0xbdaae728	-0.08344871
187	0xbdb9aae2	-0.090657964
188	0x3dca643a	0.09882398
189	0xbe003b48	-0.12522614
190	0xbdc194d2	-0.09452213
191	0xbd5b6cc1	-0.053570513
192	0xbbe9cc80	-0.007134974
193	0xbc332c45	-0.010935848
194	0xbd361720	-0.044455647
195	0x3ddaffd8	0.106933296
196	0xbddd540c	-0.10807046
197	0xbda3090c	-0.0796071
198	0x3d863bbb	0.065543614
199	0xbc737863	-0.014860245
200	0xbdcb8bef	-0.099387996
201	0x3bed2aa0	0.0072377473
202	0x3bb7d6f0	0.0056103393
203	0xbdb864b8	-0.090035856
204	0xbdaced50	-0.08443701
205	0xbdcbb7ef	-0.09947192
206	0x3d1f0efc	0.03883265
207	0x3db2d957	0.087328605
208	0xbd3c4d3d	-0.045972098
209	0x3dae0caa	0.08498509
210	0xbc4d4d91	-0.0125307
211	0x3dedfb06	0.116201445
212	0xbd736632	-0.059423633
213	0xbdced24e	-0.10098706
214	0xbd5897c4	-0.05287911
215	0x3db4df04	0.08831599
216	0x3d52b274	0.051439717
217	0x3c96eda7	0.018423868
218	0x3d82f942	0.063951984
219	0x3dd09e67	0.10186463
220	0xbdb5777b	-0.0886068
221	0x3d1a7c00	0.037715912
222	0x3daa2000	0.08306885
223	0xbdca69ce	-0.09883462
224	0x3dcf7aa4	0.10130814
225	0xbdafd50c	-0.08585557
226	0xbdadb38d	-0.08481512
227	0xbb452bfe	-0.0030086036
228	0xbdedda3c	-0.116138905
229	0xbde9c66d	-0.114148
230	0xbd1995cf	-0.037496384
231	0xbdd3f13b	-0.103487454
232	0xbd549f5d	-0.051909793
233	0x3c97aac8	0.018514052
234	0x3dc5b3d6	0.096534416
235	0x3ddef592	0.108866826
236	0x3d0ea96d	0.034829546
237	0x3dd87f91	0.10571206
238	0xbdec1448	-0.11527306
239	0xbcd72549	-0.026262896
240	0xbddb2cde	-0.10701917
241	0xbcc2b118	-0.023766086
242	0xbae4ec98	-0.001746553
243	0x3db74162	0.08948018
244	0xbbab7584	-0.005232515
245	0x3d52bca7	0.051449444
246	0xbdf0b0ca	-0.1175247
247	0x3d5748cc	0.05255966
248	0xbdb11061	-0.08645702
249	0xbb67dd39	-0.0035379662
250	0xbcf43040	-0.029808164
251	0x3c9038a6	0.017605137
252	0x3d6b806f	0.05749553
253	0xbd26bd05	-0.040707607
254	0xbc2913f4	-0.010319699
255	0xbd87be69	-0.06628115

layer3.bias f4 [6]
0	0xbc59a95d	-0.013285008
1	0xbd93a7ac	-0.07209715
2	0x3ce346b4	0.027743675
3	0xbdb2f354	-0.087378174
4	0xbd81d426	-0.06339292
5	0xbd5ecfe5	-0.054397482
