drl_deep_project/scripts/our_agent/models/dqn_b_20250117_175333.pt (torch, 29396 bytes, 6 tensors)

layer1.weight f4 [64, 32]
000000 75 1c d5 bd 30 6b c0 bd 36 93 99 3e 0d 61 4d be
       -0.104058184 -0.093954444 0.29995126 -0.20056553
000010 71 36 c7 bc bc c9 cf bd 64 45 3d be 4e bc 3f be
       -0.024317952 -0.101459 -0.18483502 -0.18724176
000020 32 4e 30 3f 5a b2 2a 3d 1f 5e 62 bc 49 af 62 3e
       0.68869317 0.041673996 -0.0138163855 0.22137178
000030 f1 38 9e be 9f 2c be bd df 98 09 3e 4c 64 3c 3d
       -0.30902818 -0.092858545 0.13437222 0.045994088
000040 34 16 18 3f 14 4f 51 bd ca db 41 bd dc 7b d0 bd
       0.5940888 -0.051100805 -0.047328748 -0.10179874
000050 d4 db 04 3f 92 fe 90 3d 76 80 89 3e 58 75 ff bd
       0.5189793 0.070798054 0.2685582 -0.124735534
000060 34 e0 94 bd a9 09 4e 3d b3 78 6e bd ab 74 a1 3c
       -0.07269326 0.05030218 -0.058220576 0.019708952
000070 f8 5b bc 3c ac 3d 7b bd ae 05 b6 3d 2f de 81 3d
       0.022993073 -0.06133811 0.08887802 0.06341206
000080 d9 1f 88 bd fe 72 84 bd 96 68 9b 3a 57 a2 8b bb
       -0.066466995 -0.064672455 0.001185673 -0.004261296
000090 b2 6f 7b 3c 25 22 41 bd 69 23 8c bd 29 b7 11 bb
       0.015346454 -0.047151703 -0.068426915 -0.0022234416
0000a0 c6 8b 9e bc a1 bb fe bb fb 6c 97 3d 0e 82 72 be
       -0.019353759 -0.007773832 0.07393833 -0.23682424
0000b0 76 aa 08 3e ca 6e 29 3d 2d 7b 1e 3e 03 5f fe 3a
       0.13346276 0.041365422 0.15476675 0.0019406978
0000c0 58 12 9a 3e 79 e7 cf 3d 81 e6 0a 3e 2a ef 33 3c
       0.3009212 0.10151572 0.13564493 0.010982314
0000d0 2f 2f d1 3e 91 cc 23 3d b9 b6 5a bc 09 15 25 bd
       0.4085631 0.03999001 -0.013349229 -0.040303264
0000e0 e9 65 7d 3d c1 7a c7 bf 94 39 b6 3e 7c ff 13 3e
       0.061864767 -1.5584337 0.35590804 0.14452928
0000f0 45 81 ec 3c d7 d5 20 3e d1 e3 bf be 41 0d d8 bd
       0.028870234 0.15706573 -0.37478498 -0.10549403
000100 6a b3 7e 3c 7d 44 18 bb 9a 1c 2e 3c 28 e7 9c 3e
       0.015545705 -0.0023234182 0.010626936 0.30645108
000110 ae 38 02 bd d7 d4 83 bd da 07 1c be 46 0f a1 be
       -0.031792335 -0.0643708 -0.1523737 -0.31456965
000120 0f 9e 76 be c5 36 86 3d 7c 0e 81 3e f1 d2 51 be
       -0.24083732 0.06553415 0.25206363 -0.20490624
000130 a1 72 3e 3e 0d d9 4d 3a fe 7b 1a 3e 1f 27 b0 bc
       0.18598415 0.00078524725 0.15086362 -0.02150303
000140 01 94 03 3b 97 8f c0 bd bc b8 b3 3e a0 a0 d9 bd
       0.002007723 -0.094023876 0.3510188 -0.1062634
000150 5e fd 24 3d 6d 80 34 3d ed e7 a8 bd 05 4c bd bd
       0.040280692 0.04406779 -0.08247361 -0.09243015
000160 6a ae 2c 3d 24 c0 a6 bd 64 9b c4 bc 32 54 b4 3d
       0.04215852 -0.08142117 -0.023999877 0.088051215
000170 2c 78 89 3d 09 93 aa 3b 2f 7b 08 bf 48 d0 b0 bd
       0.06712374 0.0052055162 -0.53312963 -0.086334765
000180 b4 c4 26 be e3 f4 9d 3d 56 8b 1f be c8 04 00 be
       -0.16285974 0.07712724 -0.15580496 -0.12501824
000190 ac 47 11 bd 17 74 96 3e 28 e9 6f 3d 84 b2 20 be
       -0.035468742 0.29385445 0.058571965 -0.15693098
0001a0 c9 99 00 be ed 8a 7f bd 51 d5 ab 3d 35 32 a9 bd
       -0.12558664 -0.06238835 0.08390296 -0.08261529
0001b0 da 14 9b 3b d6 c3 c6 bc 2a 44 ca be d0 a3 d2 3d
       0.0047327103 -0.024263304 -0.3950513 0.10285151
0001c0 13 d8 41 be f2 bd c5 bc 58 d5 67 3c be 92 a3 3d
       -0.18930082 -0.024138425 0.014149986 0.07986973
0001d0 56 f0 6a be e1 81 0b 3e 85 0a 3b 3e 6a 76 96 3d
       -0.22943243 0.13623764 0.18265732 0.073468044
0001e0 66 58 9f 3d 09 cf 1c 3e 3c 3d 1f 3d 2a 8f 32 3d
       0.077805325 0.15313353 0.038876757 0.043593563
0001f0 79 d0 97 3d 77 69 f5 bc 76 67 04 bf 03 45 c5 bc
       0.0741281 -0.029957516 -0.5172037 -0.024080759
000200 3a 2f 7d bd 00 45 53 bc bf 0e 62 3c 60 9d be 3b
       -0.061812617 -0.012894869 0.013797461 0.0058171004
000210 8f 4a 7c bd bf 33 bc 3c 90 9c be 3c 7a 0f 3c bb
       -0.061594542 0.022973893 0.023268014 -0.0028695748
000220 26 fe a2 3e 8d 7b 3b bd 38 21 93 3d dd 72 28 be
       0.31834525 -0.045772124 0.0718407 -0.16450067
000230 0e 62 58 3c 23 43 5a 3d ca f9 68 3e ea 93 88 be
       0.013206972 0.053286683 0.22751537 -0.2667535
000240 f2 5e 81 3e 9a f4 3c 3d cf 97 4f bd db c4 92 bd
       0.2526775 0.046131708 -0.050681885 -0.071664535
000250 71 6b 6c 3e cb 37 41 bc e5 6c b9 3d 27 32 54 be
       0.2308786 -0.011793087 0.09053973 -0.20722257
000260 01 d4 a1 bc e7 34 1b c0 af b4 bc 3d f1 b0 a3 3d
       -0.019754412 -2.425104 0.0921415 0.07992733
000270 13 25 31 3d 30 a2 cb 3c d2 80 01 be 8e 35 57 3c
       0.043248247 0.02485761 -0.12646797 0.013135327
000280 4a 01 11 3e 35 eb a5 3e 52 98 1a 3e 86 4d c5 bd
       0.14160648 0.3240601 0.15097168 -0.09633927
000290 7f ff ea bc b1 d4 1b 3c 8d be af bd c2 45 ec bc
       -0.028686283 0.009511159 -0.085812666 -0.028841857
0002a0 6a c7 83 3e 47 5a a0 3d 44 95 bb 3d 6b 51 d2 bd
       0.25738078 0.07829719 0.091593295 -0.102694355
0002b0 a7 14 a0 3e 5f 0b c4 3d d7 5f 66 be 5a 03 e2 bd
       0.31265756 0.09572481 -0.22497497 -0.110357955
0002c0 40 94 e3 3e c8 99 c2 bc 9d 19 18 3d bc 1d 73 3c
       0.44449043 -0.02375497 0.0371338 0.014838632
0002d0 8f b6 7e 3e 1f 2c 96 3d 88 b2 b8 bb ee af 75 bd
       0.24874328 0.07332634 -0.005636517 -0.059982233
0002e0 ce f0 ca bc ee 2f f0 3d aa b8 9e 3d a2 57 97 3d
       -0.024773028 0.11727892 0.077500656 0.073897615
0002f0 2f d1 70 3d e0 22 20 be 46 75 02 be b4 3a 27 3d
       0.058793243 -0.15638304 -0.12740049 0.040827468
000300 7a e4 37 bd 28 09 75 3e 45 68 0f 3e ec 2d 38 be
       -0.044895627 0.23929274 0.1400462 -0.17986268
000310 b2 c0 30 bb 60 23 aa bd 02 a9 82 bd 62 94 27 bd
       -0.0026970324 -0.083075285 -0.06379892 -0.040912993
000320 dd da 05 3f 2f 8c f8 bd e6 ca bb 3e 81 cd 5f be
       0.52287084 -0.12136113 0.36678237 -0.21855737
000330 82 88 12 3f 5a 6f 88 bd 42 9e c6 3e 62 28 4d bd
       0.57239544 -0.066618636 0.38792616 -0.05008734
000340 fd 56 b9 be 41 16 6e 3d 83 f5 f8 bb fe 08 b1 bd
       -0.3619918 0.05812669 -0.0075976267 -0.08644293
000350 10 6e 87 bc 5b a1 34 3d 79 a6 e5 3b 8b 19 0d be
       -0.016531974 0.044099193 0.0070083705 -0.13779275
000360 8e ad b6 bb 32 8a 01 3d 98 b8 72 bd e7 de 48 3c
       -0.0055748885 0.031625934 -0.059258074 0.012260175
000370 8f 75 d8 3c 88 2b 15 be c2 43 f4 3c 6c e0 9e 3d
       0.026423244 -0.14567387 0.029817466 0.07757649
000380 f1 b3 dc bd 63 8f 9b 3d 46 b2 a7 3a 69 d7 3c 3d
       -0.107765086 0.07595708 0.0012794218 0.04610387
000390 b2 5b ee bc bf bc 0b 3e 3a 90 65 3b fd a1 9d bc
       -0.029096458 0.1364622 0.0035028593 -0.019242281
0003a0 d2 b6 c0 bd 57 a7 1d 3d d8 c6 9e 3e ba c2 37 3d
       -0.0940987 0.038489666 0.3101108 0.04486344
0003b0 93 5d 76 be 48 d1 9c 3d ec 3b 0b 3d d4 ef bb 3d
       -0.24059133 0.07657105 0.033992693 0.09176603
0003c0 53 e8 c0 3c c4 68 08 bd 31 4f 1d bd b9 ab 7a 3d
       0.02354828 -0.033303037 -0.0384056 0.061198924
0003d0 37 2d 51 3e c2 8b 91 bc 67 d0 7a 3d 09 5a d7 3d
       0.20427404 -0.017766837 0.061233904 0.1051522
0003e0 10 1a 11 3b 9a f3 8f bf 97 c1 3d 3e 40 02 0c 3d
       0.0022140779 -1.1246216 0.1853088 0.034181833
0003f0 60 99 b6 ba ff 0c ac 3a fb 51 79 be e8 85 70 3d
       -0.0013931207 0.0013126432 -0.2434768 0.058721453

layer1.bias f4 [64]
000000 9e fc 60 be c3 41 5a 3e 47 72 26 3e 15 68 8b bd
       -0.21971366 0.21314149 0.16254531 -0.068069614
000010 55 76 c9 3d 99 dd 77 bd 70 56 48 bd 23 2a 30 bb
       0.09837023 -0.060514066 -0.04891056 -0.0026880584
000020 8b 6f e9 3c 23 b3 6a 3e ec a3 49 3c 37 1f 78 3d
       0.02849557 0.22919898 0.012307148 0.060576644
000030 76 58 86 3d 69 5e 57 3e ce a1 6d 3e 4e a0 bf 3c
       0.06559841 0.21032108 0.23206255 0.023391869
000040 57 af 2b 3e 6d 6f cd 3c ef fb 94 bd ca eb 9e bd
       0.16766106 0.025077546 -0.07274615 -0.07759817
000050 9c a4 7a 3e 1a 2f be 3d 5f ad 5e 3e 48 21 8d bb
       0.24476856 0.09286328 0.21745823 -0.004306946
000060 ae 64 71 3b cc 08 40 3c a4 10 2e 3d 79 80 ab bd
       0.0036833691 0.011720847 0.04249634 -0.083741136
000070 e9 59 3b 3c 33 8e f4 3d a2 c5 48 3c d4 d8 c8 3d
       0.0114350105 0.11941185 0.012254151 0.09806982
000080 d8 dd 3d bd aa 4e 82 bd 3b 69 83 3d cf 16 a6 3d
       -0.046354145 -0.0636266 0.064165555 0.08109819
000090 2a 68 8f 3d 92 bd 66 3d 55 15 f2 3c 57 cf 4e 3c
       0.070022896 0.056333132 0.029551188 0.012622676
0000a0 2d 67 00 3e c6 7c 33 3d 22 7b 93 3d ab 34 53 bd
       0.12539358 0.043820165 0.0720122 -0.0515639
0000b0 02 cf 8d bd 85 99 8c bc bc ae 12 3e de 9a f1 3b
       -0.06924249 -0.017163048 0.14324468 0.007373198
0000c0 92 b0 74 bc e7 c6 7d bd 41 c3 15 3e 63 43 80 bd
       -0.014934676 -0.061957266 0.14625265 -0.06262853
0000d0 78 a8 dc 3d 2e 38 42 3e 89 c7 23 3e 3b 3d 8e 3d
       0.1077432 0.18966743 0.15994085 0.069452725
0000e0 87 bc 09 3e 1d 08 7a be c5 5c 16 3e 03 c8 80 bd
       0.13450824 -0.24417157 0.14683826 -0.06288149
0000f0 a4 06 03 3e 17 74 cc bc 83 b2 fb 3d 69 08 c1 3d
       0.12795502 -0.0249577 0.12289908 0.09425432

layer2.weight f4 [64, 64]
000000 3f 71 5e 3e bb 02 31 3e 41 24 ad 3c 5d 56 01 3f
       0.21722887 0.17286198 0.021135451 0.50522405
000010 83 a2 ba be 99 2d 70 3d 38 88 43 bd 4e 0b a4 3d
       -0.36452112 0.058637235 -0.04773733 0.08009969
000020 aa 01 9a 3e e8 80 0a 3d 5a e2 3c 3e f0 ff 14 bf
       0.30079395 0.03381434 0.18445721 -0.5820303
000030 75 9d 07 bd 26 36 06 be ea e5 a6 bc 63 17 05 3e
       -0.033109147 -0.13106593 -0.020373303 0.12997203
000040 c0 9b 86 be d7 e1 03 3e 10 30 a4 3c 3d 9d 18 3e
       -0.26290703 0.1287912 0.02004245 0.14903732
000050 74 8d 25 3e 16 1c 27 be 38 d5 ca 3d 5a 7b 37 3e
       0.16167241 -0.16319308 0.099039495 0.17918149
000060 03 a4 31 3d e6 ff 12 be 73 6f 5d 3d 30 ac 5d 3e
       0.043369304 -0.1435543 0.054061364 0.21647716
000070 eb c3 6f bd 29 22 48 bd eb c8 0b 3e 6c dd 87 3d
       -0.05853645 -0.048860703 0.13650863 0.0663403
000080 c6 76 31 3d 66 0e aa 3d dd 4f cc 3d df 70 91 bb
       0.04332616 0.083035275 0.0997617 -0.004438504
000090 c2 2b 10 3d f5 34 ed 3d d1 77 a1 bd 95 52 7b be
       0.03519798 0.115823664 -0.07884181 -0.24543221
0000a0 1f 7a 2e be 03 ed 0b bd e8 a4 aa bd cb 8e 87 bc
       -0.17038773 -0.03416158 -0.083322346 -0.016547581
0000b0 02 86 0b 3d 8a 5a 15 bc 42 bf df 3d a6 a6 96 be
       0.034063347 -0.0091158245 0.109251514 -0.29424018
0000c0 f8 f4 46 bc 84 c3 fe bd 7f f0 6c be 7e b2 96 bd
       -0.012143366 -0.124396354 -0.23138617 -0.073582634
0000d0 bf 2c 84 bd ef 93 d3 be cf 65 cc 3b 0a e8 31 bd
       -0.06453847 -0.41323802 0.0062377225 -0.04343418
0000e0 e8 c6 b8 bd 75 b0 90 3e bc 8e f8 bc 84 a5 76 3e
       -0.09022313 0.28259626 -0.030341499 0.24086577
0000f0 0b f5 d6 bd b5 72 9b 3e f3 51 10 3c 15 d4 82 3d
       -0.10495957 0.30360952 0.008808601 0.06388108
000100 a4 bf 96 3d 33 18 b9 be 1c d1 07 3d b0 60 8b be
       0.07360771 -0.36151275 0.033158407 -0.27222204
000110 7d ea 80 3e 85 a0 69 3c 22 85 ab bb 7b 6f 5a be
       0.251789 0.014259462 -0.0052343765 -0.21331589
000120 3c c8 98 bc 87 4e c6 bd 5b 6a 63 be aa 32 05 3f
       -0.018650167 -0.09682947 -0.2220854 0.5203043
000130 53 f8 e0 3d f9 3c b6 3d 67 a7 61 bc 7f 1a 82 3b
       0.10984864 0.08898348 -0.013772822 0.0039704437
000140 4d cc ad 3c 03 f4 2c bd a5 d1 47 3c 3d 18 2b be
       0.021215582 -0.042224895 0.012195979 -0.16708465
000150 59 5f 48 3d 3e b7 6f 3d 55 b4 88 3d 86 8c 60 bd
       0.048919056 0.058524363 0.066750206 -0.054821514
000160 78 4a 92 3d 7f 18 c7 3d e4 6b 09 3e 2f 08 21 bc
       0.0714311 0.09721469 0.13420063 -0.009828611
000170 a5 d8 f8 3c a6 49 35 bd 82 80 05 be 66 17 90 3d
       0.030376742 -0.04425969 -0.13037303 0.07035713
000180 37 86 03 3e 81 63 e9 bb 28 ba 65 bd 79 34 ce 3d
       0.12844168 -0.0071224575 -0.056085736 0.10068602
000190 f0 0f 01 3d 9f 71 a3 bd 32 40 36 bd a3 4d 4a 3e
       0.03150934 -0.07980656 -0.044494815 0.19756179
0001a0 f6 14 14 3e 2d 98 07 bd dc 2f 09 3d 62 7e 6f 3d
       0.14461121 -0.03310411 0.033492908 0.058470137
0001b0 90 ed b1 3d ee a8 4f 3d 08 92 9a 3d 1d 2d e4 3d
       0.086878896 0.050698213 0.075473845 0.11141417
0001c0 2b 7e 92 bd c2 f0 05 3e b3 b9 4d 3e 56 3a c2 3d
       -0.07152971 0.13080123 0.2009037 0.09483783
0001d0 46 9d c4 3c 84 87 fb 3e cd ea 05 3e 00 c6 e0 bc
       0.024000775 0.49126828 0.1307785 -0.027438164
0001e0 0e a1 20 3e 76 07 be 3d f4 70 65 3d ca 9a 5b be
       0.15686437 0.09278767 0.056015924 -0.21445766
0001f0 7a 28 81 3d a7 7e e2 be f5 47 1b bd 03 7d 02 3c
       0.063065484 -0.44237253 -0.03791042 0.007964375
000200 30 22 86 3e 5f 45 33 3e 13 97 82 3e d4 c9 51 be
       0.26197958 0.17506932 0.25505885 -0.20487148
000210 59 b9 87 3c f9 f8 96 3d 8f 77 5c 3e 27 49 d6 be
       0.016567873 0.073717065 0.21529983 -0.41852686
000220 34 44 dd 3e 00 c1 95 bd 17 c1 23 3e 17 80 76 3e
       0.43216097 -0.073122025 0.15991627 0.240723
000230 22 d9 31 3e 51 00 e7 3d f4 93 4b bd fb 7f 8f be
       0.17367986 0.11279357 -0.049701646 -0.2802733
000240 79 74 44 be 09 e4 75 bd c9 45 d9 3d 69 c5 cf 3e
       -0.19185056 -0.060031924 0.106090136 0.405803
000250 97 fa 95 bd 8f 5c b5 be 98 45 1f be d5 ed df bd
       -0.07323187 -0.3542218 -0.15553892 -0.10934035
000260 0c 90 8e 3d 72 e9 87 bc 61 4a 8d 3d c4 5c f8 3d
       0.069610685 -0.016590808 0.06898952 0.12127069
000270 4e 55 0a 3d a1 9e a1 bd f2 0b 91 bd 4d d6 48 3e
       0.03377276 -0.07891584 -0.070823565 0.19613
000280 04 40 ac bc 82 47 66 be 26 bb 30 3e bf cf 4a 3e
       -0.021026619 -0.22488216 0.17258891 0.19805811
000290 3d 3b 32 3e c4 ae ec 3d a2 a1 b4 bc 18 49 4e 3d
       0.1740541 0.115567714 -0.022049729 0.050362676
0002a0 96 e5 0e 3e 29 df 44 3c f9 f5 aa bd 67 36 2e bd
       0.13954768 0.012016096 -0.08347697 -0.04253235
0002b0 96 92 d3 3d db 5c b8 3c dc a4 22 bd 86 bc b6 be
       0.103306934 0.022505214 -0.039708003 -0.35690707
0002c0 db 31 ad 3c 3e 5b f8 39 49 ce fb 3d ea 50 36 3e
       0.021141937 0.00047370227 0.12295205 0.17804304
0002d0 67 03 b6 3d c3 04 06 be d0 c3 86 bd 0b 4a 05 3e
       0.08887368 -0.13087754 -0.06580317 0.13016526
0002e0 5e ec c5 3c c4 00 d4 3e 73 10 3f 3d d3 c5 99 3e
       0.02416056 0.41406834 0.046646547 0.3003374
0002f0 56 d9 33 3d d1 05 12 3d f2 22 4a 3e f2 0b 89 bd
       0.04390844 0.03565008 0.19739893 -0.066917315
000300 c7 d6 0d 3e ae 9f da 3e 50 3d 02 3d 02 15 86 3d
       0.13851462 0.4269995 0.031796753 0.06546976
000310 92 41 af be 2f 36 ec 3d ce 62 89 3e a8 bd bb 3e
       -0.34229714 0.11533772 0.26833194 0.36668134
000320 cd 36 8b 3e 1e 20 0d be 3a 1c 4c 3e d6 92 a8 be
       0.27190247 -0.13781783 0.19932643 -0.32924527
000330 b1 18 f8 bd 70 86 6a 3d a3 6d da bc 65 93 11 be
       -0.121140845 0.057257116 -0.026663607 -0.14216383
000340 a1 e7 91 bd 68 f8 47 be b4 a3 e1 bc 04 22 4d 3e
       -0.07124258 -0.19528353 -0.02754388 0.20032507
000350 06 31 fe 3c 5c 5d 00 bd d5 97 87 3c 92 79 d5 3b
       0.031029236 -0.031339034 0.016551891 0.0065147365
000360 00 82 c4 3d eb a5 1c be 35 1a 07 bd 03 b7 50 3d
       0.09595108 -0.15297668 -0.032983977 0.050955784
000370 01 dc 1b 3d c8 fc da 3d a1 9d 2a 3e 41 4c d7 3c
       0.03805161 0.106927454 0.16661693 0.026281478
000380 4f 73 a2 3c a2 fa ca 3d 17 54 d1 ba a4 cd 00 3e
       0.019830374 0.09911086 -0.0015970495 0.12578446
000390 90 d4 03 3d f4 76 c1 be a3 88 46 3d 0e 01 87 3d
       0.032185137 -0.37786067 0.04847015 0.06591998
0003a0 58 57 e4 bc 1f 50 00 3c db 79 21 be 87 d8 61 3c
       -0.02787368 0.007831602 -0.1576914 0.013784534
0003b0 33 ca 1d bd 9a cb 62 bd 90 a1 4a bd 26 ad 87 3b
       -0.03852291 -0.05536995 -0.049470484 0.004140514
0003c0 58 14 49 be b6 30 8d bd 96 04 1d be 6f f3 a3 3b
       -0.19636667 -0.068940565 -0.1533378 0.005003385
0003d0 63 9a b5 3d 03 a4 08 bf 46 d1 ac 3d 60 1f b4 3d
       0.088673376 -0.5337526 0.08438353 0.08795047
0003e0 24 91 2c 3e 9f 09 35 3f 60 0a 18 bd ea 44 29 3e
       0.16852242 0.70717806 -0.03711927 0.16530195
0003f0 1c 3a 8d 3d b8 ed e0 3e 41 72 b9 3d b9 02 66 3a
       0.06895849 0.43931365 0.09054995 0.00087742094

layer2.bias f4 [64]
000000 4c 66 ce 3a a6 ae 79 3d 26 e9 cc bc 60 8a 0d bc
       0.001574704 0.060957573 -0.025013518 -0.008638948
000010 cd a0 a6 3d a1 8b 11 3d be d7 24 bd 93 d5 5a 3d
       0.08136139 0.03553355 -0.04024481 0.053426336
000020 05 f1 bd 3d 0d 64 ce bd 53 fd 87 3d a9 16 6d 3d
       0.092744865 -0.10077677 0.06640115 0.05788294
000030 4d 26 ea 3d a2 b6 52 3d c9 46 65 be 1c 2d 3c 3d
       0.114330865 0.051443703 -0.22390284 0.045941457
000040 ac 37 7f bc b2 27 f5 bd 4c da 9a 3b 9b 59 ad bc
       -0.015577238 -0.11970462 0.00472573 -0.021160891
000050 5b e5 f5 3b 8f 22 10 3d 06 ec 23 bd 24 c6 7c 3d
       0.007504148 0.035189208 -0.04002001 0.0617124
000060 d1 a6 f3 bc 81 50 1f bd c0 43 8d 3d 97 dd f8 bd
       -0.02974263 -0.038895134 0.06897688 -0.1215164
000070 f5 e1 cc 3d e8 e4 48 3d ae ce 38 3c f4 ce 10 3e
       0.100040354 0.049046427 0.011279745 0.14141446
000080 2a ef f6 3d 2f 84 2f bd 5a 1c 04 bd 13 28 22 3c
       0.12057336 -0.04285067 -0.0322536 0.00989725
000090 54 15 0d 3d 9c 77 40 be e3 01 de 3d 9b be 58 be
       0.03444417 -0.18795627 0.108402036 -0.2116646
0000a0 97 4a df bd 2c 99 0a 3e d8 38 60 bd f2 27 14 3d
       -0.10902899 0.13534993 -0.05474171 0.036170907
0000b0 eb 82 f5 3d 78 b0 50 bd 2b 21 7e 3d aa 72 4a be
       0.11987861 -0.050949544 0.06204335 -0.19770303
0000c0 ef 93 9f bd 2d ab 89 3c db 39 af bd 87 7c b2 bd
       -0.07791888 0.016805256 -0.08555957 -0.08715158
0000d0 b2 33 a6 bd 89 eb 3c bd 87 e1 b8 3d 80 0f 00 3d
       -0.08115329 -0.04612306 0.09027391 0.031264782
0000e0 19 3a 80 3b 94 3b b5 bb c4 4f 85 bd 4d bc 3e 3d
       0.003913176 -0.005530784 -0.06509355 0.046566296
0000f0 f8 90 f9 bc 40 7c 5a 3d ec be 86 3d cb a7 dd 3d
       -0.030464634 0.05334115 0.06579384 0.108230196

layer3.weight f4 [6, 64]
000000 80 45 90 3e c0 ed 46 be 79 61 af be b0 65 8b bd
       0.28178024 -0.19426632 -0.34254053 -0.06806505
000010 ac dc 9e be a4 0f d3 bc dd 36 77 be f2 fd 10 3e
       -0.31027734 -0.025764294 -0.24142022 0.14159372
000020 55 ca 3a bd f5 52 58 3e a9 e5 39 3d f3 ed 74 3e
       -0.045603115 0.21125396 0.045385037 0.23918895
000030 56 59 1e be 17 da 70 3d d7 40 a2 3f 40 73 27 3e
       -0.15463766 0.058801737 1.2676038 0.16352558
000040 13 f6 0c be 23 80 3f be 0e 08 e5 bd 0e fa ba be
       -0.13765745 -0.18701224 -0.11183177 -0.36518902
000050 eb 5d 13 be fa 32 b8 bd f5 03 1d be 1c 4a 94 bd
       -0.14391296 -0.08994098 -0.1533354 -0.07240698
000060 fd 1a a2 3e 47 ee 17 3e 5d 2c 1b 3f 41 2f cc bd
       0.31661215 0.1483699 0.6061457 -0.099699505
000070 b2 58 bd bc 1e c5 36 3d d7 3a ea 3d 37 c4 05 be
       -0.023113582 0.04462158 0.11437004 -0.13063131
000080 48 4e d6 bd 46 0d 21 3d d4 7c 26 be 13 e5 62 3e
       -0.1046415 0.0393193 -0.16258556 0.22157697
000090 af 9b 6f bc 60 c5 bf bd b9 3b 3f be e7 d2 60 be
       -0.01462452 -0.09363818 -0.18675126 -0.21955453
0000a0 62 c3 96 3c 41 d7 1c be 9d d1 ac 3d dc 50 a7 3d
       0.018403713 -0.15316488 0.08438418 0.081697196
0000b0 5a 44 34 bc 79 ca af be a1 6c 8e be 5c 47 89 bd
       -0.011002624 -0.34334162 -0.27817252 -0.06703064
0000c0 12 8d 45 3d 0f b3 11 3d 85 05 54 bd 2c af 75 3d
       0.04823024 0.035571154 -0.051763076 0.05998151
0000d0 3c 67 d1 bd a2 25 a0 3e e7 a4 26 be c8 3c 09 be
       -0.102247685 0.31278712 -0.16273843 -0.13402092
0000e0 ac 2c e2 bd 69 09 c5 3d cf 53 10 3e 49 63 fe 3e
       -0.11043677 0.096209355 0.1409447 0.49685124
0000f0 66 c4 bc 3b 2f b3 55 3d ab 6f 6c bd 0a 4c 62 bd
       0.005760717 0.052172836 -0.057723682 -0.055248298
000100 ec ea 67 bd 88 b2 3b 3d cd 88 a2 be f5 f4 99 3e
       -0.056620523 0.045824558 -0.31744996 0.300697
000110 f0 3c 83 be 1e e8 7b be c6 a4 b2 3d f5 bc 8a be
       -0.2563243 -0.24600264 0.08722834 -0.27097288
000120 e3 21 4b bc 82 91 12 3e f2 56 b0 bd 82 2b bb 3e
       -0.012398216 0.1431332 -0.086103335 0.3655663
000130 63 ee fb 3c 8e d5 74 be ee cf 02 be c7 6b 47 3e
       0.03075332 -0.2390959 -0.12774631 0.19474708
000140 96 3b 3d bc cc 80 21 bc 65 12 f4 bd c8 9c e9 be
       -0.011549851 -0.009857368 -0.11917571 -0.45627427
000150 30 af f5 bd 4d 9d 9c bd 82 c5 e8 3d 8b f2 4f be
       -0.11996305 -0.0764719 0.113657966 -0.20307367
000160 56 ba da 3e d0 0d a4 3e db 3f 01 3c b5 90 4e 3f
       0.42720288 0.32041788 0.0078887595 0.80689555
000170 0d 0d 35 bf b7 4b 88 be 24 ed 86 bd 86 61 3b be
       -0.7072304 -0.26620266 -0.065882 -0.18298921
000180 1c 88 a6 bd 7e 27 0f be ea 4c 67 be 45 b0 cd 3d
       -0.081314296 -0.13979909 -0.22587934 0.10043386
000190 d1 a7 9e 3d ac b8 64 3f 45 db 7a be 79 99 44 3f
       0.07746852 0.89344287 -0.24497707 0.7679668
0001a0 89 3d 7d 3f 3f 97 f0 be fd 1c 90 3e 4e c6 41 be
       0.9892202 -0.46990392 0.28147116 -0.18923303
0001b0 e8 b9 ac bd 12 a3 23 be 7a 28 ee bc 07 e8 5f 3d
       -0.08433896 -0.15980175 -0.029072035 0.054664638
0001c0 07 09 9e bd bd 3e 2f be 13 cd 10 bd 38 2a 7a be
       -0.077165656 -0.17113777 -0.035351824 -0.24430168
0001d0 c3 e0 1f be 2b 60 92 3e fe 5c ec 3d b7 8a 6d bd
       -0.15613084 0.28588995 0.11541174 -0.057993617
0001e0 d9 28 aa bd fd bb dc bd b5 df db 3e c9 7a 1a 3f
       -0.08308572 -0.107780434 0.42944112 0.60343605
0001f0 5a c0 78 bb d2 7c 21 be fe 9e 4a 3d 0b 2c 47 3f
       -0.0037956447 -0.15770271 0.049468033 0.7780158
000200 44 7c 9c 3e 3c 38 dd bd d1 3e 7b 3e b4 54 a0 3e
       0.30563557 -0.108017415 0.24535681 0.31314623
000210 e3 39 a7 bd 0f d3 df bd 37 f6 3e bd 2e c8 77 bc
       -0.08165338 -0.10928928 -0.046621528 -0.01512341
000220 3f a8 0d be e3 59 1c be 99 16 47 be 87 4a 31 3e
       -0.13833712 -0.15268664 -0.19442214 0.17313586
000230 a8 a9 fd 3c 83 94 46 be 48 52 67 3f 0d 98 f3 bd
       0.030964687 -0.1939259 0.90359926 -0.11894236
000240 83 39 4c be d0 9c 50 3f 87 2c bc 3b 8f 16 67 be
       -0.19943814 0.81489277 0.0057426128 -0.22567199
000250 54 1d 3d be 0c 00 7d bd d4 23 cf bd 22 93 cf bd
       -0.18468219 -0.061767623 -0.101142555 -0.10135485
000260 d8 3b 3d 3e 09 54 ad bd b5 13 36 3e 31 2d 4c be
       0.1847986 -0.08463294 0.17780955 -0.19939114
000270 c0 91 ed 3d e3 84 14 3e 49 a0 64 be c6 8a 09 be
       0.11600065 0.14503817 -0.22326769 -0.13431844
000280 ed cf 2e be c0 2b 35 be d4 a6 4c 3e c8 a3 42 3f
       -0.17071505 -0.1769247 0.19985515 0.7603116
000290 91 d9 97 3d a8 b5 53 3f 5d 19 bf bd cd e1 17 bf
       0.074145444 0.8269906 -0.093310095 -0.5932892
0002a0 8b c3 3c bd e7 c9 44 3e e5 d9 f6 bb 64 c7 49 be
       -0.04608492 0.19217645 -0.0075332993 -0.19704968
0002b0 9a 14 a6 3d 27 97 da be 5e d0 5b be ed de a6 3f
       0.08109398 -0.42693445 -0.21466205 1.3036782
0002c0 f7 ab 9f 3d f7 3f 07 bd 0a 97 fa bc 06 0c 71 be
       0.077964716 -0.033019986 -0.0305896 -0.23539743
0002d0 85 7a 5f be 40 ef b4 3e 58 89 cc bd 0e 2e 0d be
       -0.21824081 0.35338783 -0.09987134 -0.137871
0002e0 59 52 ea bd 23 0c 6e be 39 f0 f4 3e 48 9f d1 be
       -0.11441488 -0.23246817 0.47839525 -0.40941834
0002f0 0b 9f 43 be 23 1e 9a 3d d8 3d df bd 85 b1 53 3d
       -0.19103639 0.075252794 -0.10900468 0.051682968
000300 30 70 88 3e 19 4a c4 bd 1b a2 90 3e 8f 86 89 3e
       0.26648092 -0.095844455 0.28248677 0.26860473
000310 95 ca 94 bd 98 e0 26 be a2 e6 c2 3d 33 d1 99 bd
       -0.07265202 -0.16296613 0.09516646 -0.07510605
000320 fc bc fe bd c6 b9 0a bf b8 1e 2d bc e7 91 0f 3d
       -0.1243839 -0.5418972 -0.010566406 0.035051253
000330 06 98 47 be ac b3 bd 3c 72 8f 38 bd 2e fd fc 3d
       -0.19491586 0.023156963 -0.045058675 0.12352978
000340 94 c9 49 be 5b 71 2d be df 8f ea bd 4f d7 57 be
       -0.19705802 -0.16937773 -0.114532225 -0.21078227
000350 f3 b8 08 3c f6 83 24 be c1 49 37 be 55 52 45 be
       0.008344877 -0.16065964 -0.17899229 -0.19269688
000360 c8 89 81 3e 97 93 0f 3f f4 1d 74 3d 05 66 17 bf
       0.2530043 0.5608458 0.059598878 -0.59140044
000370 52 d1 f2 3e 60 f7 09 3c 37 df 14 bd 01 6b 30 be
       0.47425324 0.008420795 -0.036345687 -0.17228319
000380 0a 37 88 be 16 29 38 bd de 7b fa bd 9a 76 4d 3f
       -0.2660449 -0.044961058 -0.12230657 0.80259097
000390 46 45 46 3d ba 86 87 be c4 0a d3 bd 1c 0c 30 3f
       0.048405908 -0.26469976 -0.10304788 0.6876848
0003a0 3d 03 2f 3c 25 f6 98 be 58 de a6 be 74 f5 74 3e
       0.010681924 -0.29875293 -0.3259151 0.23921758
0003b0 c3 3d 8f be c3 27 00 3e 7c 6c 2c bd e5 fe da 3d
       -0.27976808 0.12515168 -0.042095646 0.106931485
0003c0 e4 0a 99 3c fa 81 f4 3c 91 7e e9 bc 48 ce 75 bd
       0.01868195 0.029847134 -0.028502734 -0.06001118
0003d0 af eb 9f 3e 08 0f 8e 3e 48 97 6a be da 9f 9e bd
       0.312345 0.27745843 -0.22909272 -0.07745333
0003e0 a0 04 37 be 07 5d 35 3e f6 ad 1e 3e 91 0b 0e 3f
       -0.17872858 0.17711268 0.15496048 0.554864
0003f0 fc 51 01 3e 6b cf 52 be 6f a7 cd bd c7 e8 a7 be
       0.12628931 -0.20586936 -0.10041701 -0.32794783

layer3.bias f4 [6]
000000 94 c1 37 bd b0 61 90 bd ae 61 49 3d d8 3a 99 bd
       -0.044862345 -0.070498824 0.04916542 -0.07481927
000010 65 e6 da 3c be 5f 6f 3d
       0.026721189 0.058440916
