drl_deep_project/scripts/our_agent/models/dqn_20250121_113200.pt (torch, 78848 bytes, 6 tensors)

layer1.weight f4 [128, 80]
0	0xbb6904e4	-0.0035555894
1	0xbe5bb670	-0.21456313
2	0xbdd96c51	-0.10616363
3	0x3cafc742	0.021457318
4	0x3da9a285	0.08282951
5	0x3c00229f	0.007820754
6	0x3ad2136b	0.0016027516
7	0xbd34c355	-0.044131596
8	0x3e48bacd	0.19602509
9	0x3b8a1475	0.0042138644
10	0xbe474dfb	-0.19463341
11	0xbdeead80	-0.11654186
12	0x3dd1d2cd	0.10245285
13	0x3e8f2f20	0.2796564
14	0x3d9c12fe	0.0762081
15	0xbe034bda	-0.12821904
16	0xbe30f24b	-0.17279927
17	0xbe854971	-0.26032594
18	0x3ba15c0a	0.004924302
19	0x3d940a91	0.07228578
20	0x3d40b1b1	0.04704446
21	0xbd1b07ff	-0.037849423
22	0xbc1c1740	-0.009527028
23	0xbdc41bce	-0.09575616
24	0x3d5cbecc	0.053892896
25	0x3dfe1b21	0.12407518
26	0x3b1f9966	0.0024352907
27	0x3d28a260	0.041170478
28	0x3e491280	0.19635963
29	0x3be11fb2	0.0068702335
30	0x3d98197e	0.07426737
31	0xbd4a9965	-0.049462695
32	0x3d5f2ab6	0.05448409
33	0xbdbb276a	-0.09138377
34	0x3d2d2be5	0.04227819
35	0xbd4e785d	-0.050407756
36	0xbd9f0028	-0.07763702
37	0x3b6e724b	0.0036384042
38	0x3db505ed	0.08839021
39	0xbd7eb23b	-0.062181693
40	0xbd0e7eb0	-0.034788787
41	0xbd03d0fa	-0.032181717
42	0xbd09193b	-0.033471327
43	0x3cc92ac9	0.024556534
44	0xbdbd9d3a	-0.09258504
45	0xbab17416	-0.0013538625
46	0x3dbe3a84	0.09288505
47	0x3d6c593e	0.057702295
48	0xbef6b164	-0.48182213
49	0x3dc1284d	0.09431515
50	0xbd90a762	-0.07063176
51	0x3f052b01	0.52018744
52	0x3bab0322	0.0052188793
53	0xbc2c8c64	-0.010531519
54	0xbe7d08d8	-0.24710405
55	0xbdb26b30	-0.08711851
56	0xbd159084	-0.036514774
57	0xbec4dd15	-0.38449922
58	0x3d313897	0.04326686
59	0x3db92177	0.09039586
60	0xbeb0edbc	-0.34556377
61	0xbbdb33e0	-0.0066895336
62	0xbdb70182	-0.089358345
63	0xbe2e1058	-0.16998422
64	0x3db78044	0.089600116
65	0x3d8d64b1	0.06903971
66	0xbd2a2cf6	-0.041546784
67	0xbcc94d32	-0.024572942
68	0x3c714904	0.014726881
69	0xbe82a51f	-0.25516602
70	0xbdd41864	-0.10356215
71	0x3cde2b36	0.027120214
72	0x3e91133d	0.2833499
73	0xbd490583	-0.049077522
74	0x3c364560	0.011124939
75	0x3db441cf	0.088016145
76	0x3d9b524e	0.07584058
77	0xbd05e8b9	-0.032692645
78	0x3df05b4f	0.11736166
79	0x3de54666	0.11195068
80	0x3d0ce0ce	0.034394078
81	0xbdafe140	-0.08587885
82	0x3bd0a313	0.006367096
83	0xbd8315bd	-0.064006306
84	0xbdcc1942	-0.09965755
85	0xbcc904ce	-0.024538424
86	0xbac67bea	-0.001514313
87	0xbbce3d6f	-0.0062939445
88	0x3d8dbee0	0.06921172
89	0x3db1ccc2	0.086816326
90	0xbd91a07a	-0.071106866
91	0xbc2b1586	-0.010442143
92	0x3cb5595f	0.022137342
93	0x3dbeb9a4	0.09312752
94	0x3cfc3fff	0.030792234
95	0xbc92cd52	-0.01792017
96	0x3c04d807	0.008108146
97	0xbdaa4069	-0.083130665
98	0x3d2ca61b	0.042150598
99	0x3da38155	0.079836525
100	0xbd2d7b6e	-0.04235404
101	0x3dc0b12d	0.094087936
102	0xbda4f09b	-0.08053704
103	0x3d91403e	0.07092331
104	0xbdbe3e86	-0.09289269
105	0x3dba2061	0.09088207
106	0x3db231e4	0.08700922
107	0x3db58bc1	0.088645466
108	0x3cffe50c	0.031237148
109	0x3da1e7cc	0.0790554
110	0xbd186f34	-0.037215427
111	0xbcc82b2e	-0.024434652
112	0x3b456c43	0.0030124343
113	0x3daf8a2f	0.08571278
114	0xbd84761b	-0.06467839
115	0xbd1cdeda	-0.038298465
116	0xbc7469a3	-0.014917764
117	0x3d20f7ee	0.039298944
118	0xbc8b7803	-0.017025
119	0x3d24c05b	0.040222507
120	0xbcfb24cc	-0.030657195
121	0xbdb02f55	-0.08602778
122	0xbd45420f	-0.0481587
123	0x3cd1603f	0.025558589
124	0x3bda812a	0.0066682296
125	0xbdb240ae	-0.08703743
126	0xbd1a087e	-0.037605755
127	0xbd67722e	-0.056505375
128	0x3cdb92c5	0.026803384
129	0xbdbcb209	-0.09213645
130	0x3c6c6969	0.014429429
131	0x3db6f06b	0.08932575
132	0xbdd2598a	-0.102709845
133	0x3cbd766e	0.02312776
134	0x3dc16369	0.09442789
135	0xbb7f9977	-0.0039001384
136	0xbc95503b	-0.018226733
137	0x3d60f973	0.054925393
138	0xbdc107f3	-0.09425344
139	0xbdc19978	-0.094531
140	0x3dba25e3	0.090892576
141	0xbd730a8c	-0.05933623
142	0x3d22ab54	0.039714172
143	0x3c70fa7f	0.01470816
144	0x3d9d6124	0.07684544
145	0xbdb8a1bf	-0.090152256
146	0x3d3ddf6e	0.046355657
147	0xbdc7c140	-0.097536564
148	0xbda838c7	-0.082139544
149	0xbd5331db	-0.051561218
150	0xbdb93420	-0.09043145
151	0xbd12029c	-0.03564702
152	0x3ccff471	0.025385113
153	0xbc1e2acd	-0.009653759
154	0xbd358008	-0.044311553
155	0xbd8faf60	-0.07015872
156	0x3d74f4a5	0.059803624
157	0xbd366639	-0.04453108
158	0x3ce9ca1b	0.028538754
159	0x3d4b5ec9	0.04965094
160	0xbe1f155d	-0.15535493
161	0x3cc78d0a	0.024359245
162	0xbe067633	-0.13131027
163	0x3da75631	0.081707366
164	0xbdd64905	-0.10463146
165	0x3d7ed54f	0.062215146
166	0xbdaabbc4	-0.08336595
167	0xbd9c6323	-0.07636096
168	0x3dac4234	0.08411065
169	0xbd95f8f3	-0.07322874
170	0x3bcfa6ca	0.0063370215
171	0xbd517ce8	-0.05114451
172	0xbd030db7	-0.0319955
173	0xbc1e53e4	-0.009663556
174	0xbcdead41	-0.027182223
175	0xbdfbd2fa	-0.122961
176	0x3e08f61b	0.13375132
177	0x3df43ab1	0.11925257
178	0xbcc7703f	-0.024345515
179	0x3d7edbd6	0.06222137
180	0xbd859d49	-0.065241404
181	0xbe13676a	-0.14394918
182	0x3bf49de2	0.00746511
183	0xbb637acb	-0.0034710641
184	0x3dcbe76c	0.099562496
185	0x3bc3e6ad	0.0059784264
186	0xbd790ec4	-0.060805097
187	0x3e00f1b7	0.12592207
188	0x3d11a375	0.035556275
189	0x3d91b6d2	0.07114948
190	0x3da47da5	0.08031777
191	0xbdef43ff	-0.11682891
192	0xbd83be77	-0.06432813
193	0xbad7a313	-0.0016451798
194	0xbd45a77c	-0.04825543
195	0x3da77718	0.08177012
196	0x3e15202d	0.14563055
197	0x3c3d86f0	0.011567816
198	0x3ddf775e	0.10911439
199	0xbd347d33	-0.04406471
200	0x3dc2f714	0.09519783
201	0x3e1c55e0	0.15267134
202	0x3c90ccc3	0.017675763
203	0x3d8a3c05	0.06749729
204	0xbbb581a0	-0.005539134
205	0x3db7acd1	0.08968509
206	0xbd78aeb2	-0.060713477
207	0xbdd60694	-0.104504734
208	0xbbda36a6	-0.0066593466
209	0x3db030c9	0.08603055
210	0xbb809c81	-0.0039249067
211	0xbce5d022	-0.028053347
212	0x3da98f93	0.08279338
213	0xbdb40627	-0.08790236
214	0x3d6cae5f	0.05778348
215	0x3dc4a9ac	0.09602675
216	0x3de4a195	0.11163632
217	0x3ea38794	0.31939375
218	0x3dbed8bc	0.093186826
219	0xbd2a9e24	-0.04165472
220	0xbdde2bb4	-0.108481795
221	0x3d4ef1be	0.050523512
222	0x3db7d4b0	0.08976114
223	0x3dcafb0a	0.09911163
224	0xbb8c16c0	-0.004275173
225	0xbd566f7c	-0.052352414
226	0x3cc83041	0.024437072
227	0x3d87624e	0.06610547
228	0xbd7de0a2	-0.061981805
229	0x3e446ab3	0.19181328
230	0x3dbe445c	0.09290382
231	0x3db66880	0.089066505
232	0xbd745237	-0.05964872
233	0xbe421ef6	-0.18957123
234	0x3e046911	0.12930705
235	0xbce8c070	-0.028412074
236	0xbdecab74	-0.115561396
237	0xbd701f0d	-0.058623362
238	0x3d9efa6d	0.07762609
239	0x3d5ec600	0.054388046
240	0x3cf80104	0.030273922
241	0xbd955b41	-0.07292796
242	0x3dc1c954	0.094622284
243	0x3e26842d	0.16261359
244	0xbdb09f37	-0.08624118
245	0x3b2f9aa6	0.0026795059
246	0x3cd08577	0.025454266
247	0x3d17a99f	0.037026998
248	0x3dc462c7	0.09589153
249	0xbd37400a	-0.044738807
250	0xbe3485fe	-0.17629239
251	0xbd584c57	-0.05280718
252	0x3db9f082	0.09079076
253	0x3e7a97c4	0.24471956
254	0x3d3455a0	0.04402697
255	0x3b6cac84	0.003611357

layer1.bias f4 [128]
0	0xbbe31d32	-0.0069309706
1	0xbdc14755	-0.09437434
2	0x3d42e4ac	0.04758136
3	0x3de6d31a	0.11270733
4	0x3d6dd87c	0.058067784
5	0x3d9ef447	0.07761436
6	0xbd3aea6c	-0.04563372
7	0x3d513746	0.051078103
8	0x3cdbce98	0.02683191
9	0xbcd030fe	-0.025413986
10	0x3d3e9b34	0.046534732
11	0x3e1714f2	0.14754084
12	0x3dc2324c	0.094822496
13	0xbdb0173b	-0.08598181
14	0x3ade6ad6	0.0016969095
15	0x3d370cda	0.04468999
16	0x3cfd6eff	0.030936716
17	0xbdf0e8e1	-0.11763168
18	0xbd4c5f4d	-0.049895573
19	0x3d3afddf	0.045652267
20	0x39b675ee	0.0003480161
21	0x3ba1cffc	0.0049381237
22	0xbd92db91	-0.07170785
23	0xbcf9d941	-0.030499103
24	0x3d41a967	0.047280695
25	0x3dab52e6	0.08365421
26	0xbd893ecc	-0.06701431
27	0xbc9e6465	-0.019334981
28	0xbca50f66	-0.020148944
29	0x3c1653f9	0.009175294
30	0x3db14aec	0.08656868
31	0x3d9b5d04	0.07586101
32	0x3cdfe389	0.027330177
33	0x3d90b226	0.07065229
34	0x3c3d5b0c	0.011557352
35	0x3d816da9	0.06319744
36	0xbdc1f4d5	-0.09470526
37	0xbccd58b5	-0.025066713
38	0xbd3ea51c	-0.04654418
39	0xbd829ed3	-0.063779496
40	0xbc4849fe	-0.012224672
41	0x3e01fd30	0.1269424
42	0x3d9c2fcf	0.07626306
43	0xbd09875d	-0.033576358
44	0x3d06049d	0.032719243
45	0x3c8db82a	0.01729973
46	0xbdcc9426	-0.099891946
47	0xbd5be471	-0.053684656
48	0x3d4a9b5a	0.04946456
49	0x3ddd2a53	0.10799088
50	0xbc999a7b	-0.01875042
51	0x3d12733e	0.035754435
52	0x3d9d949b	0.0769436
53	0x3d04e8ac	0.032448456
54	0x3c912757	0.017718954
55	0xbd94e8eb	-0.07270988
56	0x3dc79388	0.09744936
57	0x3d989325	0.074499406
58	0x3cbacf4b	0.022803923
59	0xbdae384d	-0.08506832
60	0x3df9a1e7	0.121890835
61	0xbcdbb9c0	-0.026821971
62	0x3dcc4492	0.09974016
63	0xbd88f3bb	-0.06687113
64	0x3d6d70d7	0.05796894
65	0x3dc5db6f	0.09660994
66	0x3daace0d	0.08340082
67	0x3dac1ebf	0.08404302
68	0x3dedf949	0.11619813
69	0xbd9ad1d1	-0.075595506
70	0x3c0d02f7	0.008606664
71	0x3d1aa1e1	0.037752036
72	0x3da3c2cb	0.07996138
73	0x3d8ebbdb	0.06969424
74	0x3b2ab173	0.002604571
75	0xbd3f1f16	-0.046660505
76	0x399ae421	0.00029543138
77	0x3dfb4b56	0.122702286
78	0x3db266b8	0.08710998
79	0x3e3bb817	0.18331943
80	0x3e02835e	0.12745425
81	0x3dd1ee26	0.10250501
82	0x3d7d539a	0.061847307
83	0x3c56fdcc	0.013122033
84	0x3d322e5f	0.043501254
85	0x3cdf4c42	0.027258042
86	0x3a11dbba	0.0005564053
87	0x3dd0fa3f	0.10203981
88	0x3dc53145	0.09628538
89	0x3ddd0a1f	0.10792946
90	0xbd27e3a3	-0.040988576
91	0x3de1d64e	0.110272035
92	0xbc02635d	-0.00795826
93	0xbd5c5c4f	-0.05379897
94	0x3cdde6ab	0.02708753
95	0xbbcd01f1	-0.006256335
96	0x3dcbab2a	0.09944756
97	0x3d819006	0.063262984
98	0x3cbd9152	0.023140583
99	0x3ce4df1c	0.027938418
100	0xbdde9d51	-0.108698495
101	0x3d759a5e	0.05996167
102	0xbd4ca0b6	-0.049957953
103	0x3d2959e5	0.041345496
104	0x3d58445e	0.052799575
105	0x3db2dd71	0.08733643
106	0xbc7d84ce	-0.015473558
107	0xbbf3e85e	-0.007443472
108	0x3d034f57	0.032058086
109	0x3dd5fcf8	0.104486406
110	0xbd355ab6	-0.04427596
111	0x3da2c70d	0.07948122
112	0x3da9cade	0.08290647
113	0xbd50aec0	-0.050947905
114	0xbd2ea124	-0.042634144
115	0x3d87f354	0.06638208
116	0xbbb9dbac	-0.005671939
117	0xbd6d03aa	-0.057864822
118	0x3ca18984	0.019718893
119	0xbcc1af12	-0.02364305
120	0xbdaf02ce	-0.08545457
121	0x3da080b5	0.07837049
122	0x3dc64595	0.096812405
123	0x3e1e25f3	0.15444164
124	0x3e056573	0.13026981
125	0x3cb5ec4e	0.022207405
126	0x3c8dca57	0.017308397
127	0xbd815be0	-0.06316352

layer2.weight f4 [64, 128]
0	0x3ceae9f6	0.028676014
1	0xbd1f42ca	-0.038882054
2	0xbd29a7e1	-0.041419867
3	0xbd9cd68e	-0.076581106
4	0xbd8db713	-0.06919684
5	0xbd625cf2	-0.05526442
6	0xbbc62270	-0.0060465857
7	0xbcee044f	-0.029054789
8	0x3cd86b45	0.026418338
9	0xbd600e2f	-0.054701027
10	0xbd4b8ffa	-0.049697854
11	0xbdaa4c7d	-0.0831537
12	0x3cd4bbe4	0.0259685
13	0x3b6f59b9	0.0036521985
14	0x3d48f7d2	0.049064465
15	0xbdae57c5	-0.085128345
16	0xbc6b3a89	-0.014357218
17	0xbd22093d	-0.03955959
18	0xbc1f736d	-0.0097321095
19	0xbdadcee2	-0.084867254
20	0x3d5f4ddb	0.054517608
21	0xbd00f284	-0.03148128
22	0xbd6386bd	-0.05554842
23	0xbc4d9cec	-0.01254962
24	0xbd9ce506	-0.0766087
25	0x3d6663e9	0.056247625
26	0xbd555907	-0.052086856
27	0x3c579aef	0.013159498
28	0x3cd04a5b	0.02542608
29	0x3d6ee6c5	0.058325548
30	0x3ba46e2f	0.0050180177
31	0xbc0ca16a	-0.008583406
32	0x3d8ee5d9	0.06977434
33	0x3d973a8a	0.07384212
34	0xbc43cdaf	-0.011950894
35	0xbd073a54	-0.03301461
36	0x3d76dd61	0.060269717
37	0x3cf3636c	0.029710494
38	0x3d824625	0.06361035
39	0xbd4b1c73	-0.04958768
40	0x3d081fe6	0.033233546
41	0x3c81bde1	0.015837612
42	0xbd2aabfb	-0.04166792
43	0xbcc6051a	-0.024172354
44	0xbc5fe27c	-0.013664838
45	0x3d4db490	0.050221026
46	0xbd6c4484	-0.05768253
47	0xb9b184f7	-0.00033859137
48	0x3d36257b	0.044469338
49	0x3bf3dce1	0.0074421023
50	0x3c4f8385	0.012665634
51	0xbce2b1c3	-0.027672654
52	0xbd8c927b	-0.068638764
53	0xbd8589aa	-0.06520398
54	0xbc0d9563	-0.008641574
55	0xbc92267c	-0.017840616
56	0x3d8ddd0d	0.06926928
57	0x3a1abe26	0.0005902968
58	0x3d1dba09	0.038507495
59	0xbd747a58	-0.05968699
60	0xbdaf7ab7	-0.08568328
61	0x3b0b2425	0.002123126
62	0x3c61519e	0.013752369
63	0xbd58af43	-0.052901518
64	0xbd18c4b2	-0.03729696
65	0x3d821800	0.06352234
66	0xbc888e09	-0.01666929
67	0xbd61064c	-0.054937646
68	0x3d2bcf78	0.041945904
69	0x3bdcdfab	0.0067405305
70	0xbd9ac5e8	-0.07557279
71	0xbcbdf5b5	-0.023188451
72	0xbd397ace	-0.04528313
73	0xbd1d7c37	-0.03844854
74	0xbbc82c84	-0.0061088223
75	0xbd52b3f5	-0.05144115
76	0x3d5a87e0	0.053352237
77	0x3d3b1915	0.045678217
78	0x3d080808	0.033210784
79	0x3c0049e0	0.007830113
80	0x3c5d1fb0	0.013496324
81	0xbcf1534c	-0.029458664
82	0xbd99a695	-0.07502476
83	0xbd903963	-0.07042196
84	0x3c25a404	0.010109905
85	0x3c6a1a36	0.014288476
86	0x3d40b668	0.047048956
87	0xbd7c2d32	-0.06156654
88	0x3d50b012	0.050949164
89	0x3d095f92	0.03353841
90	0xbd584596	-0.052800737
91	0xbd7ad70b	-0.061240237
92	0x3b9340db	0.0044938154
93	0xbd435333	-0.047686767
94	0xbd34916d	-0.044084
95	0xbbbb3e6a	-0.0057142274
96	0xbc7711d8	-0.015079938
97	0xbd4c380a	-0.04985813
98	0x3c0b6905	0.008508925
99	0xbd3a00d9	-0.045410965
100	0x3d98b7f0	0.07456958
101	0xbcaf0846	-0.02136625
102	0x3d94691a	0.07246609
103	0xbcd2d416	-0.025735896
104	0x3c882645	0.01661981
105	0xbd23e122	-0.040009625
106	0xbd0d9cd5	-0.034573395
107	0x3cbaba2e	0.022793856
108	0x3aee51b1	0.0018182305
109	0xbd1d313b	-0.038377028
110	0xbb6a3a95	-0.0035740484
111	0x3af5a281	0.0018740447
112	0x3d8b5d78	0.06804937
113	0x3cad2a8c	0.021138452
114	0x3d869694	0.06571689
115	0xbd983535	-0.074320234
116	0x3da124e9	0.07868368
117	0xbd1e94be	-0.03871607
118	0x3d1aa808	0.037757903
119	0x3d20260a	0.039098777
120	0x3cea4484	0.028597124
121	0x3cd70096	0.026245397
122	0xbd7b0b6a	-0.061290182
123	0xbd5deca4	-0.054180756
124	0xbd639361	-0.055560473
125	0xbd05096e	-0.032479696
126	0x3d983336	0.07431643
127	0x3d820223	0.06348064
128	0xbf0dd6ca	-0.5540587
129	0xbd4ffbb0	-0.050777137
130	0x3e024fbd	0.1272573
131	0x3c377409	0.0111970985
132	0xbd00a459	-0.031406734
133	0xbcaf9b2e	-0.0214363
134	0xbdbb7c9a	-0.09154625
135	0xbf159c87	-0.58441967
136	0x3beb514d	0.0071813227
137	0xbe9b5536	-0.30338448
138	0x3c226f20	0.00991419
139	0x3e3851ae	0.17999908
140	0xbb345258	-0.00275149
141	0x3d5c1249	0.053728376
142	0x3e80dcea	0.25168544
143	0xbcc716cc	-0.024302863
144	0x3d9ae2f1	0.07562817
145	0x3e649dd2	0.22325829
146	0x3d308d99	0.043103788
147	0xbd128c75	-0.03577848
148	0xbd9b1088	-0.075715125
149	0x3d5ec509	0.054387126
150	0x3cff79d8	0.03118603
151	0x3e168efc	0.14702982
152	0x3f090e73	0.5353767
153	0x3ca7744b	0.020441195
154	0x3dfdcb5c	0.12392303
155	0xbc755a71	-0.014975176
156	0xbe005907	-0.12533961
157	0xbd1b8a19	-0.037973497
158	0x3e777ea2	0.241694
159	0xbd300713	-0.042975497
160	0x3cb02fdb	0.021507194
161	0x3c4938e5	0.012281631
162	0x3d4e503e	0.050369494
163	0xbcdfa3f5	-0.02729986
164	0x3ca33ee1	0.019927444
165	0x3e1139c1	0.14182188
166	0x3cc53e33	0.02407751
167	0x3e10000c	0.14062518
168	0x3e3637fb	0.17794792
169	0xbeb49149	-0.35267094
170	0xbd9d0b57	-0.076681785
171	0xbcfef4c0	-0.031122565
172	0x3d994f29	0.07485802
173	0x3e7c8e43	0.24663644
174	0xbc53d19c	-0.012928393
175	0x3cbe7366	0.023248386
176	0x3d56b697	0.052420225
177	0x3d40111b	0.046891313
178	0xbc80158a	-0.01563527
179	0xbe879382	-0.26479727
180	0x3dac79d2	0.08421673
181	0x3e8a7f76	0.2705037
182	0xbcb143b1	-0.021638723
183	0xbd55fb91	-0.052241866
184	0x3cc61bb9	0.024183141
185	0xbe325dac	-0.17418545
186	0x3ef8bbd4	0.485808
187	0xbd777f1d	-0.06042396
188	0xbce5e5c5	-0.028063664
189	0xbea97cae	-0.33102936
190	0x3dff2c37	0.12459605
191	0x3ee5299e	0.44758314
192	0x3df2f8a2	0.11863829
193	0xbd481af6	-0.048853837
194	0x3e90b482	0.28262717
195	0xbe439a47	-0.19101821
196	0xbd2fe9b2	-0.04294748
197	0x3e1d1c2d	0.1534278
198	0x3ccaf149	0.024773257
199	0xbc08fb7f	-0.008360743
200	0x3d61f55b	0.05516563
201	0x3dc4af6a	0.0960377
202	0x3cf4bee6	0.029876184
203	0xbd6cd342	-0.05781866
204	0x3da49cb7	0.080377035
205	0x3d9fd826	0.07804899
206	0xbdc2d511	-0.095132954
207	0xbc3361f8	-0.010948651
208	0xbeb5510f	-0.35413405
209	0xbe0fef29	-0.14056076
210	0x3caec2fd	0.021333212
211	0x3cec5fd9	0.028854297
212	0x3d223750	0.03960353
213	0xbeb60617	-0.3555152
214	0xbdc36e33	-0.09542503
215	0x3c4eaeb8	0.012614898
216	0x3dd532c7	0.10410076
217	0x3d5cf4ed	0.053944517
218	0xbe442327	-0.19154035
219	0x3e191575	0.14949591
220	0xbd7d3f6b	-0.06182806
221	0xbc33eadb	-0.010981287
222	0xbd7ca294	-0.061678484
223	0x3d03f4ad	0.032215763
224	0x3dce9ee8	0.10088903
225	0x3db31f1f	0.0874617
226	0x3e390abd	0.18070503
227	0x3e582adb	0.21110098
228	0xbd08693c	-0.033303484
229	0xbd141177	-0.03614947
230	0x3cbea237	0.02327071
231	0x3e9317a7	0.28728983
232	0xbd8da782	-0.06916715
233	0xbca8f138	-0.020622835
234	0x3e521520	0.20515871
235	0x3e30b515	0.17256577
236	0xbd4638f5	-0.048394162
237	0x3e33d2f2	0.17560938
238	0xbc85424f	-0.01626697
239	0x3d149353	0.03627331
240	0x3d6556d6	0.055991016
241	0x3b7f757c	0.0038979938
242	0xbe1436ff	-0.14474104
243	0x3e4f6d84	0.2025662
244	0x3c9d4af8	0.019200787
245	0xbe49ae0e	-0.19695303
246	0x3d009660	0.03139341
247	0xbe8d3adc	-0.2758397
248	0x3dd32ade	0.10310911
249	0xbd7a75c8	-0.06114748
250	0x3daa3961	0.083117254
251	0x3d692ab7	0.0569255
252	0x3e46ddcd	0.19420548
253	0x3c60cf8b	0.013721357
254	0xbdba96b9	-0.09110779
255	0x3d00eadd	0.031473983

layer2.bias f4 [64]
0	0xbd772024	-0.060333386
1	0x3d2ee752	0.042701073
2	0x3ccfca03	0.025364881
3	0x3bb8d79d	0.0056409375
4	0x3daeb677	0.08530896
5	0xbd6daa50	-0.05802375
6	0x3ccbac4a	0.024862427
7	0x3d5f7c7d	0.05456208
8	0x3dac548d	0.08414564
9	0x3d5e3bff	0.054256435
10	0x3d7dd265	0.061968226
11	0x3da36fc1	0.079803
12	0x3dc4c94b	0.09608706
13	0x3d9e01da	0.07715197
14	0x3d94f872	0.0727395
15	0x3cb39482	0.0219214
16	0xbd114c49	-0.03547314
17	0xbd4c9ed9	-0.049956176
18	0xbd9a3ce0	-0.07531142
19	0x3d9b3d3e	0.075800404
20	0x3ca61a4e	0.020276215
21	0x3d8f5a00	0.06999588
22	0xbcbc41a7	-0.022980524
23	0x3cbcc6f9	0.023044096
24	0xbd0e5319	-0.034747217
25	0xbd5e76e2	-0.054312594
26	0x3c1c43c2	0.009537639
27	0x3d265542	0.040608652
28	0xbc1dd2e0	-0.009632796
29	0x3d50c5fa	0.050970055
30	0x3c0080c0	0.007843196
31	0xbcaab37d	-0.02083754
32	0xbcb81fd5	-0.022476116
33	0xbd46ccbf	-0.048535105
34	0x3d50f962	0.05101908
35	0x3d99a24d	0.075016595
36	0xbd038cc0	-0.03211665
37	0x3d91bf77	0.07116597
38	0xbc93fa8e	-0.01806381
39	0xbd8595f1	-0.0652274
40	0xbdc83194	-0.09775081
41	0xbd1d53da	-0.038410045
42	0x3d321fbc	0.043487296
43	0x3da9e87e	0.082962975
44	0x3d994f13	0.07485785
45	0xbc7eb131	-0.015545175
46	0x3c79efc9	0.015254923
47	0xbabccdf6	-0.0014404643
48	0x3d721f20	0.059111714
49	0x3dd84004	0.10559085
50	0xbc98066c	-0.01855775
51	0x3d97d285	0.074132
52	0x3d605559	0.054768894
53	0x3d532310	0.05154711
54	0xbbf434cb	-0.0074525825
55	0xbd9f0815	-0.077652134
56	0xbdc1fa63	-0.094715856
57	0x3d5a8b76	0.053355657
58	0x3d0e601b	0.034759622
59	0xbd939243	-0.072056316
60	0xbd9fef9f	-0.07809376
61	0xbae5c49f	-0.0017529911
62	0xbd48400e	-0.048889212
63	0x3d89a1ad	0.0672029

layer3.weight f4 [6, 64]
0	0xbdcb46c2	-0.09925605
1	0x3e7932a1	0.2433572
2	0xbe464dc0	-0.19365597
3	0xbdf922b5	-0.12164823
4	0x3d77745d	0.060413707
5	0x3e34b6cc	0.17647856
6	0x3e16ca76	0.1472567
7	0x3d5218e2	0.05129326
8	0xbcab134b	-0.020883223
9	0x3dfa5b7a	0.12224479
10	0xbe824728	-0.25444913
11	0xbec03b25	-0.37545124
12	0x3e12bedd	0.14330621
13	0x3de62294	0.11237064
14	0xbd826dad	-0.06368575
15	0xbe03a876	-0.12857231
16	0x3eee01b5	0.46485677
17	0xbe8d0d37	-0.27549145
18	0x3c9e278d	0.019305969
19	0xbdaf761c	-0.085674495
20	0x3e53779e	0.20651099
21	0xbe78c781	-0.24294855
22	0xbe82e30d	-0.2556385
23	0xbeafd4f6	-0.34342164
24	0x3e866ebf	0.26256368
25	0x3df30ab1	0.118672736
26	0xbd224662	-0.039617904
27	0xbe3fa8f8	-0.187168
28	0x3e29ce44	0.1658259
29	0x3e93fc67	0.28903505
30	0xbdfb78f8	-0.12278932
31	0x3e00c91c	0.12576717
32	0xbd59373d	-0.053031195
33	0x3eccc129	0.3999112
34	0xbede9c5b	-0.43478665
35	0x3e50ccb4	0.20390588
36	0xbca4213e	-0.020035382
37	0xbeacbf1d	-0.33739558
38	0x3f089ac1	0.53361136
39	0x3d9fe172	0.07806672
40	0x3ea2f21f	0.3182535
41	0x3e3ffdbb	0.18749134
42	0x3e3b0b16	0.18265948
43	0x3dbcc0b9	0.092164464
44	0x3cd2e6f8	0.0257449
45	0x3ef48395	0.4775664
46	0x3e2aa9b9	0.16666307
47	0x3f254116	0.6455244
48	0xbe4d134f	-0.20026897
49	0xbe2b0e18	-0.16704595
50	0x3e54b747	0.2077304
51	0x3e9e820b	0.3095859
52	0x3e101072	0.14068773
53	0x3db7283a	0.089432195
54	0x3d27e85f	0.04099309
55	0xbf023b61	-0.50871855
56	0xbeb90135	-0.36133733
57	0xbdb9206c	-0.09039387
58	0x3dde4a11	0.10853971
59	0x3e93e741	0.2888737
60	0xbc8934c3	-0.016748792
61	0x3dae513a	0.085115865
62	0xbcaf54a7	-0.02140267
63	0x3e68eeb5	0.2274731
64	0x3dcf05ba	0.10108514
65	0x3e125cf8	0.14293277
66	0x3dda8ae9	0.10671026
67	0xbc88540e	-0.016641643
68	0x3e386106	0.18005762
69	0xbe10dbe7	-0.14146386
70	0xbd76afde	-0.060226314
71	0xbef581db	-0.47950634
72	0x3c8fc696	0.017550748
73	0x3dacae2f	0.084316604
74	0x3def27c6	0.11677508
75	0x3c9a7908	0.01885654
76	0x3e32aedb	0.17449515
77	0xbd49e349	-0.04928902
78	0x3ec30c63	0.38095388
79	0x3d73a918	0.059487432
80	0x3ebc8e78	0.36827445
81	0xbf3025c8	-0.6880765
82	0x3d5f399e	0.054498307
83	0x3dea5f9d	0.11444018
84	0x3d1b4c27	0.03791442
85	0x3e311afa	0.17295447
86	0x3e99dc13	0.30050716
87	0x3de57c0e	0.11205302
88	0x3eb312a2	0.34975153
89	0xbd989cca	-0.0745178
90	0xbe45a695	-0.19301827
91	0xbd3f13a7	-0.0466496
92	0x3da12f15	0.07870308
93	0x3f003e9d	0.5009554
94	0xbeae5508	-0.3404925
95	0x3d073f78	0.033019513
96	0x3de5a0a1	0.11212278
97	0x3e8e7f7f	0.27831647
98	0x3d8537e3	0.065048
99	0x3e2f11ab	0.17096584
100	0x3cfdc312	0.030976806
101	0xbd11346a	-0.035450377
102	0x3e316409	0.17323317
103	0xbe7751e4	-0.24152333
104	0x3efb721c	0.49110496
105	0x3ea1e764	0.3162185
106	0x3da88518	0.082285106
107	0xbdebf165	-0.11520652
108	0xbda00aab	-0.07814535
109	0x3edd3f83	0.43212518
110	0xbdc22977	-0.09480565
111	0x3f26b14c	0.65114284
112	0xbded2ce9	-0.115808316
113	0xbe6f50f6	-0.23370728
114	0x3d98f71d	0.07469008
115	0x3ea4d8b1	0.32196572
116	0x3e7d7b61	0.24754097
117	0xbe88cf06	-0.26720446
118	0xbdd81b30	-0.105520606
119	0xba8dd42b	-0.0010820677
120	0xbd43ee5f	-0.04783475
121	0x3dc72ad4	0.09724966
122	0x3e528b42	0.20560935
123	0xbccaf551	-0.02477518
124	0x3d44f4ae	0.048084907
125	0x3dc157d1	0.09440578
126	0xbdc0829e	-0.09399913
127	0x3e0c570a	0.13705078
128	0xbd286ed1	-0.041121308
129	0x3e275483	0.16340832
130	0xbd404e7e	-0.046949856
131	0x3e553286	0.20820054
132	0x3eda6e1a	0.42662126
133	0x3dab0e34	0.083523184
134	0xbe818741	-0.25298503
135	0xbee64112	-0.4497152
136	0xbe630144	-0.22168452
137	0x3e464ec1	0.1936598
138	0xbe9374e3	-0.28800115
139	0x3dbb39de	0.09141897
140	0xbdfe7f6a	-0.12426646
141	0xbe47486e	-0.19461223
142	0x3e6f62cd	0.23377533
143	0x3df5d228	0.12002975
144	0x3e2f0c7e	0.17094609
145	0x3d128a73	0.035776567
146	0x3dbf323c	0.09335753
147	0x3e75628f	0.23963378
148	0xbe0ed86d	-0.13949747
149	0xbe035995	-0.12827142
150	0xbcff65ac	-0.03117641
151	0xbe01f419	-0.12690772
152	0x3e5422d6	0.20716414
153	0xbe416a7f	-0.18888281
154	0x3e076acd	0.13224335
155	0xbbc9cf25	-0.0061587268
156	0x3e6f7b71	0.23386933
157	0xbec01c1e	-0.37521452
158	0xbf028bd0	-0.50994587
159	0xbe00cf8c	-0.12579173
160	0x3e1a8b9c	0.15092319
161	0x3ebaae9b	0.36461338
162	0x3e0cf576	0.13765511
163	0x3e907136	0.28211373
164	0x3dd7f8fb	0.10545536
165	0xbc3e2816	-0.011606237
166	0x3e852349	0.26003483
167	0xbe662ebb	-0.22478764
168	0x3e5c6048	0.21521103
169	0x3e88b7db	0.2670277
170	0xbcb2b091	-0.021812709
171	0x3e26bb41	0.16282369
172	0xbe5ae625	-0.21376856
173	0xbdfa0b80	-0.12209225
174	0x3e37c671	0.17946793
175	0x3eb53287	0.35390112
176	0x3cda9170	0.026680678
177	0xbe4d7d02	-0.20067218
178	0x3e686179	0.22693433
179	0x3e9d6f48	0.30748963
180	0xbe89f8c1	-0.26947597
181	0xbe691c56	-0.22764716
182	0x3e4dab03	0.20084767
183	0x3da7b0a6	0.0818799
184	0xbe93ff53	-0.28905734
185	0x3e38a21e	0.18030593
186	0xbef472bb	-0.47743782
187	0xbd8bb597	-0.06821745
188	0xbdca10c3	-0.09866478
189	0xbbb8205b	-0.0056190914
190	0x3d190aff	0.037364002
191	0x3e1a7424	0.15083367
192	0x3ddab8c1	0.1067977
193	0x3e77852b	0.24171893
194	0x3e32ce79	0.17461576
195	0xbcfdb7ed	-0.030971492
196	0x3e1cc70d	0.15310307
197	0x3e49e432	0.19715956
198	0x3da13e8e	0.078732595
199	0x3d97b70f	0.074079625
200	0x3da5a040	0.08087206
201	0xbe6a7bc0	-0.2289877
202	0x3dbcab94	0.092124134
203	0xbedd7fd9	-0.43261603
204	0xbe2a9b5f	-0.16660832
205	0xbe7c5ff9	-0.24645986
206	0x3e916a9e	0.28401655
207	0x3e3e0969	0.18558277
208	0x3eb21495	0.34781328
209	0xbe16df1c	-0.14733547
210	0x3dab58cc	0.08366546
211	0xbe1aa20b	-0.15100877
212	0x3d48dc62	0.0490383
213	0x3e3d1dc5	0.18468387
214	0x3e62b752	0.22140244
215	0x3ea3ae4c	0.31968915
216	0x3e80c63e	0.25151247
217	0x3dc0a1cd	0.09405861
218	0x3e63f8e6	0.22262916
219	0xbe261132	-0.16217497
220	0x3e0b4bb8	0.13603103
221	0x3db110d6	0.08645789
222	0xbf3a746f	-0.72833914
223	0x3e82ad20	0.2552271
224	0xbe4d70f5	-0.20062621
225	0x3e8cea77	0.27522632
226	0xbe732a9e	-0.23746726
227	0xbd3b5d1e	-0.0457431
228	0x3d2345a4	0.039861336
229	0xbe7d5907	-0.24740992
230	0x3f06dca5	0.52680427
231	0xbebe2731	-0.37139276
232	0x3f0c45b1	0.5479384
233	0x3dde7526	0.10862188
234	0x3e9a03d0	0.30081034
235	0xbda81e38	-0.08208889
236	0xbe15145d	-0.14558549
237	0xbe7d891c	-0.24759334
238	0x3e133069	0.14373936
239	0x3e986861	0.29767135
240	0xbdf44c7e	-0.11928652
241	0x3e969539	0.29410723
242	0xbd121ca4	-0.035671845
243	0x3e5d1ec5	0.21593769
244	0x3c908622	0.017642085
245	0xbecbab1e	-0.3977899
246	0xbe0b6ade	-0.13614985
247	0x3f15fe15	0.58590823
248	0x3e252a2d	0.1612937
249	0x3e0abe37	0.13549124
250	0xbda6567c	-0.08121964
251	0x3e7fdfb3	0.24987678
252	0xbd61a1bb	-0.05508588
253	0xbd9c82cc	-0.07642135
254	0xbdd8e840	-0.10591173
255	0xbc7e3442	-0.015515389

layer3.bias f4 [6]
0	0x3dce4456	0.10071628
1	0x3d0f1baf	0.03493851
2	0xbc98aaef	-0.018636195
3	0xbad40293	-0.0016175084
4	0xbc62a9a4	-0.013834391
5	0xbcc302e4	-0.02380509
