drl_deep_project/scripts/our_agent/models/dqn_20250120_191019.pt (torch, 78784 bytes, 6 tensors)

layer1.weight f4 [128, 80]
000000 4d 76 b9 3d 29 2b 0a 3e c0 b0 9c 3d 38 7d 72 3d
       0.09055767 0.13493027 0.076509 0.05920145
000010 97 25 05 3d c1 21 30 3d 6e 4d 58 bd bd 0b 71 bd
       0.03250655 0.04300094 -0.052808218 -0.058849085
000020 2e 38 b8 3c d6 64 ce bc 62 c4 e6 3d a1 8b 95 bd
       0.022487726 -0.025194567 0.11267926 -0.07302023
000030 85 2c 23 3d 5b 88 d1 bd 52 8c 24 bd ae 7a 6d 3d
       0.03983738 -0.10231086 -0.040172882 0.057978325
000040 54 32 f1 3d f9 98 91 3c f0 21 35 bd 48 4d 94 3d
       0.117771775 0.017773138 -0.04422182 0.07241303
000050 a8 bb fa bc 33 b2 73 3c f7 8f 28 bd 98 af 13 be
       -0.03060706 0.014874029 -0.04115292 -0.14422452
000060 98 44 7e bd d5 0e 4b 3e c2 42 7f be d5 ff e8 bc
       -0.062077135 0.19829877 -0.2492781 -0.028442303
000070 df 91 fc bc 2d 1f 15 3d 46 c4 3d 3d 2d 19 33 bd
       -0.030831276 0.036406685 0.04632976 -0.04372518
000080 15 95 db 3a dd 9a ca 3d af d7 1c 3d 7e 1b 18 bd
       0.0016752804 0.09892819 0.03829163 -0.037135594
000090 be 5e 7c 3d 01 6b 3d 3d b9 c5 31 be d7 1d 9a 3d
       0.06161379 0.046244625 -0.17360581 0.07525223
0000a0 0c 83 f9 bc cb 1f de 3d 6c 32 e6 bc f8 5c 14 bc
       -0.030457996 0.10845908 -0.028100215 -0.009055369
0000b0 94 16 9c bd 84 b9 35 bd 7a d1 89 bd ac e8 c7 ba
       -0.07621494 -0.044366375 -0.067294076 -0.0015251837
0000c0 d0 a5 fb 3d bf 9a 04 be 7a dd 60 3d eb 92 89 bd
       0.122874856 -0.12949656 0.054898717 -0.067174755
0000d0 ff 6d 8d 3d 28 bf 4f bd 17 70 2d 3d 87 70 50 3e
       0.06905746 -0.05071941 0.042343225 0.20355426
0000e0 e2 07 d0 3d f9 4c db bd ec 04 36 3d 8b 42 d4 3d
       0.101577535 -0.10708041 0.044438288 0.103642546
0000f0 31 2e 55 bd e2 0f 97 3d 1c 6c d0 3d e1 e8 f4 bc
       -0.052046005 0.07376076 0.1017687 -0.029896202
000100 08 6a a8 bb 35 c7 f0 3c b0 e3 4a bd 38 f1 34 3d
       -0.005139593 0.029391864 -0.049533546 0.044175357
000110 4b fb f1 3d 69 d0 0d be bd 32 9a 3d 56 95 27 3d
       0.118155085 -0.13849033 0.07529209 0.040913902
000120 2a c2 39 be b2 20 46 bd 95 05 cd bb 31 8b b1 bd
       -0.18140474 -0.048371024 -0.006256769 -0.08669127
000130 30 46 35 b8 11 56 0d be 14 75 b5 bd 47 06 9a bc
       -4.321913e-05 -0.13802363 -0.088602215 -0.018801821
000140 98 35 5a bd c6 c2 e8 3d 30 b5 84 3c e5 dd 04 3e
       -0.053273767 0.11365275 0.016199678 0.12975271
000150 21 27 16 3d f9 f9 c1 3b 6e bc 94 3d 0f 57 40 3d
       0.03665841 0.0059196916 0.072625026 0.046958026
000160 f2 3d 4b bc bc 27 50 3d a8 f7 2c be 34 3b ae 3c
       -0.012404906 0.050819144 -0.16891348 0.021268465
000170 c6 48 39 3c af 16 7b be ae 3f b2 bd b3 5c ed bd
       0.011308854 -0.24520372 -0.08703552 -0.115899466
000180 03 33 49 bd 66 4f 56 3d ed f8 cf bd 76 f3 40 3c
       -0.049120914 0.052321814 -0.10154901 0.011776796
000190 f3 7f 14 be 71 5e f4 bc f9 59 db bc 94 a5 4a 3e
       -0.14501934 -0.02983019 -0.0267763 0.19789726
0001a0 21 26 74 bd 34 85 82 bd 6f 7f 1a bc e3 a5 c8 3b
       -0.059606675 -0.06373063 -0.009429797 0.006123291
0001b0 40 81 c2 bd 7f a8 d1 3c d8 6d 99 bd d0 61 8f be
       -0.09497309 0.02559304 -0.07491654 -0.28004313
0001c0 8b 0f b3 b8 01 df a5 bd e1 ef 69 bb 06 5d 99 bd
       -8.53828e-05 -0.08099175 -0.0035695957 -0.07488446
0001d0 a8 26 33 bd 53 73 c6 3d 65 df 70 3d 73 f6 cc bd
       -0.043738037 0.09689965 0.058806796 -0.10007944
0001e0 cc d7 c7 bd 55 37 7e bc 6d 0d a0 3d cf 29 52 3d
       -0.09757957 -0.015516122 0.07815061 0.051309403
0001f0 7f 6d 8a 3d 4d 47 8e 3b 61 5c 53 bd 40 5f b7 3d
       0.06759166 0.004341996 -0.05160177 0.08953714
000200 cc 02 ae 3d 6e 57 16 bc df 5b fe 3c 57 bb 18 bd
       0.08496627 -0.009176118 0.031049667 -0.037288036
000210 d0 0d d2 3d 42 30 d1 bc 28 bc c3 bc f5 cb c1 bd
       0.10256541 -0.025535706 -0.02389343 -0.0946273
000220 c7 5e cd 3c dd 3a 66 be ec b2 c3 bc e9 46 bd 3d
       0.025069607 -0.22483392 -0.023889028 0.09242041
000230 3f 78 cd bd f4 66 be 3c 8b aa 3a bd 61 6b e4 3c
       -0.10032701 0.023242451 -0.0455728 0.027883234
000240 67 c9 89 3d 81 e5 22 3d b8 8e cb bd 5e ae be bd
       0.067278676 0.039769653 -0.09939331 -0.09310602
000250 17 08 aa 3d 17 bb c2 3d 8c 41 80 bd fe e7 04 bd
       0.08302324 0.09508341 -0.06262502 -0.032447807
000260 f6 2c 78 be f5 3a 8e bd 2b e1 19 be 02 95 77 be
       -0.24235901 -0.06944839 -0.15027301 -0.24177936
000270 61 b2 27 3e ae 1d 9c 3b 4f aa 15 3e e3 77 6c be
       0.1637664 0.0047642803 0.14615749 -0.23092608
000280 fa 9d 20 bd df 11 15 3e b1 da a5 bd ff b6 49 3d
       -0.03921316 0.14557599 -0.08098353 0.049246784
000290 70 a9 62 3d 8e e6 9b bb 92 63 94 bd 5f 75 47 bb
       0.05533737 -0.004757709 -0.07245554 -0.003043495
0002a0 d7 45 20 3e d9 22 93 3d 81 71 7a 3e 82 07 9c 3c
       0.15651642 0.07184381 0.24457361 0.019046549
0002b0 02 81 ed bd ba b6 a4 3c 8d da bc 3d 05 1b a0 be
       -0.11596872 0.020106662 0.09221373 -0.31270614
0002c0 e0 ad 1a be b2 ee ef bb 0d 09 fd 3d e7 75 92 bd
       -0.1510539 -0.007322156 0.12355242 -0.07151394
0002d0 a7 37 03 3e 7a 60 93 3d 72 6a 32 3d 05 8e a6 3d
       0.12814198 0.07196136 0.043558545 0.08132557
0002e0 86 72 bd 3d 80 28 69 3d 9d e1 12 bd c5 a8 e1 bd
       0.09250359 0.05692339 -0.035859693 -0.11018518
0002f0 f2 eb 19 3c 1d f4 22 3d 6c 14 ba 3d ed 6a 23 3e
       0.009394633 0.039783586 0.090859264 0.15958758
000300 e9 8d e1 3d 1d 70 30 be 87 21 88 bd 59 b7 b0 3d
       0.11013395 -0.17230268 -0.0664702 0.08628721
000310 8b 3e 89 3d be fe 39 3d 1c fa 58 3e 2f 02 99 3d
       0.06701382 0.045408957 0.21189159 0.074711196
000320 ee 6e ab bd 7c ce b1 3d fd f7 13 bd fa fc 34 3e
       -0.083707675 0.08681962 -0.036125172 0.17674628
000330 47 5f 74 bd e3 82 6b 3d c7 ff c4 bc b4 69 54 bd
       -0.059661176 0.05749787 -0.024047745 -0.05185862
000340 fc 65 99 bc c6 67 96 bd 6c 29 e6 3c 1e 72 cf 3d
       -0.018725388 -0.07344012 0.028095923 0.10129188
000350 91 a2 7d bd c7 ff a0 3d 5d 86 15 3e 30 c5 d8 3d
       -0.061922614 0.07861286 0.14602037 0.105844855
000360 c9 6c c5 3d a5 1a 33 be 09 57 f0 bc fb f8 94 bd
       0.0963989 -0.17490633 -0.029338377 -0.07274052
000370 75 ac f0 3d 1e 2d aa 3c 26 f0 fc bc 7d 73 ae bb
       0.117516436 0.020773467 -0.03087623 -0.005323826
000380 b1 a3 87 3d 85 d2 98 3d df 84 9b 3d 9d 03 b1 bd
       0.066230185 0.074620284 0.075937025 -0.08643267
000390 a4 85 26 bd 11 e9 04 3d 6d d5 ef bd 61 df 25 3d
       -0.040654793 0.032448832 -0.117106296 0.040496234
0003a0 69 31 6a bc 33 b3 6a 3d 97 cf c4 bd b2 65 ef bc
       -0.014294007 0.057299804 -0.09609907 -0.029223297
0003b0 29 36 48 3e 58 6b 8a 3e 00 12 c1 bd 4e 77 b3 bc
       0.1955191 0.27035022 -0.09427261 -0.021907475
0003c0 ef 63 55 3c da 42 eb 3d 9f 53 86 bd 59 ac 8f 3d
       0.013024314 0.1148736 -0.06558918 0.070152946
0003d0 0e 6a d8 3b b6 b3 fb 3d da 6b eb 3d df db b8 3d
       0.0066044396 0.122901365 0.114951804 0.09026312
0003e0 5a 62 0e 3b 77 53 3e bd 62 81 88 3c c2 87 bb 3a
       0.0021726103 -0.046466317 0.016663257 0.0014307427
0003f0 69 d9 14 bd 7f 3c 01 be 05 0c 9e 3d b1 51 18 bd
       -0.03634015 -0.12620734 0.07717136 -0.037187282

layer1.bias f4 [128]
000000 e8 36 c2 bd c1 5b 78 bd 86 d8 01 bc 16 42 b2 3d
       -0.09483129 -0.06063438 -0.007925158 0.08704011
000010 98 ba b3 3c 2c c5 dd 3b 37 68 9a 3d f3 e6 98 3b
       0.02193956 0.0067678895 0.07539409 0.004666203
000020 8c b8 8e 3b 15 94 0a 3c d7 60 2c bb 19 06 15 3e
       0.004355496 0.008458157 -0.0026302838 0.14553107
000030 5c c1 58 bd 08 dd a8 3d ef 45 84 3d c6 da 95 3b
       -0.052918777 0.08245283 0.06458651 0.004573199
000040 2f c0 62 3d 96 0b 54 3d b3 13 07 3e e0 e9 aa bd
       0.05535906 0.05176886 0.13191108 -0.08345389
000050 0a 1f 2f 3d 5d eb fe bb e9 39 82 3c a7 e6 a6 bb
       0.04275421 -0.0077795223 0.015896754 -0.005093414
000060 a9 65 21 3d 7b c5 64 bd 64 87 15 3e 2a a2 1d 3d
       0.03940359 -0.055852395 0.14602429 0.03848473
000070 1e 94 cd 3c 6c a7 23 3d af da 41 3d 30 7a 1e 3d
       0.025095042 0.039954588 0.047327694 0.038690746
000080 97 3a a1 3c 5e a2 4d 3d d2 b8 51 bd 84 98 ba bb
       0.019681258 0.050203674 -0.05120165 -0.005694451
000090 9d d8 83 bd 7e 91 d7 bc ca a4 12 3e 83 66 24 3d
       -0.064378 -0.026314493 0.14320675 0.040136825
0000a0 9d 86 bc bc 4d b8 83 3c 99 18 03 3e 0f 5f d7 3c
       -0.023013407 0.016079092 0.12802352 0.026290445
0000b0 78 5f be 3d c9 88 f4 3b f5 4e d6 3d c4 cf 30 3e
       0.09295553 0.007462595 0.104642786 0.17266756
0000c0 42 ed 45 bb fe 2f f7 3d 29 04 46 3c 7a 3f 26 bd
       -0.003020123 0.12069701 0.012085953 -0.04058788
0000d0 1c 16 9f bc 70 2d cd 3d fb 52 1e 3e fb 76 e5 bc
       -0.019419722 0.10018432 0.15461342 -0.028010836
0000e0 c8 90 86 bd 3d 8d 4a 3c 6a c8 b5 bc e6 37 65 3a
       -0.065705836 0.012362775 -0.022190291 0.0008743986
0000f0 ce 4d 39 3d 3f f5 29 3e 53 da 2d 3d 62 b3 a1 3d
       0.045240216 0.1659746 0.04244454 0.07895543
000100 7c 22 e2 3d 62 c4 38 3e 13 70 81 3c 4f 37 f3 3d
       0.110417336 0.18043664 0.015800511 0.11875784
000110 31 92 a2 3d 0f 8d 86 bd 12 91 80 3a 34 99 a4 bd
       0.0793804 -0.065698735 0.0009808859 -0.08037034
000120 92 13 03 3e c5 2f 94 bc 20 a7 09 bd 25 5d 76 bd
       0.12800434 -0.018089185 -0.03360665 -0.060147423
000130 17 13 2d 3d 83 d2 a7 bd 5c 9d 02 3e fe 12 11 bb
       0.042254534 -0.08194449 0.1275534 -0.0022136564
000140 cf b5 3c 3d 9b d5 c5 3d 80 c6 f4 3c 87 bb 8c 3d
       0.046071824 0.09659883 0.029879808 0.068717055
000150 87 c2 d9 3d 4f ba bf bd 27 82 86 bd 5d 7e d2 bc
       0.10632806 -0.093617074 -0.06567793 -0.02569502
000160 76 cc 18 3c 67 80 e7 bd bf 3a 7a bd e3 e2 0b 3e
       0.009326091 -0.11303788 -0.06109118 0.13660769
000170 24 4f 96 3c 9d c6 f3 bb 25 02 26 3d 9f f3 cc 3d
       0.018348284 -0.007439448 0.04052939 0.100074045
000180 ce 97 c4 3d 3f 68 7b 3d 40 14 0c bd d2 9c c7 bc
       0.09599267 0.061378714 -0.034199 -0.02436677
000190 90 7b 8b 3d 64 68 9b 3c 31 31 01 bd 4f 71 68 bc
       0.06810677 0.018970676 -0.031541053 -0.014187171
0001a0 30 91 c4 3d 5a 20 40 3e d8 97 ae bb 60 7c f0 3b
       0.09598005 0.18762341 -0.00532816 0.0073390454
0001b0 84 1f d1 3d cd 3a 9d 3d 97 a3 16 3e 1e de dc 3d
       0.10211089 0.07677231 0.14710842 0.10784553
0001c0 d9 f7 b3 3d 72 bc 76 bd b4 91 44 3e be c7 09 3d
       0.087875076 -0.06023831 0.19196206 0.033637755
0001d0 33 4e 10 bd fe a8 9d 3d 33 0d 13 3e d7 ad 38 3b
       -0.035230827 0.07698248 0.14360504 0.0028179788
0001e0 7a 00 c2 3d 7e 92 29 3e 1c a7 0a 3d 24 e0 80 3d
       0.09472747 0.16559789 0.033850774 0.062927514
0001f0 d6 a3 13 3e aa a8 59 3d 60 69 04 3c e0 7a 66 3d
       0.14417967 0.053139366 0.008081764 0.056269526

layer2.weight f4 [64, 128]
000000 90 e8 84 ba 01 a9 83 bd 2d d3 9d 3d 10 cb 3f bd
       -0.001014011 -0.06428719 0.07706294 -0.046824515
000010 73 c2 25 3e 77 67 04 be 12 d1 4d 3e e8 af e3 3d
       0.16187458 -0.12930094 0.20099285 0.11117536
000020 b8 1f a9 3d 14 f3 ee 3c c9 bc 90 bd db cf 67 3c
       0.08258003 0.029168643 -0.07067258 0.014148678
000030 ea cf 8d bc ea a6 48 3e 2f 90 bf bd 29 be 33 3d
       -0.017311055 0.19594923 -0.09353673 0.043882523
000040 fb 76 66 be ee 5b 10 3d 19 d2 06 3f cd 71 c7 bd
       -0.22506325 0.03524392 0.52664334 -0.09738503
000050 6a e2 63 bd 0f 9d 51 bd 2c 32 68 3c 34 30 4b bc
       -0.055635847 -0.051175173 0.014172118 -0.012401629
000060 df 29 79 3d 3b 6c 49 be 0c 8c 88 3d f9 44 98 3d
       0.060830947 -0.19670193 0.06667337 0.074350305
000070 25 6d e8 bc 02 ec 6d 3e 8d af 6f be 71 55 c9 3d
       -0.028372357 0.23234561 -0.23406811 0.0983075
000080 7c 6f f0 bc 01 19 3a 3f b2 3e 9a 3d 33 ef 6b 3c
       -0.029350035 0.726944 0.075314894 0.014400291
000090 c9 b3 6f bc d2 6c fe bd ea 15 81 3e 6e be 43 3d
       -0.014630266 -0.124230996 0.25212032 0.04778903
0000a0 0f c8 39 bc 6a 32 22 3c 42 e2 b6 b9 4b 72 97 bd
       -0.011339202 0.009899715 -0.0003488232 -0.073948465
0000b0 29 7c b4 bd 48 0d 9b 3d a0 a6 d5 3c 9c fa 12 3e
       -0.08812744 0.075708926 0.02608043 0.14353412
0000c0 6c 33 8a 3e 90 17 88 bd c3 c9 5e 3d 44 42 e7 bb
       0.26992357 -0.06645119 0.054391634 -0.00705746
0000d0 dc 42 b5 be 1d ef 46 3d 70 b0 c4 bd bf fa 2d be
       -0.35402572 0.04856788 -0.09603965 -0.16990183
0000e0 f0 f9 04 3e 35 d4 3b bd 3e f1 c8 bc 07 d6 94 be
       0.12985969 -0.045856673 -0.024529096 -0.2906954
0000f0 7b dc 8e bd 61 38 0d 3d 61 ed a2 bc 1b f1 15 3c
       -0.06975647 0.034477595 -0.019888582 0.009151722
000100 db 14 37 be 57 61 0d be cf 0c 18 3d d4 82 df 3e
       -0.1787905 -0.13806663 0.03712159 0.436545
000110 90 5d a2 3c 3b 47 ea bd ae dc 25 3e f6 f1 b8 bd
       0.019820005 -0.114393674 0.16197464 -0.090305254
000120 7e fd 20 3d ed 95 e0 3e 4a 6d 79 3e 53 9b dd bd
       0.03930425 0.43864384 0.24358097 -0.10820641
000130 93 b7 b6 3d 10 cf 0f 3c e7 e7 c3 3d 03 e8 46 3d
       0.08921733 0.008777395 0.09565716 0.048561107
000140 5b 30 0e 3c 0d 3f 4b 3d 4f 78 c2 bd dd 96 a9 bc
       0.008678521 0.049620677 -0.09495603 -0.02070182
000150 ce 0c d5 3d 31 bc 6f bd 59 6f 89 be 0b 8f 06 be
       0.10402833 -0.058529083 -0.26842764 -0.13140504
000160 ea 6d 33 3d d7 34 ed 3c e0 1c 52 bd cc f0 28 3d
       0.043805994 0.02895586 -0.05129707 0.041245267
000170 f1 a5 a7 bd 2d 32 81 bd 62 70 d1 3d f7 23 85 3d
       -0.08185948 -0.063083984 0.102265134 0.065010004
000180 de 2d 7b 3e 46 b6 bc bb 2f 88 9c bd 85 fd a4 bd
       0.24529216 -0.0057590334 -0.076431625 -0.080561675
000190 84 01 53 3b c9 c5 b0 bd 2e d9 10 be 39 f8 8a bd
       0.0032196948 -0.086314745 -0.14145347 -0.06785626
0001a0 1f f3 d4 3d 29 f9 ed 3d 94 cb 43 be fb 49 8f 3d
       0.10397934 0.11619789 -0.19120628 0.069965325
0001b0 1b bf 53 3d ca b0 39 3d af c3 33 3e 5b 01 24 3e
       0.051695924 0.045334615 0.17555116 0.16016142
0001c0 6e 1a 1c 3d c8 00 67 be d8 44 38 be e5 05 60 bd
       0.038111143 -0.22558892 -0.17995012 -0.05469312
0001d0 bb c1 3c bd c4 6d 42 be ca 6e b0 3d 97 7f 41 be
       -0.046083193 -0.18987185 0.08614881 -0.18896328
0001e0 cd 70 0f 3e b8 cf 73 3d ee 95 d3 bb 96 1b 4c bd
       0.14007874 0.059524268 -0.006457082 -0.049830996
0001f0 3f 26 d5 3d 9b 3f cb 3d f2 f5 d7 3c ec cc c1 bd
       0.104076855 0.09924241 0.026362393 -0.09462914
000200 eb 2d 21 be d7 10 65 be f8 32 c0 3d 6c ab 5e 3e
       -0.15740173 -0.22369705 0.093847215 0.2174508
000210 4f f1 e1 3e 60 90 a6 3e 65 f2 c5 be e9 bc 47 bd
       0.44129416 0.32532024 -0.38661495 -0.048764143
000220 07 21 25 3e bb a0 4f 3d 06 47 8c bd b9 3d 69 bd
       0.1612588 0.050690394 -0.06849484 -0.05694363
000230 d4 48 4d bc 86 2f 16 3e 84 49 13 be 04 0d 9f be
       -0.012529571 0.14666566 -0.14383513 -0.31064618
000240 de 86 4e 3e 1e 48 a1 3d 0f fe 4e 3e 9e 26 91 3d
       0.20168635 0.078750834 0.20214103 0.07087444
000250 8a f8 32 be bc dc 48 3d bc fc c3 bd 75 27 fe be
       -0.17477623 0.049038634 -0.0956969 -0.49639478
000260 54 b2 79 bd 1c 9f 38 3e f6 6c 83 3e 05 7e f7 3d
       -0.060961083 0.18029445 0.25669068 0.12084583
000270 49 91 79 3e 45 5e a9 3d 09 8c 02 3e 22 47 27 be
       0.24371828 0.082699336 0.12748732 -0.16335729
000280 3d d5 a1 be 74 ab 0d bf d8 09 ed bd af 31 35 bd
       -0.31608 -0.5533974 -0.11574143 -0.044236835
000290 12 6a 3d 3c 28 a5 e2 3d f3 c9 6e 3e 7c f5 b9 3d
       0.011560934 0.11066657 0.23319225 0.090800256
0002a0 32 30 03 3c f8 99 02 be 49 09 3b 3d 2b fd 80 3e
       0.008007096 -0.12754047 0.045663152 0.25193152
0002b0 46 77 a1 3b 70 ba 5f ba 34 a9 f4 3e 12 45 b5 3e
       0.0049275486 -0.0008534556 0.47785342 0.3540426
0002c0 34 f9 bf be c5 21 3c bd da a3 e1 be f4 e2 9f 3d
       -0.37494814 -0.045930643 -0.4407032 0.0780696
0002d0 b8 5b b6 bd bb 79 8d 3d 11 b5 23 be a3 9b ec bc
       -0.08904213 0.06907984 -0.1598704 -0.028882807
0002e0 e7 a0 b5 bd 6e 90 9a 3d 3b a5 83 3c 4d 09 ca 3d
       -0.0886858 0.07547079 0.016069999 0.09865055
0002f0 2f 44 83 bd 74 3c 84 bd bc 5d 06 bd 5c 8a de 3d
       -0.06409489 -0.06456843 -0.032804236 0.10866234
000300 43 68 bf 3e 90 f5 39 bd d6 3b d7 b7 ca 16 28 bf
       0.37384233 -0.045400202 -2.565786e-05 -0.65659773
000310 46 eb a3 bd b5 d9 25 be e0 c1 78 3e 18 53 3d bd
       -0.08003859 -0.1619633 0.24292707 -0.046221823
000320 5d ed bc bd ff 72 a6 bb 56 c5 2b 3d 5f a5 23 be
       -0.09224961 -0.0050796266 0.04193624 -0.15981053
000330 30 f1 55 3e 09 4e cb 3b 94 25 63 3e 7d 47 b1 3d
       0.20892787 0.006204371 0.22182304 0.086562134
000340 6a b0 94 bd 8d d3 ce bc 41 52 bc 3d ac 06 1e bd
       -0.07260211 -0.02524736 0.09195376 -0.03858058
000350 b7 52 82 3b 68 24 82 be 4a c9 27 3e 74 df e5 bd
       0.0039771455 -0.254184 0.1638538 -0.11224261
000360 be 5d 8a be 48 87 60 bd 91 87 e1 3d c0 d1 5f 3e
       -0.27024645 -0.054816514 0.11012185 0.21857357
000370 e7 cb 37 3e 59 42 92 3d 70 8a 0b 3e d2 82 da bd
       0.17948876 0.07141561 0.13627028 -0.10669483
000380 04 74 77 be a6 99 de 3d 17 08 a9 be 97 fe f0 bc
       -0.2416535 0.1086915 -0.33013985 -0.029418273
000390 c6 88 81 3d 11 56 83 3d 3b 9a db 3d ef d5 6d be
       0.063249156 0.064129 0.107227765 -0.2322614
0003a0 12 c9 c1 bc ff 0a 65 be 38 94 55 3d 45 9f 75 37
       -0.023655448 -0.22367476 0.052143306 1.4640221e-05
0003b0 6a 4f 83 3e da 32 dc 3e 33 76 5e be 82 82 98 bd
       0.25646526 0.43007547 -0.21724777 -0.074467674
0003c0 15 1c bd bd 5d 8c 0d 3d 68 0a 62 3d 79 9a f0 3c
       -0.09233872 0.03455769 0.055185705 0.029370533
0003d0 e9 3c 6c bd 2a f4 78 3e 03 70 ee 3b 14 2d c8 bb
       -0.057675276 0.24311891 0.0072765364 -0.0061088894
0003e0 be 76 0e bd 57 73 be 3d 7a c5 a7 3c 9a 05 f9 bd
       -0.03478121 0.09299343 0.020479906 -0.121592715
0003f0 bb 70 00 3e f9 8d aa be 8f da a7 3d 34 d3 ee bc
       0.12543003 -0.33311442 0.081959836 -0.029153444

layer2.bias f4 [64]
000000 ca e1 1e bd 6d ea 56 3d 3b 38 39 bd 4a 65 39 bd
       -0.038789548 0.05246966 -0.04521964 -0.045262612
000010 6f 44 11 3d 31 fd 24 3c 97 63 98 3d 2c a4 e3 3d
       0.035465654 0.010070131 0.0744087 0.11115298
000020 ab 73 f4 bb 6f 8f 64 3d 0e 1b 3c 3d 85 66 3f 3d
       -0.0074600778 0.05580085 0.04592424 0.04672863
000030 5f e5 7f bd 6f fa 95 3d c5 9d ea 3b d6 7b 56 ba
       -0.062474605 0.07323157 0.007159921 -0.0008181905
000040 25 77 6c 3d 05 ff 02 3d 8e 93 41 3d f2 e1 95 3c
       0.057730813 0.031981487 0.04725986 0.018296216
000050 f8 67 23 3c de 2d 02 bb 3d 48 20 bd 90 29 a5 3d
       0.009973519 -0.0019863765 -0.03913139 0.08064568
000060 2a 60 bd 3d f8 06 bb bd 37 b7 a5 3d b0 b1 18 3d
       0.092468575 -0.091321886 0.08091586 0.03727883
000070 d1 12 65 3d e0 4f 80 bb a9 4e bf bc bc 61 98 3d
       0.055926148 -0.003915772 -0.023352938 0.07440516
000080 19 cb 8e 3d 0f 2e a1 bd 64 ec 63 bc 46 64 3f bd
       0.069723316 -0.07870113 -0.01391134 -0.046726488
000090 d3 d6 3c 3d cd b4 cf bc 8f b1 3c 3c 13 8c a2 3d
       0.04610331 -0.025354767 0.011516943 0.07936873
0000a0 53 22 bf 3b d7 c2 31 3d 54 a0 28 bc c2 a2 72 3d
       0.005832949 0.043398704 -0.010292131 0.05923725
0000b0 1f 5a be 3d fa f4 86 bb e2 d6 0b bd 2a 72 9b bd
       0.09294533 -0.004118559 -0.034140475 -0.075901344
0000c0 0a ee d0 bd bc 81 93 3c d2 a8 02 bd 6c a7 da bc
       -0.10201652 0.018006198 -0.03189928 -0.026691161
0000d0 ec fd 5a bd 4f 86 77 bd 2f 86 61 ba 36 63 9c 3d
       -0.053464815 -0.06043082 -0.0008603064 0.076361105
0000e0 49 38 8d bd 50 39 57 3c c5 00 e2 3c c5 86 c6 bc
       -0.06895501 0.013136223 0.027588258 -0.024234185
0000f0 5b dd 19 3d 5b 1e 22 3d 25 b7 d6 bc fa 9a ab bd
       0.037564617 0.03957973 -0.026210377 -0.08379169

layer3.weight f4 [6, 64]
000000 f3 1a c0 be 42 a0 c1 3e 98 6e ef bd cb bf 8a 3e
       -0.3752056 0.3781758 -0.11691016 0.2709945
000010 28 d1 0f bf c9 11 a7 be ce 34 d5 be 74 58 c2 3e
       -0.5617852 -0.32630756 -0.4164185 0.3795811
000020 95 e8 98 be d8 8e 51 be 05 bf b9 3e 7d 4a 4a 3d
       -0.29864946 -0.20464647 0.3627855 0.049387444
000030 30 44 bb 3e 3f 60 fa bd 2c 56 1f 3e e5 4f d2 bd
       0.3657546 -0.12225389 0.15560216 -0.10269145
000040 47 97 b8 bd 67 b3 e4 3e 83 4f 77 3e ab c1 80 3e
       -0.09013229 0.44668123 0.24151425 0.25147757
000050 9c 1d 73 3e a1 20 15 3f d8 c8 95 3e 9a 20 5b 3e
       0.23741764 0.5825291 0.29254794 0.21399155
000060 bc c9 8a be bc f3 db be 33 c0 22 3e 02 97 8a 3e
       -0.27107036 -0.42959392 0.1589363 0.27068335
000070 34 89 d3 3d 52 d0 5c 3e 80 b8 aa 3e b8 c9 4d be
       0.10328904 0.21563843 0.33343887 -0.20096481
000080 86 e0 66 be 43 44 ca bd c8 91 84 bd e3 1a 72 3e
       -0.22546586 -0.09876301 -0.06473118 0.23643069
000090 a6 26 d3 bd c9 7b a3 3e dd b2 71 3e c4 94 56 be
       -0.10310106 0.31930378 0.23603387 -0.20955187
0000a0 8f 2b 19 be 7e 32 12 3e 3e ea f3 3e 9d 66 43 3d
       -0.14958023 0.14277074 0.4763965 0.04770528
0000b0 c4 bd 34 3e 16 5d fa bd fa 18 4e 3e 6f 80 76 3c
       0.17650515 -0.12224786 0.20126715 0.015045269
0000c0 f3 b4 b2 3c fc 85 14 be b8 42 64 be eb be a9 3e
       0.021814799 -0.14504236 -0.22291076 0.3315347
0000d0 a0 81 91 3e 34 19 18 3e c4 c3 1a be 42 ce 28 3e
       0.2841921 0.14853364 -0.15113741 0.16484931
0000e0 2c 5f b3 3e d0 b0 87 bd 22 8a 52 3e f2 e0 19 3d
       0.35033548 -0.06625521 0.20560506 0.03756804
0000f0 4d 19 b3 bd 46 bd 2f 3e 6e b2 39 3e ce 30 b7 bd
       -0.0874506 0.17162046 0.18134472 -0.08944856
000100 27 b6 be be 8b e3 b3 3e 9e 7d 25 3e 1c 40 50 3e
       -0.37248346 0.3513454 0.161612 0.20336956
000110 08 28 ab 3d 08 84 38 3e 34 59 65 be 87 40 5b be
       0.08357245 0.18019116 -0.2239731 -0.21411334
000120 63 f5 5c 3e f8 d6 a0 3d ec 4a 17 bd 53 e8 14 3e
       0.21577983 0.07853502 -0.036936685 0.1454175
000130 ad 5a 7c 3e bc 35 1d 3e 7a 67 48 3e bf 6f 20 3e
       0.24643965 0.1535253 0.19570723 0.15667628
000140 77 3a 01 3e 76 43 b9 3e 4d d5 f8 bc 96 26 65 be
       0.12619959 0.3618428 -0.030375147 -0.22378
000150 1e 75 d5 3d f8 a0 db 3e e6 fd 7f 3e 15 84 86 bd
       0.10422729 0.42896247 0.24999198 -0.065681614
000160 a4 85 21 bb 21 35 2c 3e 84 c7 0d 3e 81 91 bb 3e
       -0.0024646306 0.16817142 0.1384564 0.36634448
000170 46 89 26 be bc 04 fc bd 58 82 4f 3e b9 80 15 be
       -0.16263303 -0.123055905 0.20264566 -0.14599885
000180 d0 76 2b bd 71 aa a5 3d 66 48 b4 be 99 24 d8 3d
       -0.041861355 0.0808915 -0.35211486 0.105538554
000190 9e c6 31 be 42 3a 97 3e 91 ee e9 3d c1 cd 8e 3e
       -0.17360923 0.29536635 0.11422456 0.27891353
0001a0 09 b3 14 be 3b de 05 be 82 53 cb 3e b9 e6 74 be
       -0.14521421 -0.13073055 0.3971215 -0.23916139
0001b0 8e e2 ce bd 10 ed 5b be 86 13 f3 3d 3c 9f 9e bd
       -0.101018056 -0.21477151 0.11868958 -0.07745215
0001c0 ce 13 70 3e 59 a2 97 3e 20 34 01 3d 70 55 c1 3e
       0.23445055 0.2961605 0.03154385 0.37760496
0001d0 2b b2 3b 3b 38 00 49 3e f7 05 7f 3e a3 49 bb bd
       0.0028640132 0.1962899 0.24904619 -0.091449045
0001e0 16 db be 3e 30 ca a8 3e 5c 13 ae bd fe c8 50 3d
       0.37276524 0.32966757 -0.08499786 0.05097293
0001f0 2f 8d 3e be 66 85 af 3e de a7 98 3d 45 c1 99 3d
       -0.18608545 0.34281462 0.07453893 0.07507566
000200 3d 77 c3 be 5d 12 d8 be d7 56 81 3d f5 2f ce 3e
       -0.3817691 -0.4220151 0.063153915 0.40270963
000210 2d 70 bc be a3 4e ab 3e 45 c2 86 3e 9d f2 49 bf
       -0.36804333 0.33458433 0.2632009 -0.78885823
000220 17 d1 b5 b9 bc dd 9c be 72 4c 76 3e f2 ce a3 3e
       -0.00034678794 -0.3063792 0.24052599 0.31993824
000230 67 b1 04 3f ae 0f 15 bd fd 01 a2 3d cc 73 39 be
       0.51833194 -0.036391906 0.079105355 -0.18110579
000240 62 61 cb be 2f ed 70 3e 49 bf 80 3e 04 3c b0 bd
       -0.39722735 0.23527978 0.2514594 -0.08605197
000250 8f de 50 bc b3 f6 28 3e 40 27 74 3e 87 c1 1f 3e
       -0.012748375 0.16500358 0.23843098 0.15601169
000260 ac 8b 47 be b3 ab 71 be f6 a5 71 be d7 af 65 3e
       -0.19486874 -0.23600654 -0.23598465 0.22430359
000270 03 af 94 3e ce 7e 1e 3d 9e 10 2f 3e 1f f3 b4 bb
       0.29039773 0.03869515 0.17096183 -0.0055221464
000280 58 20 2c 3e 90 ca 31 bd 36 c5 05 bc 46 3b 34 3e
       0.16809213 -0.04340607 -0.0081646945 0.17600736
000290 9c 86 6d 3e 31 49 28 3e 0a 1c bc 3e c6 4a 59 bf
       0.2319588 0.1643417 0.36740142 -0.8487972
0002a0 7e 7e 88 bc 60 f2 40 3e cf a1 d9 3e 53 af b8 be
       -0.016661879 0.18842459 0.42506263 -0.36071262
0002b0 1d d9 73 be 08 65 31 be 6b 17 28 3e 7c 55 95 bc
       -0.23813291 -0.17323697 0.16415183 -0.018229239
0002c0 aa fc 60 be 32 f8 b1 be 4e d7 67 3e 1b 57 72 3e
       -0.21971384 -0.3475967 0.22640726 0.2366604
0002d0 64 45 a4 3e 0e 39 29 3e 3c c8 70 be 91 fb 0e 3e
       0.3208419 0.16525671 -0.23513883 0.13963152
0002e0 a4 04 d5 3e 2e e1 bf 3e 8d 08 f6 3e 3c 4d 2e 3d
       0.41605103 0.37476486 0.480534 0.042554125
0002f0 6b a0 48 be a4 93 c5 3e 13 32 7b 3d 55 b9 2b 3d
       -0.19592445 0.38589203 0.06132705 0.041924793
000300 12 aa d7 bc 5c 1a 2a 3e 7e 78 93 bc e1 f5 d6 3e
       -0.026326213 0.16611618 -0.018001791 0.41984466
000310 83 69 92 3e f1 4e 99 be be 5c ce bd 48 4b 28 bf
       0.28596124 -0.2994304 -0.10076283 -0.6573987
000320 c9 45 09 be b4 f5 aa 3e 0e 48 05 3e 2d f8 ec bd
       -0.13405527 0.33390582 0.13015768 -0.11570773
000330 16 28 90 3e b8 e3 b4 3d 19 ae 0d 3e d9 8e 85 3e
       0.28155583 0.088324964 0.13835944 0.26085547
000340 af 98 f5 bd 49 81 e0 3e c7 2f 27 3e e5 13 61 3e
       -0.11992013 0.43848637 0.1632682 0.21980245
000350 e7 9b 0f 3e 3a a0 6e be 65 cc 18 3e 95 aa 73 3e
       0.14024316 -0.23303309 0.1492172 0.2379554
000360 c3 77 83 bd 0c 23 4b 3e dd d7 d0 be 5d 42 ec 3e
       -0.06419327 0.19837588 -0.4078969 0.4614438
000370 c4 b4 44 3e 26 64 43 3e 2f ab 97 be 7c 83 74 be
       0.19209582 0.19081172 -0.2962279 -0.23878282
000380 30 17 6e be 57 5e 3b bd 42 9a ab 3d 85 5e d4 3e
       -0.23251033 -0.045744266 0.08379032 0.41478363
000390 9e a1 34 3e f4 00 86 3d bb c3 b2 3e 33 cd a7 3e
       0.17639777 0.065431505 0.34914955 0.32773742
0003a0 76 e2 97 3e 80 81 a4 3e 0f 93 b6 3e c9 fa e6 be
       0.29664963 0.3213005 0.35659072 -0.4511321
0003b0 dc 79 0e be d4 54 b3 be 96 a8 17 3f 7b 51 ef 3d
       -0.13913673 -0.35025656 0.59241617 0.11685463
0003c0 8e 67 50 be 7b ce 0d bf aa 56 0c bd dc a8 08 bc
       -0.20352003 -0.5539319 -0.034262337 -0.00834104
0003d0 a6 f6 03 bf 9f da 80 3d e3 12 d3 3e 4f 6f 94 3d
       -0.5154823 0.06291699 0.41225347 0.07247793
0003e0 fa 45 de 3e 6a 42 dc 3e ee 9f b2 bd 01 05 ef 3d
       0.43412763 0.4301942 -0.087219104 0.11670876
0003f0 0c 5d 2b 3e 1c 06 b8 bc af 5b e7 3c c6 53 bd bd
       0.16734713 -0.02246385 0.02824196 -0.09244494

layer3.bias f4 [6]
000000 3a 3b ea 3d 60 4c b5 3d a4 6d 30 bb 8f 88 11 3d
       0.11437078 0.08852458 -0.002692082 0.035530623
000010 48 19 55 3d 91 93 4b 3d
       0.052026063 0.049701277
