drl_deep_project/scripts/our_agent/models/dqn_20250118_173837.pt (torch, 29440 bytes, 6 tensors)

layer1.weight f4 [64, 32]
00000000: 5321 62bd a5f6 363e 8673 88bd 1a36 873d
00000010: cae5 36bd 1c75 afbd 1de7 2a3e 6750 27be
00000020: 2c16 41bd 1898 86bd f2bc 2dbe 41b9 0f3c
00000030: 081c 1c3d 857d ddbd 439a 123e 8dff df3b
00000040: 3ec7 09be 2bd6 613d 4841 eebd 8a4e 9dbc
00000050: 4cdc 5d3d 090a 873d 20ba 2e3e 8cb5 14be
00000060: 6e4e 7f39 1a0c 433d 9b31 aa3c 3555 77bd
00000070: ac11 ebbd 5343 253e fbe8 ae3d 83c4 a23d
00000080: 8a84 df3d bfcb 1d3e d4f4 ee3c e788 12bd
00000090: 1ac7 e5bd 1517 84bc f87b 1fbe cef7 be3d
000000a0: e056 08be 9cbe b63c 336c c0bd 7a7c 053e
000000b0: 4d4e bcbd a98c cc3d 7bbe f8bd 6171 e13d
000000c0: 0a7b 3ebd 7c1f 7a3d 8472 fd3d 4428 6abd
000000d0: 2433 4d3c 34c9 14be e7f9 09bd 40be 643d
000000e0: aa0a c1bc 790d 8b3c 6785 bd3d 6970 c3bd
000000f0: af95 c7bc c58d 33bd 12c9 703d b5e1 903d
00000100: ccc7 ea3d 0b94 dabd 65f1 dcbc a50e 64bc
00000110: 0306 153d ea6f dabd 7864 31be 0032 1b3e
00000120: 078d b83d 275c 1abe eb7f d6bd aae3 bbbd
00000130: 8b3d c2bd b517 cebd f65a 06be be2c d8bb
00000140: 05f4 b63c b259 813d 20f9 483d e623 0fbe
00000150: 080f 22be 1bf0 b73c a82e f63d 3172 30be
00000160: 0a7c e83d faf4 d7bd 2632 043e 45ff f73d
00000170: e1e2 403d dc4e 01be 0737 16be a2c9 1b3d
00000180: a0bd b93d c827 093e 5e47 9a3d a1a1 0dbe
00000190: 5cc9 953c 01fb e2bc bb89 143e b795 abbd
000001a0: 044d dd3d 8af8 07be e554 163d 4d3f 5cbc
000001b0: ecf4 11be 84f8 b1bd 1a38 07be a6db 1fbe
000001c0: 96b6 bf3c 1998 dabd ad94 003e 7f8f c3bd
000001d0: d947 a03d d612 b73d 0f53 a9bd 138f 9d3d
000001e0: 169b 9dbd 886b 02be cdc6 1dbd 38d9 f7bd
000001f0: 8e9d 21be 0550 06bd b67f aabd dfbb 03be
00000200: 3b26 0f3d 58ae 3dbd 5557 24be d188 13be
00000210: 8b0e 42bd 90b4 803c 5b16 e0bd deb1 a5bb
00000220: 57d4 073e f428 ae3d 8558 8abd 3231 c33d
00000230: 0751 ebbb 8414 c73d 5971 18be cfb6 233e
00000240: 7eb8 cabb 48b4 343d 5c30 21be 3c1f d7bd
00000250: 19d0 073e adcf 273e 433c 7f3b 02d2 bd3d
00000260: ddd0 353d 4507 7f3d 0292 20bd 0e3f 1fbe
00000270: 6896 26be 3f5e ffbd f0eb b3bd 23c0 07be
00000280: 8588 073e b2b1 903d 5f16 ca3c 35d2 14be
00000290: 7ad4 ef3d 55b4 283e 6d35 003c 8772 273e
000002a0: 8269 a7bb fe0a fcbd 4d48 d73d b1d6 1dbe
000002b0: 53d7 14bd 2d43 cfbd 42fe 103c fdbb 1d3e
000002c0: 5abe b53c fa81 1ebe 1117 f2bc ffc7 b5bd
000002d0: ce42 223e 4228 a23c 267a 4f3c f1d0 073d
000002e0: 1c84 d13d b9a1 93bd 596a 07be da53 c2bd
000002f0: 099d 063e 6753 0b3e a0e2 3f3d 92fb f73d
00000300: d34b c33d 5990 88bc 7a10 123e 40a0 2fbd
00000310: 4d32 76bd 6641 f5bd d0fe cc3c d9c2 673d
00000320: c4b3 0a3e f04a a23d 78ed 27be 7d1d c9bb
00000330: 1cf0 f1bd 4892 ee3d 20e8 afbd 253c a7bd
00000340: ac7c a23d 6298 43bc 72ff 26bd 290b 4ebd
00000350: f2ca 0d3d 887b 6f3b f8af c4bd 3bd7 ba3c
00000360: 49a8 12be 3872 10be 3986 103e 4fed 3a3d
00000370: c340 1ebe 0a35 103e b736 0bbe dce7 9dbd
00000380: e4cf 1a3e 6419 d43d 87b8 0abd 2fa0 2b3e
00000390: 85f9 51bc 191b b1bd f8de 9dbd b9b3 b53d
000003a0: c319 b73d cd1d 37bd 427a 773d 9928 99bd
000003b0: 844c 70bd becf cabc d2d2 1fbd 3e47 7f3d
000003c0: 01b5 22be 0100 b03d b555 21be 5998 79bc
000003d0: 5452 0bbe fc8b 27be e581 3d3d 2dae f63d
000003e0: cf23 43bc 5952 f83d e772 babd c6ec 23bd
000003f0: afb4 cd3d 1e64 7f3d 25aa 23be 7eeb 2ebc
-0.05520756 0.17867525 -0.06662659 0.06602116 -0.044652738 -0.08567259 0.16689725 -0.16339265
-0.047140285 -0.06571978 -0.16966608 0.008772195 0.03811267 -0.108149566 0.14316659 0.006835884
-0.13454911 0.055135887 -0.11633545 -0.01920249 0.05416517 0.06593711 0.17063189 -0.1452238
0.00024347912 0.047618963 0.020775607 -0.060383994 -0.1147798 0.16138963 0.08540531 0.07947638
0.10913952 0.15409754 0.029169478 -0.03577509 -0.11219616 -0.016124288 -0.15574634 0.09324609
-0.1331439 0.022307687 -0.09395637 0.13035765 -0.09194622 0.09987766 -0.12145706 0.110079534
-0.046504058 0.061065182 0.12375358 -0.057167307 0.0125244 -0.14529878 -0.03368559 0.0558455
-0.023564655 0.016974198 0.0925396 -0.09542925 -0.024363367 -0.043836374 0.058785506 0.070743
0.114638895 -0.10672768 -0.026970575 -0.013919507 0.036382686 -0.10665877 -0.17323482 0.15155792
0.09011274 -0.15074216 -0.10473617 -0.09174283 -0.09484395 -0.100631155 -0.13120636 -0.0065971306
0.022333154 0.06315936 0.04906571 -0.13978538 -0.15826046 0.022453358 0.12020618 -0.1723106
0.113517836 -0.105447724 0.12909755 0.12109236 0.04709137 -0.12627739 -0.14669429 0.03803409
0.09069371 0.13394082 0.075331435 -0.13831188 0.018284492 -0.027707579 0.14505665 -0.08378165
0.10805705 -0.13278404 0.036702055 -0.013442826 -0.14253587 -0.08689979 -0.13204995 -0.15611133
0.023402493 -0.106735416 0.12556715 -0.09548854 0.07826204 0.089391395 -0.08267795 0.07693305
-0.07695596 -0.12736332 -0.03851967 -0.12101978 -0.15782759 -0.032791156 -0.0832514 -0.12864636
0.03494857 -0.046308845 -0.1604894 -0.1440766 -0.04737715 0.015711099 -0.10941764 -0.005056604
0.13264595 0.08503905 -0.06755165 0.09530868 -0.00718129 0.0972071 -0.14886989 0.15987705
-0.006186544 0.044117242 -0.15741104 -0.10504004 0.13262977 0.16387816 0.003894583 0.092685714
0.04438864 0.062262792 -0.039201744 -0.15551397 -0.16268313 -0.12469148 -0.08785236 -0.13256888
0.13235672 0.07065143 0.02466887 -0.14533313 0.117104486 0.16475041 0.007825238 0.16352282
-0.005109013 -0.12306784 0.10511837 -0.1541393 -0.03633816 -0.10120235 0.008849682 0.15403743
0.022185493 -0.1547927 -0.029552015 -0.08876037 0.15845796 0.019794587 0.0126634 0.033158246
0.10230276 -0.072085805 -0.13224162 -0.0948865 0.13145842 0.13606034 0.046846986 0.1210853
0.09535947 -0.016670393 0.14264098 -0.042877436 -0.060106564 -0.119753644 0.025023848 0.056582306
0.13545138 0.079244494 -0.16399181 -0.0061375485 -0.11813375 0.11648995 -0.08589196 -0.081657685
0.079339355 -0.011938186 -0.040770955 -0.050303612 0.03461737 0.0036542136 -0.09603876 0.022807708
-0.14322008 -0.14106071 0.14113702 0.04563647 -0.15454392 0.14082733 -0.13595091 -0.07710239
0.15118366 0.103564054 -0.033867385 0.16760324 -0.012815838 -0.086477466 -0.077085435 0.0887217
0.089404605 -0.044706155 0.06041933 -0.074784465 -0.05866672 -0.024757262 -0.039019413 0.0623238
-0.1588936 0.08593751 -0.15755351 -0.015234076 -0.13605624 -0.16361994 0.046266455 0.1204494
-0.011910393 0.121250816 -0.09103947 -0.040020727 0.10044228 0.06235134 -0.15982874 -0.010676263

layer1.bias f4 [64]
00000000: c200 95bd 8a0f 90bc 0ab8 573b 556f 013e
00000010: 3615 e53d 5bcc cbbd 959e 273e 0b13 cdbd
00000020: 4f83 29bd 0be1 523d fda2 16bd 0620 df3d
00000030: 4df7 cbbc cf8f 01bc e009 d13d 357a e6bd
00000040: 405f 043e b6f1 f0bd bc2a 50bd 03b6 8d3d
00000050: 80bd 083e 1e77 ef3c abec c13d b7a5 0c3e
00000060: 5e8d 1c3c 92a6 fb3d 2fee 723d f1f8 1fbe
00000070: 0d8e 273e f460 f83d 3a30 1f3d 7de9 bfbd
00000080: ad30 243e ebcf 7c3c 1577 0a3d b633 a43b
00000090: fbf3 953d fe18 f23d 5118 e33a a8a1 44bd
000000a0: 5b18 313e 97f9 b8bd d44c 27be 49e9 643c
000000b0: e9ab fdbd dac6 e8bd 0823 583d 2c05 2dbe
000000c0: 453b 213e 8d60 2b3e faf3 ca3d 0e4a bcbd
000000d0: 9f6a d2bd 3225 33be d018 133e 886f 2e3d
000000e0: 7534 243d 876e d6bd 9c2e e2bd be00 f2bb
000000f0: 041a f63d 1eed d7bd 9e52 903d 08a3 a0bd
-0.07275535 -0.017585535 0.0032916092 0.12640126 0.11185686 -0.09951087 0.16369088 -0.10013398
-0.04138499 0.05148415 -0.03677653 0.1089478 -0.024898196 -0.007907822 0.10206962 -0.11253778
0.1292696 -0.11764853 -0.050822005 0.069194816 0.13353539 0.029231604 0.09468969 0.1373509
0.009555189 0.1228763 0.05930918 -0.15622307 0.16362782 0.12127867 0.03886435 -0.09370706
0.16034193 0.015430431 0.03380497 0.0050110472 0.07321926 0.11821173 0.0017325972 -0.04800573
0.17294447 -0.090319805 -0.16337901 0.013971635 -0.12386305 -0.11366053 0.052767783 -0.16896504
0.15745266 0.1673605 0.09909816 -0.09193812 -0.102742426 -0.17494658 0.14364934 0.042586833
0.04008909 -0.104703 -0.11044046 -0.0073853424 0.12016681 -0.105432734 0.07047008 -0.07843596

layer2.weight f4 [64, 64]
00000000: d8da fa3d 2fc0 2e3d 913b 8abc 126c 3abb
00000010: 263f dbbc c326 823d 1b6c f03d 68af c3bd
00000020: 82e8 693b 2c76 c4bd 46e4 803d 4d95 9bbd
00000030: 4f8c 6fbd 8308 a4bc 4fd3 023e f114 8fbd
00000040: 56c3 893d 6293 f03d 0af8 333d 4b65 7e3d
00000050: f88b ae3d 3b82 a5bd 8e2c 86bd 545f c4bc
00000060: 5fae 6a3d 555d 1b3d fa84 f33d 0a29 d1bc
00000070: 7736 e13d 32de 843c deb8 5bbd 4832 fa3d
00000080: b410 15bc 7f81 2ebd f448 a83c 904d 8dbd
00000090: b952 463d 3822 17bd 0ec5 09bd dfdd 16bd
000000a0: bf42 bd3d db56 81bd 65e7 513d a380 f4bd
000000b0: 8cf7 2dbd 6dbd b83c ce36 39bd 0be2 21bc
000000c0: c7c4 f8bc 5760 3bbd f378 583d a8f7 963d
000000d0: a067 e43c f535 9c3d c8e0 b0bd b787 94bd
000000e0: 75b1 4fbc 6c90 1d3d 0d69 0ebd b20a 4e3d
000000f0: 382b fb3b 2e31 b53d 6396 d83d d91c 0abc
00000100: 6557 843c e41a e03d 8419 b43d 6eb4 16bd
00000110: 7cc4 ab3d 9543 823c e6f9 c2bd 3177 e93d
00000120: bf60 47bd 96a7 49bc 0a49 c7bd 0c4b be3d
00000130: 74cb b7bc efee 2a3d 14c2 d23d b087 60bd
00000140: 057b 3c3d 4973 a7bd 34fb 52bd f1fa fc3d
00000150: bc1a 143d 59b4 02bc 497b 8ebd ef3c ecbd
00000160: 629f d7bd 2190 e6bc bfb6 813d a1d2 063d
00000170: 3a26 87bd 8296 b63c 033d 9e3c 91ae 6dbd
00000180: 85d7 a63d 6de2 ec3d 4d67 e9bd f5dd 053d
00000190: bc39 39bc 5b96 4fbc 0bbb 3a3d a3a0 57bd
000001a0: 2ecb 98bd fa9e 36bb 1e1c f8bc e52a 96bd
000001b0: 2984 1abd 9be9 6c3d 7dcb f83d 4f78 e23b
000001c0: 60f5 363d b53d f43d 089b eabc bf6d 153d
000001d0: e704 01be 9d15 363c 2f0a bb3d af9f 88bd
000001e0: cc5d 613d 22c4 8bbd f099 ed3b 3304 533d
000001f0: fe73 08bd 2db3 adbc 0f8a 70ba e373 8e3d
00000200: 7d55 4dbd 921d f7bd 3b0f f93d 22be f53d
00000210: 21ab 4a3d 4989 073d 5a65 3c3c 6a98 9abd
00000220: adeb 93bc b247 b53d adde dc3d 25c1 9d3d
00000230: d988 a83d 827e 193d 9a3c c93d 396d 74bd
00000240: a187 4e39 a0e5 ea3c 97bf de3d 17bc 88bd
00000250: 013c f3ba 0712 ef3d 8a47 2bbb 261e 06bd
00000260: aba1 50bc 7811 d23d 7156 dcbd 7695 353c
00000270: 01e8 d7bd c1e7 f43d 8db3 283a 0650 713d
00000280: 9f82 eebd 753a 91bd e8f2 843a 0a50 f0bc
00000290: d45c cd3d 16e2 cdbc 0f7e 663d 1c83 c23d
000002a0: 5cf6 99bd 250e 13bd c797 70bc d475 d03d
000002b0: 6cb1 e6bd 2c21 39bd f803 613d cb92 a9bb
000002c0: da98 4dbd ba9c debb c1dd 013d 6b2c c63d
000002d0: 9f3d 033d d705 87bd cb9b d83c 48b5 ed3d
000002e0: a20c dc3c 66cc 993d 3fa4 673c 8c10 c3bd
000002f0: ac58 fe3c d0f8 0bbd 8b8f 1a3d 5b94 213d
00000300: c327 fabd 3a2f 193c 4572 0dba 4f2a dbbc
00000310: 8719 5b3d 13a6 863d 6607 d1bc ddab 183c
00000320: 9b08 e6bd 6e89 b03d c3fc e83d f58c 4c3d
00000330: 6c67 eb3d 603b f4bd 1773 21bd 7b31 a43c
00000340: 4d42 e1bd 16f6 edbd 55c5 3d3d ed5e 88bd
00000350: 0e4b 5d3c 8545 bd3c 5050 bfbd 3b03 58bc
00000360: 1fcc 303d b81b 3c3d 2478 943d 3b17 00be
00000370: 17e8 bbbd f94b a93d 402b 75bc f2d8 403d
00000380: ec2e 7abd 174b b73b ee88 f93c a329 07bd
00000390: f26b b93d b77f e8bc fa3c 12bc 8627 d33c
000003a0: 95f0 5a3d 5b2f 84bd c9cd 43bd 39f1 bebd
000003b0: 0b7e 203b 8414 f33d a50d 2cbd eb06 5ebd
000003c0: e131 c13c 7963 a13d d071 72bc 0bc3 0e3d
000003d0: 31f5 7dbc 948f 97bd c81d e7bd 94b1 453c
000003e0: da43 31bd 4c40 bf3b 75fe 443d dbb1 593d
000003f0: 2a72 b0bd 6a92 0f3c 008e 4fbd 06e3 ae3d
0.122487724 0.04266375 -0.016874107 -0.0028445763 -0.02676351 0.063550495 0.117393695 -0.095549405
0.0035691564 -0.09592852 0.0629354 -0.07596836 -0.058483418 -0.02002359 0.1277592 -0.06986416
0.067267105 0.11746861 0.04393772 0.06210832 0.08522791 -0.0808148 -0.06551467 -0.023971237
0.0572952 0.037930805 0.11890598 -0.025532264 0.109967165 0.016219232 -0.0536431 0.12216622
-0.009098221 -0.042603966 0.0205426 -0.068995595 0.048418734 -0.036897868 -0.03363519 -0.036832687
0.092412464 -0.063153945 0.051246066 -0.11938598 -0.042472407 0.022551263 -0.04521828 -0.009880553
-0.030367268 -0.045746174 0.05284972 0.073714554 0.027881444 0.07627479 -0.086366236 -0.07252448
-0.012676586 0.03846781 -0.034768153 0.05030317 0.007665064 0.08847271 0.10575559 -0.008429729
0.016154954 0.10942629 0.08793929 -0.036793165 0.08387086 0.015901366 -0.095203206 0.11399687
-0.04867625 -0.012308022 -0.09730728 0.09291658 -0.022435881 0.04173177 0.10290924 -0.0548169
0.046015758 -0.08176286 -0.051509097 0.12352551 0.03615831 -0.007977569 -0.069571085 -0.1153506
-0.10528447 -0.028144898 0.06333684 0.032915715 -0.06599088 0.022288565 0.019316202 -0.058027808
0.08146576 0.11566625 -0.11396656 0.032682378 -0.011305269 -0.012670125 0.045588534 -0.05264343
-0.074606284 -0.0027865754 -0.030286845 -0.073324 -0.037723694 0.05783997 0.12148187 0.0069113146
0.0446676 0.11925832 -0.028638378 0.036481615 -0.12599526 0.011113551 0.09132802 -0.06671082
0.055021092 -0.06824519 0.007251017 0.051517677 -0.033313744 -0.021203602 -0.0009175846 0.069556974
-0.050130356 -0.12066187 0.12161108 0.119991556 0.049479607 0.03308991 0.0114987735 -0.07548602
-0.018056715 0.088515654 0.107846595 0.07702855 0.082292266 0.037474163 0.09826012 -0.059674475
0.00019696217 0.028673947 0.108763866 -0.066765 -0.0018557311 0.1167336 -0.002613517 -0.032743596
-0.012733857 0.10257238 -0.10758675 0.011082998 -0.10542298 0.11958266 0.00064354466 0.058914207
-0.11646008 -0.07091228 0.0010143192 -0.02933504 0.10027471 -0.02513222 0.056272563 0.094976634
-0.075176924 -0.03590216 -0.014684624 0.10178724 -0.11264309 -0.04519765 0.054935426 -0.00517497
-0.0501946 -0.0067935856 0.03170562 0.09676441 0.03204119 -0.06592911 0.026441475 0.11606842
0.026861493 0.07509689 0.01413828 -0.095246404 0.031048141 -0.034172833 0.03773455 0.039448123
-0.12214615 0.009349639 -0.00053957506 -0.026753573 0.05349114 0.06574645 -0.025516223 0.009318319
-0.1123211 0.08619963 0.113763355 0.049939115 0.114943355 -0.119253874 -0.0394164 0.020043125
-0.10998974 -0.11619203 0.04633077 -0.06658731 0.013506664 0.023104439 -0.0934149 -0.013184364
0.043163415 0.045924872 0.072494775 -0.12508862 -0.09175127 0.08266444 -0.014963925 0.047081895
-0.061079904 0.005593668 0.030460801 -0.032998692 0.09053792 -0.028381212 -0.008925671 0.025775682
0.053452093 -0.06454345 -0.047803674 -0.09323353 0.002448919 0.118691474 -0.0420052 -0.054205816
0.023583354 0.07880301 -0.014797643 0.034853976 -0.015500353 -0.07400432 -0.11284977 0.012066264
-0.0432776 0.005836522 0.04809423 0.05314813 -0.08615525 0.008762935 -0.05067253 0.08539395

layer2.bias f4 [64]
00000000: 7484 dc3c 888c c13d 7d96 e8bd 365b febd
00000010: 120f 0c3d 16e8 6d3c 0ccb f83d 9c65 d53d
00000020: 1ede f6bd 616a b63d 7b33 df3d 43d6 acbd
00000030: fdbf 42bd 7aa1 fcbc 9621 17bd 7f22 ac3b
00000040: b422 9bbd 0b14 d83c 635b f43d a2bf 9abd
00000050: 4802 fb3d 0404 313d 8982 063b baf6 183c
00000060: efb0 04bd 3c99 fdbd 9426 91bd fbe8 e4bd
00000070: 58a6 d3bc 1627 d1bc 72bc fa3d 95dc 133d
00000080: 95ec de3d b4dc e4bd 912b 75bc 84de 843c
00000090: eba6 79bd bb53 843d c54a 243d 2643 99bd
000000a0: 2194 fd3d 9321 a6bc b914 b43d 430c 2dbd
000000b0: ebf0 f73c ed14 72bd ca0f 603b 36b0 263d
000000c0: 5d9a c2bc d41e ccbd e311 9d3d 932b 383d
000000d0: 604e 26bd c75b d33d b842 2abb 1d4e dbbd
000000e0: b1c4 4b3d 408b ac3d a826 dd3d 1c09 633c
000000f0: 8ac6 e0bc 7cf4 c8b9 e48b d0bd f583 cf3d
0.026918627 0.09450632 -0.11356828 -0.12419741 0.03419406 0.014520666 0.12148103 0.10419771
-0.12054084 0.08907009 0.10898491 -0.08439305 -0.047546376 -0.030838717 -0.036897264 0.0052531357
-0.075749785 0.026376745 0.11931493 -0.07556082 0.122562945 0.04321672 0.0020524582 0.009336168
-0.0323953 -0.12382743 -0.07087436 -0.1117725 -0.025836155 -0.025531333 0.12242974 0.036099035
0.10884968 -0.11174908 -0.014964 0.016219385 -0.0609502 0.06461283 0.04011037 -0.07483511
0.12381769 -0.020279681 0.08793015 -0.04224802 0.030266246 -0.059101988 0.0034189099 0.04069539
-0.023755247 -0.099668175 0.07669427 0.04496343 -0.040602088 0.103202395 -0.002597971 -0.10708258
0.049748126 0.08424997 0.10798389 0.013857152 -0.02743842 -0.00038329128 -0.10182932 0.10132591

layer3.weight f4 [6, 64]
00000000: ec54 04be a12a b23d 1a78 04bd 7f40 aabd
00000010: 3639 943d 1464 9f3d 43a1 ea3d 44ee b8bc
00000020: 25f9 cabc 0019 22bd 37f2 973d c319 a8bd
00000030: dd7b fabd 5ed1 6c3d 3b77 263c f631 4ebd
00000040: 7156 853c c491 9e3d d956 febc efd4 5f3c
00000050: 9aa8 5d3d 238d fbbd bee5 b0bd 879b dfbc
00000060: 6e12 d4bc 3574 643d f0c4 2b3c 2269 763d
00000070: cc17 233d 3092 303d db89 a33d 5cce a5bd
00000080: c034 eebd d934 c3bd 4dbc a73d eba7 ea3d
00000090: 540a 76bd 7125 9dbb e717 cabd 4fce 3ebd
000000a0: 09da 01bd 0f0f 823d ee12 8ebc 08b9 9bbd
000000b0: 2159 ce3d ae0b 813d 2dc3 2c3d 94e5 7fbd
000000c0: cd7f c0bc 3f21 e3bc 1692 d2bc 654f a03c
000000d0: 3fad a83d f3e8 00bd ccae ce3d 43a9 c2bd
000000e0: f212 d63d efd4 7abb 737f 5f3c 17bf e43d
000000f0: fd83 5cbd 4cbc 8abd 5039 9b3d c4e0 debd
00000100: 3dab 00be 67d3 253d 4c45 f03d 2b05 913c
00000110: c7f9 bbbd 8b7a 9c3d fd87 d4bd e46d e93d
00000120: bc06 eebd 9244 efbd 458b c43c 8ca5 763d
00000130: 45d6 87bd a07f ba3d 7795 283d bcd8 cbbd
00000140: da85 d8bd 67c2 d6ba 891c 563c df63 dc3c
00000150: 753e f73d 7ed5 c1bd f7f0 e3bc e43a ba3c
00000160: 1a7a e7bd df96 823d 6b25 aa3d 8bdd a13d
00000170: 1f24 ea3d eba9 aabc 76a9 e5bc 7333 ba3d
00000180: b2aa e03d 2f89 033d 6b4b 5fbd 8650 59bc
00000190: 1101 38bd 0023 aa3d 0c26 cd3c bcf7 e43d
000001a0: 9ee7 7cbd 0a55 183c 4ef9 ffbd 0ac8 f63d
000001b0: 8703 883d d286 e3bb f643 333d e093 bf3d
000001c0: e9c6 c43d f55e 073d 8deb fabd 76ad 19bd
000001d0: 6ed6 69bc 0030 a13d 8815 81bd 44ec cc3d
000001e0: d736 7fbd 1a80 643d c5b0 b3bd 52db af3d
000001f0: f9b9 85bc 16e7 283d 4b66 c1bd 40ee 93bd
00000200: 80fc 9abd 2767 f3bb 90df 7f3d c122 433d
00000210: 3d43 cfbd f25d 493c 764d bfbd 8c00 363c
00000220: 3a29 cfbd 5542 123d ec8a 7f3d 3d41 c4bc
00000230: 30c3 ea3b f733 be3d 6716 de3c 98ae fa3d
00000240: 1a05 94bc 70f5 a03d c656 de3d 8edc 993d
00000250: 8992 133d 80ae ec3d 8f6b bf3d d817 f1bd
00000260: 95b3 c73d ad14 77bc 7e95 f63d ccb2 01be
00000270: 59df b3bd abde a3bd c364 c13d f805 9d3d
00000280: c108 113c 1f66 b43d 155b 013e 9109 953c
00000290: 24de d9bd ccdc bcbd eff9 873d 5427 8e3d
000002a0: 81bf ab3c bec8 923d 4526 cd3d 00b2 b23d
000002b0: e6f6 bbbd a6a8 c33c 8b25 edbd a733 fbbd
000002c0: 2141 85bc 7fab e3bc 828c 923d 2d96 bfbd
000002d0: cf95 a83d fb59 bd3d 1a0d a9bd 93a3 e73d
000002e0: 8fd8 8f3c 31ef a4bc a64b 6a3d abc2 f8bc
000002f0: 8a41 a13c 4611 413b 66f3 b23d 3f32 813d
00000300: cdfa 86bb 11b6 e73d 7b23 f83d 5675 babd
00000310: 76ee 2ebd d131 a33d be98 e4bd 79c3 e8bd
00000320: f0e5 f4bd 68f7 733d c90d ef3d 55ad e53d
00000330: a522 c93c 3a38 453d 43bd 873d e4aa ab3d
00000340: 9f6d 84bd 8bf8 b23d f010 babd 778d c43d
00000350: 5431 0fbd ae0e 983d 5598 c4bc 2c7c 33bd
00000360: 1dc4 21bd 5afa e5bd f0c2 6b3c 8895 04be
00000370: e397 d6bd aa7f 96bc 472d 203d 101c e13d
00000380: 4125 a4bd 36c1 9abc d07a a23d 4a6b cdbd
00000390: 7529 913c b8a5 e03d c73a 0f3d b001 8b3d
000003a0: 6c93 0f3d 70d2 b43d 2ab6 b6bd 1060 743a
000003b0: c027 ac3d f859 abbc 3fdf f9bc 657d 81bd
000003c0: 9d24 493c 34a4 6f3d 9188 f6bd 9b77 ad3d
000003d0: 4283 a3bd 49c6 93bd 7c27 6d3d adf7 bdbb
000003e0: e62f febd a6c0 d23c 3c3f 963d 246c d0bb
000003f0: d32d a3bd 4fc3 7bbc 1a93 1cbc ad29 15bb
-0.1292302 0.08699537 -0.0323411 -0.08313083 0.072374746 0.0778276 0.114565395 -0.022574551
-0.024777004 -0.039574623 0.07419246 -0.08208039 -0.12230656 0.057816856 0.010160263 -0.050340615
0.01627657 0.07742646 -0.031047272 0.013661607 0.05411587 -0.12282779 -0.0863757 -0.02729584
-0.025887694 0.055774886 0.010483965 0.060158856 0.039817616 0.043108165 0.07985278 -0.080960006
-0.11631155 -0.09531564 0.081902124 0.11457809 -0.060068443 -0.004795723 -0.0986784 -0.04658347
-0.031702075 0.063505284 -0.01734301 -0.07603651 0.10075594 0.06301056 0.04217832 -0.062474802
-0.02349844 -0.027725814 -0.025704425 0.019569108 0.08236169 -0.031472158 0.100919336 -0.0950494
0.10452832 -0.003827389 0.013641226 0.1116926 -0.05383681 -0.06774196 0.07579291 -0.108827144
-0.12565322 0.040484812 0.11731967 0.01770266 -0.091785006 0.07640561 -0.103775 0.11397913
-0.11622378 -0.116830006 0.02399219 0.06021647 -0.066326655 0.09106374 0.041158166 -0.09953448
-0.10572405 -0.0016384841 0.013068327 0.026903091 0.120724596 -0.094645485 -0.027824862 0.02273316
-0.11302586 0.063764326 0.08307918 0.07903584 0.11432671 -0.020832976 -0.028034907 0.090918444
0.109700575 0.03211325 -0.054515284 -0.013263827 -0.044922892 0.08307457 0.025042556 0.11180064
-0.061744325 0.009297619 -0.12498723 0.12049873 0.06641298 -0.006943562 0.043765984 0.09354377
0.096082516 0.033049542 -0.12251959 -0.03751894 -0.014272315 0.078704834 -0.06302935 0.100060016
-0.06230816 0.05578623 -0.087739505 0.08586754 -0.01632403 0.041236006 -0.09443339 -0.07223177
-0.07567692 -0.007428068 0.062469065 0.047640566 -0.101202466 0.012290465 -0.093409464 0.011108529
-0.10115285 0.03570779 0.062388346 -0.02395689 0.0071643814 0.09287255 0.027110292 0.12240332
-0.018068839 0.078593135 0.108563945 0.075127706 0.03602842 0.11556721 0.09346687 -0.11772126
0.097510494 -0.015080613 0.12040232 -0.12665862 -0.087828346 -0.08001455 0.09443047 0.07667154
0.008852185 0.088085406 0.12632401 0.018193038 -0.10638073 -0.09221801 0.06639468 0.06941095
0.02096534 0.07167195 0.10017065 0.08725357 -0.091779515 0.023884129 -0.115794264 -0.12265711
-0.016266407 -0.027791737 0.07155706 -0.09354816 0.08231699 0.09245678 -0.08254452 0.11310496
0.017559318 -0.020133587 0.05720105 -0.030366262 0.019684572 0.0029459759 0.08737831 0.06308412
-0.0041192533 0.11314023 0.12116142 -0.09104411 -0.042707883 0.07968486 -0.11161946 -0.113654085
-0.119579196 0.059562117 0.11672551 0.11214701 0.024552653 0.048149325 0.06627896 0.08382204
-0.06466221 0.08738812 -0.09085262 0.09597295 -0.034959152 0.07424675 -0.023998419 -0.04381959
-0.03949367 -0.112293914 0.014389738 -0.12947667 -0.10478189 -0.018371422 0.03910568 0.109916806
-0.08014918 -0.018890958 0.07933581 -0.100302294 0.017719964 0.10969108 0.034968164 0.06787431
0.0350527 0.088292 -0.08921464 0.0009322176 0.08406019 -0.020916924 -0.03050196 -0.06322745
0.012276796 0.058506206 -0.12037767 0.084700786 -0.0798402 -0.07215554 0.057898983 -0.0057973475
-0.1241148 0.025726628 0.0733628 -0.0063605476 -0.07967725 -0.015366389 -0.009556556 -0.0022760436

layer3.bias f4 [6]
00000000: 2614 a8bd d262 a2bd cdc8 f3bd 2cb7 f9bd
00000010: 52a4 8c3d 7eab c43d
-0.08206968 -0.07929005 -0.11903534 -0.121931404 0.06867279 0.09603022
