drl_deep_project/scripts/our_agent/models/dqn_20250118_222827.pt (torch, 29376 bytes, 6 tensors)

layer1.weight f4 [64, 32]
000000 47 e6 43 3e fc 17 8a 3e fe b6 08 3e 77 7b f2 3e
       0.19130813 0.26971424 0.13351056 0.4735982
000010 17 cd e6 3c e3 9a 1a 3e ca 03 f8 3d 43 3b ee 3d
       0.028173966 0.15098147 0.12110098 0.11632397
000020 7e fc 25 bf 67 5b ca 3d a8 e4 82 3c 48 da b3 bc
       -0.648384 0.09880715 0.015978172 -0.02195467
000030 ee 22 f7 3d e4 4a 0b 3e 83 48 11 3e cd 5e ad 3d
       0.12067209 0.13602787 0.14187817 0.084653474
000040 33 05 04 bf ee 96 0c bd b2 2d 7a 3e 99 6b f6 bd
       -0.51570433 -0.034323625 0.24431494 -0.120322414
000050 de 71 a6 3d 04 7e f3 3d cc ef 6b 3e 3e 72 f9 3c
       0.08127187 0.1188927 0.23040694 0.030449983
000060 43 d3 f0 be 1c 7f 02 3f 2f 0b 0b 3f d5 2f 1b 3f
       -0.4703618 0.50975204 0.5431394 0.6061986
000070 85 13 9e 3e 4e 4b 54 3d c6 0d 02 3f 4d 2b 0d 3d
       0.30874267 0.05182963 0.50802267 0.034465123
000080 30 77 05 be 0e bd 07 bc 10 38 c9 bd 01 2c e0 3d
       -0.13033748 -0.00828482 -0.09825146 0.10945893
000090 63 20 eb bd 10 7f e9 3d 1f bd 1c 3c 5e b0 fe bc
       -0.11480787 0.114011884 0.009566574 -0.031089958
0000a0 83 f2 15 bf 98 08 2a be d2 e9 29 bd 4c 9d 06 3e
       -0.5857317 -0.16604841 -0.041482754 0.13145941
0000b0 0f 49 ff 3c 52 30 e4 bd d9 79 1d 3e 7a 5c 6c 3c
       0.031162767 -0.11142029 0.15378512 0.014426345
0000c0 be a5 7c 3f ae ec 99 3d bf 13 a7 bc db 70 14 3e
       0.986904 0.07515846 -0.020395158 0.14496176
0000d0 b0 95 80 3f b6 d1 6e 3c 30 34 fa 3b fa a7 6d bd
       1.0045681 0.014576366 0.0076356158 -0.058021523
0000e0 0f 9f a5 bf bd 66 e3 3d d5 4f 6e 3d 36 f7 8d 3d
       -1.2939166 0.1110358 0.058181603 0.06931917
0000f0 72 f0 43 3e ba 75 43 3d c4 fa 85 bd bc 8f 96 bc
       0.19134691 0.047719695 -0.0654197 -0.018379085
000100 2f 6e 90 bd 8e a0 27 3e 41 ec f8 3d 92 87 dc bc
       -0.07052266 0.1636984 0.12154437 -0.026920114
000110 0a 27 ad bc 29 a7 47 3c b2 22 88 bd 13 ed 20 be
       -0.02113678 0.01218585 -0.066472426 -0.15715437
000120 d3 4d a2 bd 6c 9c 00 3e c2 a4 a7 3d 71 62 57 bd
       -0.07925 0.1255967 0.08185722 -0.052584115
000130 c5 7a a7 3e 46 03 af bd 58 2d 40 bd eb 15 1e 3d
       0.32710853 -0.08545546 -0.046918243 0.03859512
000140 d5 73 5d 3f 47 2a 2c 3e 2e 6f 38 be 33 22 eb bd
       0.8650487 0.16813003 -0.18011162 -0.11481132
000150 1c 1a 03 3d 6b 1f cf bd c9 a8 43 3e 81 54 21 3c
       0.03200732 -0.101134144 0.19107355 0.009846807
000160 1e 5b 3c bf 6e 5f 2c 3e 3d 33 64 3e bc d8 a2 3e
       -0.73576534 0.16833279 0.22285171 0.3180598
000170 95 4c 42 3e f1 a2 0c bd 37 32 90 bc 13 cc f2 3c
       0.18974526 -0.03433508 -0.01760207 0.029638326
000180 69 3c 5a bd ef 29 d7 3d 3f 46 fc 3d 11 40 0f 3e
       -0.053280268 0.10506045 0.12318086 0.13989283
000190 e0 d3 92 3c 95 a3 b9 3d 82 e0 06 3d 16 a0 1f 3b
       0.017923295 0.09064404 0.03292895 0.0024356893
0001a0 38 0d 10 bf c0 9f 20 be 6b e1 4c 3d 05 b4 83 bd
       -0.5627017 -0.1568594 0.050019663 -0.064308204
0001b0 3f b6 7a bf ba b5 19 be 88 0d 9c bc dd c5 d4 3d
       -0.97934335 -0.1501073 -0.019049421 0.10389302
0001c0 ec 21 e9 bf e5 b7 0e be 96 ac d9 bd e7 04 09 be
       -1.8213477 -0.13937338 -0.10628621 -0.13380776
0001d0 89 18 72 bf 01 e3 14 bd f0 3e 92 bc 65 4e 01 be
       -0.9456869 -0.0363493 -0.017852277 -0.12627561
0001e0 34 c9 1c 3f 15 75 fe bc 3f c4 b9 3d 12 52 3e 3d
       0.6124451 -0.031061688 0.09070634 0.046464987
0001f0 9a 48 44 be fa 5c 1b 3d 59 7d 2e bd e8 6b 99 ba
       -0.1916832 0.037930466 -0.04260001 -0.0011705132
000200 d3 12 37 bd 96 85 d3 bd 91 a2 e2 bd dd 2f 9c bd
       -0.044695687 -0.10328214 -0.11066163 -0.07626317
000210 6c 87 08 bd 8c 1f 0e 3c 8d 56 c3 3c d3 f5 15 bd
       -0.033332273 0.008674514 0.023844982 -0.03661139
000220 2d 54 29 be 51 52 da bd 4a 05 29 be fa 52 8c bd
       -0.16536017 -0.10660232 -0.16505924 -0.06851764
000230 d5 03 e0 3d 97 a9 35 bd cd ca b9 bc 31 c0 77 bd
       0.10938231 -0.044351187 -0.02267971 -0.060486022
000240 80 55 87 3d 54 57 26 bd 53 3a d2 3d 45 03 d2 bd
       0.06608105 -0.040610626 0.10265031 -0.1025453
000250 38 4c 04 be af 23 fc 3c 6c 13 e0 3d 32 da 92 bd
       -0.129197 0.030778734 0.109412044 -0.07170524
000260 c5 7b 5d bd 47 f7 08 3d d1 92 01 be 60 e5 1b be
       -0.054073114 0.033438947 -0.12653662 -0.15224218
000270 af 27 a0 bd af dc 21 3e 47 bc a6 bd 83 82 eb bb
       -0.07820069 0.1580684 -0.0814138 -0.007187189
000280 34 49 c6 3d 49 e4 2d 3e 36 88 12 3e 93 6f 8c 3e
       0.09681931 0.16981615 0.14309773 0.27428874
000290 6f cc cd bc c0 45 81 3e 88 10 ee 3d 2b b3 93 3e
       -0.025121896 0.25248528 0.11624247 0.28847632
0002a0 d2 4f bc bf 69 e6 5d bc 67 0d 31 be 54 af 88 bb
       -1.4711859 -0.013543704 -0.17290269 -0.0041712914
0002b0 05 31 08 bf 85 21 45 bd 40 b3 c5 bd ba 77 29 be
       -0.531998 -0.04812767 -0.0965333 -0.16549578
0002c0 7a 76 f2 be bf fc e0 3d e9 bf 53 be 7d 7c cf 3d
       -0.47356015 0.109857075 -0.20678677 0.10131166
0002d0 e3 b4 c0 bf 21 57 a2 3b 79 d2 17 3d 73 59 9e 3c
       -1.5055202 0.004954234 0.037065957 0.019329762
0002e0 c0 58 e5 3d 23 2f bb 3e 15 f8 5c 3d fb e7 dc 3e
       0.11198568 0.365594 0.053947527 0.43145737
0002f0 0d 99 49 be 1a be 23 be 7c d7 ad 3d 01 65 6d 3d
       -0.1968729 -0.15990487 0.08488366 0.057957653
000300 1d 18 4d 3d 63 1b 25 3e b2 17 9c 3e 59 39 93 3d
       0.050071824 0.16123728 0.30486828 0.071886726
000310 45 a1 ec 3d a2 e4 28 bd 66 84 19 bd 04 c9 4b 3e
       0.11554197 -0.041233666 -0.03747978 0.199009
000320 57 35 7c be 9d f9 13 bd 68 ad 0e 3d 4b 6b d8 bc
       -0.24629723 -0.03612672 0.03483334 -0.026418349
000330 08 eb b1 3d fe d6 f5 3d 1c 5d b8 bc 5c 31 c1 bd
       0.08687407 0.12003897 -0.022505336 -0.09433243
000340 1a fd 9e 3e 0d 05 27 3e 0d 99 7d bd 59 5f 21 3e
       0.31052476 0.1631052 -0.06191354 0.15759028
000350 4f 9c 97 3d 1a b5 2e be 58 86 bc bc a0 2b 1d 3e
       0.074028604 -0.17061272 -0.023013279 0.15348673
000360 dc c8 06 bf bd b7 b5 3e 7e dc 49 3e 40 78 10 3f
       -0.5265024 0.35491744 0.19713017 0.56433487
000370 28 e3 81 3e 7a 1d 0e 3e 84 b5 80 3e e9 4b 1f 3e
       0.2536862 0.13878432 0.25138485 0.15556301
000380 aa 2f 98 3d 10 98 80 bc b8 dc 0b 3e b4 12 e5 bd
       0.07430966 -0.015697509 0.13658416 -0.11185208
000390 6c 45 66 3c 57 a3 7b bd 39 a1 1a be 32 d4 06 bd
       0.014054637 -0.06143507 -0.15100564 -0.03291721
0003a0 5c 74 90 bf c4 7c 1e be fe 00 ef 3d f2 92 12 be
       -1.128551 -0.15477282 0.11670111 -0.14313868
0003b0 fe 08 fe 3e f8 05 c8 bd 29 8d f5 bd 5d 79 16 3e
       0.49616235 -0.097667634 -0.11989815 0.14694734
0003c0 07 39 9d bf 64 e6 66 3d 06 5c 27 3e 33 52 19 bd
       -1.2283028 0.05637206 0.16343698 -0.037431907
0003d0 b4 c3 42 bf 8d bb b7 bd fb c3 67 bc 02 7a 9c bd
       -0.7607987 -0.08971319 -0.0141458465 -0.07640459
0003e0 e4 27 cc bd 22 7c 55 bd 31 b6 2d 3e de 04 9c bc
       -0.09968546 -0.052120335 0.16964032 -0.01904529
0003f0 a5 90 8e bd 33 fb cc 3b 13 6e 52 3d 89 d0 70 3d
       -0.069611825 0.006255531 0.051374506 0.058792625

layer1.bias f4 [64]
000000 38 0d 27 3f 5b c2 25 3e e1 f2 b3 3e 2d 35 d1 3d
       0.65254545 0.16187422 0.3514624 0.102152206
000010 84 d3 c8 3b ea fd 38 3d 27 aa 73 3e 88 be 43 3d
       0.0061287303 0.045164026 0.23795377 0.047789127
000020 05 87 37 bd 13 ff 0c 3d f7 d1 ad 3e c5 75 ba 3d
       -0.0448065 0.034422945 0.33949253 0.09104494
000030 76 03 5a 3e f9 16 3c 3e 3f eb 85 3c c3 37 86 bd
       0.21290383 0.18368138 0.016347526 -0.065536045
000040 ca 71 fa 3e e7 c2 de bd 7c 0c 36 3d da 98 98 3d
       0.4891494 -0.108770184 0.0444455 0.07451029
000050 0f aa 85 3d 92 75 13 be 47 ff 4a 3e 08 60 fd 3e
       0.06526577 -0.14400318 0.19823943 0.4948733
000060 87 20 3b bd d8 8f c5 3e c5 53 d0 3c 14 08 b8 3b
       -0.045685317 0.38586307 0.02543057 0.0056161974
000070 92 1b 1a 3e b0 23 cb 3e ba 4a 83 3d 7e 07 2e 3d
       0.1504958 0.39675665 0.06410737 0.042487614
000080 16 bd 88 3e 50 eb ac 3c 24 98 8f 3e b3 2d 61 3e
       0.2670676 0.0211083 0.28045762 0.21990089
000090 29 b4 1a be 93 29 18 3e 1c d9 c0 3e c5 b3 c3 3d
       -0.15107788 0.1485961 0.3766564 0.09555773
0000a0 a3 03 a0 3e 49 20 8a 3e 9f 47 16 3e ba 69 07 3f
       0.31252775 0.26977757 0.14675759 0.528957
0000b0 c6 1b 6f 3d 64 e9 a2 bd 34 66 b4 3e 47 57 13 3e
       0.058376096 -0.07954672 0.35234225 0.14388762
0000c0 e2 6c a1 3c c2 c4 ca 3e c2 89 e9 bb 7b 15 48 3e
       0.01970524 0.3960324 -0.0071270177 0.19539444
0000d0 2b 2d 4e 3e 5e b7 b5 3e ac 1d 4c 3d bf 48 9e bd
       0.20134418 0.3549146 0.049832985 -0.07728719
0000e0 71 35 b0 3e 2b d4 bc 3a 5f e3 0a bd 54 21 07 3e
       0.34415773 0.0014406493 -0.033908244 0.13196307
0000f0 5f 3d d0 3d ba dd cc 3c e3 8c be bc f2 d2 0a be
       0.101679556 0.025008071 -0.02326054 -0.13557032

layer2.weight f4 [64, 64]
000000 94 8b 76 3d 1f 3b 9e bf 4e 53 96 be 6c 3a f3 3e
       0.060191706 -1.2361792 -0.2936043 0.4750551
000010 d8 49 40 3d de ab bb 3e 74 b6 c6 bd 73 d4 0d 3f
       0.046945423 0.36654562 -0.09702769 0.55402297
000020 7f 2a 14 3f ba bf 85 3e c8 d1 f7 3c 81 1b c3 be
       0.57877344 0.26122838 0.030251399 -0.3810692
000030 6d 72 9e 3d fe a2 fe 3c 78 d8 a9 be da 45 47 3f
       0.07736669 0.03108358 -0.33172965 0.7784096
000040 40 c6 72 3c bd 1b 19 3f 4e 95 72 3c 96 6a e2 3e
       0.014817774 0.5980795 0.014806105 0.44221944
000050 7e fa a9 bb fd 33 06 bc c6 dd 1e 3d fc 79 82 3d
       -0.0051873317 -0.008191106 0.03878572 0.06370923
000060 37 c0 06 3f 25 a7 1c bd 81 c4 18 bf 41 09 0e bf
       0.52637047 -0.03824534 -0.5967484 -0.5548287
000070 38 3e b9 3d 5e 90 51 bc 2d 91 a7 bd b8 1b da 3e
       0.090450704 -0.0127907675 -0.08181987 0.42599273
000080 2a 3d f9 3c c9 83 f2 3e 8c 99 8b be 03 5a 22 3e
       0.030424673 0.4736617 -0.27265584 0.15854649
000090 75 8f e0 bd 82 9c 44 be 84 2f 00 be f2 8c 5d 3f
       -0.10964862 -0.19200328 -0.12518126 0.8654319
0000a0 a1 65 8e bc 98 ab 2b 3d bc 12 38 3f fa 9f 40 3e
       -0.017382445 0.04191169 0.71903586 0.18811026
0000b0 78 7c d0 3e 5a c3 50 bc 28 b1 c9 be f6 a3 17 3e
       0.40719962 -0.012741888 -0.39392972 0.1480864
0000c0 bd 32 f7 bd 79 b7 d1 bd f9 23 66 3e 77 71 e8 be
       -0.120702244 -0.10240073 0.2247466 -0.45399067
0000d0 42 d5 5d 3e 62 8b 89 3e 67 c5 13 be d0 b8 1c 3f
       0.21663383 0.26864153 -0.14430772 0.612195
0000e0 e2 f9 b6 3e c6 e2 27 3f 1d 04 0a 3f 1f 43 da bd
       0.3573752 0.65580404 0.53912526 -0.106573336
0000f0 62 d8 3a 3f 99 30 c3 be fb f3 3e 3f 4c 3d 6a 3e
       0.72986424 -0.38123015 0.74591035 0.22874945
000100 de b4 28 3e af 91 39 be 85 fe 47 be 53 91 96 3e
       0.16475245 -0.1812198 -0.19530685 0.2940775
000110 76 56 49 3d bf 34 4b bc 04 a1 af bb fe 84 32 3f
       0.04915472 -0.012402712 -0.0053597707 0.6973418
000120 55 74 ba bd 46 05 b1 3e 1f 82 03 3e 89 ab 6d be
       -0.0910422 0.34574336 0.12842606 -0.23209967
000130 58 ea 8d bd 52 09 69 3e 6d 86 38 be b4 39 45 3f
       -0.06929463 0.22757462 -0.1802003 0.77041173
000140 4d ae 02 3e 96 e3 40 bd 16 d8 ac 3e 68 59 ca 3e
       0.12761803 -0.047092043 0.3375861 0.39521337
000150 b6 bf 38 bd c0 6b b7 3e 4a 5c 6b 3e 09 03 04 3e
       -0.045104705 0.35824394 0.22984424 0.12891783
000160 1e cd 3d 3f 0e 43 80 bc a2 cb 53 be c9 ca e2 be
       0.7414111 -0.015656974 -0.20683149 -0.44295338
000170 13 ad b4 bd a4 d3 0e bc 12 ca aa bd fe f2 68 3e
       -0.08822074 -0.008717451 -0.08339323 0.22748944
000180 62 71 1b be 03 2d 6e 3c cb 40 aa 3d 99 5f 37 3e
       -0.15179971 0.014537099 0.083131395 0.17907561
000190 8a b8 5e bf d5 26 4c bc 89 83 5c bc a6 57 0a 3f
       -0.87000334 -0.01246043 -0.013459095 0.5403999
0001a0 b9 36 ab 3c 72 2b 33 3c 46 be 2f be e1 3b 3e be
       0.020900117 0.010935651 -0.17162427 -0.1857753
0001b0 c4 c9 52 be 52 a6 de 3d 85 10 d4 bd 92 5e 98 3d
       -0.2058478 0.10871567 -0.10354713 0.07439913
0001c0 49 ed 47 3d 11 0e d4 bc 01 5f ce 3e ae ca 5d be
       0.048810277 -0.025885614 0.40306857 -0.21659347
0001d0 cf 22 a2 bd dd 62 93 bc 6c e1 77 be 6f 22 54 3e
       -0.079167955 -0.017991478 -0.24207085 0.2071626
0001e0 f1 4f 6a 3e e5 46 b7 3e e9 55 1c 3f e1 50 ea 3e
       0.22882058 0.35796276 0.6106859 0.4576483
0001f0 83 ac a8 3e 7a 0b e3 bc 35 05 2d 3f 86 e1 32 3e
       0.32944116 -0.027715433 0.6758607 0.17468843
000200 a2 bd 38 3e 6b 46 4e 3e a9 26 3e 3e ac bb 9c be
       0.18041089 0.2014405 0.18569435 -0.30611932
000210 a4 b3 c0 bd ae 57 9f 3e dc c7 32 3e 7d 8e 65 3e
       -0.09409264 0.31121582 0.17459053 0.22417636
000220 c5 e3 69 bd 3d 8f 00 be b9 d2 51 3e 7f e3 a4 3d
       -0.057101984 -0.12554641 0.2049054 0.08051204
000230 27 d2 b0 bd 2c 01 d4 3e a3 7b 49 3e 7b b0 d8 bd
       -0.086338334 0.41407144 0.1967607 -0.10580536
000240 02 e3 7a 3e fa d4 ce be 9f d0 27 3e c9 54 10 be
       0.24500659 -0.40396863 0.16388176 -0.14094843
000250 cf 00 84 be a2 aa 18 bf ee 23 6c 3e 55 57 9f 3e
       -0.25781867 -0.59635365 0.23060581 0.31121317
000260 cc fb fc bc 32 11 38 3e bf 44 57 3e be 6a 96 bc
       -0.030881785 0.1797531 0.21022318 -0.018361446
000270 3c 56 87 3e 19 bf 44 3e 8f 77 d0 bd 45 62 9a be
       0.2643298 0.19213523 -0.10179054 -0.301531
000280 fd c9 2b 3e 30 0a 54 be 72 4b e9 3e e6 e8 cc 3e
       0.16776271 -0.20707011 0.45565373 0.40021437
000290 e0 c4 98 bf 7d 4e 07 bc 1c c0 d4 3b 5e 8f f1 bd
       -1.1935081 -0.008258459 0.006492628 -0.11794923
0002a0 6c 3c 78 3e 1f 47 20 3e a2 a3 f4 be 34 70 af 3e
       0.24241799 0.1565213 -0.47781092 0.34265292
0002b0 2a b6 12 bd c9 ac 30 3d 1a b6 94 3e 0e 83 c2 3e
       -0.035818256 0.04313353 0.29045182 0.37990612
0002c0 1b 8c 9d 3d a1 7c 9b 3e 82 68 e9 3e 7a 9a 6f 3e
       0.076927386 0.30368522 0.45587546 0.23398772
0002d0 71 ed 1d 3e e6 b8 91 ba b3 91 cd 3e 68 79 ee be
       0.15422608 -0.0011117726 0.40150222 -0.46577
0002e0 28 41 b1 bd 99 d4 9b be bd 9a d0 be e4 89 43 be
       -0.08655006 -0.30435637 -0.40743056 -0.1909557
0002f0 41 8d 63 be b5 0f 8e 3d b1 1e 98 be 3b 66 2a 3d
       -0.22221853 0.0693659 -0.29710916 0.0416014
000300 a7 54 8e 3d 55 ab 92 bf 83 40 d9 3d e1 38 bc bd
       0.0694974 -1.1458536 0.10608008 -0.09190536
000310 b6 b1 db 3d 27 0e 87 3e 8e f8 29 3d 18 a6 f9 3e
       0.10727255 0.26377985 0.041496806 0.48759532
000320 f7 e9 b7 be af f8 39 3e dd 68 ed 3c dc 58 34 be
       -0.3592069 0.18161272 0.028980667 -0.17612022
000330 c5 dc 13 3e 72 a4 cc bd 04 5b 31 bf db 97 c3 3e
       0.14439686 -0.09992303 -0.69279504 0.38201794
000340 92 ef a3 3d 5f fb a0 bd 24 73 65 3e 8d 3c 02 be
       0.08004679 -0.07860445 0.22407204 -0.12718411
000350 78 8f e7 3e ad cd 13 bf f7 87 cd 3e bb d8 cb bd
       0.45226645 -0.5773571 0.40142795 -0.099534474
000360 5c 03 b3 3e 46 28 44 be 84 68 b6 bc ed 8c f4 bd
       0.349635 -0.19155988 -0.022266634 -0.11940942
000370 9f 85 5d be b5 b9 99 3d fa 1d 93 3d 36 29 a2 bd
       -0.21633004 0.07506124 0.07183452 -0.079180166
000380 da 44 f3 3b 49 83 70 bd b0 f0 37 bf 2c 40 ca bd
       0.007423979 -0.058718953 -0.71851635 -0.09875521
000390 92 90 2f bf d0 cf c6 bd 90 a1 24 bc 10 2d a6 3e
       -0.6857997 -0.09707606 -0.010048285 0.32456255
0003a0 e1 dc b2 3a 5f 2c 29 3e c5 fe 25 be d5 cf 8d bd
       0.0013646149 0.16520832 -0.16210468 -0.069244064
0003b0 12 c0 98 be 99 60 cf 3d f1 da 55 be b4 d5 65 bd
       -0.29834038 0.101258464 -0.20884301 -0.056112006
0003c0 b3 b0 c2 bd 2c 24 fa bd cc cb 6e 3e 8d a5 e4 ba
       -0.09506359 -0.122139305 0.2331993 -0.0017444358
0003d0 24 7c 39 3b eb 42 c7 3e 50 ea 70 be ea 0c 54 be
       0.0028302753 0.38918242 -0.23526883 -0.20708051
0003e0 52 8e 1c 3f ca ad 0b 3f 4d 3e e9 3e 66 66 e7 be
       0.61154664 0.54562056 0.45555344 -0.4519531
0003f0 75 9e 50 be be 34 9d be d3 6b 2a 3f f6 02 ab bd
       -0.20372947 -0.30704302 0.66570777 -0.08350174

layer2.bias f4 [64]
000000 be d6 b6 3d ac 02 2f 3d fb de 15 3e f2 11 c5 3d
       0.089276776 0.042727157 0.14635842 0.096225634
000010 84 34 f8 bc 10 54 26 bd 14 c6 c7 3c d6 24 1e 3e
       -0.030298479 -0.040607512 0.024386443 0.1544374
000020 6c 13 e7 3d 35 a3 ae 3d de 71 90 3e 57 26 b7 3e
       0.11283001 0.08527223 0.28211874 0.35771438
000030 7f de 87 3e 2f e4 0d 3e 1f 5c dd 3b e6 32 40 3e
       0.2653694 0.13856576 0.0067553665 0.18769416
000040 d9 c2 bb bd ca 78 1d be d2 52 d5 3d 07 c1 f9 bd
       -0.091680236 -0.15378109 0.10416187 -0.1219502
000050 4d 6f c6 3c 87 e4 3e 3e 9d 1c 6f 3e 35 27 18 3d
       0.024222994 0.18641864 0.23350759 0.037146766
000060 56 9c a9 3e 98 d0 ab 3e 25 de fe 3d bf 72 35 3d
       0.33127087 0.33557582 0.124447145 0.044298884
000070 1c 17 bd bd fa f3 bb 3e 8f ea 1f 3e cb d2 90 bc
       -0.092329234 0.36709577 0.15616821 -0.017678639
000080 0b bc b9 bd 7a 07 49 3e 48 5c 9c 3e 83 9b 13 bc
       -0.090690695 0.19631758 0.30539155 -0.009009245
000090 ea 85 6c 3e cc dc a3 bd ff e5 9f 3c e1 12 2c 3e
       0.23097959 -0.08001098 0.01951885 0.16804077
0000a0 de cf 96 3e 9f 42 86 3d f6 a3 90 3e 9b 37 68 3d
       0.29455465 0.06555676 0.28250092 0.056693655
0000b0 83 12 8b 3e 73 c1 9f bd 8f 57 8b 3e 19 17 3a 3e
       0.2716256 -0.078005694 0.2721524 0.18172874
0000c0 10 de 15 3e 71 e0 15 bc 56 d1 da 3d 6e e0 86 3e
       0.14635491 -0.009147749 0.10684459 0.263431
0000d0 1e ca 70 3d 61 4a 9a 3e 2e 02 e7 3d 64 71 9f bd
       0.058786504 0.30134872 0.112797126 -0.077852994
0000e0 3f 41 3f 3c 63 14 72 3c 68 2f a1 bd b9 ba 8c 3e
       0.011673271 0.014775368 -0.0787037 0.27486208
0000f0 75 68 0e bb f3 8b 98 3c a7 36 73 bc d5 02 a3 3d
       -0.0021729742 0.01862142 -0.014844573 0.079595245

layer3.weight f4 [6, 64]
000000 13 dc 37 bf c5 ad 02 bf 4f e2 31 be ea b6 30 3e
       -0.7182018 -0.510464 -0.17371486 0.17257276
000010 4a 40 04 bf a2 3b 19 3c 5a e7 9a bd 82 16 8f 3e
       -0.516606 0.0093525965 -0.07563658 0.2794686
000020 39 a0 b2 3e 99 c5 9c 3c 71 40 d4 3e 6b 4d 05 3e
       0.34887865 0.01913719 0.41455415 0.13017814
000030 1b 37 b6 3e 0c fa 0d bf 5d c4 3a be c0 ec b0 3e
       0.35588917 -0.55459666 -0.18238969 0.34555626
000040 d1 a0 7a 3d 6a 36 2e bf ad 4d 2e 3e 1c ea 4e bd
       0.061188523 -0.6805178 0.17021818 -0.050516233
000050 db e0 b2 be 2d 9e cb 3e 2e cc df 3d bf eb 11 3f
       -0.34937176 0.39769116 0.10927616 0.57000345
000060 e3 7f 9c 3e 66 ec b3 3e 9b 8f cd 3e 7d ba 2c bf
       0.3056632 0.35141295 0.40148625 -0.6747206
000070 36 a4 b4 bc dc f3 ce 3e 35 cd a4 3d 3a d7 4e bf
       -0.022050958 0.40420425 0.08046953 -0.8079716
000080 5e b3 55 3d e6 b6 8d be 48 c4 c5 3e a3 c2 43 be
       0.05217301 -0.27678603 0.38626313 -0.19117217
000090 8a 50 ee 3e da 97 39 bf b5 37 e7 be 8a 30 61 3e
       0.4654582 -0.7249733 -0.4515969 0.21991172
0000a0 d7 02 0c 3e f0 c9 8f bc ea 09 e2 3e 9e 73 dc 3e
       0.13672958 -0.017552346 0.4414819 0.4305696
0000b0 e3 1f d3 3e e5 c8 ce bd 60 a9 af 3c 08 a5 61 3e
       0.41235265 -0.10096911 0.021443069 0.2203561
0000c0 76 19 ad 3e df 2e e3 be bf ea f5 3e d9 d7 cf 3e
       0.33808488 -0.44371697 0.4803066 0.40594366
0000d0 bb 8a e0 be 0a a9 d9 3e ec 48 2f bf 1c bb a1 3c
       -0.43855843 0.4251178 -0.68470645 0.019742541
0000e0 95 a4 01 3f 1f e3 0b be 69 6e b6 bd 36 37 91 3e
       0.5064176 -0.13660859 -0.08907778 0.28362435
0000f0 db b6 24 bf 29 e1 e5 bd e2 85 d6 be c5 b8 86 3e
       -0.64341515 -0.112245865 -0.4189902 0.26312843
000100 e2 2a 7e bd 70 d2 c1 3e e3 0d 85 3e de ae 15 3f
       -0.062052615 0.37855864 0.25987157 0.5846995
000110 91 11 e0 be bf 47 01 bf 28 9c 5e bf c6 ca c0 3e
       -0.43763402 -0.505001 -0.86957026 0.37654704
000120 8c d3 f6 3d 2e e7 c4 3d ca b4 80 3e 16 11 07 3f
       0.12052068 0.096144065 0.2513793 0.52760446
000130 2f de 9a 3e 67 85 19 bf 80 9d 50 be ae ee dd 3e
       0.30247638 -0.5996918 -0.20372581 0.4334616
000140 63 a1 e3 3c 28 0a 8a be 5a 49 11 3f 7f 89 a5 bd
       0.027786916 -0.26960874 0.5675255 -0.08082866
000150 6e 02 c4 be 44 d6 f2 bb 1f b0 40 3e 60 b1 24 3f
       -0.38283104 -0.0074107964 0.18817185 0.6433315
000160 c9 08 cc 3e 72 b0 8c 3e f7 f3 12 3d 13 95 ee be
       0.39850453 0.27478367 0.035877194 -0.4659811
000170 b7 cb b1 3d 82 92 c3 3e 66 44 19 3f 10 5c 03 bf
       0.08681434 0.38197714 0.5986999 -0.5131235
000180 7c 4b 0f bd ff 2d f9 3e 15 4c a3 3e 2d 23 91 be
       -0.034984097 0.48667905 0.31893983 -0.2834715
000190 13 1b ac 3e 75 c2 bf bc 00 00 31 be 28 38 06 be
       0.33614406 -0.023408154 -0.17285156 -0.1310736
0001a0 72 bc 00 3f 0d 83 ef be 56 8c bb 3e 95 1c 01 3f
       0.50287545 -0.4677967 0.36630505 0.5043424
0001b0 02 2f 27 3e 71 86 e2 bd 4b 0d ec 3e 2d 39 a9 3e
       0.16326526 -0.11060799 0.46103892 0.33051434
0001c0 4f b9 a9 3e 65 16 1e bf 10 39 8b 3e 30 19 e7 3e
       0.33149192 -0.6175292 0.27191973 0.45136404
0001d0 c8 b7 fc 3e b2 b5 7c 3e a7 15 d7 be 7c 76 b5 bd
       0.49358964 0.24678686 -0.42008707 -0.0886049
0001e0 14 f0 86 3f 54 e4 01 bf 9f 47 cf 3c a9 13 7a 3e
       1.0542016 -0.50739026 0.025302706 0.24421562
0001f0 2c a5 1b bf 27 be 5f be e4 30 59 bf 87 21 4a 3f
       -0.6079891 -0.21849881 -0.84840226 0.7895741
000200 98 75 32 bf cb 40 2c bf 79 49 ce 3e d8 cc 50 bf
       -0.69710684 -0.67286366 0.4029043 -0.81562567
000210 40 e6 e0 be 76 7a bc be be 61 2d bf 9d 33 0a 3f
       -0.43925667 -0.3681218 -0.6772727 0.53985006
000220 28 d1 d6 bd 0a d9 6e bf a9 2e c0 3e 74 43 c6 3e
       -0.10489112 -0.93299925 0.375356 0.38723338
000230 48 c3 c8 3e 8e 78 19 bf 54 ba 30 bf b1 ea 83 3e
       0.39211488 -0.59949577 -0.69034314 0.25764993
000240 74 a5 f6 3c 1c 60 d4 be 37 85 01 3f 6a d1 9c bd
       0.030108191 -0.41479576 0.50593895 -0.0765713
000250 fa 55 c5 be 06 3d eb 3e bd 11 a3 3e e9 bc 75 be
       -0.38542157 0.45944995 0.3184947 -0.23997845
000260 d5 c7 ca 3e 0e 45 9b 3e 6f 90 ca 3e e8 d8 29 bf
       0.39605585 0.30326122 0.3956332 -0.663466
000270 09 a6 c5 bb 68 0a b3 3e 41 2c 62 3d dd ab a8 be
       -0.006031756 0.34968877 0.055217985 -0.3294362
000280 12 a2 cd 3d 99 de 56 be 28 6f 9c 3e 00 41 1d 3f
       0.10040678 -0.20983352 0.30553555 0.6142731
000290 ee 0b d6 3e 32 c9 12 bf c5 fe f0 3e 0c 8c 60 bf
       0.41805977 -0.5733825 0.47069374 -0.87713695
0002a0 01 d8 b0 3e 6f d2 2f bf 86 e1 c5 3e e7 fc ac bd
       0.34539798 -0.6868047 0.38648623 -0.08446675
0002b0 80 de df 3e 73 1c 88 3d 1e 76 98 3e 1c 7b d9 3e
       0.43724442 0.06646051 0.29777616 0.42476737
0002c0 75 2e c9 3e 71 46 05 bf bb 76 9b 3e c7 12 d0 3e
       0.39293256 -0.5206061 0.30364022 0.40639326
0002d0 c3 bd 25 bf 2d ce 0a 3f ee 12 47 3e 53 95 aa bd
       -0.6474268 0.5422085 0.19440815 -0.083292626
0002e0 ab 35 32 3f 8d d6 0a bf 1c 11 b1 3d 51 b8 ab 3e
       0.6961314 -0.5423363 0.086458415 0.3353906
0002f0 93 13 09 bf e3 0c 55 bf c3 30 02 bf be 8a f8 be
       -0.5354549 -0.8322279 -0.50855654 -0.48543352
000300 67 0b 0c bf 5a 4c 0e 3e c0 3d be 3e a2 3f 53 bf
       -0.547049 0.13896313 0.37156487 -0.8251897
000310 9a ce 19 bf bd 39 38 bf 34 9a dd be 28 2e 92 3d
       -0.60080874 -0.719631 -0.4328171 0.0713771
000320 91 cf d3 3e 2c 44 d8 3e 10 69 d5 3e 3d 29 de 3e
       0.41369298 0.4223951 0.4168172 0.43390837
000330 d6 76 db 3e b3 35 32 3e 9f ea d7 be 11 b4 3d 3e
       0.42864102 0.17403297 -0.4217119 0.18525721
000340 9c 2e cb 3d d1 a5 ff be 39 03 be 3d c0 29 3f 3d
       0.099209994 -0.49931195 0.092779584 0.046670675
000350 99 be 32 bf bf 47 97 3e c5 81 eb 3e 15 8d 06 3f
       -0.6982208 0.29546925 0.45997444 0.52559024
000360 45 fd c3 3e ec d2 c7 3e 3c 00 01 3e d9 38 f3 be
       0.38279167 0.39028108 0.12597746 -0.4750431
000370 82 a1 da bd 5f 13 bb 3e 58 56 f5 3e 35 57 27 bf
       -0.106753364 0.36538216 0.47917438 -0.6536744
000380 7f 01 c6 3d 69 de b0 be 4c fc d3 3e b4 87 2f bf
       0.09668254 -0.34544685 0.41403425 -0.6856644
000390 f6 d4 e7 3e 7c 0a f9 3d 14 df 38 bf 54 c2 1c 3f
       0.45279664 0.12160203 -0.7221539 0.6123402
0003a0 e1 ae cf 3e e6 9b 1f bf 0e 57 65 3e 82 77 00 3f
       0.4056311 -0.6234726 0.2239649 0.50182354
0003b0 14 28 cf 3e 60 46 e4 bd d1 d3 bf 3e 44 1c b2 3e
       0.40460265 -0.111462355 0.3746629 0.3478719
0003c0 74 ba 1e 3b 67 ee 1e bf 1a 9b 9e bd fa 0f c3 3e
       0.0024220021 -0.62082523 -0.07744427 0.38098127
0003d0 c5 cc c6 3e 77 d5 c1 3d dc c8 19 bd 6d 8f a2 bd
       0.38828102 0.09464543 -0.03754507 -0.079375125
0003e0 40 7c 9e be 8a 06 e8 be 08 06 7e bd f5 21 d4 3e
       -0.3095417 -0.4531749 -0.06201747 0.41432157
0003f0 2e f4 00 bf 78 b7 c3 be 0c 82 17 bf e2 f1 19 3f
       -0.5037259 -0.38225913 -0.5918281 0.6013471

layer3.bias f4 [6]
000000 c3 95 3c 3d aa 56 ca bc fc 95 4b 3e eb 79 88 3e
       0.04604126 -0.024699528 0.19881433 0.26655516
000010 dd ca 09 3e 2e ed ff 3b
       0.13456292 0.0078102564
