drl_deep_project/scripts/our_agent/models/dqn_20250119_151311.pt (torch, 41984 bytes, 6 tensors)

layer1.weight f4 [64, 81]
000000 c0 13 19 bd ac be a7 bd 85 4f a0 bd aa a3 f5 3c
       -0.03737235 -0.08190665 -0.07827667 0.029985268
000010 20 2a 70 bd f5 af c7 3c 7c 94 ef 3c 9b 99 5c bc
       -0.058633924 0.024375895 0.029245608 -0.013464357
000020 e3 01 a1 3d a6 c0 bb 3d d3 bc b6 bd a3 5a b3 bd
       0.07861688 0.09167604 -0.08922734 -0.08757522
000030 b6 b1 bb bd 54 45 a4 bd 4d e4 ba 3d 38 54 37 bc
       -0.09164755 -0.08021036 0.09125576 -0.011189513
000040 76 eb 16 bd 71 14 df bd ed 01 ac 3d 69 bc 59 bd
       -0.036845647 -0.10892571 0.08398805 -0.053158198
000050 92 35 6f bc 69 59 8f 3d fc 12 9b bd 26 2b bf 3c
       -0.0146001745 0.069994755 -0.0757198 0.023336004
000060 66 b3 fa 3c 57 9f c3 3d cc d4 26 3d 4c c8 27 3d
       0.030603122 0.09551876 0.040730283 0.040962502
000070 fe 99 cd bc 03 46 d9 bd 4f 83 e2 bd 07 7b db bb
       -0.025097843 -0.10609057 -0.110602014 -0.0066980156
000080 59 80 82 3d a7 33 cd bd 40 37 9d bb 01 12 df bd
       0.063721366 -0.100196175 -0.004797846 -0.10892106
000090 8b dc 0c bd bb cb be 3d a3 78 b5 3d 7c 51 2b b9
       -0.034390014 0.09316202 0.088609 -0.00016338186
0000a0 af e3 86 3d 55 ee da bd 1a 47 00 3d 63 03 af 3b
       0.06586396 -0.106899895 0.031317808 0.00534098
0000b0 60 f6 88 bd 50 9e ba 3d f3 af a0 3d 63 c7 2e 3c
       -0.06687617 0.09112227 0.0784606 0.010667655
0000c0 3c 2e 7d bc 71 ef 5a 3d 3a 7a 8b bd 73 38 e2 bd
       -0.015452918 0.053451005 -0.06810422 -0.11045923
0000d0 29 5e 49 3d 2d 5f 5d bd c3 fd 3f bd 7b 12 37 bd
       0.049162064 -0.054045845 -0.046872865 -0.04469536
0000e0 49 7c 11 3d ad 0a 9a bd c1 f0 84 bd f4 4b db 3c
       0.03551892 -0.075215675 -0.06491233 0.026769616
0000f0 51 25 0c bc 35 1a 82 bc e9 bc b1 3d 86 46 3f bc
       -0.008553819 -0.015881637 0.0867861 -0.011674529
000100 22 3c 07 bd f8 36 e6 3c 25 b0 a9 3d f9 d2 b5 3d
       -0.03301633 0.028102383 0.0828555 0.088781305
000110 17 51 87 3d 50 71 72 3d d2 d6 ce 3c 44 1b a3 bd
       0.066072635 0.059190094 0.025248919 -0.07964185
000120 a2 4c a6 3d 41 57 21 bd 00 ab a4 3c fb 84 40 3d
       0.08120085 -0.039389852 0.02010107 0.04700182
000130 83 6b 90 3d 3a 7b b1 bc f3 86 92 3d 6e cc 9c 3d
       0.07051756 -0.021665204 0.07154646 0.07656179
000140 31 74 6a bd 77 49 b1 bd 3e 66 5d 3d e6 a1 3f bd
       -0.057239715 -0.086565904 0.054052584 -0.046785258
000150 28 86 90 bd 1e 3d 5f bd 19 b6 9e 3d e5 1d b6 bd
       -0.07056838 -0.054501645 0.07749576 -0.08892421
000160 89 02 b4 3d fc 69 4f bc 4c cb ec bc ff 6a d7 3d
       0.08789546 -0.012659546 -0.028905533 0.10518455
000170 2d 85 00 bd c1 d0 91 3d 5f 25 a8 3d 90 fe 36 3d
       -0.031377006 0.07119895 0.08210253 0.044676363
000180 4e 22 ae bd 6d 71 9f bb dc 45 7f 3d bb 21 85 3d
       -0.08502637 -0.0048658163 0.062322482 0.06500574
000190 85 0e 7f 3d 2c e7 8b 3b 50 75 6c bc 9a ce d6 3c
       0.062269706 0.004269501 -0.014432266 0.026221562
0001a0 d1 6e 9f 3d ab 66 dc 3d de ab 43 3c 90 ae 23 bd
       0.077848084 0.1076177 0.011942832 -0.039961398
0001b0 24 fb ac 3d af ec b1 3d 52 6e cd bd 7e 03 33 bd
       0.08446339 0.08687722 -0.100308076 -0.043704502
0001c0 c5 83 35 bd 47 53 80 3d b5 65 74 bd 18 15 0f 3c
       -0.04431512 0.06265884 -0.059667308 0.0087330565
0001d0 bb 65 da bd 74 b9 12 bc 1e 38 80 bd b0 0b 8f bc
       -0.10663935 -0.008955348 -0.062607035 -0.017461628
0001e0 a9 c6 06 3d f1 b3 43 b9 63 45 88 bc 5c 05 c1 bc
       0.0329043 -0.00018663683 -0.016634649 -0.023562126
0001f0 84 f6 9e 3d 9a d0 40 bd eb e3 56 bd de f4 8b 3c
       0.07761863 -0.047073938 -0.052463453 0.017084535
000200 93 26 8d 3d 6a 3f 35 bd bc 38 63 bd aa 20 96 bc
       0.06892123 -0.04424993 -0.055474028 -0.018326122
000210 d8 47 85 3d 84 40 01 bd da 8e b8 bd 78 16 1c bb
       0.06507844 -0.031555668 -0.09011622 -0.0023817103
000220 23 6e 93 3d ae 4d 4a 3d 1a 69 83 bd 7c d3 e0 3d
       0.07198741 0.049390487 -0.06416531 0.109778374
000230 02 7c 01 bd bb ca 98 3d 8e 49 c7 bd 55 79 87 3d
       -0.031612404 0.07460543 -0.09730826 0.06614939
000240 e6 10 b1 3c 22 83 b8 bc 28 14 37 3d e3 92 b4 3d
       0.021614503 -0.022523466 0.044696957 0.08817079
000250 0e af cf bd 15 a6 a2 3d e0 1e 9b 3c 7d 53 2e bd
       -0.10140811 0.07941834 0.01893562 -0.04256009
000260 48 0d a0 bd c6 52 98 bd ac b0 c7 bc 2e 13 f8 3a
       -0.07815033 -0.07437663 -0.024376236 0.0018926614
000270 b8 3c 81 3c 79 8f 48 bd 65 84 b2 3d 32 f5 1d 3d
       0.015776023 -0.04896495 0.087166585 0.038563915
000280 64 d5 6c bd b4 60 e2 bd 7f e7 dc 3d 9d e7 2e 3d
       -0.057820693 -0.11053601 0.10786342 0.042701352
000290 ab 86 9e 3d 95 9a 83 3d d9 ae a4 bd 2d f3 e3 bd
       0.077405296 0.064259686 -0.08041162 -0.111303665
0002a0 ab e6 f0 3c a7 71 91 3c 51 d6 52 3d 68 72 8e bd
       0.029406866 0.017754389 0.05147392 -0.06955415
0002b0 96 8c b4 bd f5 d4 85 3d e9 f7 70 bc c7 30 83 3d
       -0.08815877 0.06534759 -0.014707544 0.06405788
0002c0 2f 94 1f 3d 11 b3 27 bd 8d 76 af 3d e3 81 05 3d
       0.03895968 -0.040942255 0.08567534 0.032594573
0002d0 b5 62 c6 3c e5 9e 82 3d dd 5c 5c 3c 85 2a 18 bd
       0.024216989 0.06377963 0.013449875 -0.037149925
0002e0 37 df ce 3c 1d 3c 60 3c fb 92 5c 3d 2a 9f 55 bd
       0.025252922 0.013686207 0.05385111 -0.052153744
0002f0 cf a0 42 3d 41 4e 3a 3d f5 32 d7 bc bb c2 e2 3d
       0.04751664 0.045484785 -0.026269415 0.11072298
000300 95 0b 91 bd 45 07 81 bb f0 4a 8e 3d 28 ce 55 bd
       -0.07082287 -0.003937634 0.06947887 -0.05219856
000310 4f bc c8 bc 1e 02 ae 3d 77 b4 67 3b 6f 96 a6 3d
       -0.024503855 0.084964976 0.0035355368 0.08134162
000320 92 5d 66 bd 8f dd 9b bd 71 18 f0 3c 3c 5c b6 bc
       -0.05624158 -0.07610618 0.02930853 -0.022260778
000330 40 89 48 3d f0 2b 5f 3d 22 0e fe bc 79 4e f3 3b
       0.048959017 0.05448526 -0.031012598 0.007425126
000340 e9 cf 0f bd f1 83 8c bd e1 42 dd 3c 65 25 58 3d
       -0.035110388 -0.06861103 0.02700943 0.052770037
000350 77 dc 95 bd fd f1 72 bd 52 ec 2f 3d 8e 78 c9 3c
       -0.07317441 -0.05931281 0.042949982 0.024593618
000360 8d 5c 6b 3d 86 68 ff 3c 6a e5 84 bd 8f 8d b0 3d
       0.05746131 0.03117777 -0.0648907 0.0862075
000370 40 5f 6c bc b4 f5 d7 bd ff b3 af 3d f8 90 2c bd
       -0.014427006 -0.10544911 0.085792534 -0.04213044
000380 47 ab ae 3d 8b 77 48 bc dd 80 50 3d 61 ef 51 3b
       0.08528762 -0.0122355325 0.050904144 0.003203355
000390 e5 c6 ea bc a9 03 c2 3d 1f ce 78 bc d1 a6 e1 bd
       -0.028659293 0.09473354 -0.015185862 -0.11018146
0003a0 2e 60 74 3d 42 57 17 3d 3d bc 02 bc 17 ba cc 3d
       0.059662037 0.03694845 -0.00797945 0.09996431
0003b0 8d 98 56 bc 4f 0d 8a 3d 9c 74 14 bd 0e 71 87 3c
       -0.013097894 0.0674082 -0.03624402 0.0165334
0003c0 70 3e 60 3d 62 2d 96 bd 33 db c3 3d 22 dd e2 3c
       0.054747045 -0.07332875 0.09563293 0.027693335
0003d0 e8 85 0d bd ba a2 6f 3d e5 fb 91 ba 8d d5 5e 3c
       -0.03455153 0.058504798 -0.0011137692 0.013600719
0003e0 43 9c af bd 57 fc a2 bb dc 51 a3 3d 98 ca ae 3d
       -0.085747264 -0.004973929 0.07974598 0.085347354
0003f0 14 d2 5d 3d 1a 38 d0 bd 10 37 28 bd 80 94 c1 3d
       0.054155424 -0.101669505 -0.041068137 0.09452152

layer1.bias f4 [64]
000000 2b a4 58 bd 74 43 81 bd 47 39 8b 3c 86 6b e0 bc
       -0.052890938 -0.06311694 0.016995085 -0.027395021
000010 41 7f 58 bd 3a 49 11 bd 4f bb c4 3d e8 3a ca 3d
       -0.052855734 -0.035470225 0.09606039 0.09874517
000020 fc 38 af bd b6 14 d8 3a 0c 24 02 3d c3 ed 30 3c
       -0.08555791 0.0016485665 0.03177266 0.010798874
000030 ee 90 f1 3c 3e 92 9b 3d 53 4f df bd dd 00 7d bd
       0.029488053 0.07596253 -0.10903802 -0.0617684
000040 b8 97 5f 3c 41 bb f9 3c 38 81 07 3d 29 b7 c7 ba
       0.013647012 0.030484797 0.033082217 -0.0015237081
000050 78 88 e2 bd c4 43 88 bc bf 05 bc 3d f9 39 8f bd
       -0.110611856 -0.016633876 0.091807835 -0.06993479
000060 81 b5 9a bd 6c 75 a8 3c 4d f7 0a bd f5 84 2e 3d
       -0.075541504 0.020563804 -0.03392725 0.042607266
000070 d1 a4 43 3d 65 d3 13 bb 43 d8 81 3d 79 82 bf bd
       0.047764603 -0.002255642 0.06340077 -0.093510576
000080 8a b8 e1 3b 0d 14 0e bb 2c 34 26 bc ba bf af 3d
       0.006888454 -0.0021679432 -0.010144275 0.08581491
000090 8a 33 de bd 40 68 51 bd f1 62 2c 3d 1a 80 27 3c
       -0.10849674 -0.05112481 0.042086545 0.010223413
0000a0 d1 d5 cf bd 1f fd c1 3d 65 a4 0e bd 9e 9d b1 3d
       -0.10148204 0.09472107 -0.034824748 0.08672641
0000b0 47 30 4e 3d 97 1c 5f bc ea bd 87 3d fa e7 14 3d
       0.05033901 -0.013617656 0.0662802 0.036354043
0000c0 78 d7 6f 3c 74 9f 96 bd bb 7c e0 3d 76 cb e6 3b
       0.014638774 -0.07354632 0.109612904 0.0070432974
0000d0 41 02 a6 3d 6a a5 0f bd ad 7c 00 3d 09 74 84 3d
       0.08105899 -0.03506986 0.0313689 0.064674444
0000e0 77 a2 46 3d 45 d1 c0 3d 3e 36 6c 3d 54 b4 99 3d
       0.048494782 0.09414915 0.057668917 0.07505098
0000f0 7a 6f c1 bd 61 23 6a 3d 5f 0b 58 bd 91 cc 39 bd
       -0.094450906 0.057162646 -0.05274522 -0.045361105

layer2.weight f4 [64, 64]
000000 d4 38 fe bd 74 36 71 3d 04 89 d5 bd ce 9b d7 3d
       -0.12413183 0.05888982 -0.10426524 0.10527764
000010 f2 4f 05 bd 60 4c e0 bd 6e aa 25 3c 6a 1e fd 3d
       -0.032546945 -0.109520674 0.010111434 0.12359317
000020 bc c1 56 3c c6 0d 97 bd 80 70 f1 3c 42 5b ac bd
       0.013107713 -0.07375674 0.02947259 -0.084158435
000030 7a 34 95 bd 8a fb 83 bc 74 a6 cb bc f6 5d da bc
       -0.072854 -0.016111154 -0.024859644 -0.026656132
000040 20 b7 4b 3d 44 3b 99 bd 0a 4f ff bd 6c c0 b7 bd
       0.04973519 -0.07482007 -0.124662474 -0.089722484
000050 62 f7 e1 3d cc b1 96 bc dc 45 f0 bd f6 c7 8a bd
       0.11033513 -0.018395327 -0.117320746 -0.06776421
000060 4c fe c3 bd 62 34 87 3d 28 7f b3 bd be dc d2 3d
       -0.09569988 0.06601788 -0.087644875 0.102960095
000070 0c 16 37 3d 30 c2 f1 bc a2 2c 80 bd 48 fb b5 3c
       0.04469876 -0.029511541 -0.06258513 0.022214547
000080 64 70 d6 bc 92 46 87 3c be 5e 7c bd 2e 34 1e bc
       -0.026176639 0.016513143 -0.06161379 -0.009655995
000090 74 1b bf 3d b0 5d 75 bc 28 b7 36 3d 0a c8 d5 bd
       0.09331408 -0.01497595 0.044608265 -0.10438545
0000a0 34 60 92 bd 1c 13 70 bd d4 b9 d3 bd c0 b2 cf bd
       -0.071472555 -0.058611974 -0.10338178 -0.10141516
0000b0 42 69 be bc b8 60 b3 bc da 90 85 3c 30 a8 a5 bd
       -0.02324355 -0.021896705 0.016304422 -0.0808872
0000c0 96 8e a7 bc a2 36 66 bd 8a 23 d0 3d fa 4d 68 3d
       -0.020453732 -0.056204446 0.101630285 0.05671499
0000d0 78 d6 de bd 92 12 8a 3c 72 a4 e4 3d d0 1c e0 3d
       -0.108807504 0.016854558 0.11164178 0.109429955
0000e0 b2 82 43 ba e4 a8 13 bc 02 6c 83 3c 88 33 f1 3d
       -0.0007458135 -0.009012435 0.016042713 0.11777407
0000f0 0a 97 91 3d 42 52 bd 3c e0 5f 95 bd 96 57 e6 bd
       0.071088865 0.023110513 -0.07293677 -0.112471744
000100 f4 49 65 bd d3 d1 d6 3d ab e5 82 bd c6 81 ab bd
       -0.05597873 0.104892395 -0.06391462 -0.08374362
000110 96 08 48 bd f6 4c 47 bd 92 55 c6 bb 32 ac c2 3d
       -0.048836313 -0.04865738 -0.0060526812 0.095055
000120 9a a2 86 3d d8 df c1 bd 6c 40 5a bc 7b 14 a5 3d
       0.065739825 -0.09466523 -0.013321023 0.08060547
000130 10 9e 8c bd 02 b8 d8 3d db 58 d6 bb fc 2e 84 3c
       -0.068660855 0.10581972 -0.006541354 0.016135685
000140 9c a6 ec 3c 76 f1 db bd 34 69 5c bd e2 f7 ca bc
       0.02888804 -0.107394144 -0.053811267 -0.024776403
000150 72 10 96 3d 4f a5 fb 3d 28 03 b0 bd ba d8 8b 3d
       0.073273554 0.122873895 -0.08594352 0.06828447
000160 1a 9f 0a 3d 88 47 b7 3c 1c 49 6b bd f8 99 b0 3b
       0.033843137 0.022372976 -0.05744277 0.0053894483
000170 c3 06 b5 3b 9f 40 e8 bd ac 35 d5 bd 43 41 0c bd
       0.0055244877 -0.113404505 -0.10410628 -0.034241926
000180 95 83 29 bb 48 06 d0 bd b4 09 9d bd 9b 5b 33 3d
       -0.0025865783 -0.10157448 -0.07667866 0.043788534
000190 f1 d6 4a 3d 53 70 4a ba 64 cf f0 bd 44 d2 99 bb
       0.04952139 -0.0007722426 -0.117583066 -0.004694255
0001a0 0a dc a8 bd 08 ec 6d bd d7 b5 bf 3d 61 6d ae bc
       -0.08245094 -0.058086425 0.09360855 -0.02129239
0001b0 1b f1 35 bc 86 c2 8e bd 72 a1 c6 bd 12 eb ef bd
       -0.011104847 -0.06970696 -0.09698762 -0.11714758
0001c0 20 2e f2 ba 3e f3 8d bd f4 bf ff bd 6a 06 a5 3d
       -0.0018476881 -0.069311604 -0.12487784 0.08057864
0001d0 ee 98 07 3d e2 6f da bd 76 24 82 bd 6d 48 03 3c
       0.03310483 -0.10665871 -0.063546106 0.008012873
0001e0 d8 eb e3 3d 02 ca c7 3d 50 be 91 3c fc be 18 3d
       0.11128968 0.09755327 0.017790943 0.037291512
0001f0 9c 8e d1 3c b3 31 e0 3d 16 02 f7 3c e9 e8 f4 3c
       0.025580697 0.109469794 0.030152362 0.029896216
000200 40 65 6c 3d d4 8e d5 bc 32 9b c4 3d 3c 2e fa 3d
       0.057713747 -0.026069082 0.09599914 0.1221585
000210 c4 61 bf 3d 72 dc a5 bd ee ab da bd e6 cc 94 3d
       0.09344819 -0.08098687 -0.10677324 0.07265644
000220 fc d7 dd 3d 4e bb a1 bd 5c f4 8e 3d 6a 66 80 bd
       0.108322114 -0.07897054 0.069802016 -0.06269534
000230 6a 3e ce bd 9a 5a 90 bd fc 0a da bc 44 17 90 3d
       -0.10070498 -0.07048531 -0.026616566 0.070356876
000240 ae 80 01 3d c4 31 18 bc 60 b3 e9 3b ac 2b af bd
       0.03161686 -0.009289209 0.007131979 -0.085532516
000250 4c ce 59 3c 04 e1 9a bc 7e b2 2b 3b c8 9f 6a 3d
       0.013293814 -0.018906124 0.002619892 0.057281286
000260 82 73 c0 3d 84 a0 c2 bd fc 1c 75 3d fc 06 fd 3d
       0.09397031 -0.09503272 0.059842095 0.12354848
000270 ca dc 00 bc 82 e9 8d 3c ae 20 d9 bd 1c d0 80 bd
       -0.00786514 0.01732326 -0.10601936 -0.06289694
000280 62 db 65 bd 84 7f cb bc 76 d2 e6 bd 8e ec 09 bd
       -0.056117423 -0.024841078 -0.11270611 -0.03367286
000290 9c 95 90 3c b0 25 3b bd a6 94 e1 bb 72 e0 44 3c
       0.017649464 -0.04569024 -0.0068841754 0.012016403
0002a0 6c a3 91 bd 6e cf ac 3d 40 10 f1 3c 06 95 f2 3d
       -0.071112484 0.084380016 0.029426694 0.1184483
0002b0 fa 72 21 3d c8 08 f6 bc 18 9f 6c 3d 52 67 f4 3d
       0.03941629 -0.030033484 0.05776891 0.11933769
0002c0 0c 67 97 bc f2 71 a9 bd 6a 6e 7b 3c 18 7a 86 3d
       -0.018481754 -0.082736865 0.015346149 0.06566256
0002d0 32 92 90 3d a4 d1 53 3d d6 27 a8 bc 48 ff 10 3d
       0.070591345 0.0517136 -0.020526808 0.035399705
0002e0 9e 92 25 bc b8 fe 74 3d 44 3f 94 ba d8 37 31 bc
       -0.010105757 0.05981323 -0.0011310359 -0.010816537
0002f0 28 66 74 bd 72 1e f0 bd 0c 1c ba 3d 2c 3a d9 3a
       -0.059667736 -0.11724557 0.09087381 0.0016573123
000300 2e c7 8b bd c6 9f f7 bd f7 ec cc 3d c0 fb ba 3d
       -0.068251 -0.12091021 0.10006135 0.09130049
000310 46 72 b4 bd 74 d4 77 bd eb 00 c1 3d 9c 09 d3 bd
       -0.088108584 -0.060505345 0.09424003 -0.10304567
000320 d4 49 4e 3d a1 3a 08 bd fc 9d 95 3c 22 bf 9e 3d
       0.050363377 -0.033259038 0.01826381 0.077512994
000330 3f a7 e5 bb ff f3 22 3d 08 9b 2e bc 83 23 71 bd
       -0.0070084627 0.039783474 -0.0106570795 -0.058871757
000340 1f 11 34 bd d1 39 62 bd 71 ed 97 3d bb 35 85 3c
       -0.04396164 -0.05523092 0.07418335 0.016260972
000350 38 82 38 bb 17 4b e2 3b 08 7b f8 3d 14 ac c9 3d
       -0.0028153788 0.006905924 0.12132841 0.098472744
000360 c3 36 e4 3d fd f5 e0 3d c4 15 39 3c be 25 87 bd
       0.111432575 0.109844185 0.011296693 -0.065989956
000370 26 43 b9 3c 11 2c b5 3c 78 21 32 3c 93 6d ea 3c
       0.022615027 0.022115739 0.010872237 0.028616702
000380 9f df f0 bd 84 1d ef 3c cc e2 b9 3b 8c d2 df 3d
       -0.11761402 0.029188879 0.0056727882 0.109288305
000390 e4 37 99 3d 23 61 09 3d 27 37 2b 3d ca a1 ed bd
       0.074813634 0.033539902 0.041800644 -0.116031244
0003a0 2e f7 8b bd 90 10 12 bd d5 55 1a 3d 71 e5 fe 3d
       -0.06834255 -0.035660326 0.037679512 0.12446106
0003b0 7d 56 84 3d b2 a7 3d 39 35 b7 86 3b 54 94 92 3d
       0.06461809 0.00018086916 0.0041111954 0.071571976
0003c0 b2 bb d7 3d 66 57 e9 3c 8b 61 39 3d 9c 27 da bd
       0.10533847 0.028484058 0.04525904 -0.10652086
0003d0 78 5e d2 bd 4d 5f b0 bd 6e 10 83 3d c1 5d ce 3d
       -0.10271925 -0.08611927 0.06399618 0.10076476
0003e0 6c b4 19 3d 2d 26 21 3c 37 07 98 3c 45 fa 7f bd
       0.03752558 0.009835762 0.018558128 -0.062494535
0003f0 5d a5 8f bd 7f ea ea 3d 1a 9f d0 bd e8 27 2a 3d
       -0.070139624 0.11470508 -0.10186596 0.041541964

layer2.bias f4 [64]
000000 ae e8 20 bd 07 e5 a8 bd 1c 9e d0 bd b5 2f e4 bd
       -0.0392844 -0.082468085 -0.10186407 -0.11141912
000010 e2 ef bd 3d a8 94 1a bc 96 d4 83 bd 09 a1 40 ba
       0.0927427 -0.0094348565 -0.06437032 -0.0007348215
000020 9c 57 81 bd 25 68 26 3c 9f e5 d6 3b 00 d6 a5 3d
       -0.06315538 0.010156666 0.0065581347 0.08097458
000030 06 2d 80 bc 17 84 92 bd fe 4b b4 bd 5f 88 72 3c
       -0.015646469 -0.071541004 -0.08803557 0.014803021
000040 13 c3 be bd 76 e4 dc 3d 44 3b 50 bd 25 11 ee 3d
       -0.09314551 0.10785763 -0.05083777 0.11624364
000050 87 db 37 bd c0 55 82 3d 80 4d ef bd 1e ef bc bd
       -0.044887092 0.06364012 -0.11684704 -0.092252955
000060 02 d9 33 3c f8 3f d6 bd 8a aa ee bd 51 31 30 3d
       0.010977032 -0.1046142 -0.116536215 0.04301578
000070 f7 a0 d6 3d c1 ed 5e 3d 4e 6f c9 bd 45 1a 92 3d
       0.1047992 0.05442596 -0.09835683 0.07133917
000080 8d a7 fc 3d 1a e6 e8 bd c8 95 b2 bc 92 0a 32 bd
       0.12336645 -0.113720134 -0.021799937 -0.043467112
000090 26 25 ba bc 65 7e 40 bc 71 31 1e 3d bb f8 b6 bd
       -0.022722792 -0.011748885 0.03862137 -0.0893416
0000a0 35 93 28 3b 2c 9f b6 bd 30 f3 07 3d 4a 64 8d bd
       0.0025722508 -0.089170784 0.033190906 -0.06903894
0000b0 63 bc e5 bd 12 02 5f 3d 58 99 d0 bc 32 6f 2e 3c
       -0.112175725 0.054445334 -0.025463745 0.010646628
0000c0 c1 d6 b4 bb be 91 b6 bd ce 51 a2 3d 66 73 f4 3b
       -0.0055187647 -0.08914517 0.07925759 0.0074600456
0000d0 17 f8 04 bc 65 54 0f bc d0 1b b6 bd f5 41 98 3d
       -0.00811579 -0.008748149 -0.088920236 0.07434455
0000e0 6e a9 be 3d 22 8f 97 bd 3a 71 91 bd d8 63 cc bd
       0.0930966 -0.07400347 -0.071016744 -0.09979981
0000f0 c4 37 6a 3d 40 90 e8 bd 88 30 ce 3d 97 b7 26 bd
       0.05718209 -0.113556385 0.1006785 -0.04070243

layer3.weight f4 [6, 64]
000000 ae 1c 22 3c 20 aa dc 3d fe 26 e1 bd da 19 d5 3d
       0.009894533 0.10774636 -0.10993765 0.104053214
000010 82 ed 25 bd 3e 51 d9 bd e8 26 3a bc 1d ca 8c bd
       -0.04050971 -0.10611199 -0.011361815 -0.068744875
000020 e8 cb 72 bd aa b7 68 bd 32 56 ac 3d 6d b7 f4 bc
       -0.05927649 -0.05681578 0.08414878 -0.02987262
000030 6e cc da bd 60 0a ae bd 4e d5 89 3d 6c c3 fd bd
       -0.10683523 -0.084980726 0.06730138 -0.123907894
000040 c0 e8 31 bd 04 87 36 3d 02 93 bc 3c 6e 10 df bd
       -0.04343486 0.044562355 0.023019318 -0.108918056
000050 b6 24 2d bd 18 2e f6 3c a2 92 3e bc 3e 09 80 bd
       -0.04227134 0.030051276 -0.01163164 -0.06251763
000060 7a 9d 34 3d b9 2e 1e 3d d2 7b d6 3d 59 9b 58 3c
       0.044095494 0.038618777 0.104728356 0.0132206315
000070 89 ea f9 bd 9e 60 d1 3d 54 56 72 3d e7 94 e5 3c
       -0.12202937 0.102235064 0.05916436 0.028025104
000080 80 80 c2 3b d6 5c 44 3d 62 32 f4 3d ac 89 63 3d
       0.0059357285 0.047940098 0.11923672 0.055551216
000090 28 41 4d 3d 41 89 ba 3d f6 17 e0 bd 92 22 83 bd
       0.050110966 0.0910821 -0.1094207 -0.06403078
0000a0 69 e9 fb bd 48 5b 32 3c 74 e7 13 3d a6 dd df bc
       -0.12300379 0.010886021 0.036109403 -0.02732737
0000b0 76 cc d3 bd 36 37 e7 bc 60 91 72 3b 7f eb 8b 3d
       -0.10341732 -0.028224569 0.003701292 0.06832027
0000c0 d3 cf 1e bc d6 3a 20 bd 46 20 ac bc f1 ab bf 3d
       -0.009693104 -0.03911861 -0.021011483 0.09358967
0000d0 95 a9 f5 bd 06 42 94 3d af 49 e3 3c e7 32 a6 3c
       -0.11995236 0.072391555 0.027745096 0.020287944
0000e0 62 c2 0b 3d 9d 15 e1 bd 07 4a 78 3d ac 80 9d 3c
       0.034120925 -0.109904505 0.060617473 0.019226395
0000f0 50 fd ae bd ef 70 a8 bd 04 f0 ec bd 08 01 fc bd
       -0.08544409 -0.082246654 -0.11569217 -0.12304884
000100 e0 23 53 3d 66 70 aa bd fc ed ec 3d a4 a2 fa bd
       0.051547885 -0.083222196 0.115688294 -0.122380525
000110 f0 0e 9c 3d e2 13 bb bd 60 6b 31 bd 6a c3 1e 3d
       0.076200366 -0.09134652 -0.04331529 0.03876058
000120 a4 90 39 bd 60 78 b3 bc 7d 0e d9 3d 4e 0d a4 3d
       -0.045303956 -0.021907985 0.105984665 0.0801035
000130 90 61 30 3d 8a 75 02 3c ec ba 91 bc 6e 89 bb 3d
       0.043061793 0.007962594 -0.017789327 0.09157072
000140 95 35 9c bd 78 1e 85 bd 4a 5e 07 3b 66 53 a4 bc
       -0.076274075 -0.06499952 0.0020655566 -0.020059299
000150 2b 0a b5 bd 06 0f ff 3d 8a 77 db bd b2 b7 d9 3c
       -0.0883983 0.12454037 -0.1071616 0.02657685
000160 2c 5d 1e bd d8 a4 dd 3d f8 fe 17 3d d1 e8 7a bc
       -0.038663074 0.10822457 0.03710839 -0.015314297
000170 0c 35 ef 3d 5e 5f 0c bd 34 f9 eb bd a5 54 98 3d
       0.1168004 -0.034270637 -0.11522141 0.0743802
000180 64 42 f8 3d 84 1a 99 3c 56 74 05 3d 9d 3a c3 3c
       0.12122038 0.018689401 0.03258165 0.02383166
000190 83 90 fa 3d 2f 51 90 bd af 2d 94 3d 1f d3 bb bd
       0.12234595 -0.070467345 0.07235276 -0.091711275
0001a0 4e f1 c8 bd da 03 db bd 2a ed 82 bd ac 88 f6 3d
       -0.0981165 -0.10694094 -0.06392892 0.12037787
0001b0 8c 26 e2 bd e2 53 de bd 4e ae aa bc 1d 7d 15 3d
       -0.110425085 -0.10855843 -0.020835068 0.03649627
0001c0 4c ef a8 bd a0 6a 63 3d ce 7e 25 bd 70 cb b1 3c
       -0.08248767 0.055521607 -0.040404133 0.021703452
0001d0 b2 6e 37 3d 82 e3 ae 3d 10 a8 cc 3d 35 52 af 3d
       0.0447833 0.085394874 0.09992993 0.085606016
0001e0 48 e8 9d bd 30 3d cc 3d 74 66 ce bc 24 11 9f 3d
       -0.0771032 0.09972608 -0.025195338 0.07766941
0001f0 dc f8 e0 3d a0 29 54 bd 68 33 99 bd d0 dc fd 3d
       0.10984966 -0.05179751 -0.07480508 0.12395632
000200 a2 66 87 3d 52 64 c3 3c 20 23 d8 3d 18 82 73 bd
       0.066113725 0.023851547 0.105535746 -0.05945024
000210 cc 1b 92 3d d6 b0 7b bd d4 d1 4e 3d f0 8b b0 bd
       0.07134208 -0.06144794 0.050493076 -0.08620441
000220 94 d1 f8 3d 62 aa c5 bc 42 7d 47 3c 8e 54 c2 3d
       0.12149349 -0.024129096 0.01217586 0.09488784
000230 e0 26 d5 3d 86 03 5c bd 34 af 55 3d c6 aa 47 3d
       0.104078054 -0.053714298 0.05216904 0.048746847
000240 da 9d 7f 3b 44 e6 12 3b ba ec 0d 3c d0 0d af bd
       0.0039004 0.002241508 0.008662397 -0.085475564
000250 a2 6a b9 3d f6 6d de bd be 37 09 bd 98 8c 57 3d
       0.09053542 -0.10860817 -0.033500426 0.052624315
000260 d8 59 30 bd a2 b5 82 3c c4 28 15 3a 5e 98 96 bd
       -0.04305443 0.01595575 0.00056899735 -0.073532805
000270 bc cc d0 bc 36 6e 85 bd 80 96 53 bd 54 e2 30 bd
       -0.02548825 -0.06515162 -0.0516572 -0.043184593
000280 3e bc a3 bb 22 55 b4 3d 00 48 f8 3d 70 a8 2f bd
       -0.0049968055 0.088053 0.12123108 -0.042885244
000290 62 48 9d 3d 3a 6b da bd 7e 82 d1 3d 76 94 5d bd
       0.076798216 -0.10664983 0.102299675 -0.05409666
0002a0 2e 2e 93 3d 90 18 fd bd ac 3e 57 3b 20 4c 4d bd
       0.071865425 -0.123582006 0.0032843752 -0.050121427
0002b0 bc 21 2f bd 58 4a 52 3d ca 7d 8a 39 52 45 40 bc
       -0.04275678 0.05134043 0.0002641513 -0.011735277
0002c0 34 f9 cd 3d 4a 31 90 bd 6a 3a 84 3c 1a d0 c1 bd
       0.10057297 -0.07040651 0.016141135 -0.0946352
0002d0 04 56 bc 3d 12 aa 3d 3d 24 67 9c 3b ea 49 46 3d
       0.09196094 0.04630477 0.0047730375 0.048410334
0002e0 94 7b 16 bd 68 d0 1b 3d ce f7 e0 bc f2 20 a5 3d
       -0.036738947 0.03804055 -0.027461912 0.080629244
0002f0 22 23 05 bd 78 c3 c3 bd d8 dd b7 3d 02 5e be 3d
       -0.03250421 -0.09558767 0.0897786 0.09295274
000300 2e 66 a0 3d c6 ae 26 3d 7a 96 1e bd 00 44 55 bb
       0.07831989 0.04069402 -0.038717724 -0.0032541752
000310 30 4b 9c 3d ce 8c 40 bd 53 cd e0 3d ca a8 79 3c
       0.076315284 -0.04700928 0.109766625 0.015237996
000320 64 7a b6 3d e8 8c f5 bc c6 3a f4 bd 2d c8 8e 3d
       0.08910063 -0.029974416 -0.11925273 0.06971774
000330 4c b7 52 3d f8 f0 d7 bd c8 26 b6 bc 09 be e8 3c
       0.051444337 -0.10544008 -0.02223529 0.028410928
000340 82 85 be 3c 9a af bc bd c6 71 bf 3d ef 61 95 bd
       0.02325702 -0.09213181 0.093478724 -0.0729407
000350 18 89 1a bd d4 c8 db bd 96 f1 fc bd b2 54 20 bd
       -0.0377284 -0.10731664 -0.12350766 -0.03914327
000360 32 05 e0 bd a8 be ec bd 2a 8f bd bd dc f0 ab 3d
       -0.10938491 -0.11559802 -0.09255822 0.0839555
000370 9e c1 87 bd 7f 1a d8 bd 7e b0 ad bd 13 95 f4 3d
       -0.066287264 -0.10551929 -0.08480929 0.11942496
000380 3c d7 8b 3d 40 35 af 3d 0c d1 51 bc 1e e6 7a bd
       0.06828162 0.085550785 -0.012806188 -0.061254613
000390 7a 69 b3 3d a5 88 1e bc e3 4b e1 bd 02 73 8f bd
       0.087603524 -0.009676133 -0.11000802 -0.07004358
0003a0 9c 6a 34 3d c4 32 8f 3d ae d0 8b 3d aa eb c7 3c
       0.044046983 0.06992105 0.06826912 0.024404366
0003b0 bc 91 5a bc 18 01 b6 3d b8 4e ea 3d e8 21 5f 3d
       -0.01334041 0.08886927 0.11440796 0.054475695
0003c0 8a 24 8d 3d 2c b8 e2 bd 34 6b f5 3d 0a a2 13 bd
       0.06891735 -0.11070284 0.11983338 -0.036043204
0003d0 94 b3 27 bc 50 b5 3b 3c 3c 98 c4 bc 3e bd ae bd
       -0.010235686 0.0114568025 -0.023998372 -0.08532189
0003e0 ac 2a cc ba b6 6e 24 3d fe 1b aa 3c 2c 94 0e bd
       -0.0015576682 0.040144645 0.0207653 -0.034809276
0003f0 6d 54 57 3d 7c 47 d2 bd 00 a7 6c bc 4f 16 55 3d
       0.05257075 -0.10267541 -0.014444113 0.05202323

layer3.bias f4 [6]
000000 e7 84 7e 3d 23 75 78 bd 5a b3 67 3d 96 88 aa 3d
       0.062138464 -0.060658585 0.056567527 0.08326833
000010 a2 4a e9 bb 18 0e ff 3c
       -0.0071194926 0.03113465
