drl_deep_project/scripts/our_agent/models/dqn_20250118_224806.pt (torch, 29376 bytes, 6 tensors)

layer1.weight f4 [64, 32]
-0.05623796 0.056483414 -0.18845055 0.1306509 0.00989098 0.020821653 -0.07164803 0.06668512
-2.6077273 -0.081135295 -0.09660106 -0.12766448 -2.4840233 -0.09969244 -0.14220686 0.13035098
-3.4230638 0.15517256 -0.33225513 -0.122169815 -1.5172677 0.1156312 0.04302854 -0.027938245
0.69325995 -0.03772806 0.048718337 0.11518732 -0.17160876 0.025517061 0.05839929 0.057175796
0.10905669 0.27551103 0.3692639 0.11357543 0.06113943 -0.04715604 0.11744058 -0.062388115
-0.54036444 -0.104331076 -0.07891273 -0.106585674 -0.6922285 -0.045335203 -0.024433365 0.010553412
0.82196045 -0.03149365 -0.06661453 0.09452161 -0.55941767 -0.14339387 0.034917545 0.12248323
-0.8003051 0.49594954 0.52897793 0.44824213 0.13462989 -0.1480076 0.34586474 -0.04673257
-0.02236854 -0.07868856 -0.079899624 0.025895484 -0.054430578 -0.09803984 -0.027143538 0.04714548
0.2434924 0.11312383 -0.027593175 0.10398011 -0.06347509 0.035795376 -0.03961091 -0.05133937
-0.12206328 0.007469831 0.09276916 0.021790642 -0.09482049 0.11718168 -0.023403123 0.09531275
0.017690025 0.121067 -0.1429492 -0.28221062 -0.097297795 0.14006345 -0.0997758 0.0012630058
-0.06362623 0.004029762 -0.045066204 0.109914236 0.087663926 -0.09776728 -0.052935895 0.08646661
-2.6264408 0.1281745 -0.0355271 0.016105399 -2.13957 -0.056338195 -0.055669893 -0.12102858
-3.6438506 0.054199535 -0.026754873 0.15071744 -0.7287065 0.107071176 -0.06746354 0.15620403
0.5819589 -0.0058786827 -0.080485456 0.14465918 -0.31660452 -0.06512948 -0.01759571 0.105533406
0.110567346 0.27589378 0.256748 0.47127056 0.13623197 -0.00013791843 0.13404346 0.1742861
-1.2705158 0.15732066 -0.012685387 -0.11087105 -2.1317735 0.15330376 -0.17339593 0.05529267
1.0924681 0.13442291 -0.13939744 -0.15169574 -0.4955107 -0.14296906 0.024221605 0.005197865
-0.43190747 0.30105296 0.6120317 0.53788227 0.20124602 0.07574987 0.32819957 0.1941146
0.33125526 0.34383708 0.26042825 0.3772925 0.24333838 0.17787738 0.14849347 0.23634389
-0.1844081 0.05917042 -0.27431393 -0.01770065 -1.8169066 0.047529068 0.15690307 -0.02703976
1.0246753 0.074555814 -0.21103714 0.022483135 -0.929208 0.09726893 0.1457123 0.12621951
-0.56399554 0.37491998 0.35523564 0.5772913 0.39607632 -0.08512674 0.3122859 0.05081563
0.19354998 0.09170851 0.10714752 0.16044973 -0.0076216604 0.1043957 0.14975996 0.11347309
0.6733223 0.006500259 0.16779122 -0.13179253 -1.9543937 -0.029758148 0.17085949 -0.14615676
-4.0113754 0.0020336343 -0.12076956 0.04119794 -0.2312443 0.021257434 0.107982434 0.021260623
0.5730377 0.08068169 0.08345086 0.02926299 0.19301184 0.13792339 0.15870138 0.06908776
-0.033229414 0.08894238 0.074508235 0.17970611 0.029634675 -0.010670242 0.06825437 0.11471806
-2.3839338 -0.11886529 -0.13766319 -0.15495296 -1.364016 -0.01735207 0.0057533975 0.09490801
-3.5023227 -0.10612363 0.041523203 -0.023675714 -1.7480361 0.14587407 0.03891899 -0.06102034
1.1208994 -0.03502172 -0.11725014 0.23469974 -0.23960552 -0.0422042 0.014144258 0.07527377
00000000: c659 66bd 275b 673d 2ef9 40be 59c9 053e
00000010: c70d 223c 2c92 aa3c 34bc 92bd 3592 883d
00000020: 01e5 26c0 432a a6bd c7d6 c5bd 7aba 02be
00000030: 3dfa 1ec0 8d2b ccbd ad9e 11be ba7a 053e
00000040: 7a13 5bc0 8ee5 1e3e 581d aabe 2b34 fabd
00000050: d435 c2bf 0dd0 ec3d b23e 303d bfde e4bc
00000060: 7c79 313f bd88 1abd e18c 473d 54e7 eb3d
00000070: 35ba 2fbe 2809 d13c 1834 6f3d 2b31 6a3d
00000080: 1d59 df3d c80f 8d3e 2810 bd3e 3c9a e83d
00000090: 576d 7a3d b126 41bd b084 f03d ae8a 7fbd
000000a0: 5355 0abf 88ab d5bd ff9c a1bd 9749 dabd
000000b0: e335 31bf 68b1 39bd 7b28 c8bc 38e8 2c3c
000000c0: 006c 523f 7cff 00bd 336d 88bd 8c94 c13d
000000d0: ff35 0fbf d8d5 12be b305 0f3d 7dd8 fa3d
000000e0: cce0 4cbf 19ed fd3e 196b 073f fe7f e53e
000000f0: 6bdc 093e 4e8f 17be 2f15 b13e a76a 3fbd
00000100: 3a3e b7bc 7827 a1bd 6aa2 a3bd c422 d43c
00000110: 99f2 5ebd 1dc9 c8bd 205c debc 9e1b 413d
00000120: 1256 793e 77ad e73d 150b e2bc 86f3 d43d
00000130: 3aff 81bd 2c9e 123d 0d3f 22bd 3b49 52bd
00000140: 50fc f9bd 7cc5 f43b c2fd bd3d 4a82 b23c
00000150: 3f31 c2bd f3fc ef3d e8b7 bfbc 5533 c33d
00000160: acea 903c faf1 f73d 4661 12be e97d 90be
00000170: 1144 c7bd cb6c 0f3e 4157 ccbd 718b a53a
00000180: 784e 82bd 180c 843b 5797 38bd b71a e13d
00000190: 2589 b33d 363a c8bd 4fd3 58bd 6815 b13d
000001a0: 9b17 28c0 2d40 033e dd84 11bd 78ef 833c
000001b0: b7ee 08c0 e1c2 66bd 1d06 64bd d5dd f7bd
000001c0: d934 69c0 5500 5e3d 092d dbbc ac55 1a3e
000001d0: 828c 3abf 2248 db3d 532a 8abd f3f3 1f3e
000001e0: 42fb 143f f7a1 c0bb 8fd5 a4bd 8921 143e
000001f0: fd19 a2be 9b62 85bd e124 90bc e621 d83d
00000200: 2271 e23d f341 8d3e 7974 833e 604a f13e
00000210: 6580 0b3e 329e 10b9 b042 093e 0e78 323e
00000220: 43a0 a2bf ab18 213e 5fd6 4fbc 5c10 e3bd
00000230: fa6e 08c0 a9fb 1c3e b48e 31be 917a 623d
00000240: ffd5 8b3f 29a6 093e 34be 0ebe 2156 1bbe
00000250: 94b3 fdbe 7b66 12be 636c c63c da52 aa3b
00000260: fa22 ddbe 9d23 9a3e 1cae 1c3f a7b2 093f
00000270: 7013 4e3e bf22 9b3d c609 a83e fac5 463e
00000280: 4a9a a93e 6a0b b03e da56 853e 7c2c c13e
00000290: b22d 793e 7d25 363e ac0e 183e 2204 723e
000002a0: 7ad5 3cbe af5c 723d e072 8cbe f400 91bc
000002b0: 6590 e8bf d7ad 423d 33ab 203e 7d82 ddbc
000002c0: 8f28 833f b8b0 983d 1f1a 58be 8d2e b83c
000002d0: 93e0 6dbf ef34 c73d 9b35 153e b03f 013e
000002e0: 0362 10bf 83f5 bf3e 72e1 b53e 5dc9 133f
000002f0: 84ca ca3e ee56 aebd f0e3 9f3e 0d24 503d
00000300: f731 463e acd1 bb3d 2970 db3d ef4c 243e
00000310: 1fbf f9bb 6acd d53d ad5a 193e 9464 e83d
00000320: da5e 2c3f 2000 d53b 76d1 2b3e 9ff4 06be
00000330: 9329 fabf 5cc7 f3bc caf5 2e3e 1eaa 15be
00000340: 305d 80c0 b946 053b 0856 f7bd 2cbf 283d
00000350: 4ecb 6cbe 1224 ae3c e525 dd3d c22a ae3c
00000360: 99b2 123f 713c a53d 49e8 aa3d f0b8 ef3c
00000370: e5a4 453e ca3b 0d3e 9d82 223e e27d 8d3d
00000380: 911b 08bd 6c27 b63d c697 983d e104 383e
00000390: 6bc4 f23c 3dd2 2ebc f2c8 8b3d 4df1 ea3d
000003a0: 5f92 18c0 a56f f3bd 94f7 0cbe fdab 1ebe
000003b0: 1498 aebf ee25 8ebc ff86 bc3b 215f c23d
000003c0: 0e26 60c0 5957 d9bd 3c14 2a3d 92f3 c1bc
000003d0: a6bf dfbf 0360 153e 8569 1f3d 77f0 79bd
000003e0: a279 8f3f ef72 0fbd d720 f0bd 2155 703e
000003f0: 265b 75be 50de 2cbd 51bd 673c 2229 9a3d

layer1.bias f4 [64]
-0.22364755 0.395446 0.08031158 -0.14740191 0.6246531 0.39963004 0.059716016 0.02212651
0.50744855 -0.080406584 0.15965877 0.49142826 -0.01829132 0.29639706 0.1523686 0.2847199
-0.14950854 0.23706383 -0.25610626 0.52891386 -0.0037641146 0.23791873 0.120085016 0.5917042
-0.12562819 0.30410758 0.24509273 0.3942448 0.5703936 -0.089503884 0.3091232 -0.12414276
0.57523566 0.60865587 0.26004648 0.51797587 0.4935997 0.15306523 0.14022803 -0.009257762
0.4676917 0.15732259 0.26473314 0.33426374 0.7956216 -0.10510197 0.51836765 0.8003724
0.014874499 0.023735493 0.44721907 0.16646563 0.14524707 0.21965209 0.36726558 0.34993935
0.043619465 -0.084134266 0.5070151 0.23607019 0.2835598 -0.1357618 0.14129595 -0.0070346077
00000000: dd03 65be e677 ca3e 667a a43d 87f0 16be
00000010: 44e9 1f3f 4f9c cc3e c898 743d a842 b53c
00000020: 26e8 013f 35ac a4bd 977d 233e 7c9c fb3e
00000030: aed7 95bc 5bc1 973e 8406 1c3e cfc6 913e
00000040: c418 19be dcc0 723e 5c20 83be e666 073f
00000050: 5daf 76bb f8a0 733e 22ef f53d ed79 173f
00000060: ada4 00be fdb3 9b3e 97f9 7a3e 74da c93e
00000070: 5105 123f d04d b7bd 6545 9e3e 8f3e febd
00000080: a542 133f dfd0 1b3f d024 853e 119a 043f
00000090: 1ab9 fc3e 22bd 1c3e f097 0f3e dead 17bc
000000a0: 4975 ef3e 2c19 213e 1a8b 873e 9e24 ab3e
000000b0: dbad 4b3f b43f d7bd beb3 043f 35e5 4c3f
000000c0: 2cb4 733c f070 c23c e6f9 e43e f775 2a3e
000000d0: a6bb 143e 7aec 603e 3c0a bc3e 402b b33e
000000e0: 53aa 323d 964e acbd becb 013f 62bc 713e
000000f0: c02e 913e 2405 0bbe e3af 103e 9182 e6bb

layer2.weight f4 [64, 64]
1.308992 -0.15570119 0.1805153 1.3279444 0.17853422 -0.090031505 0.40816855 1.0980551
0.18239518 1.3820676 0.30948627 0.23646194 1.4037257 -0.52595884 0.9400617 -0.30697522
0.06696673 -0.758649 1.4203514 -0.15079327 1.3099039 -0.4754401 1.0091126 -0.046677742
0.8182252 -0.16501373 0.026986815 -0.10734704 0.12301289 0.80183154 -0.42934033 1.3942691
0.34797132 0.023220897 -0.15486929 0.18235578 -0.2608231 -2.1111677 -1.6093261 1.3143393
-0.047529884 -0.6987913 0.041634645 -0.23948267 -0.018279843 -0.07369933 0.06227871 0.06666531
1.3222365 1.2098718 -0.25868356 -0.31412065 0.8262441 -0.022025216 -0.17358075 -0.08862155
0.76732194 1.4854107 -0.16259266 -0.3643726 0.32266656 1.4380207 -0.086269185 0.9957309
-0.007269464 -0.03700943 -0.039603706 0.03518324 -0.031022727 -0.049543437 0.06075009 0.019636882
-0.029795302 0.031913936 0.051492453 -0.08674266 0.06655295 -0.051630322 -0.060398098 -0.013986367
-0.09532164 -0.031637385 -0.07255266 0.024124783 -0.004544057 -0.050622147 -0.06384218 -0.044570327
0.015111326 -0.07953362 0.019155405 -0.07327483 -0.00241327 0.03969312 0.015114999 -0.13645156
-0.018135872 -0.04107457 -0.04896426 -0.094116315 -0.019383222 0.035776656 0.06421616 0.095128275
0.089410804 -0.031441644 -0.0113872625 -0.054382153 -0.083378054 0.09264538 0.03417481 0.063890874
-0.034649868 0.048326813 -0.028515784 -0.048826013 -0.0796803 0.05884806 -0.037222598 0.07071403
-0.11592709 0.08648442 -0.029655978 -0.037548568 -0.09267259 0.047836833 -0.044728056 0.09451385
1.2417808 0.070666455 0.066161804 1.2711463 -0.12756342 0.10849581 0.9006112 1.2800856
-0.07894003 1.2690995 1.2873882 -0.3921709 1.2788882 -0.36222675 1.4722606 -0.19828527
-0.013171739 -0.06884522 1.368785 0.14733036 1.1945316 -0.5726655 1.6864277 0.3775164
-0.15971042 -0.10025971 -0.07120399 0.025576495 0.06729913 0.05537099 -0.10197133 1.2052572
0.15130526 0.64358824 0.036384143 0.075228855 0.11486701 -1.3516152 -1.7822587 1.0407594
0.08982641 -0.020953646 -0.08129728 -0.16526596 0.22929187 0.10818841 0.20772456 0.24486831
1.0653185 1.0092512 -0.08289179 -0.0799993 1.1233627 0.09538395 -0.047760844 0.014049592
1.3132876 1.0975205 0.080069415 -0.26416898 1.2715291 1.5746084 0.0733174 1.1631943
-1.2665119 0.6468278 -0.40525863 -1.1507838 0.5593978 0.4375284 -0.8591901 -1.2797997
0.70877945 -1.2063484 -0.6202357 0.6471703 -1.3430643 0.64801013 -0.96206665 0.8168844
0.001687277 0.45446256 -1.390566 0.5342544 -1.10439 0.77916795 -0.8018016 0.2818762
0.19886431 0.7056512 0.49779162 0.5647057 0.67987144 -3.8726315 0.6523177 -1.3743454
0.5281479 0.34957775 0.495833 0.6034869 0.60402733 1.3731416 1.5701793 -1.183447
0.55858666 0.40225372 0.7096988 0.73106706 0.35044408 -0.09300033 0.44374347 0.23360448
-1.2348952 -0.77691764 0.61862224 0.3658682 -0.26075673 0.44807696 0.5528782 0.52818394
-1.1599317 -1.1741042 0.49682954 0.62549776 -0.9193013 -1.5265694 0.0790199 -1.235122
00000000: 0d8d a73f 2270 1fbe 01d9 383e 15fa a93f
00000010: add1 363e 7062 b8bd 78fb d03e 128d 8c3f
00000020: cdc5 3a3e 97e7 b03f fc74 9e3e 1423 723e
00000030: 49ad b33f 3da5 06bf e2a7 703f db2b 9dbe
00000040: da25 893d d236 42bf 13ce b53f 8d69 1abe
00000050: eeaa a73f e36c f3be 9a2a 813f 2931 3fbd
00000060: 3577 513f 5cf9 28be 7413 dd3c c4d8 dbbd
00000070: 2fee fb3d d544 4d3f 7fd2 dbbe 6977 b23f
00000080: 4c29 b23e c039 be3c 0e96 1ebe 79bb 3a3e
00000090: 9b8a 85be 5f1d 07c0 66fe cdbf 453c a83f
000000a0: b2ae 42bd fde3 32bf 1789 2a3d f23a 75be
000000b0: 9cbf 95bc adef 96bd f617 7f3d d287 883d
000000c0: 0c3f a93f 14dd 9a3f 2c72 84be 6cd4 a0be
000000d0: bc84 533f 3a6e b4bc 27bf 31be 377f b5bd
000000e0: 366f 443f f021 be3f b17e 26be 0c8f babe
000000f0: 8d34 a53e 1011 b83f e6ad b0bd 38e8 7e3f
00000100: af34 eebb 3397 17bd 7f37 22bd 4d1c 103d
00000110: 6023 febc 0fee 4abd 16d5 783d 87dd a03c
00000120: 4715 f4bc 30b8 023d c0e9 523d 23a6 b1bd
00000130: ea4c 883d 517a 53bd ff63 77bd 1327 65bc
00000140: fe37 c3bd 3496 01bd 7d96 94bd 56a1 c53c
00000150: 50e6 94bb 2b59 4fbd b0bf 82bd 608f 36bd
00000160: 7f95 773c 86e2 a2bd cceb 9c3c 1d11 96bd
00000170: f427 1ebb 4195 223d e7a4 773c f5b9 0bbe
00000180: ae91 94bc cf3d 28bd bf8e 48bd 0ec0 c0bd
00000190: 90c9 9ebc 8b8a 123d c383 833d 9dd2 c23d
000001a0: 031d b73d f4c8 00bd a491 3abc d2bf 5ebd
000001b0: 1dc2 aabd dcbc bd3d e3fa 0b3d 38d9 823d
000001c0: 05ed 0dbd 56f2 453d ef99 e9bc c9fd 47bd
000001d0: 6d2f a3bd aa0a 713d b976 18bd 84d2 903d
000001e0: 2f6b edbd be1e b13d 18f1 f2bc 87cc 19bd
000001f0: 20cb bdbd 8ef0 433d c434 37bd 7a90 c13d
00000200: acf2 9e3f 93b9 903d d77f 873d ecb4 a23f
00000210: fc9f 02be 0d33 de3d 758e 663f d8d9 a33f
00000220: 4fab a1bd da71 a23f 23c9 a43f a0ca c8be
00000230: 9cb2 a33f c975 b9be 0973 bc3f 4b0b 4bbe
00000240: 47ce 57bc b9fe 8cbd 5934 af3f c5dd 163e
00000250: 69e6 983f 359a 12bf dddc d73f d449 c13e
00000260: 218b 23be f654 cdbd 66d3 91bd cc85 d13c
00000270: 20d4 893d b1cc 623d 58d6 d0bd de45 9a3f
00000280: c4ef 1a3e 33c2 243f 8a07 153d 9611 9a3d
00000290: 653f eb3d ba01 adbf 0e21 e4bf 9b37 853f
000002a0: e9f6 b73d fba6 abbc 307f a6bd 7b3b 29be
000002b0: 7dcb 6a3e e391 dd3d bfb5 543e c2be 7a3e
000002c0: 5b5c 883f 252f 813f 2cc3 a9bd acd6 a3bd
000002d0: 59ca 8f3f a958 c33d e0a0 43bd 4330 663c
000002e0: cf19 a83f 8d7b 8c3f 6ffb a33d 2841 87be
000002f0: 77c1 a23f c58c c93f 6f27 963d 8de3 943f
00000300: 101d a2bf 8296 253f 0f7e cfbe e24c 93bf
00000310: b234 0f3f b903 e03e e2f3 5bbf 7ad0 a3bf
00000320: 9272 353f a069 9abf c4c7 1ebf f4ac 253f
00000330: 88e9 abbf fee3 253f 004a 76bf 561f 513f
00000340: 9f27 dd3a 51af e83e 11fe b1bf e5c4 083f
00000350: a75c 8dbf 8d77 473f df42 4dbf 1452 903e
00000360: 16a3 4b3e 8fa5 343f 8bde fe3e 8e90 103f
00000370: 0e0c 2e3f 32d9 77c0 4bfe 263f 8dea afbf
00000380: b334 073f dbfb b23e d3dd fd3e 1e7e 1a3f
00000390: 89a1 1a3f 1bc3 af3f a3fb c83f 317b 97bf
000003a0: 89ff 0e3f 33f4 cd3e d2ae 353f 3627 3b3f
000003b0: 686d b33e f576 bebd 5832 e33e 0336 6f3e
000003c0: 0c11 9ebf 13e4 46bf 075e 1e3f 1453 bb3e
000003d0: e881 85be 586a e53e 6d89 0d3f 1037 073f
000003e0: a478 94bf 0c49 96bf 7160 fe3e 9f20 203f
000003f0: 5457 6bbf a066 c3bf 2fd5 a13d 7a18 9ebf

layer2.bias f4 [64]
0.12668641 -0.012719451 0.1454036 0.31698674 0.15648629 -0.011542257 0.1112861 0.40992364
0.2153581 0.46133718 -0.063691534 0.392261 0.23766632 0.28438082 0.17306075 0.26886737
0.29028332 0.050177254 0.014190608 0.20298311 0.2995693 0.23969792 -0.027724927 0.16390407
0.4718191 -0.08364757 0.4307733 0.28749794 -0.025194943 0.16789049 0.39097187 0.5061043
-0.117458254 0.15756889 0.29898015 0.312366 0.10849685 0.15522145 0.41247395 0.3308498
0.4602938 0.40403745 0.22739047 0.112684995 0.37555832 0.008755256 0.40239096 0.4082951
0.10057944 0.35608292 0.41707 0.22733231 0.21244533 0.14162804 0.42247605 -0.085761376
0.4016071 0.379042 0.23630661 0.15500537 -0.05721572 0.17907469 0.21930653 -0.06323181
00000000: 15ba 013e 3f65 50bc aee4 143e 164c a23e
00000010: f13d 203e bc1b 3dbc f7e9 e33d 83e1 d13e
00000020: d586 5c3e 6334 ec3e b570 82bd 6fd6 c83e
00000030: cd5e 733e 5d9a 913e d636 313e fca8 893e
00000040: 04a0 943e aa86 4d3d b97f 683c ceda 4f3e
00000050: 2661 993e 5f73 753e 631f e3bc 78d6 273e
00000060: 4692 f13e 6b4f abbd 518e dc3e ee32 933e
00000070: a065 cebc 7ceb 2b3e 772d c83e 0d90 013f
00000080: f48d f0bd bd59 213e ed13 993e 70ee 9f3e
00000090: 9933 de3d 5ff2 1e3e c92f d33e 2565 a93e
000000a0: a1ab eb3e ffdd ce3e 0cd9 683e 64c7 e63d
000000b0: 2e49 c03e 3572 0f3c 3006 ce3e 0e0c d13e
000000c0: 98fc cd3d 8050 b63e 338a d53e cdc9 683e
000000d0: 458b 593e f106 113e c84e d83e a9a3 afbd
000000e0: 729f cd3e cb11 c23e 5cfa 713e bab9 1e3e
000000f0: 085b 6abd 5b5f 373e e491 603e ae7f 81bd

layer3.weight f4 [6, 64]
-1.1932737 0.10542165 -0.60129845 0.6462349 -0.6156959 0.010060996 1.2906687 0.9227651
-0.79057753 0.39907596 -0.0025048712 1.0166177 -0.6711594 0.5939894 -1.5755501 0.43377477
0.86658704 0.0924211 1.1639414 -0.56003743 -0.6003736 0.17478032 0.8374694 -0.48210502
0.82106197 -0.059664458 0.87240106 0.8202437 0.8673115 -1.166223 0.7962096 0.7375351
-1.4731778 -1.5902802 0.7180405 -0.83597195 0.66443086 -1.1170051 0.5835401 0.25898996
0.9408098 0.6216579 -1.2105702 1.320356 0.73738027 -1.0649228 0.7946831 0.88911116
-0.59147215 0.9321872 0.6911916 0.53565913 1.0376753 1.0821855 0.38863754 -0.049457524
0.8206048 0.4731093 0.6765944 0.45203042 0.03192117 -1.0799184 0.20632035 0.73835826
-1.0165192 -0.10985064 -0.52614635 0.79580456 -0.8948847 0.048383664 1.5006735 0.74894285
-0.8602362 0.58514744 -0.023998056 0.85229903 -0.83874524 -0.25140744 -1.0052466 0.8720891
0.91641515 -0.11068744 0.9826276 -0.688553 -0.6150144 0.19700721 1.0944287 -0.17056343
0.887099 -0.0441679 0.04418521 0.7659922 1.1694022 -0.11582826 -0.026295796 0.84383714
-0.48854578 -0.6595281 0.32747242 -0.82573664 -0.9952719 -0.41503522 0.51877993 -0.8217041
0.5662451 0.866098 -0.74669576 1.3607333 0.665866 -0.5712153 0.8164583 0.83407474
-0.9561627 0.7152669 0.2519662 0.12289988 0.3963441 -1.3146273 0.35745943 0.09702392
0.7611979 0.68415296 -1.3500315 -0.31605956 -0.075283855 -0.14156821 -2.738102 -0.006679101
-0.53878695 0.07605705 -1.2594277 0.83174336 -1.0711163 -0.024254302 1.6415558 0.91192615
-1.0190884 1.0488821 0.052972533 0.8932482 -1.182268 1.0631325 -0.84015775 0.848256
0.65343475 -0.009003485 0.2632326 -1.555594 -1.2816845 -2.8577354 -0.04949293 -0.8424573
0.95271593 0.08963563 1.2916272 0.71277577 -0.44165713 -1.1423805 0.648406 1.018316
-0.4560742 -1.045574 0.9488069 -1.2436445 1.979427 -1.2947828 0.97770077 -1.9305795
1.0597585 0.77550375 -1.1832796 1.6412574 1.0281092 -0.9270205 1.0114056 1.0154469
-0.91988975 0.86416847 0.8449944 1.8432931 1.1355258 0.28783283 1.0031484 0.064322226
0.9980076 0.9780707 0.58738136 0.93192816 0.08706763 -1.5687308 0.16878775 1.1785693
-0.6369582 -0.091090485 -0.73822975 0.6499365 -1.147992 0.030790292 1.8639783 0.64237666
-0.8363711 0.6940634 0.008293954 0.5697486 -0.81227595 0.8611062 -0.51822793 0.71143067
0.65692985 0.031959064 1.8255739 -0.26034006 -0.79795456 0.6554831 2.1560276 0.12618384
0.47120017 0.03629621 0.3052657 0.87996614 1.7773184 -0.63555187 0.7733192 0.48911577
-0.9005075 0.5295063 0.9642903 -0.6178667 -0.73733306 -0.62610745 0.7081043 -0.104526855
0.56259495 0.63425833 -0.30450854 2.051597 0.8442175 -1.0945809 0.5916184 0.6155303
-0.8380192 0.5665928 1.0567747 -0.5139525 1.5933208 0.25544727 0.57374 -0.10825385
0.41308817 0.70404303 0.6539921 0.6811736 -0.09474392 -0.35645187 -0.8487203 -0.30196583
00000000: 31bd 98bf 4ee7 d73d b2ee 19bf a76f 253f
00000010: 3f9e 1dbf e0d6 243c a234 a53f 553a 6c3f
00000020: 4a63 4abf af53 cc3e c428 24bb 8720 823f
00000030: 1ad1 2bbf b00f 183f a0ab c9bf ba17 de3e
00000040: a6d8 5d3f 4647 bd3d 08fc 943f 9d5e 0fbf
00000050: 16b2 19bf 9df9 323e 6564 563f 78d6 f6be
00000060: 1e31 523f b862 74bd ad55 5f3f 7efb 513f
00000070: 2008 5e3f cc46 95bf 64d4 4b3f 1acf 3c3f
00000080: 1791 bcbf 4d8e cbbf 81d1 373f 4202 56bf
00000090: 2418 2a3f 06fa 8ebf e262 153f 559a 843e
000000a0: e9d8 703f f924 1f3f f7f3 9abf 6d01 a93f
000000b0: f4c4 3c3f 644f 88bf 5a70 4b3f ca9c 633f
000000c0: b86a 17bf d2a3 6e3f eff1 303f f520 093f
000000d0: 8bd2 843f 0e85 8a3f 80fb c63e f993 4abd
000000e0: 2813 523f 623b f23e 4a35 2d3f 8870 e73e
000000f0: c6bf 023d c43a 8abf a445 533e 0c05 3d3f
00000100: 4d1d 82bf 5ff9 e0bd 87b1 06bf d9b9 4b3f
00000110: 2a17 65bf f32d 463d 1216 c03f b8ba 3f3f
00000120: 7138 5cbf 39cc 153f 9297 c4bc 4530 5a3f
00000130: 02b8 56bf 7ab8 80be ecab 80bf 3b41 5f3f
00000140: 2f9a 6a3f 19b0 e2bd 7b8d 7b3f 0245 30bf
00000150: 9571 1dbf 42bc 493e 3d16 8c3f 2ea8 2ebe
00000160: ec18 633f 66e9 34bd 8dfb 343d 1118 443f
00000170: f9ae 953f 5e37 edbd 486a d7bc b605 583f
00000180: ac22 fabe d5d6 28bf 77aa a73e 7a63 53bf
00000190: 24ca 7ebf 7f7f d4be c3ce 043f 335b 52bf
000001a0: 70f5 103f 99b8 5d3f 7427 3fbf 822c ae3f
000001b0: 3276 2a3f 2a3b 12bf 6903 513f ec85 553f
000001c0: 14c7 74bf bb1b 373f b701 813e efb2 fb3d
000001d0: 9ded ca3e b545 a8bf ec04 b73e 7ab4 c63d
000001e0: dedd 423f a624 2f3f d5cd acbf 8fd2 a1be
000001f0: 6c2e 9abd 42f7 10be 103d 2fc0 5cdc dabb
00000200: f1ed 09bf ccc3 9b3d ed34 a1bf 22ed 543f
00000210: 571a 89bf f5b0 c6bc 801e d23f fe73 693f
00000220: 7d71 82bf c541 863f baf9 583d eaab 643f
00000230: 8f54 97bf ba14 883f 9414 57bf 4e27 593f
00000240: 8047 273f 5a83 13bc 6cc6 863e b41d c7bf
00000250: 3d0e a4bf 23e5 36c0 19b9 4abd 48ab 57bf
00000260: 31e5 733f e392 b73d 0a54 a53f 7978 363f
00000270: e220 e2be 8639 92bf f0fd 253f 2e58 823f
00000280: 8f82 e9be 5ed5 85bf 02e5 723f be2f 9fbf
00000290: dd5d fd3f 71bb a5bf 994a 7a3f 3b1d f7bf
000002a0: 2ba6 873f 6a87 463f b575 97bf b914 d23f
000002b0: 1599 833f 3751 6dbf bd75 813f 2afa 813f
000002c0: e57d 6bbf 253a 5d3f 8e51 583f 07f1 eb3f
000002d0: e958 913f d35e 933e 2b67 803f 5fbb 833d
000002e0: 6d7d 7f3f d762 7a3f a05e 163f d892 6e3f
000002f0: 8350 b23d 2ccc c8bf b2d6 2c3e 5cdb 963f
00000300: b10f 23bf a68d babd a0fc 3cbf 3d62 263f
00000310: 67f1 92bf ec3b fc3c d796 ee3f cc72 243f
00000320: 6b1c 56bf 24ae 313f 5de3 073c 0bdb 113f
00000330: 51f1 4fbf 7571 5c3f 96aa 04bf 5220 363f
00000340: 8e2c 283f 82e7 023d 68ac e93f 4b4b 85be
00000350: c046 4cbf becd 273f 5bfc 0940 5636 013e
00000360: 2641 f13e 56ab 143d c94b 9c3e 7645 613f
00000370: 2b7f e33f 87b3 22bf 3ff8 453f 626d fa3e
00000380: a987 66bf ba8d 073f bbdb 763f 832c 1ebf
00000390: dcc1 3cbf 9448 20bf 5346 353f 2d12 d6bd
000003a0: 3906 103f c15e 223f 8be8 9bbe 5e4d 0340
000003b0: a31e 583f 3a1b 8cbf 4e74 173f 6593 1d3f
000003c0: 6d88 56bf 3a0c 113f 6544 873f 6492 03bf
000003d0: f0f1 cb3f fcc9 823e a0e0 123f 32b4 ddbd
000003e0: 4b80 d33e 2a3c 343f 076c 273f 6561 2e3f
000003f0: 1a09 c2bd dc80 b6be bc45 59bf 449b 9abe

layer3.bias f4 [6]
0.35768253 0.11974824 0.10538774 0.2586119 0.14059131 -0.13326524
00000000: 2a22 b73e 913e f53d 87d5 d73d c768 843e
00000010: 2bf7 0f3e af76 08be
