drl_deep_project/scripts/our_agent/models/dqn_20250120_005333.pt (torch, 78784 bytes, 6 tensors)

layer1.weight f4 [128, 80]
000000 db 39 88 3d c7 dd 82 bd a2 40 60 3c db 46 a2 bb
       0.0665166 -0.06389957 0.013687285 -0.0049522943
000010 46 a8 90 bd 36 ab 89 3e f5 2d 45 be af fa 18 be
       -0.070633456 0.26888436 -0.19255812 -0.14939378
000020 c1 c3 1f bd 68 a9 d1 bd ec 9c 0b 3b a1 66 79 3e
       -0.039005045 -0.1023739 0.002130325 0.24355556
000030 32 a4 39 3e 99 98 eb be 17 dc 52 3e c3 e6 9b bd
       0.18129042 -0.4601486 0.2059177 -0.07612374
000040 6d 84 23 be 57 11 5d 3d 4b 75 f2 bd 58 24 dc bd
       -0.15968485 0.053971615 -0.11838778 -0.107491195
000050 de 49 c6 be cf a4 94 3e f2 e6 cf bd e5 f1 bb bd
       -0.3872823 0.2903199 -0.10151471 -0.09176997
000060 de 76 14 be ab 83 f4 be e2 b2 19 3e 06 9f c8 bd
       -0.14498469 -0.47756705 0.15009645 -0.09795956
000070 27 7e d5 bd ae 18 9f 3b 27 02 e1 bb d8 c6 c3 be
       -0.10424452 0.004855237 -0.0068667117 -0.38237643
000080 c6 e8 87 bd 40 3d a1 be af 36 a9 3c 69 74 d0 3d
       -0.06636195 -0.31492043 0.020655958 0.101784535
000090 91 15 1c bf 4b 3c 20 bd 1f 76 ab 3e 20 77 1a 3c
       -0.6097041 -0.03912 0.33488557 0.009427816
0000a0 e4 b5 47 3d 3e c9 65 3e d7 d3 9a be 51 fa f1 bd
       0.04875745 0.22440049 -0.30239746 -0.11815322
0000b0 e4 c5 07 bd 8e a1 cc 3d a3 6b ac bd 7d d2 86 3c
       -0.033147708 0.099917516 -0.084189676 0.01645779
0000c0 a9 07 f8 3d 66 13 6d bd 47 ed bd 3c 67 fb 23 bf
       0.12110836 -0.057879828 0.023184432 -0.64055485
0000d0 44 58 e7 bd e4 41 41 3d 10 75 c8 3b 8d f4 d5 3c
       -0.11296132 0.04718198 0.0061174706 0.026117587
0000e0 69 70 56 3d 98 e3 55 3c ed 37 0d 3c a9 1d 49 3b
       0.052353296 0.013054751 0.008619291 0.0030687845
0000f0 ae 1b de be d6 9e 12 bc a1 a5 d7 3b a6 ad 93 3e
       -0.43380493 -0.008949002 0.006581024 0.2884342
000100 e7 ce 8a bd 96 84 ec 3c 8d 0f a7 3d f9 30 4d 3d
       -0.06777745 0.028871816 0.08157263 0.050095532
000110 c8 41 ae be 12 03 00 3e fa d9 39 3d ac 5c 01 3e
       -0.34034562 0.12501171 0.045373894 0.12633008
000120 df 7f d3 3d 8d 45 7e 3e d3 e9 f1 be 2a 3c b9 bd
       0.10327124 0.24831219 -0.47248706 -0.090446785
000130 4c bc 00 be e5 01 0e 3d 80 57 27 3e 48 53 75 be
       -0.1257183 0.034669776 0.16341972 -0.2395755
000140 dc ff 98 3d fa 21 2d be c3 d8 25 3e 1d 81 8d bd
       0.07470676 -0.16907492 0.1619597 -0.06909392
000150 cc e6 2a 3c 13 a6 4a be 1f 41 3c bc cd 8b de bd
       0.010431003 -0.19789915 -0.011490135 -0.10866509
000160 f0 b0 c1 be f3 27 12 3d d0 b4 d3 3e d6 72 66 3e
       -0.37830305 0.03568263 0.41348886 0.22504744
000170 7b 5f ab be 9a 5c 82 be a2 dd c6 bd 93 c9 47 3e
       -0.33471283 -0.25461274 -0.09710242 0.19510488
000180 3c fa 15 3d 44 f8 3a be b6 25 2b be 48 e9 ab 3e
       0.036615595 -0.18258768 -0.16713604 0.33576417
000190 12 34 58 3e 40 38 61 bd 90 16 d1 3d 05 9e 7b 3c
       0.21113613 -0.054985285 0.102093816 0.015357499
0001a0 23 01 d7 3d 85 ec 58 3e a3 0b 97 be 82 c8 78 be
       0.10498264 0.21183975 -0.29501066 -0.24295238
0001b0 d0 1d c8 bd 8c 78 37 3d 77 43 19 bd 08 de 46 3e
       -0.09771311 0.044792697 -0.037417855 0.19420636
0001c0 a2 5a 4d bd a7 70 81 bd 20 e8 19 be 4b dd 39 bd
       -0.050135262 -0.06320315 -0.15029955 -0.045377057
0001d0 b8 5f c0 bd a5 b0 37 bd b3 55 5f be 55 ac 41 bd
       -0.09393257 -0.044846196 -0.21810035 -0.04728349
0001e0 4d 81 f4 3d 58 26 a7 bd b8 b6 3f 3d 89 e5 00 be
       0.11938725 -0.0816161 0.046805114 -0.1258756
0001f0 29 97 87 bd fc 98 a9 3c 84 e4 65 be c7 dc e6 bd
       -0.066206284 0.020702831 -0.22450453 -0.11272579
000200 b8 2e d3 3d 5b 13 2d be 67 d9 c1 bd 65 91 d2 3d
       0.10311645 -0.16901915 -0.09465294 0.10281638
000210 4b c4 8a 3d 09 e3 6b 3d 05 d5 1e be 28 04 49 3e
       0.06775721 0.057589564 -0.15510948 0.19630492
000220 5a 98 8e 3d 75 39 43 be 51 3f a7 3d c7 41 ce 3d
       0.069626525 -0.19064887 0.081663735 0.1007114
000230 96 60 80 be 1a 38 d6 bc 06 09 31 ba ea 07 4f 3e
       -0.2507369 -0.026149798 -0.0006753359 0.20217863
000240 af c8 ed 3d 23 35 1e 3c 03 c0 40 bd 5b 9f ef 3c
       0.11610543 0.0096562235 -0.047058117 0.029250791
000250 79 5c 4a bd 98 30 2a bc 0d e5 99 3b 5f 16 9e 3d
       -0.049404595 -0.010387562 0.0046964944 0.07719111
000260 d0 51 c7 bc 75 ee e9 3d 0c 55 e8 be b3 25 bc 3d
       -0.024331003 0.11422435 -0.45377386 0.09186878
000270 89 e6 36 3d f5 0b bf 3c 3d b6 7a 3e 5c c2 04 be
       0.04465345 0.023321131 0.24483581 -0.12964767
000280 e2 78 b1 be 91 8a 20 3e db 4f 1f bf d0 53 d7 3d
       -0.3466254 0.15677859 -0.62231225 0.10514033
000290 d6 af ec bd 61 20 b8 3b c3 44 20 be b8 a3 f2 3d
       -0.115569755 0.0056190942 -0.1565123 0.11847633
0002a0 0a b1 13 be 36 b8 ec 3d e2 d5 9d bd 45 2b c3 bd
       -0.14423004 0.11558573 -0.077068105 -0.095297374
0002b0 80 5c 5d be 54 9a c8 be f0 2d 89 bd 01 9e 54 3e
       -0.21617317 -0.39180243 -0.06698215 0.20763399
0002c0 22 cb 39 3c 4d e7 bd bd 3f 7b e6 3e b6 3a 35 3d
       0.011339935 -0.09272633 0.45015904 0.044245444
0002d0 68 c1 2c 3e 72 24 eb 3d dc f8 c7 be c4 c8 86 be
       0.16870654 0.11481561 -0.39057052 -0.26325047
0002e0 db e5 03 3e 46 b0 12 3e 06 7d 87 3c 7a c9 b9 bd
       0.12880652 0.14325055 0.016539108 -0.09071632
0002f0 b7 bc 92 be 59 a1 c1 bd c0 c6 ca 3d d9 17 f9 3d
       -0.28659603 -0.09454603 0.0990119 0.12162752
000300 12 fc 29 3d 05 26 bf bd 27 79 1f be 1c 46 2c be
       0.04150016 -0.093334235 -0.1557356 -0.1682362
000310 3b 69 82 3d 0d 2a f4 3d 0c 16 b4 be 27 21 21 3e
       0.06367727 0.11922083 -0.3517307 0.15735303
000320 9b d3 22 bd d2 c5 4c 3e cc 9a 17 be 4e 08 fe 3d
       -0.039752584 0.19997337 -0.14805144 0.12403928
000330 69 e2 fd 3d 60 fc b7 3b e9 74 6e 3e 57 ad 30 bc
       0.123967 0.0056148022 0.23286785 -0.010783515
000340 d9 02 08 bf a1 38 98 3d d3 35 23 be 41 53 04 be
       -0.53129345 0.07432676 -0.15938501 -0.12922384
000350 5a 6a 46 3d c3 e2 08 3e 49 95 85 3e ca d2 0e bd
       0.04844127 0.13367753 0.26090458 -0.034868993
000360 1d 12 e0 bc 28 b4 af 3e c3 b6 2c 3c 45 97 ba 3d
       -0.027352387 0.34317136 0.010541621 0.091108836
000370 be 10 8a 3d b7 be 62 3e b2 7c 96 bd e8 9f 1f 3b
       0.067414746 0.22143064 -0.073480025 0.0024356786
000380 24 20 0f 3e 4e 54 95 bd d2 c8 8f bd 72 e4 25 3e
       0.13977104 -0.072914705 -0.07020725 0.16200426
000390 c6 91 bb 3d ea 1f 04 bd f0 fc d1 3d f6 e6 8b 3d
       0.091586635 -0.032256998 0.10253322 0.06831162
0003a0 c8 82 75 3d f5 36 24 be d1 58 a0 be ca 2f b2 bd
       0.059939176 -0.1603659 -0.31317762 -0.08700521
0003b0 50 4d 83 3d ef b7 41 bd 44 2e 84 3d 22 dc 15 be
       0.064112306 -0.047294553 0.06454137 -0.14634755
0003c0 92 27 5e be e7 b0 2f 3d de e7 c0 3d b0 9d b1 bc
       -0.21694782 0.042893317 0.09419225 -0.021681637
0003d0 44 d2 82 3c 93 cb b7 3d 7d 37 de bd 62 37 c7 3d
       0.015969403 0.089743756 -0.10850427 0.0972736
0003e0 b4 be 1b be 1e 42 e5 bd a1 58 a7 3d ff 7d 5a be
       -0.15209466 -0.111942515 0.081712015 -0.21337126
0003f0 9c 0f 81 be 36 25 3d bc f4 5f 6c be 56 cf 72 bb
       -0.25207222 -0.011544516 -0.23083478 -0.0037049851

layer1.bias f4 [128]
000000 73 0f da bd 35 5d 9d bd d9 33 58 3d 89 c2 dd bd
       -0.10647478 -0.076837935 0.05278382 -0.1082812
000010 95 f9 49 bc a2 3c a0 bd cd 3b 19 3e 34 12 3b 3d
       -0.012327571 -0.07824065 0.14964218 0.045671657
000020 85 36 b0 3c 86 5c 1a 3d 53 5e 3e 3e db 93 f2 3d
       0.021510372 0.037685893 0.1859067 0.118446074
000030 88 b4 14 3b f1 fd 35 3e 16 0e 2d 3e 1e c9 c6 bb
       0.0022690613 0.17772652 0.16899905 -0.0060664555
000040 bf ed 87 bc ab 71 38 3d 70 d7 9e bb 86 fb 53 3e
       -0.016592858 0.045030277 -0.0048474595 0.20701417
000050 13 04 c5 3c 46 ff b1 bd 81 8e ab bc 9e b8 b4 3d
       0.024049794 -0.08691268 -0.020941975 0.088242754
000060 85 84 f3 3d 68 34 d5 bc 8f 33 52 3e 83 44 13 bd
       0.118905105 -0.026025966 0.2052748 -0.03595401
000070 16 c8 e3 bc 85 b5 6a 3d ee 56 be bd 07 60 0c bc
       -0.02780537 0.057302017 -0.09293924 -0.008567817
000080 19 06 ef 3d 99 74 68 3e 18 b6 03 bc ee 2c 23 3e
       0.11671085 0.22700728 -0.00803902 0.15935108
000090 b6 b0 a9 bd d8 eb 37 bd 0b 0d a3 3d 30 19 2b be
       -0.08285658 -0.044902653 0.07961472 -0.16708827
0000a0 30 74 55 3e 79 06 d5 3d bc 2e 7c 3c 34 7b 38 3e
       0.20845103 0.10401625 0.015392002 0.18015748
0000b0 db db d0 bd 20 52 b7 bd 27 d2 39 3e 4f 88 a5 bd
       -0.10198184 -0.08951211 0.18146573 -0.080826394
0000c0 94 1d da bd 6c 58 25 3e 34 22 bc 3d 77 8e ab bc
       -0.10650173 0.16147012 0.09186211 -0.020941956
0000d0 66 5c 3e be aa 36 09 3e d1 ed f6 bc fb 0a bf 3c
       -0.18589935 0.13399759 -0.030142697 0.023320666
0000e0 ab 10 1a be 87 7d 8b bd f8 a9 39 bd 25 cb 8c bd
       -0.15045421 -0.06811052 -0.04532811 -0.06874684
0000f0 60 2e 75 bd a2 b1 2e 3e ef 60 48 3d 17 10 b0 3d
       -0.05985868 0.17059949 0.048920568 0.08596819
000100 0e 16 d6 3d 75 30 52 3d 2b 62 ca bd 0b 83 92 3e
       0.10453425 0.051315743 -0.09882005 0.28615603
000110 9a 53 cc bd aa 83 53 3e d3 2c 1c 3e f7 59 97 3d
       -0.09976883 0.20655695 0.15251474 0.07390206
000120 3a 23 91 bc 48 2f e1 bc 51 b7 82 3c 8f 42 f1 bd
       -0.017716993 -0.027488366 0.015956553 -0.11780273
000130 12 31 64 bd 63 a1 83 bd 4d 75 05 be bd 28 00 bd
       -0.05571086 -0.064272664 -0.13033028 -0.03128885
000140 7f b1 66 3d e7 d8 16 ba e9 34 53 3d 43 07 16 bd
       0.056321617 -0.0005754367 0.05156413 -0.03662802
000150 60 af 02 bc c2 f9 f4 3d 7f ff b3 3d 82 84 cc bc
       -0.007976383 0.119617 0.087889664 -0.024965528
000160 d2 d4 0f 3d 1d 3b a1 bd bb 08 26 3d 33 45 93 3c
       0.03511507 -0.07872603 0.04053567 0.017977333
000170 4a 10 0f 3d 52 5e 89 3d 13 d8 c9 bd d8 ef b2 bc
       0.034927644 0.06707443 -0.09855666 -0.021842882
000180 5f 5f 36 3e 8e 5d 8c 3d 7c 61 be 3c d2 c4 06 3c
       0.17809819 0.06853782 0.023239844 0.008225637
000190 69 e6 31 3e 03 13 25 bc 7d 3c 5c 3d 5a cf f9 bd
       0.17373051 -0.0100753335 0.053768624 -0.12197752
0001a0 8d a0 00 3d b4 fb e9 bd 80 c9 9b 3e 70 07 1d 3e
       0.031403113 -0.11424962 0.3042717 0.15334868
0001b0 1e 3e 5a 3d a6 70 cd 3d 00 18 a3 3d 6f 18 3f 3d
       0.053281896 0.100312516 0.07963562 0.04665416
0001c0 84 f6 2d bd 5e b7 b9 bd e2 01 af 3d 6c 99 20 be
       -0.042471424 -0.09068178 0.08545281 -0.15683526
0001d0 24 e5 cb bc 74 2e ba 3d 7e 86 d4 3d 8e 64 a5 39
       -0.024889536 0.090908915 0.10377215 0.00031546172
0001e0 01 04 1a be af 7c 5b be fc 9e 14 be 9d cb b2 3d
       -0.1504059 -0.21434282 -0.14513773 0.087302424
0001f0 48 cb 1d 3e 92 6a 39 3c 25 ab a1 bc 32 3e 38 3e
       0.15409577 0.011316912 -0.019734928 0.17992476

layer2.weight f4 [64, 128]
000000 83 fe 8b 3d 25 a9 1b 3f 18 b0 d3 3e a0 df bd 3e
       0.06835654 0.6080497 0.41345286 0.37084675
000010 e3 4c ea 3e 98 d4 ab 3e c4 4e 13 bf e7 12 bf bd
       0.45761785 0.33560634 -0.5754206 -0.09329777
000020 17 61 da 3e fa 5f 14 be e0 f9 01 3d 45 5e b3 3d
       0.426522 -0.14489737 0.03173244 0.08758215
000030 a3 ef 3b 3e e6 42 26 bf 51 c0 97 3d ab 3b 71 3e
       0.18353133 -0.6494583 0.07409728 0.23557918
000040 2a 3e cb 3e ca 4c e9 bd 56 9d 5f bd 8a 22 0f 3d
       0.39695865 -0.113915995 -0.054593407 0.03494505
000050 82 73 e6 bc b6 3e b8 3e 10 49 da 3d 45 94 fd 3e
       -0.02813125 0.35985345 0.10658467 0.49527183
000060 79 99 21 bf 08 f9 a9 3e 41 d2 8c bd 4c 83 40 3e
       -0.63124806 0.33197808 -0.0687604 0.18800086
000070 62 83 81 3e b7 e8 61 be 51 46 aa 3e 55 34 97 3d
       0.2529555 -0.2206143 0.33256772 0.073830284
000080 a3 f8 41 bf e7 10 25 3d fb 2e 7d 3e 3d 51 40 3d
       -0.75770015 0.040299322 0.24724953 0.046952475
000090 49 c5 b8 3e dc 66 bf bd d8 37 70 be 82 83 2b 3d
       0.36088017 -0.09345791 -0.23458803 0.041873462
0000a0 7f e7 b2 bd e9 9d a6 3c 93 98 ce 3d 72 ed f1 be
       -0.087355606 0.02033897 0.10087695 -0.4725147
0000b0 1e d4 d2 3e a5 e6 19 3f 12 3e aa be 03 92 34 3f
       0.41177458 0.6011756 -0.3325048 0.70535296
0000c0 ca df ce 3d 48 82 a6 3e c6 7d 11 bf 33 00 b8 3e
       0.10101278 0.32521272 -0.5683254 0.35937652
0000d0 64 ba 85 3d 5b 91 c3 bd ec cd 6e 3e a1 27 26 3e
       0.06529692 -0.09549209 0.2332074 0.16226055
0000e0 4b 22 10 3e 78 03 0e 3e 3b c7 a4 3d db 47 17 bf
       0.14075582 0.1386851 0.08045813 -0.5909402
0000f0 fe 02 97 be c4 98 a1 3d a3 7f a3 bd 04 fc 1e bf
       -0.2949447 0.07890466 -0.07983329 -0.62103295
000100 70 fa 08 3f 05 c1 32 bc 2b 6c d7 3d 04 29 3b bf
       0.5350714 -0.010910277 0.10518678 -0.7310946
000110 b9 d8 8f bd d7 f2 19 bf 52 9a 3f be a6 e9 48 3f
       -0.070237584 -0.6013617 -0.18711212 0.7848152
000120 bc c2 24 3f 29 0e 0d 3f 90 8f b0 be 75 76 12 3f
       0.6435964 0.5509973 -0.3448453 0.57212
000130 8a ce b4 3d 42 86 5a bf 6c 57 0f be 8e 44 55 3e
       0.08828457 -0.8536111 -0.13998193 0.20826933
000140 c7 ef 6a be 20 8e 68 3e 0c 0b c2 3d 33 f3 ce bd
       -0.2294303 0.22710466 0.09474763 -0.1010498
000150 c2 6d 0a 3f c3 7b 6a 3c 3e 36 ab 3e 24 ef 94 3e
       0.5407373 0.014311734 0.3343982 0.290887
000160 ea a8 ca be 62 53 e2 3d 0d 83 55 3e a9 79 8b 3e
       -0.39581996 0.1105106 0.20850773 0.27241257
000170 52 61 83 bd 58 73 b5 3c 88 5c 86 3e 83 07 24 3e
       -0.06415047 0.022149727 0.2624247 0.1601849
000180 af 01 1b 3d ef 56 b9 3e df 46 e1 3e 85 0f 16 be
       0.037843402 0.36199138 0.43999383 -0.14654358
000190 ba c1 1b be ad a9 c9 be 7b 90 32 3e a6 35 4e 3b
       -0.1521062 -0.39387265 0.17437927 0.0031465082
0001a0 5d d4 10 3e ca 25 14 3e 84 7d 08 bf e0 9d f0 b9
       0.1414351 0.1446754 -0.5331652 -0.00045893993
0001b0 a0 3b 4e 3e 8d 16 0d bf 9f ad 2c 3e 81 4d a6 be
       0.20139933 -0.55112535 0.16863106 -0.32481006
0001c0 c7 77 5e 3d 09 5f 1a 3f dd 42 88 be da ab 19 3e
       0.054313447 0.6030126 -0.26613513 0.15006962
0001d0 f8 0f 0e 3e c4 be ac 3d fb a7 72 bd 8a 49 26 3d
       0.13873279 0.08434823 -0.05924223 0.040597476
0001e0 fb 0c 02 bf b5 7f 69 3e 59 10 28 3d 87 6a 04 bf
       -0.50801057 0.22802623 0.041031215 -0.5172505
0001f0 99 e3 ff be 14 a1 08 bf 9f 5c 0c 3f 39 74 22 bc
       -0.4997833 -0.53370786 0.5482883 -0.009915405
000200 d7 0c df be 91 ac 87 3a 5a 1b d5 3d 45 83 7a bd
       -0.43564484 0.0010351111 0.104056075 -0.061160345
000210 80 59 10 3e e1 9b 65 3d b9 fb aa bd 4d f5 52 be
       0.14096642 0.05605686 -0.083487935 -0.20601387
000220 71 71 09 be c9 09 83 bd 64 1d d4 3d 9e c5 67 3d
       -0.1342218 -0.06398351 0.10357168 0.056584947
000230 a2 36 48 be ca 84 b3 3d 36 18 10 3e dc 7d ef bd
       -0.19552091 0.08765562 0.14071736 -0.11693928
000240 27 d4 8d 3e ac 4b 61 3d b1 65 96 3e 1a 22 6d bd
       0.27700922 0.055003807 0.2937446 -0.05789385
000250 1c 00 be 3c 9f 13 0f be f3 3a 66 bd 45 07 96 be
       0.023193412 -0.13972329 -0.056208562 -0.2930242
000260 a0 93 e9 3d 76 0c 6a 3d a8 ee 46 be 66 ab 5f bc
       0.1140511 0.05714079 -0.19426978 -0.013651704
000270 96 97 af bd e3 b4 53 be 8e 9d c7 3d 8f 8b d0 3d
       -0.085738346 -0.20674472 0.09746848 0.10182869
000280 b4 a8 b1 3d 90 9c b9 bd db 91 c0 3b 80 d6 84 3e
       0.08674756 -0.09063065 0.0058767623 0.259449
000290 55 18 05 be 3e 6d 86 3d a6 57 93 3c b0 db 54 bd
       -0.12997563 0.06563805 0.01798613 -0.051967323
0002a0 8c ee 88 3e 53 ef cd 3e 38 27 6f be 7d 45 98 3d
       0.26744497 0.40221652 -0.23354805 0.07435129
0002b0 88 36 60 bd 4f d8 77 bd 7e 3b b1 bc 0d 3b b8 3d
       -0.054739505 -0.060509022 -0.021634813 0.08995638
0002c0 7f 11 fd 3d 7f 64 96 3d f1 15 14 bd 96 26 8d bd
       0.12356853 0.07343387 -0.036153737 -0.06892125
0002d0 73 6e 8b be 09 01 95 bd 22 03 fb bd 74 f2 7f be
       -0.27232704 -0.07275588 -0.12256457 -0.24994832
0002e0 3e 15 f9 be f0 99 ec bd f7 f9 fb 3e 66 cd 4f 3d
       -0.4864902 -0.11552799 0.49214146 0.050732993
0002f0 cc a3 97 be 24 32 12 bd e0 cd c4 3d 3b 91 90 3e
       -0.29617155 -0.03569235 0.0960958 0.28235802
000300 6d 14 5a be a5 0c 9a bd 59 5e 13 be a7 ee 53 bd
       -0.21296854 -0.07521943 -0.1439146 -0.05174127
000310 4e 63 73 be 3f 80 ba bd d9 5f 25 be dd 25 7f 3d
       -0.2376835 -0.09106492 -0.16149844 0.06229197
000320 5a 36 31 be 77 8c f2 be 67 36 a8 bd 26 24 22 3c
       -0.1730589 -0.4737279 -0.082135014 0.009896314
000330 48 cc 6b 3e b3 95 4f be fd 24 8c be 47 cf 48 be
       0.23027146 -0.2027195 -0.2737197 -0.1961032
000340 99 53 7c 3d 6a 29 90 3e e0 13 39 3c 02 05 ea 3d
       0.061603162 0.28156596 0.0112962425 0.114267364
000350 2d ed a8 bc e1 49 86 3e ca 99 b1 bd e6 cb 2b 3d
       -0.020620907 0.2622824 -0.08671911 0.0419425
000360 e2 72 8e bc 16 a6 96 be 76 51 88 bd 0e ef 21 bd
       -0.017388765 -0.2942359 -0.066561624 -0.03953462
000370 78 9f b7 bd 29 02 41 be 6e 11 82 be a7 f6 b8 bd
       -0.08965963 -0.1884848 -0.25403923 -0.0903142
000380 f9 b3 3f be 75 19 9a bd c2 aa 2f be 9c 85 77 3e
       -0.18720998 -0.07524387 -0.17154983 0.24172062
000390 37 a9 21 3e 82 31 fc 3e ba 30 52 3e 18 a8 2d 3e
       0.15787207 0.4925652 0.205264 0.16958654
0003a0 14 7e 09 3d 76 1c 0c 3e 3d c6 bf bd 34 30 c7 3e
       0.033567503 0.13682732 -0.09363983 0.38903964
0003b0 a7 c4 67 be 43 e2 28 3e b8 0b 7d 3e 16 17 9f 3d
       -0.2263361 0.16492562 0.24711502 0.07768075
0003c0 1a 77 fc bb 13 97 65 3e 9b 9f b8 3d 17 a4 03 bf
       -0.0077046277 0.22420911 0.09014817 -0.51422256
0003d0 50 08 94 bd ef 66 d1 3d 64 37 a5 3e 0e 94 ef 3d
       -0.07228148 0.10224711 0.32268822 0.11698161
0003e0 d5 35 5d be 69 84 b2 be 74 ac 0d bd d9 7b fd bd
       -0.21602567 -0.34866646 -0.034588292 -0.12377138
0003f0 0c 04 bd 3d f2 10 0c 3e 27 c0 2b 3e 50 b1 a7 3d
       0.092292875 0.13678339 0.16772519 0.081881166

layer2.bias f4 [64]
000000 ac 9a 87 3c a3 10 39 3d f0 62 74 bc c4 0d a5 bc
       0.016553245 0.04518188 -0.014916167 -0.020148166
000010 82 52 a2 bd 34 18 0f 3c c7 3d 66 3c ce 80 fb bc
       -0.07925893 0.008733798 0.014052815 -0.030701067
000020 2e 5c 18 3c bd 71 1d 3e 21 18 a5 bd 0d 98 bf 3d
       0.009299321 0.15375419 -0.08061243 0.09355173
000030 ae 6c 89 bb 96 1b 8c bc 17 e9 cd bb 3b 3c 85 3d
       -0.004193864 -0.017102998 -0.00628389 0.06505629
000040 ca b1 be bc 9e 84 61 3e 80 cc dc 3d 35 e7 33 3e
       -0.023278136 0.22023246 0.10781193 0.17568667
000050 3e 02 ec bc 11 d2 77 bd 90 a7 55 bd 52 28 fc ba
       -0.028809663 -0.06050307 -0.052161753 -0.0019238091
000060 12 96 08 be 00 7c 3d 3c e5 c1 34 bd e8 e9 a8 3b
       -0.13338497 0.011565208 -0.044130225 0.005154837
000070 74 4c 46 bc c7 52 8e 3c 76 e4 83 3d 9f f5 e1 bd
       -0.012103189 0.017373456 0.0644006 -0.11033177
000080 1e 78 82 bc c4 11 25 bd 03 5f 3b 3d 81 24 f9 3d
       -0.015926417 -0.040300146 0.045744907 0.12165166
000090 06 dc 1e bc 39 b0 04 3d 55 cd fb 3d 74 72 39 3d
       -0.009696012 0.03239462 0.12295023 0.045275167
0000a0 c3 73 0b be 86 df 09 3e 78 45 43 3e b0 07 65 bd
       -0.13618378 0.13464174 0.19069469 -0.055915534
0000b0 4f 13 ba 3d 22 8d 75 3c e6 f1 84 3b 04 2d d1 bd
       0.09085714 0.014987262 0.004057157 -0.10213664
0000c0 21 41 4e 3c a6 84 0e 3e dc f2 20 bb ed b5 0a 3d
       0.01258877 0.13917789 -0.0024558818 0.033864904
0000d0 36 b9 f4 bd f6 48 63 3e 0d fb 3b 3d 3d a0 82 bd
       -0.11949389 0.22195801 0.045893718 -0.06378219
0000e0 01 2b 02 3e 35 02 32 3d ae ed 2a 3c c0 09 e9 bc
       0.12711717 0.043459136 0.010432644 -0.028447032
0000f0 2a ae 7d bd d9 90 d5 3d 05 14 c0 bc b0 b0 f2 bb
       -0.061933674 0.10428018 -0.023447046 -0.0074063167

layer3.weight f4 [6, 64]
000000 ca 5e 60 bf 56 44 00 3f f6 4f 17 3d e5 ff 80 be
       -0.87644637 0.5010427 0.03694149 -0.25195232
000010 57 c7 85 bc e0 71 a6 bd 43 cf 3e 3b d4 59 98 3d
       -0.016330404 -0.08127189 0.0029115237 0.07439008
000020 07 03 ea be 03 6e d2 3e ee 28 b5 bf 12 b0 c5 3d
       -0.45705435 0.41099557 -1.4153116 0.09652723
000030 3c 81 42 bf 81 3d f7 bd c9 8e 1f bf fa e0 52 3f
       -0.75978446 -0.12072278 -0.6232725 0.82374537
000040 75 f3 14 3f 66 02 d2 bd 53 c6 1d 3e 83 0c 9e 3e
       0.58183986 -0.10254364 0.15407686 0.3086892
000050 65 c9 89 bb 2b 68 a3 be 25 01 89 be c8 f7 8a bf
       -0.0042049163 -0.3191541 -0.26758686 -1.0856867
000060 ec 70 f7 be e1 90 88 3e 85 d4 b4 bf 79 21 e4 bd
       -0.4832834 0.26673034 -1.4127356 -0.11139197
000070 a7 c1 c3 3c 51 d8 06 3f bb 6f 10 3f 8f 6c e3 bd
       0.023896052 0.5267382 0.5642049 -0.1110469
000080 2d ab ab 3e 36 e0 ca bf e0 28 98 3e c4 2a 7c 3d
       0.33529034 -1.5849674 0.29718685 0.061564222
000090 e1 27 97 3d a0 5e 83 be 85 5c 22 3c 9d 7b 29 bf
       0.07380653 -0.2565813 0.009909754 -0.66204244
0000a0 59 ab 55 be 6a 75 be 3e e0 ca 4d 3e 28 ca b8 bf
       -0.20866145 0.37198955 0.20096922 -1.4436693
0000b0 c1 f1 04 be 26 9b 90 be e0 1d e2 3e db f4 42 3f
       -0.12982847 -0.2824337 0.44163418 0.7615487
0000c0 f9 b1 e8 bd 1e 5a ce bd 88 6c 83 be 6e 0d f2 3e
       -0.113620706 -0.10075782 -0.2566874 0.4727587
0000d0 a6 94 7b bd 60 d9 5f 3e 39 b2 c6 3c af aa ba be
       -0.06142106 0.21860266 0.024254905 -0.36458346
0000e0 d6 96 69 3e cb 3f 43 3e af 63 6c be f2 2d cd be
       0.22811446 0.19067304 -0.23084901 -0.40074116
0000f0 21 9c b0 3e 31 d7 e4 3e 55 3d 04 3f 81 1f 29 3d
       0.34494117 0.44695428 0.51656085 0.04128981
000100 87 fb 10 bf 4a 21 e4 3e b3 2b 36 bf 9f 32 c4 be
       -0.566338 0.44556648 -0.7116043 -0.3831987
000110 ce 97 28 bf 5e e4 29 bf 16 9c 8e be fd 15 f9 be
       -0.65856636 -0.66364086 -0.2785346 -0.48649588
000120 77 3c 9a bd 49 f2 a6 3d aa e1 60 bf 1e 6b 78 be
       -0.07531064 0.08151681 -0.87844336 -0.24259612
000130 df 2b f0 3d 91 90 2d bf f3 52 29 3f 1e c9 a2 3b
       0.11727118 -0.67798716 0.66142195 0.0049678227
000140 10 b2 e6 3e a8 8c 7b 3e 83 37 b0 3e 31 90 15 3f
       0.45057726 0.24565375 0.34417352 0.58423144
000150 50 36 d1 3e 3f e8 aa be 85 3c 22 bf 12 5f 4b be
       0.4086175 -0.33380315 -0.63373595 -0.19860485
000160 bc be a5 be ff fe f8 3e 91 ad 2b bd 93 81 71 bd
       -0.3237208 0.48632047 -0.041913573 -0.058961462
000170 71 ae 16 bf 2d 4c f9 3e f1 78 ac 3e 74 90 9e bf
       -0.58859926 0.4869093 0.3368602 -1.2387834
000180 86 c3 8e 3e 9a a4 f5 3c 05 1e 23 3e f7 3e cf 3d
       0.27883548 0.029985715 0.1592942 0.101194315
000190 5a 24 88 3d 34 f3 63 be 5a 6c c7 bc 8a 5f 9d 3f
       0.066475585 -0.22260743 -0.024343658 1.2294781
0001a0 44 31 73 be f0 84 51 3e 65 bf ac bb 19 3e 9c be
       -0.23749262 0.20460868 -0.0052718394 -0.30516127
0001b0 f9 8d 1c bd 07 bc bc be 65 79 86 3e eb 04 2c be
       -0.038221333 -0.36862203 0.26264492 -0.16798751
0001c0 26 82 38 bf ac 72 00 3d 29 a3 91 be 2d 16 3d 3e
       -0.7207359 0.03135936 -0.28444794 0.1846549
0001d0 74 4e fe be 24 3b 37 3f d6 da 3f 3f 7d 8e 38 be
       -0.4966923 0.71574616 0.7494329 -0.18023105
0001e0 9a 29 c7 be a2 f8 4b 3f 11 f0 61 3e 52 7d 59 be
       -0.38898927 0.7967626 0.22064234 -0.21239212
0001f0 c3 c7 ef bf b9 43 38 3e e7 2f 8f bf 4f 91 82 bd
       -1.8732837 0.17994584 -1.1186494 -0.06375372
000200 41 c5 b3 bd 5e d0 14 3f c8 8b 6c be 86 cf c6 3e
       -0.087778576 0.58130443 -0.23100197 0.38830203
000210 0f 68 b5 3e 0f 9f 92 be 3b c8 68 bf ea 67 5a bd
       0.35430953 -0.28636977 -0.9093053 -0.053321756
000220 90 e2 20 bf d7 3d aa 3d 35 ba 62 bf 31 4e eb 3d
       -0.62845707 0.08312576 -0.8856538 0.11489523
000230 c5 25 bf be ff 4e 70 be af bd ad bf 06 f4 31 be
       -0.37333503 -0.23467635 -1.3573512 -0.17378244
000240 5e bb 34 3f 86 b4 0b be c2 3e 9a 3e 56 c2 01 3e
       0.705984 -0.13643083 0.30126005 0.1267179
000250 90 2b 69 3c c7 c9 3b bd 67 6b 7b bf 8b 90 5b bf
       0.0142315775 -0.045846727 -0.9821076 -0.8576743
000260 78 f7 2e 3d fa f1 6c bf 09 71 9d bc 30 ce 09 3f
       0.042716473 -0.92556727 -0.019218938 0.5383024
000270 84 db b9 3c 15 14 de 3e 43 03 7e 3d fe 2c 29 be
       0.022687681 0.43374696 0.06201483 -0.1652107
000280 ba af c5 3e d7 b5 4c be d0 89 02 3f d1 08 7d 3e
       0.3861063 -0.19991241 0.50991535 0.24710394
000290 26 b4 14 be 9a 01 51 3d c2 d8 6d 3d fc 5b 53 3f
       -0.14521846 0.051026918 0.058068044 0.8256223
0002a0 f3 24 23 3c 67 3c 90 bd 1a 62 bd 3e 10 61 b4 3e
       0.00995754 -0.07042771 0.36988908 0.35230303
0002b0 2f 21 60 3e c8 3c b8 bd 68 ad f8 3e e5 bb a8 bf
       0.21887659 -0.08995968 0.48569798 -1.3182341
0002c0 d1 78 9d be d3 e9 ae 3e 7a 0d a1 bf 12 70 af be
       -0.30756238 0.3416277 -1.2582238 -0.3426519
0002d0 3a 61 bd bd f1 f1 b2 3e 8d 32 80 3d 40 24 fb bd
       -0.0924706 0.34950212 0.06259642 -0.122627735
0002e0 87 7a 69 3e b6 3f 36 3d 12 92 01 bf 61 31 82 be
       0.22800647 0.044494353 -0.5061351 -0.25428298
0002f0 ae a5 8e 3e 17 31 81 bd bb 4d aa bf 73 aa 28 3d
       0.2786078 -0.06308191 -1.3304971 0.041178178
000300 a7 9a 35 bf 3f 0c 4c bf 5a e0 8c bd bf e3 7d be
       -0.70939106 -0.79706186 -0.06878729 -0.2479391
000310 d2 bf 41 bf d2 8b a8 be 49 23 07 3d 31 10 e4 3c
       -0.7568332 -0.32919174 0.032992635 0.027839752
000320 4b 18 ce be c3 b6 c9 3d a4 99 09 3f af fa 23 3f
       -0.4025291 0.09849312 0.5375006 0.6405439
000330 ad d7 86 3e ec 0c c3 be 26 a9 ae be c6 a8 9c 3f
       0.26336423 -0.38095796 -0.34113425 1.2239006
000340 fa ba 8f 3e ea 90 64 3e b4 5c ea 3e 53 d0 59 3e
       0.2807234 0.22320905 0.45773852 0.21270876
000350 94 e0 55 bf c8 85 aa bd 62 59 34 bf 7d b5 91 bf
       -0.83545804 -0.08326298 -0.7044889 -1.1383511
000360 d7 b2 87 be 35 f7 96 bf bb a2 82 be 15 a4 43 be
       -0.2650363 -1.1794192 -0.25514778 -0.19105561
000370 2a fa 1a bf fe 0f 0a 3f 60 53 a1 be e4 24 99 bf
       -0.6053797 0.5393065 -0.31508923 -1.1964383
000380 d4 18 1a 3e a2 f0 1a be fc 5d 92 3e 2c 2d a2 be
       0.15048534 -0.15130857 0.2858733 -0.31675088
000390 e8 0d b7 3d c5 de 03 3d 8c ba 07 3f dd 40 26 3e
       0.08938199 0.03219487 0.5301902 0.16235681
0003a0 ad 18 05 be 26 49 ae 3e 2d 51 b6 3e 74 08 c1 3e
       -0.12997694 0.34040183 0.35608807 0.37701762
0003b0 49 67 5c bd b1 d0 97 be 61 a5 48 be a8 67 b2 3e
       -0.053809438 -0.29651406 -0.19594337 0.34844708
0003c0 d7 c5 24 be 8b 9d ad bf 80 89 4b bf 2b bb f7 be
       -0.16091095 -1.3563703 -0.79506683 -0.48384985
0003d0 7c 8d da be 1d c1 03 be ec 4f 33 3e 06 33 5b bc
       -0.4268607 -0.12866636 0.17510957 -0.013378864
0003e0 de af 6f 3e ac 52 5f 3e b3 c8 e7 3e 4c 6d 1a bf
       0.23406932 0.2180888 0.4527031 -0.60323024
0003f0 86 90 e4 3e e6 a1 03 c0 fe 0b 82 3f 8e ad 54 3f
       0.44641513 -2.0567565 1.015991 0.83077323

layer3.bias f4 [6]
000000 8d 55 a1 3c 02 fe 04 bd 0e 30 90 3d 54 23 11 bd
       0.019694114 -0.032468803 0.07040416 -0.035434082
000010 a5 72 25 3e ab df 0a be
       0.16157015 -0.13561885
