drl_deep_project/scripts/our_agent/models/dqn_20250121_112146.pt (torch, 78848 bytes, 6 tensors)

layer1.weight f4 [128, 80]
00000000: 0417 0cbc 4b35 ca3a 8d7a 63bd 5e21 b4bd
00000010: b03c dfbd 960c 223b f91d c03c 1025 8a3a
00000020: 6ed0 25bd 5c75 15bc 43c1 04be f368 0dbc
00000030: b087 93bd ee6e 233d 6a56 f6bc 7c8c 343e
00000040: bd42 92bd 8e03 d6bb 0303 c63b 1770 76bd
00000050: 1b1b 64bd ac84 223e 8e69 c83d ee44 b9bd
00000060: 0cc9 dd3d a0ba 3a3e f893 dfbd fc31 bb3c
00000070: a2c1 67be f014 513d 2004 ae3c 9ca9 ec3d
00000080: 9715 ebbd a012 babd d7ca 1c3d c8f2 42bd
00000090: ba1b 8a3d 94e2 6e3d 5b4e 4e3b b868 2dbd
000000a0: 022f 40bc 183a 4ebd 298a 073e 25db 0bbd
000000b0: e05d c3bd 71de acbd 1c71 823d ca92 b53d
000000c0: 34dd 303e a8fb 2fbc 3220 cd3d 6231 d83c
000000d0: 27d1 d73d fdaf 2e3d 9630 82be dcaa ce3b
000000e0: 3500 803c 8bac 9eba 0108 b9bd a189 843c
000000f0: fe23 b33d 1870 bfbd e294 403d 3284 003d
00000100: 3773 a9bd ac0f 4cbd 41e4 a73e 4852 bfbd
00000110: 20ae f93d 6bd8 003e a813 e8ba 4145 86bd
00000120: c75d 743d f669 f23d b12a a33d 9a9d 24bd
00000130: 402e b03d 63dc 0d3e 2e68 033d e5c2 debd
00000140: 4a90 46bd 3e9f 033b 901c 0a3e 652e a2bc
00000150: ed1b 6a3d e5cc 0a3c eb4b 173d e2e4 a4bd
00000160: ecf8 e13d f473 a83d eeaf fe3d 5f20 7d3d
00000170: 484b 853d 82a1 99bc b22b 443d 3601 1b3d
00000180: ad08 f43b 49f3 263d ebd5 0abd 30e3 113d
00000190: cbc8 f63c 2295 333d 9fa0 b3ba 8a7d 0c3e
000001a0: 423a 933d 72bf 22bd 0e57 153b 572c bd3d
000001b0: b907 52bc 8ccf 92bc 5eb3 a03d 30e0 473d
000001c0: 7408 f43d 1f14 dbbd 7ca6 f2bc 6464 c53d
000001d0: d0af f73d 39a0 32bc 102d c1bc e229 c33d
000001e0: ab95 b8bb c432 a83d db63 c0bd 6aa8 eb3c
000001f0: 03a8 ca3c bc42 41bd 061a 79bd 834f b43b
00000200: 2157 9d3d 281c 92bd 647e 273d 0d0c 5b3e
00000210: 8134 f43c 5d0b f13a be57 803d 0ad5 853c
00000220: 82dd 4abd de95 703d 7f7e 2b3d 4dc1 a23c
00000230: f231 bb3d 3cae b03d d70b cb3b 144b 253e
00000240: 1489 15bd 1b19 1f3e 35b7 943b 9f9e a9ba
00000250: 0753 993d a372 7abe 4db2 babc 1898 cd3d
00000260: fe99 0bbc 034d bd3c fb39 8c3d 9a7c 5b3d
00000270: 2fb0 b63d 0f0e 79bd ff10 80bd 18b6 18bd
00000280: c1fa ddbd 6258 94bc d836 8a3d db62 f9bb
00000290: cfe7 b7bd e9a4 ba3d 63e4 a9bd 2436 113e
000002a0: aa38 073e 38d2 f13c d2c8 e5bd 8187 3abe
000002b0: 866c c1bd 47f6 6c3c f00e 353c ed80 b43c
000002c0: 3cd4 9b3d 5516 0f3d 680f d23d f4bb 893d
000002d0: 96e3 033e 0791 bf3b 6f48 dc3d 058d 883d
000002e0: fe58 b13d 56bb babd ffc9 10bd 3f86 24bd
000002f0: 25a1 afbc 7666 aebd 4c47 d53d 414d 1ebe
00000300: 7988 a03d 0945 1f3d d44b b33d c8c3 bf3d
00000310: 8c5c d7bc 2cd7 aa3d 28c4 00be 05a2 473d
00000320: ba8b b73d 5280 633e d755 dabc 3f04 553e
00000330: 02ff adbd 725c 3fbd 5553 933d e78c 973d
00000340: 9a40 6bbe 306d 923d 3671 05be 9eea 763d
00000350: 9891 d4bc e1ef db3d b0c4 40be d03c 0abd
00000360: 0307 c73d 07cc 89be fa93 d23d d92d f33c
00000370: 10df 6dbe 0b0d 9ebb 9e83 9dbc 3ba2 e73c
00000380: 3c93 853d 6e76 50bd d1d7 babd 8be4 49bd
00000390: 9013 cb3c fb47 a5be 068e 253b 9358 9e3d
000003a0: e86f 803e 0c9e 683d 91d6 8e3c 18d3 09bd
000003b0: 73c6 33be b8ee 563e 385f 70bc c350 12be
000003c0: 9ca6 00bd 3524 81bd 0065 233e 8c29 d43b
000003d0: b27c 01bd 691b 843d 118c 3d3c a67a 493d
000003e0: 6cf5 3f3d 181b 743d ad2d 433e 1b5a 893c
000003f0: fa71 c6bb 3022 c43d 3490 673d e83b 743b
-0.008550409 0.001542726 -0.055536795 -0.08795427 -0.10900247 0.002472674 0.023451792 0.001053961
-0.040481977 -0.009122219 -0.12964348 -0.008630979 -0.07203615 0.039900713 -0.030070502 0.17631716
-0.071416356 -0.0065311855 0.0060428395 -0.06016549 -0.055689912 0.15870923 0.09785758 -0.090463504
0.10829362 0.18235254 -0.10916895 0.022850983 -0.22632459 0.05104536 0.021242201 0.11555788
-0.11478727 -0.09085584 0.03827938 -0.047594815 0.0674357 0.05832155 0.003147981 -0.042336196
-0.011729958 -0.05034837 0.13236298 -0.03414454 -0.095393896 -0.08440865 0.0636923 0.088658884
0.17271882 -0.010741152 0.100159064 0.026390735 0.105379395 0.042648304 -0.25427693 0.006306989
0.015625099 -0.0012105865 -0.0903473 0.016178908 0.08747099 -0.09347552 0.047016986 0.03137607
-0.082739286 -0.049819633 0.3279133 -0.09341866 0.12191415 0.12582557 -0.0017706053 -0.06556178
0.059659746 0.11836617 0.07967127 -0.040189363 0.086025715 0.13853602 0.032081775 -0.10877017
-0.04847745 0.002008393 0.13487458 -0.019797513 0.05715554 0.008471702 0.036937635 -0.080514684
0.11033806 0.08225241 0.124359 0.06179845 0.065084994 -0.01875377 0.047893234 0.03784295
0.0074473233 0.04075936 -0.033895414 0.035617054 0.030125042 0.043843396 -0.0013704485 0.13719764
0.07188846 -0.039733358 0.0022787484 0.09236973 -0.012819224 -0.017921232 0.078467116 0.048797786
0.11915675 -0.10697197 -0.029620402 0.096382886 0.120940804 -0.010902458 -0.023581058 0.09529473
-0.005633076 0.08212808 -0.09394046 0.02876683 0.024738317 -0.047182783 -0.060815834 0.0055026426
0.07682634 -0.07134277 0.04089202 0.21391316 0.029810192 0.0018390227 0.062667355 0.016336937
-0.049527653 0.058736674 0.041868683 0.019867564 0.09140386 0.086269826 0.00619648 0.16141921
-0.03650768 0.1553692 0.0045384415 -0.001294095 0.07486539 -0.24457793 -0.022790099 0.10038775
-0.008520601 0.023108011 0.068469964 0.053585626 0.08920323 -0.060804423 -0.06253242 -0.037283033
-0.10838843 -0.01810855 0.06748742 -0.0076106614 -0.08979761 0.09113485 -0.082955144 0.1418081
0.1320521 0.029519185 -0.11219944 -0.18215753 -0.09444527 0.014463014 0.011050925 0.022034133
0.0760884 0.034933407 0.10256845 0.06725302 0.12879786 0.005846146 0.10756003 0.06667522
0.08659552 -0.09117763 -0.03534889 -0.04016709 -0.021439144 -0.085156366 0.104139894 -0.15459158
0.0783853 0.038884196 0.087546974 0.09363514 -0.026289247 0.08341822 -0.12574828 0.0487385
0.089621976 0.22216919 -0.02665226 0.20802401 -0.084959045 -0.046719022 0.07193629 0.07399922
-0.22973862 0.07149732 -0.13031468 0.060282342 -0.02594833 0.10739113 -0.1882503 -0.0337494
0.09718134 -0.26913473 0.102821305 0.029684948 -0.23229623 -0.004823332 -0.019227799 0.0282756
0.06522223 -0.050894193 -0.09123195 -0.04929022 0.024789602 -0.3228148 0.0025261655 0.07731738
0.25085378 0.05679135 0.017436298 -0.03364858 -0.17556171 0.20989501 -0.014671139 -0.1428862
-0.03140889 -0.06305734 0.15956497 0.0064746793 -0.03161306 0.064505406 0.011569039 0.049189232
0.046864912 0.05959615 0.19060393 0.016766598 -0.0060560675 0.09576833 0.056534007 0.0037267152

layer1.bias f4 [128]
00000000: 5eca 063d 9c1b 5abd 6bf2 49bc 9ef3 093d
00000010: 53ce 6abd 0832 6f3d 87ff f23d b806 a43d
00000020: 4ea8 ce3d 6e6f 183e 4ed8 f23c e4de d73d
00000030: 8f18 ee3c f1f0 d4bd 8d10 b73d 0375 1bbd
00000040: 7bf1 b53d e7e6 be3d f9e3 f13d 5106 76bd
00000050: 66b8 e13c 43e6 d33d 6ecf 4cbd f8a8 f33d
00000060: 6b0a 953d 4c93 1ebd 5393 5cbc 91f3 ac3d
00000070: bb1d 063e 9a94 f83c 3a89 b4bd ab26 d73d
00000080: e612 a6bd 9f1f d03d 5d78 283b 2507 033e
00000090: bd9d 9f3d e3b5 90bd 932a 903d 1ffd cc3d
000000a0: 6e55 97bc 487d 813d aff9 a13d 20a9 383e
000000b0: 599b bb3b 1230 b6bc 226f 0e3d 5dbf a13d
000000c0: 8d5e 16bd 7081 933b dbfa 683d 6ec5 a0bc
000000d0: a9cd 8b3d 827c 20bd be62 4f3d 8008 a43d
000000e0: 2fa8 2b3e ec90 233b d4e8 2b3d 0602 433e
000000f0: 9493 babc bdd2 233e 670e aa3d 1bd4 613d
00000100: 18b4 753d f324 91bd 6637 c43d 0846 743d
00000110: c5be c23c ded4 8fbd b413 0ebd 4b71 30bd
00000120: f652 d4bd e486 303d f07b c93d cd11 a73d
00000130: cf3b 1abd e6dd 423d b097 8eba 5cc5 c6bb
00000140: 81fc 7f3d 8601 073e cd17 6e3d d88a f4bd
00000150: 8648 9cbc 7c6e 83bd f18a 57bd 56d4 c83c
00000160: eace 8e3d a637 ce3b b1b3 893d 2f2b e23d
00000170: c423 353d d035 b53d 4eb6 c03c 0b36 063e
00000180: 9711 47bd af50 f03d ab78 8cbd 6a05 803c
00000190: c6a8 363d 3cf6 72bd 4c1c 853d efa8 073e
000001a0: a36e 673c 7990 513c 503b 843c 54dc bbbd
000001b0: 07da 3fbd 2f2e 6bbc 3ffe ca3d ace1 66bc
000001c0: 3959 41bd 3f38 bebc a389 7c3b 5fb0 97bd
000001d0: 702d 1e3e 4f04 7cbd 45c9 4c3c f397 163d
000001e0: 4f33 e4bd c777 d73c e42a f33d bb4c b93c
000001f0: 7478 b9bd dad9 213d 0b77 b3bc 96be 76bd
0.032907836 -0.053248987 -0.012325863 0.033679597 -0.057325672 0.058397323 0.11865144 0.08009094
0.10090695 0.14886257 0.029644158 0.1054056 0.029064445 -0.103975184 0.08938704 -0.037953388
0.08883949 0.09321385 0.118110605 -0.060064618 0.027553748 0.10346653 -0.050002508 0.118974626
0.07277378 -0.038714692 -0.013462859 0.08444894 0.13097279 0.030344296 -0.088152364 0.10505422
-0.08109073 0.10162281 0.0025706508 0.12795694 0.07793758 -0.07065942 0.070393704 0.100092165
-0.018473353 0.063227236 0.079089515 0.18033266 0.005725306 -0.022239719 0.034773953 0.07897828
-0.036711264 0.004501514 0.05687986 -0.019625392 0.06826336 -0.03918124 0.050631277 0.08009434
0.16763376 0.0024958206 0.04197009 0.1904374 -0.022775449 0.15998359 0.08303528 0.05513392
0.059986204 -0.07087126 0.09580879 0.0596371 0.023772607 -0.07023023 -0.03468676 -0.043076795
-0.10367386 0.04309739 0.09838092 0.08157692 -0.037654694 0.0475749 -0.0010878947 -0.0060660075
0.062496666 0.13184175 0.058128167 -0.11940545 -0.01907755 -0.064175576 -0.05262274 0.024515312
0.069730595 0.006293255 0.067237265 0.11043393 0.044223562 0.088481545 0.02352443 0.13106553
-0.04860076 0.11734139 -0.06858953 0.015627582 0.04459455 -0.05931686 0.06499538 0.13248037
0.014125499 0.012790793 0.016141564 -0.09172884 -0.046838786 -0.014354273 0.09911775 -0.01409189
-0.04720423 -0.02322018 0.0038534186 -0.07406687 0.1544702 -0.061527546 0.012499158 0.036766004
-0.11142599 0.026302231 0.11873415 0.022619596 -0.09056178 0.0395144 -0.02190735 -0.06024035

layer2.weight f4 [64, 128]
00000000: 4d52 fb3c 80cc fabd 2154 293e fc7f f9bd
00000010: 364c 45be a6f5 79be 286a 56bd a1ee 233e
00000020: 4d6b 1b3d 1cbe d33b 2dea 9bbe 5b1d da3d
00000030: b89d ab3d 91d7 84be e5a1 d03d 9b44 96be
00000040: fbb4 113e ec7c b53d fcc7 953d 584e adbd
00000050: afc3 08be 22dc 46bd 78ba 0d3d 5052 033d
00000060: 56ef 023e 4818 373d a54c 2d3d b6f2 ebbc
00000070: 79b2 de3d e59a 45be b405 3ebc c119 5fbd
00000080: eb74 54be ae9d c1bd 0b83 11be cf4b 5dbd
00000090: 451b eb3c beaf be3e 4886 4d3e d349 853d
000000a0: 0b5f acbd de7a 01be a0c6 523d 8a25 883e
000000b0: 6ea6 9ebd b190 46bd 758b 243e 5cb3 8d3d
000000c0: 5a41 9a3e f3d9 fdbe 9da2 513e d420 293e
000000d0: 185a 32bd b727 443e 1692 a8bc 2cfd 42bd
000000e0: c600 a1bd 6d79 4e3f dbd7 7b3e 29a2 083e
000000f0: 0441 bd3d 2b64 763d 256e e13d 0bab 093d
00000100: 79a3 22bd e047 9d3d 888d 07be 374b abbd
00000110: a321 353d 7178 aebd 4524 a33c 3065 863d
00000120: 67cc 0c3c 2c51 8ebe 53ff 8a3b 4fd5 49bd
00000130: be8f 1e3e fc2a 9bbd 4969 8ebd 65e4 203e
00000140: eeab 0f3e 9681 a23d 7681 853d 08a0 57bd
00000150: 0031 0a3e c8f7 823d 23ef bd3e f870 0dbe
00000160: 1430 8abd 0163 d43d 3e82 30bd be82 0dbe
00000170: 6362 b73e b106 ad3e 6187 90be 03cc 863d
00000180: ea77 abbd 7f61 4c3d 46c1 6b3e 48a4 e3be
00000190: 180b 93bc f055 ee3d c3ca 3a3d 3e58 a23d
000001a0: 2c99 c5bd b29c 293e 536f 8d3e 2034 d33d
000001b0: 44ea 9a3e 690f 5c3d 65da 1b3d 6441 b3bd
000001c0: 4753 b0bd e017 473d 215a 45be a936 fc3d
000001d0: 3c8b 71bc 8967 59be b3cd e33d 267c 37bc
000001e0: 6250 073d 397e 63be e355 57bd bae3 823e
000001f0: df55 4c3e 47b7 94bd 176f 69be c068 83bd
00000200: d2b6 873d 67ff e53c bc2b 70bd dc4a ec3c
00000210: 9fb4 d23d d79e 323c 2e52 00bc 8a66 c9bd
00000220: 9152 d5bc 6808 d2bc 49ac d63b b3df 66be
00000230: 9f11 ccbd c154 753c 4cd5 a43d f1c2 473e
00000240: af07 dfbc 2f02 44be 6d9d 133a 7a05 acbd
00000250: 7851 0c3d 347e e63d 44c4 60be 6c02 bfbd
00000260: 821a e3bd 0658 8a3d 3a93 213d 55a4 41bd
00000270: 74b1 f9bd dfd3 ac3b 931c 2f3e 0b23 e03d
00000280: 4fb2 2b3e 9eea e5bd 4e75 083e 829a 82bc
00000290: bf6a 033e fe3f 53be 74d4 b5bc 8653 38bd
000002a0: 8431 693d f0ae 323d de7d 943e e5e2 9d3e
000002b0: 125f dc3d 47db c33d 4ccc 12be 07b8 a23d
000002c0: d7cf dbba 7c41 993d 23d5 1bbe 95f6 c1be
000002d0: 6df0 a43d a6f3 33bc 7f28 053e 6a18 e9bc
000002e0: 02f3 413e 26fc f4be fd61 cebc 8092 7f3a
000002f0: 97f9 033e f43d d73d 9353 673e 108d 02be
00000300: a3be b53d d43a ab3c a6ed df3e a6f4 463e
00000310: 7460 7dbb f24a 553c 5b69 2abc 98e9 153d
00000320: 5c0c 7b3d 83ce 2a3e 64b7 02ba 8b80 983d
00000330: 79fb 58bd f563 273d 93f0 69bd 7405 07be
00000340: 213b a23d a480 903d ee11 aabd 980d 98bd
00000350: ef95 253d 19b3 96be 4f30 8ebe cb13 803b
00000360: f7fb f93d bda9 6d3c 8c25 4539 7525 aa3d
00000370: e5ae e2bb ab7c 14be 2161 c03d fa91 c4bd
00000380: 1945 943d 6bc5 c33d 2622 7a3c 7c3b 823e
00000390: fc9b 273e 069a 8c3d 30f3 133e 287e 663c
000003a0: 753a 1f3e abed 653d 8ea0 553e f91b 9e3e
000003b0: cead d8bb 7cc5 bf3c 3fdc a33d 1278 a43c
000003c0: 83b5 b33e 2e41 69bc c50e b33d 70f4 353e
000003d0: a6d4 a13d 8500 4c3e 2db1 ffbd f87d c7bc
000003e0: ba26 b83d 3a3d 903e c732 493d e496 8bbc
000003f0: 10ad 41be 3037 b33d d1aa 3d3e 01d5 cc3c
0.030678893 -0.122460365 0.16535999 -0.12182614 -0.19267353 -0.24410114 -0.052347332 0.16008998
0.037944127 0.006461872 -0.304521 0.1065013 0.08379692 -0.25945714 0.10187129 -0.29349217
0.14229195 0.088617176 0.073135346 -0.084622085 -0.13355897 -0.04854978 0.03460166 0.03206092
0.12786612 0.04470089 0.042309422 -0.028802257 0.10873885 -0.19297369 -0.011598039 -0.05446792
-0.20747726 -0.09453903 -0.14210145 -0.054027375 0.028699527 0.37243456 0.20070755 0.065082215
-0.084165655 -0.12644526 0.051458955 0.2659114 -0.07746588 -0.048477832 0.16068824 0.06918976
0.30127984 -0.49580345 0.20472188 0.16516429 -0.04354295 0.19155775 -0.020577472 -0.047604725
-0.07861476 0.8065403 0.24594061 0.13343109 0.09240916 0.06015412 0.110073365 0.033610385
-0.03970668 0.07679725 -0.13237584 -0.083639555 0.04422153 -0.08519066 0.019914756 0.06562269
0.008593655 -0.27796304 0.004241863 -0.049275693 0.15484521 -0.07576558 -0.06953675 0.15712126
0.1403043 0.07934873 0.06518833 -0.052642852 0.13495255 0.06394917 0.3709651 -0.13812625
-0.067474514 0.10370446 -0.04309296 -0.13819405 0.3581725 0.33794168 -0.28228286 0.06581881
-0.08372481 0.049897667 0.23022947 -0.44461274 -0.017949626 0.11637485 0.045603525 0.07926987
-0.09648356 0.16563681 0.27623996 0.103126764 0.30256855 0.053725634 0.038050074 -0.08752707
-0.08609634 0.048606753 -0.19272663 0.12315113 -0.014742669 -0.21230902 0.111232184 -0.011199033
0.033035643 -0.22216119 -0.052572142 0.25564367 0.19954632 -0.0726152 -0.22796284 -0.06416464
0.06626667 0.028075887 -0.05863546 0.02884429 0.10288357 0.010902128 -0.007832093 -0.09834011
-0.026040347 -0.025638774 0.0065512997 -0.22546272 -0.099642985 0.01497382 0.08048496 0.19507958
-0.027225344 -0.19141458 0.0005631063 -0.08399482 0.034257382 0.1125454 -0.2194987 -0.09326634
-0.1108904 0.067550704 0.039447047 -0.04727586 -0.121920496 0.0052742804 0.17100744 0.10944184
0.16767238 -0.1122639 0.13325998 -0.015942816 0.12833689 -0.2062988 -0.022196032 -0.04500153
0.056931987 0.043623865 0.2900228 0.3083717 0.10760321 0.09563308 -0.14335746 0.07945257
-0.0016770315 0.07483193 -0.15218024 -0.3788344 0.0805367 -0.010983383 0.1300373 -0.028454024
0.18940356 -0.47848624 -0.025193209 0.0009749308 0.1288818 0.105098635 0.22590475 -0.12749124
0.08874252 0.020902075 0.43736 0.19429263 -0.0038662227 0.013018357 -0.010401095 0.036599725
0.061291084 0.1668034 -0.0004986434 0.074463926 -0.052974198 0.04086681 -0.057114195 -0.13185674
0.07921434 0.07055786 -0.08304201 -0.07424468 0.04042619 -0.29433516 -0.27771232 0.0039086095
0.122062616 0.014505801 0.00018801371 0.083079256 -0.0069178217 -0.14500682 0.09393526 -0.09598155
0.07239742 0.09559139 0.015266931 0.25436008 0.16368097 0.06865315 0.14448237 0.014068164
0.15549643 0.05613486 0.20862028 0.30880716 -0.006612516 0.023409598 0.08000993 0.020076785
0.3509942 -0.014236731 0.087430514 0.17769027 0.079018876 0.19922073 -0.124849655 -0.024352059
0.089917615 0.28171712 0.04912069 -0.017039724 -0.18913674 0.087507606 0.18522193 0.025003912

layer2.bias f4 [64]
00000000: 7688 933d d358 773d 04ef 95bd 2827 b0bd
00000010: 7a0c bc3d 0042 5e3b a9c5 21bd cdd7 4b3d
00000020: 6835 c5bc a29b 5bbb 0e5f bdbc 19e4 263d
00000030: 7dc2 e8bc ed9c 3bbc 080f 683d e96a 7d3b
00000040: 64d9 403c 053b 823d e224 913d 9206 b83b
00000050: 95fd 30bd 66b7 f1bc c89d 7f3d 6dbb 75bc
00000060: 6f90 0bbc 8cce f43c aeb8 85bd 40c6 e93c
00000070: 86c7 543d 6af6 92bd a7bd b13d 2195 1f3d
00000080: 0289 803d db02 713d 2def 8bbc 616e 16bd
00000090: 5dd1 4ebd 17ff 763d a389 d93c 7461 bfbc
000000a0: 43e4 873d 4f13 5cbd a944 91bc e5b9 f73d
000000b0: 2a3a 5c3d e714 babd f575 92bc 78aa 88bc
000000c0: 55a7 c73d dc6e 533d 9a0b 433d a517 b53d
000000d0: b0e0 453d 34d6 043d da96 e1bb 39dc 00bb
000000e0: 92ee be3d 9e4e beb9 720c bfbc d0e0 2b3d
000000f0: 4922 d93d 883c ae3d c1ef 453b 13f6 bd3d
0.07203762 0.060387444 -0.07320979 -0.086012185 0.09182067 0.003391385 -0.039495144 0.04976635
-0.024073318 -0.0033509512 -0.023116615 0.040744875 -0.028413052 -0.011450988 0.05665496 0.003866846
0.01177058 0.06358913 0.07087113 0.0056160176 -0.043210585 -0.029506397 0.06240633 -0.014998299
-0.008518322 0.029883645 -0.065293655 0.028536916 0.051948093 -0.07175906 0.086787514 0.03896058
0.06276132 0.058840614 -0.017081821 -0.03672636 -0.050492633 0.060301866 0.026554888 -0.023361899
0.06635334 -0.05372935 -0.017732935 0.120960034 0.053766407 -0.09086018 -0.017878512 -0.016682848
0.09748713 0.051619396 0.047618486 0.088424005 0.04830998 0.032430843 -0.006884438 -0.0019662513
0.093228474 -0.00036298198 -0.023321364 0.041962445 0.106022425 0.08507639 0.003020272 0.092754506

layer3.weight f4 [6, 64]
00000000: ca20 46bc 873b edbd f5dd a43e 306d 0ebb
00000010: 9b15 b33d b67a 40be e58d 533e 7eb0 babd
00000020: 897b 553e 7fc8 b43e 22aa 8039 5d8e d83c
00000030: 5ca7 73be 9bfe ec3d d9f4 2d3e 7ca6 0b3e
00000040: 489d 9a3e 3611 d13d d183 00bf 3a59 1b3e
00000050: 8543 5e3e 11ce fbbb d9c5 843d cb31 8d3e
00000060: 1d7f 563e 2e05 7fbe b43e afbd f563 5c3e
00000070: 6d68 90be 2f48 9a3e c780 8b3b 4155 e3bd
00000080: f880 cb3d 95d1 d83c 7942 5fbe 41f3 1c3e
00000090: b7ac ee3e 3a82 af3e a956 5d3e 7d00 eabd
000000a0: 7028 57bd 6c00 bbbe cb96 ba3e 5624 103e
000000b0: b53b 09bf f4f3 d9bd f6c3 34bd f670 f53d
000000c0: f3c3 9c3d 5f20 94bd 6802 a9be 3e22 45bd
000000d0: 410b 87be 4446 b7bd b751 333e b0d4 403e
000000e0: fbf8 523e fe2d 663e cfce a0bd 77c4 293e
000000f0: f569 e2be fb08 6a3e a4e0 cdbe 8d90 873e
00000100: 8583 d1be 8d92 813e 42b8 a13e 2e9e e9bd
00000110: 1dcb 103e 5141 33be 7519 afbe e28f c1be
00000120: 4418 283e 5c37 613e 4a98 e23d 7af7 ff3d
00000130: e9d9 91be c12a 9dbe a18e 9ebe ed55 7d3e
00000140: 0204 0dbf ecf1 e4bd 0c04 94be 7364 5b3e
00000150: 53c8 38be 2c6c d03d f9a3 4d3d 633b 313e
00000160: 57ef 063e cffd 3cbe cbbd 3b3d a930 1f3e
00000170: c777 87be 0f48 ae3e 253e 6ebe 62de 63be
00000180: 7a42 ccbd 4b9d 733e 0a35 103e 3715 223e
00000190: 1d11 983e d653 ccbc 8bb3 5a3e 28b8 bd3b
000001a0: c664 5fbc 7fb5 773e f0c2 133e 7197 bd3d
000001b0: 44c9 33be 462a c2bc 8a5a 6a3e bd12 2c3e
000001c0: 39ae 673e 7f18 473e 056d 133e 0b50 3abe
000001d0: 74bd ffbe 5a17 cabe 747d 153d 7cb2 f2bd
000001e0: aa13 63bc fe74 643d a822 2a3e b144 7f3e
000001f0: b9ab 6d3e 16f3 fd3d 7435 ed3b 7a9f 413e
00000200: 3b70 0dbe bc19 ec3d 3420 923d fc7c a5bd
00000210: a562 0f3e e95f 363e be22 58be 8c1a aebe
00000220: eb87 e3bd c6a1 3a3e 22dc da3d ad7a 363e
00000230: 1226 123e 5f9d c63e 66f0 e5bd 3564 063e
00000240: 0c6a 7f3e 62e4 45be 12f1 87be 89c3 6d3e
00000250: 3268 713e 3ed9 dcbd 1551 70bd b2ad 933d
00000260: d211 d2bd df15 50be 82d8 963d c151 0bbe
00000270: ce1d 023e 04b1 0c3e 6456 8ebe 0dbf 1e3e
00000280: ff1e 9dbd beca 393e de66 16be cfc7 6bbe
00000290: c69f 093f 8af9 893e bd22 21be 9890 d3bd
000002a0: 34cd 6e3c a66c 58be fd59 943e bfa0 763e
000002b0: 338a 69be cac1 b83d 3529 f03d 06ba 853e
000002c0: 69f2 2b3e 98aa 8b3d 95c7 4abe b7dd 553e
000002d0: 678f d4be 5734 8ebe cc03 d83d 58a0 d73d
000002e0: f3f5 783d 870a 683e 9022 7dbc 121f 643e
000002f0: c941 463c 104d bbbd a4f1 503e 1afc 563e
00000300: 0010 01bf ece6 833d 6f5b b03e 5419 943b
00000310: 1ffe 2c3e f710 58bc 7f37 ef3d 4921 e8bd
00000320: a24d e43d cb43 8d3e db5c e6bd 3731 fc3d
00000330: fa16 543e 75c1 453f 2ff2 3a3e aa0b 753e
00000340: 0c3d 31bf 76ca e1bd d1c4 febe 4def 8fbd
00000350: 31f6 f3bd ea5a 9c3d 781b 7cbe c65e 2ebd
00000360: b432 513e 4132 153e 3afa dfbd 9bf6 94be
00000370: fbbc cdbe 3ed9 febe 5468 aebe fb38 84be
00000380: 33e1 493e 0d00 203e f8ec a9be 2d1d 8d3d
00000390: 7c89 db3d 56d2 e73e d233 b73d f127 c33d
000003a0: 7b96 dcbc 06c6 043e a6ef 273d 639d c6bd
000003b0: b935 58be 00ec acbd a4ed a13e b92b 593e
000003c0: ff77 803e 46f7 483e 5ac2 4f3e 693b 803e
000003d0: 39ff c6be 9c22 37bd b0b7 e9bd bf21 333e
000003e0: 983a 55be c5ed 00bd a0d5 343e 9a97 b53e
000003f0: ef8f 27be f830 6b3e 6804 223e 800b bf3d
-0.012092778 -0.115836196 0.3220059 -0.0021732561 0.08744355 -0.1879681 0.20659597 -0.091156945
0.20847906 0.35309216 0.0002454082 0.026435072 -0.23794311 0.11572 0.16987933 0.13637727
0.3019812 0.10208361 -0.50201136 0.15170756 0.21705444 -0.007684477 0.06483049 0.27577052
0.20946927 -0.2490432 -0.085568815 0.21522506 -0.2820467 0.30133197 0.004257295 -0.11100245
0.09936708 0.026467124 -0.21802701 0.15327169 0.46616146 0.34279042 0.2161509 -0.114258744
-0.0525288 -0.3652376 0.3644317 0.14076361 -0.5360673 -0.106422335 -0.044132195 0.11984436
0.07654562 -0.07232737 -0.33009648 -0.04812836 -0.26375774 -0.08948949 0.1751164 0.18831134
0.20602791 0.22478482 -0.078519456 0.16578852 -0.44221464 0.22854988 -0.4021045 0.2647747
-0.40920654 0.25307122 0.3158589 -0.114071235 0.14139982 -0.17505385 -0.3419911 -0.37805086
0.16415507 0.21993774 0.11064203 0.12498374 -0.28486565 -0.3069668 -0.30968192 0.2473981
-0.5508424 -0.111789554 -0.28909338 0.21425037 -0.18045168 0.10176882 0.050205205 0.1730781
0.13177238 -0.18456195 0.045835298 0.15545906 -0.2645857 0.3403935 -0.23265894 -0.22252801
-0.09973617 0.23790471 0.14082733 0.15828405 0.29700556 -0.02494232 0.21357553 0.0057897754
-0.013634866 0.24190329 0.14429832 0.09257401 -0.17557245 -0.023701798 0.228861 0.16804023
0.22625054 0.19442938 0.14397056 -0.18194596 -0.4994923 -0.3947094 0.036496595 -0.118504494
-0.013859669 0.055775635 0.16614783 0.24928547 0.23210038 0.123998806 0.007239038 0.18908492
-0.13812344 0.11528346 0.071350485 -0.080804795 0.14002474 0.17810024 -0.21107003 -0.3400463
-0.11109909 0.18225774 0.10686518 0.17820235 0.14272335 0.3879194 -0.11227493 0.13124163
0.24942797 -0.19325402 -0.2655111 0.23219122 0.23574904 -0.10783623 -0.058671076 0.07210864
-0.10257305 -0.20320843 0.07365514 -0.13605405 0.12706682 0.13739401 -0.27800286 0.15502568
-0.07671928 0.18143746 -0.14687678 -0.2302544 0.5375942 0.26948196 -0.15735908 -0.103303134
0.014575291 -0.21135196 0.28974906 0.24084757 -0.22806625 0.09021337 0.117266096 0.26118487
0.16791691 0.068196476 -0.19802697 0.20885359 -0.41515657 -0.27774307 0.10547599 0.1052863
0.06078143 0.22660266 -0.015450135 0.22277477 0.012100645 -0.09145558 0.20404679 0.20994607
-0.5041504 0.06440529 0.34444758 0.004519621 0.16893815 -0.0131876385 0.11680507 -0.11334474
0.1114762 0.27590784 -0.112481795 0.123140745 0.2071189 0.77248317 0.18256448 0.2393023
-0.69233775 -0.110249445 -0.49759534 -0.07028065 -0.11912192 0.07634528 -0.24619853 -0.04257085
0.20429498 0.14569952 -0.10936399 -0.29094395 -0.40183243 -0.49775118 -0.3406397 -0.25824723
0.19714813 0.1562502 -0.33188605 0.068903305 0.107195824 0.4527766 0.08945431 0.095291026
-0.026927223 0.12966165 0.04100003 -0.09697988 -0.21114244 -0.08443451 0.31626618 0.21208085
0.2509155 0.19625577 0.20288983 0.25045326 -0.38866594 -0.04471074 -0.11411989 0.17493342
-0.20823133 -0.031476755 0.17659616 0.35467225 -0.163635 0.22967899 0.15821993 0.09328365

layer3.bias f4 [6]
00000000: c7d9 31bd 4e10 193d 77b6 cf3c 65e4 3abc
00000010: 3e48 14bd c7b2 1abc
-0.04342058 0.037369065 0.02535556 -0.011406993 -0.036201708 -0.009442038
