drl_deep_project/scripts/our_agent/models/dqn_20250121_111919.pt (torch, 78848 bytes, 6 tensors)

layer1.weight f4 [128, 80]
000000 39 da 6f 3d 83 02 ae 3d 63 10 bb bd 20 ea 07 3e
       0.058557723 0.08496573 -0.09133985 0.13272905
000010 d5 22 9d bd a3 7f b6 3d 8f ad ed 3c 4a 6e 07 3c
       -0.07672659 0.089110635 0.029013423 0.008266041
000020 31 05 fc 3c 4c 13 df 3c 6f cb d7 3d c7 74 f7 ba
       0.030764194 0.027230881 0.10536849 -0.0018879407
000030 cf 08 9d bd 64 a7 01 bd 4c 46 98 3d 4c 62 11 bd
       -0.07667696 -0.031653777 0.07435283 -0.035494134
000040 92 09 c1 3d ce ea c3 3c 3e 5e c7 bd 44 9c f4 bc
       0.094256535 0.023915675 -0.09734772 -0.02985967
000050 f2 f9 80 bd 35 79 03 3d 67 79 67 3d 9d d5 e9 3b
       -0.06297673 0.032098014 0.056512263 0.0071360604
000060 9c 1e 6b 3d 57 e6 ad bd d2 bc 8d 3d 46 4a 80 3d
       0.05740224 -0.084911995 0.0692078 0.062641665
000070 d0 36 18 3d 54 16 df 3d 4c 1f c3 bd d4 11 88 3c
       0.03716165 0.108929306 -0.09527454 0.016610064
000080 d1 2f d0 3d 68 ca 40 bd bc 57 3e bd e8 68 ac 3d
       0.1016537 -0.04706803 -0.04647039 0.08418447
000090 84 c4 c3 bc b7 34 22 bd 9b 36 d2 bd 30 c5 f4 3c
       -0.023897417 -0.039601054 -0.102643214 0.029879183
0000a0 a4 f2 5d 3d 20 59 0f bc c0 79 e5 3c 49 75 7f 3d
       0.05418648 -0.008749276 0.028012156 0.06236771
0000b0 5e fb b9 bd ec ea db 3d 0d ff b0 3d 22 3c d6 3d
       -0.090811476 0.10738167 0.08642397 0.10460688
0000c0 3a 9a 91 bd 78 cc d6 3d 1e cf e0 3d ef 10 4b be
       -0.071094945 0.10488218 0.109770045 -0.19830678
0000d0 da 5f 44 bd 53 36 78 bd 0d b9 e7 bd f8 82 4b 3d
       -0.047942974 -0.060598683 -0.113145925 0.04968545
0000e0 0c 3d 54 bd 46 8a 25 3e fc 1f 27 3c e6 d9 8b 3c
       -0.05181603 0.16166028 0.010200497 0.017071676
0000f0 d6 f5 0a bc 78 3e a7 3d 54 c5 60 3d af e1 2b bd
       -0.008481463 0.08166212 0.054875687 -0.041963276
000100 1a fa d1 3d c9 04 78 3d 71 0d b2 bd 5e 71 a4 bd
       0.10252781 0.06055144 -0.0869397 -0.080294356
000110 ab d6 85 bd 09 3f 00 bc ae b2 8f 3d 55 3a 09 3d
       -0.06535085 -0.007827529 0.07016502 0.033502895
000120 f5 76 29 bc dd 59 13 bc d3 3b 9f 3d 64 8d d7 bc
       -0.010343303 -0.008993593 0.077750824 -0.026312537
000130 d6 8a a0 bd 82 ea 8a bd 70 a3 c4 3d a0 8a b4 3d
       -0.07838981 -0.0678301 0.09601486 0.08815503
000140 2c af 8c bd d1 46 de bd 15 5f fe 3c 54 e2 bb bd
       -0.06869349 -0.10853351 0.031051198 -0.09174028
000150 8d 5d 98 3d 9c 8f 73 3d ba c6 a6 bc 48 cf 25 bd
       0.074397184 0.05946313 -0.020358432 -0.040480882
000160 df 23 50 3d 84 ff a7 3d 32 a2 eb bb 65 77 0a bc
       0.05081546 0.082030326 -0.007190966 -0.008451317
000170 33 40 4e 3d 22 4c c4 3d 7e fb a3 3d 2c 01 89 bd
       0.050354194 0.09584834 0.08006953 -0.06689677
000180 98 03 55 3d 19 49 52 bd 38 01 2a bd 1e c9 e1 bd
       0.05200538 -0.051339243 -0.04150507 -0.11024688
000190 91 c8 e5 3c 37 61 48 bd 15 f8 5e 3c 6f a3 6b 3d
       0.02804974 -0.048920836 0.013608952 0.05752891
0001a0 5c 1b d2 3d 0b c6 9e bc b2 f9 ab bd 88 86 86 3d
       0.10259125 -0.019381544 -0.08397235 0.065686285
0001b0 5d 99 be bd 18 19 63 3d ac 72 90 bd c8 d2 35 bd
       -0.093065955 0.055443853 -0.07053122 -0.04439047
0001c0 b6 da 54 bd 10 a1 9c bc 9d 74 80 bd 4e f9 d7 3d
       -0.05196639 -0.01911977 -0.06272242 0.10545598
0001d0 34 f1 9a 3d a0 09 d1 3d 60 15 5b bc e8 7c b6 bc
       0.07565537 0.10206914 -0.013371795 -0.022276357
0001e0 20 74 4e 3d 04 9a 1c bd 3c 3c c4 3d 6b 97 8e 3d
       0.050403714 -0.03823282 0.09581801 0.069624744
0001f0 54 5e 45 bc f4 31 8d 3d e4 f2 20 3d 2d fb 8a bc
       -0.012046415 0.068942934 0.03929414 -0.016965473
000200 3a 99 1c 3e 26 83 7f bd f0 05 ea 3d b5 e7 4a 3d
       0.15292826 -0.062380932 0.11426914 0.04953738
000210 c6 94 b4 3d bb e7 ee 3c 89 e3 c9 3c ac f7 e1 3c
       0.08817439 0.029163232 0.02464463 0.02758392
000220 4a ca 88 bd 80 e0 84 3d f4 a7 a3 bd 2b 9f 0e 3d
       -0.066792086 0.064881325 -0.07991019 0.034819763
000230 33 54 98 bc 98 d5 77 3d 50 dd 59 bd 4a 0a 8c bc
       -0.018594837 0.060506433 -0.053189576 -0.01709475
000240 e4 34 76 3d a2 92 a9 bd 59 a3 7f bd ac eb 60 3d
       0.060109034 -0.08279921 -0.06241164 0.054912254
000250 b6 cb d3 bc 00 68 88 3c f8 ef 37 3d 5a 5b 87 3d
       -0.025853973 0.016651154 0.044906586 0.06609221
000260 e3 8c 41 3c e8 84 ce bd 7f eb 22 3d c2 a0 01 bd
       0.011813375 -0.100839436 0.039775368 -0.03164745
000270 3c 7d f8 3c e7 c0 fb 3b 06 e6 22 bc b3 bf 94 bd
       0.030333154 0.007682908 -0.009942537 -0.07263126
000280 c3 ac 20 3d 00 0b 85 bd d0 e6 6d 3d 34 b4 6b 3d
       0.03922726 -0.06496239 0.058081448 0.057544902
000290 81 87 a8 3d 4d c3 2e bc 99 fa 11 bd 48 f2 ff 3c
       0.0822897 -0.0106666805 -0.03563938 0.031243458
0002a0 bd 11 92 bd 06 3a 81 bd 88 7f 57 3b 1d d0 1e 3c
       -0.071322896 -0.06309895 0.003288241 0.009693173
0002b0 3c e7 be 3d d6 4c 81 3d 44 d1 3e bc 10 43 da bd
       0.09321448 0.063134834 -0.0116465725 -0.106573224
0002c0 b0 8d b5 3a 36 61 c0 3d 10 27 8f bd 42 c0 bf bd
       0.001385143 0.093935415 -0.069898725 -0.09362842
0002d0 e8 52 1c bc 66 54 9d bd f5 66 04 3d bd b6 be 3d
       -0.009541251 -0.07682113 0.03232475 0.09312198
0002e0 e8 a9 1f bd ce 93 75 bc 13 10 03 3c f4 80 9a 3d
       -0.038980395 -0.014988853 0.007999438 0.07544127
0002f0 a8 22 33 3d f4 cb c1 bd 98 1f 98 3c c4 23 0e 3d
       0.043734223 -0.09462729 0.018569753 0.034702078
000300 16 1e 94 3d 17 c8 62 bd a0 da 58 3d d0 95 f5 bb
       0.07232301 -0.0553666 0.052942872 -0.0074946657
000310 58 0b 49 3d a7 eb a1 3c f1 e5 e1 3d 00 e4 da 3d
       0.049083084 0.019765688 0.11030186 0.10688019
000320 f4 c5 8d bb 44 a8 f9 3c 9e 88 9b 3d 45 2a 89 bd
       -0.0043265764 0.030475743 0.07594417 -0.066975154
000330 7e 0f a9 3d e8 ab f2 3c 66 87 ec bd 72 55 a4 3c
       0.08254908 0.029622987 -0.11549263 0.020060275
000340 9a 1d 16 be 20 45 78 bd c2 1a c3 bd f1 a9 4c bd
       -0.1465973 -0.060612798 -0.09526588 -0.049966756
000350 6c 07 61 3c 16 c9 be bc c4 53 58 bd 69 98 b9 bd
       0.01373468 -0.023289245 -0.05281426 -0.09062273
000360 43 04 5a 3d 1a 48 1a bd 94 bc d2 3d a2 fe 93 3d
       0.05322672 -0.037666418 0.10289875 0.07226302
000370 3e a6 3d bd e8 12 f6 3c c1 79 18 bb 16 d7 fe 3d
       -0.04630112 0.030038312 -0.002326593 0.12443368
000380 da bf 87 3d c2 0f d3 3d d6 80 ef bc 24 58 a1 bd
       0.0662839 0.1030574 -0.029236238 -0.078781396
000390 04 f9 29 3d 74 02 93 bd 34 d5 80 bd 0e d5 5c bc
       0.041497245 -0.07178202 -0.06290665 -0.013478531
0003a0 50 16 98 3d e3 37 05 bd 85 4f b8 3d 95 ec d3 bc
       0.07426131 -0.032524 0.08999542 -0.025869647
0003b0 be 99 2c 3c f0 19 5a bd a6 d4 69 3d 09 a4 9f 3d
       0.010534702 -0.053247392 0.057087563 0.07794959
0003c0 63 e8 ca bd d1 12 df 3d 9b c3 df 3b b1 ba 13 bd
       -0.099076055 0.10892261 0.006828738 -0.036066715
0003d0 41 42 d3 3d 7f 25 58 3b 9f 8d 3a 3d e1 5b 91 bd
       0.10315371 0.0032981334 0.045545217 -0.07097603
0003e0 a2 13 32 3d c8 53 50 bc c8 08 ba bc a4 d7 e2 3d
       0.043475755 -0.0127152875 -0.022709265 0.110762864
0003f0 2c 6f 37 bd 08 44 a5 bc 94 8e 0d bd a8 d5 8f 3c
       -0.044783756 -0.020174041 -0.0345598 0.017557934

layer1.bias f4 [128]
000000 50 94 e2 3d 2a 02 b9 3c 97 6a 85 3d bb 29 67 3d
       0.110634446 0.02258404 0.06514471 0.05643628
000010 32 69 cc 3d 90 32 ce bd 21 80 a6 3d 64 08 05 3e
       0.09981002 -0.10068238 0.081299074 0.12991482
000020 69 aa 83 3d cf 78 9e bd 9e c5 96 3d f6 32 bd 3d
       0.064289875 -0.07737886 0.07361911 0.09238236
000030 75 e7 86 bd 5e 78 bb 3d c6 6e b1 3d 3d e6 95 3d
       -0.06587116 0.091538176 0.086637065 0.07319305
000040 2b 4e cf bd 03 26 50 3d 99 31 22 3c d7 2c df 3c
       -0.10122331 0.0508175 0.00989952 0.027243061
000050 fb 48 aa 3d 92 42 88 3d 47 98 50 b9 72 b1 07 3d
       0.08314701 0.06653322 -0.00019893154 0.03312821
000060 c8 d3 b9 3d 68 4b ef 3d 26 ab bc 3d 2a 7e 83 3d
       0.09073597 0.116843045 0.092123315 0.06420548
000070 90 3a bc bd b7 ad 0f 3d ca 99 5c 3d 73 47 9c 3d
       -0.091908574 0.035077777 0.053857602 0.07630815
000080 5d cf 0f bd e3 fb 08 3e 11 98 05 3d 66 06 87 bd
       -0.035109866 0.13377337 0.032615725 -0.06593017
000090 6a b7 82 3d 82 77 98 3d 67 ea 65 3c dc b3 dd 3d
       0.0638264 0.07444669 0.014032937 0.10825321
0000a0 3b 3e 95 bd 0e fc a4 3d 38 e3 a7 3d 10 34 d2 3d
       -0.0728726 0.08055888 0.081976354 0.102638364
0000b0 eb fd 3f bc 43 59 f7 3c c0 f8 74 3b 8b d1 4a 3d
       -0.011718254 0.03019393 0.0037379712 0.049516242
0000c0 f1 8e d3 3d 6a 28 81 3d 02 a3 51 bc b6 d8 95 3d
       0.10329998 0.063065365 -0.012795212 0.07316725
0000d0 77 5d 62 bb ca ad ff 3b 1d db 05 3e ff 80 3b bd
       -0.0034540573 0.0078026997 0.13071866 -0.045777317
0000e0 c5 20 a9 bd 91 1b f5 3c c4 c6 c1 bd 0a c5 17 3d
       -0.082582034 0.029920371 -0.0946174 0.037053145
0000f0 8a 8c e4 bd 5d 02 5d bd c8 a7 19 3d b8 3b c0 3c
       -0.11159618 -0.053957332 0.037513524 0.023465976
000100 00 e1 61 3d d4 cc b1 3d 67 d0 41 bd 2d bb 04 3e
       0.055146217 0.08681646 -0.04731789 0.12962027
000110 eb 61 49 bd e4 73 97 3c 2d fe 22 3d 41 10 f3 3c
       -0.049165647 0.018487878 0.039793182 0.029670836
000120 2c ed 02 3c 6e 99 1e 3c 32 49 71 3d 14 17 a6 3d
       0.0079911165 0.009680135 0.058907695 0.081098706
000130 06 a3 2a 3c 9b 51 25 bd e6 34 24 bd d0 ed 1f 3d
       0.010414844 -0.04036103 -0.04008951 0.039045155
000140 62 c2 09 bd 29 21 c9 3d 74 43 68 3d fc 98 a6 3b
       -0.033632644 0.09820778 0.056704953 0.005084155
000150 9e c4 4a 3c 61 52 57 3d d6 c6 a8 3d 29 5d 34 3c
       0.012375979 0.052568797 0.0824105 0.011008539
000160 19 90 87 3d c1 25 88 bd bf 5e bc 3b a1 55 76 bd
       0.06619281 -0.06647826 0.0057485993 -0.060140256
000170 86 42 d0 bd 9d 92 a1 3d cc 0c 16 bd a5 47 69 bd
       -0.10168938 0.078892924 -0.036633298 -0.05695309
000180 22 41 44 bd 6b 17 82 3d 74 9d 3d bd 8e 2e e1 3b
       -0.047913678 0.06352123 -0.046292737 0.006872005
000190 d5 9f e0 bc 59 88 3c 3d 7a e6 cb 3d fa 8d 80 bc
       -0.027419964 0.04602847 0.09956069 -0.0156927
0001a0 48 04 2f 3d 48 8f ea bc 18 4d a2 bd 9e 62 d7 bc
       0.042728692 -0.028632775 -0.07924861 -0.026292142
0001b0 2b 53 bf 3d 8b 15 9d 3d b1 23 cf 3c 33 f4 b6 3d
       0.09342035 0.076701246 0.025285574 0.08933296
0001c0 7b 53 9c 3d 0d 53 3c bc 29 f0 92 3d 31 04 48 bd
       0.0763311 -0.01149441 0.07174713 -0.048832122
0001d0 26 0b 8d bd c7 6a 87 3d fc 1c a3 bc 5e c8 c8 3d
       -0.06886892 0.06612163 -0.019911282 0.09803842
0001e0 48 b3 1c 3d c6 8f dc 3d cc 0d 3e bc b8 c7 af bc
       0.038256913 0.1076961 -0.011599969 -0.021457538
0001f0 19 fd 6d 3d c6 67 16 3d 78 56 df bc da 7a 93 3d
       0.0581027 0.03672006 -0.027262911 0.072011665

layer2.weight f4 [64, 128]
000000 3e ea c3 3d cd 66 8b bc 0b af 92 3d 68 0d b5 3d
       0.095661625 -0.017016793 0.07162293 0.08840448
000010 ac aa a4 3d f1 58 e1 3d 84 54 2d bd 34 0e ad 3d
       0.080403656 0.11003292 -0.04231693 0.08449975
000020 ba c8 44 bd e0 4d eb bc 10 8d 11 bd 07 43 89 3c
       -0.04804299 -0.028723657 -0.03553492 0.016755594
000030 79 e6 96 3d e7 29 18 bc 73 18 81 bb 8b ef 45 3d
       0.07368178 -0.009287334 -0.003939682 0.04832415
000040 a6 22 35 3d d6 79 48 3d 1e 25 66 3d 30 e8 23 bd
       0.044222496 0.048944317 0.05618774 -0.040016353
000050 cc a9 4a 3d fd 96 86 bd d5 f5 5b 3d dd fc cd bc
       0.049478337 -0.065717675 0.05370124 -0.025144989
000060 4a c6 dd bd 43 f1 89 3d f7 8a b6 bd a0 2d 19 3e
       -0.10828836 0.0673547 -0.08913224 0.14958811
000070 92 db 3f bd e7 d4 31 bd b3 41 17 3d 3e 71 12 3c
       -0.046840258 -0.04341593 0.03692789 0.008938132
000080 71 b6 7f 3c dc 0d 88 3d 89 c1 16 bd c2 c2 39 3d
       0.015607462 0.066432685 -0.036805663 0.04535175
000090 66 b5 4f bd 48 7f 92 bd b9 0e 62 3d 59 31 de 3d
       -0.050710104 -0.07153183 0.055189822 0.10849256
0000a0 30 8c 26 3c 7d 61 6c 3d a1 2b 2d 3d 65 c0 71 bd
       0.010165259 0.05771016 0.042277936 -0.059021372
0000b0 79 44 9e 3d 2c 13 a0 3d 52 6a 0d bd 38 3d 4b 3d
       0.07727904 0.07816157 -0.034525223 0.04961893
0000c0 13 d0 35 3c 21 98 18 bd 64 fb e1 bc 5e f4 51 3c
       0.011096972 -0.037254456 -0.027585693 0.012814609
0000d0 26 6c 94 3c c3 8a b9 3d 97 35 2d 3d b5 ed 65 bd
       0.018117975 0.0905967 0.042287435 -0.0561349
0000e0 c8 6e 03 bd b3 2f 7d 3c 15 a1 da bc c2 85 f0 3c
       -0.03208807 0.015453267 -0.026688138 0.029360656
0000f0 d6 52 c1 3d 3b cb b0 3c 2c f8 4a bd 4d 93 1f be
       0.09439628 0.021581283 -0.04955308 -0.15583535
000100 4b 6c cb 3d 83 67 e9 bc 60 49 27 3c 97 aa 8f 3d
       0.099327646 -0.028491741 0.010210365 0.07014959
000110 2d 5a 14 3d 9a 3b 84 3d e7 59 6f bd cf 07 10 bd
       0.03621881 0.064566806 -0.058435347 -0.035163697
000120 b4 6e 0e bd 56 5a 53 bd 94 69 ad 3d 17 c8 12 3d
       -0.034773543 -0.051599823 0.08467403 0.03583535
000130 4e da 11 3d 34 52 e9 bc b4 d1 f8 3c d3 b6 f0 bb
       0.035608582 -0.02848158 0.030373432 -0.007346013
000140 29 23 8c 3d c6 43 bc bc 74 f1 96 3d 3d e3 b3 bd
       0.06842644 -0.022981536 0.07370272 -0.08783577
000150 83 a8 0d 3d fe e2 c6 3b d7 a8 52 bd b0 32 49 bd
       0.034584533 0.00606954 -0.05143055 -0.049120605
000160 e1 e2 6d 3c 51 4e f5 bc ff 7f a3 3b 88 0d 0d 3d
       0.014519424 -0.02994457 0.0049896236 0.034436733
000170 9e e9 52 3d e9 0f 76 3d bd 6d 98 3d ea e0 f6 bd
       0.051492326 0.060073767 0.07442806 -0.12054618
000180 b8 ec 3b 3d 2b 27 54 3c c0 cc ca bc 04 f3 84 3d
       0.04588005 0.0129487915 -0.024755836 0.06491664
000190 26 62 91 3d 42 0f 1c bd b4 2e 85 3d 00 d7 7f bd
       0.070987985 -0.03810049 0.065030485 -0.0624609
0001a0 0c ce 85 3d 55 2f 9a bd 3d fb d0 3d ed 0c 86 3d
       0.06533441 -0.07528559 0.1020417 0.06545434
0001b0 9a 4c f2 3c 1e e8 32 bd 8a 41 39 bd 64 12 6c bd
       0.029577542 -0.043678395 -0.04522852 -0.057634726
0001c0 6f fe 7a 3d fa 32 c9 bc 84 b4 81 bd 99 5f 46 3c
       0.061277803 -0.02456044 -0.06333259 0.012107753
0001d0 19 1e 0d bb c0 20 b2 3d 86 fc 5b 3d 71 52 60 3d
       -0.0021532832 0.08697653 0.053707622 0.054766122
0001e0 e0 80 31 3b 75 3b a5 bc 94 d3 40 3d 80 9b 03 3d
       0.0027084872 -0.020169953 0.047076777 0.03213072
0001f0 a9 70 60 bd d4 5a a5 bc 90 2e 4e 3c a5 39 c7 3d
       -0.05479494 -0.020184912 0.012584344 0.09727792
000200 45 60 29 3d 1c 82 20 3d 9f 90 95 bd 72 c9 a1 bd
       0.041351575 0.039186582 -0.07302975 -0.07899751
000210 91 01 90 bd 6e 32 63 bd 3d 3f bc 3d 9e 44 e3 3d
       -0.07031549 -0.055468015 0.09191749 0.11097072
000220 b3 b4 4a bc 03 a7 31 3d a2 9e 2d 3c aa a3 ba bb
       -0.012372184 0.043372165 0.010596903 -0.00569578
000230 d2 55 13 3c da ef 2d bb 05 d6 46 bd d6 7e c2 bd
       0.008992629 -0.0026540668 -0.04854395 -0.09496848
000240 35 ab 0d bd da 78 7c bd fe f1 f0 bb fc 6f 1e 3d
       -0.034587104 -0.06163869 -0.0073530665 0.038681015
000250 a7 e8 27 3c 42 e5 75 3d 49 24 a7 3c fe 07 da 3c
       0.01024834 0.06003309 0.020403044 0.02661514
000260 7f e2 06 3e 32 e1 0a bd 79 3f 0b 3e 06 2b 00 3c
       0.13172339 -0.03390617 0.13598432 0.007822758
000270 5f fc 35 bd c1 c5 98 bb 97 2a d1 bc b5 3d 77 3d
       -0.044430133 -0.004662246 -0.025533004 0.060361583
000280 18 2b 1c 3d 09 a9 94 bb 07 49 a5 bd 14 db 98 3c
       0.038127035 -0.004536752 -0.080705695 0.018659152
000290 ba 5a 92 3b d3 a8 b8 3d 72 e4 11 bb 37 18 69 bd
       0.004466382 0.09016576 -0.0022261408 -0.05690786
0002a0 f9 c1 cb bc 96 a5 52 ba 27 6b b6 bd 00 41 4a 3c
       -0.024872767 -0.00080355385 -0.089071564 0.012344599
0002b0 ea b7 e9 3c 59 43 e2 3c dc b0 b0 bd fe 30 aa bd
       0.02853008 0.027620004 -0.08627483 -0.08310126
0002c0 6b bc d0 bb 3b 2d bc 3c ee 18 a4 bd c5 d6 d7 bd
       -0.0063701174 0.022970786 -0.080125675 -0.10539011
0002d0 65 48 00 3e 60 e2 09 be 79 bf 11 3e 30 79 83 3d
       0.12527616 -0.13465261 0.14233197 0.06419599
0002e0 b3 90 85 3d bc 57 65 bd a6 26 46 bd 49 cf 89 bd
       0.0652174 -0.055991873 -0.0483767 -0.0672899
0002f0 1e 67 29 bd 7b 89 b5 bd 36 ed 9a 3c 5c 43 c8 3d
       -0.041358106 -0.08864113 0.01891194 0.09778473
000300 f0 f2 95 3c ce de 24 3c 82 5a e1 3d f4 e7 41 3c
       0.018304318 0.010062886 0.11003591 0.011835087
000310 53 32 ea 3d 1a 1a 15 3b c4 3d 8f bb 53 33 d2 3c
       0.1143538 0.0022751153 -0.0043713767 0.025659239
000320 44 b0 d4 3c 79 f1 b3 bc 0d 65 94 bd 2c e5 b7 3c
       0.025962956 -0.02196573 -0.072458364 0.022448145
000330 f3 98 10 bd 5a 07 1f 3d 47 d9 01 3d 3b 40 3b 3d
       -0.035302114 0.03882537 0.031701352 0.04571555
000340 b7 36 b4 3d 61 04 e6 3d 0d 26 bb bd 00 e6 c2 3c
       0.087994985 0.11231304 -0.09138117 0.023791313
000350 20 e4 f1 3d 57 aa c6 3d 65 4d 01 3d a8 06 93 bc
       0.118110895 0.097004585 0.03156795 -0.01794751
000360 40 8b 5e 3d 68 de a2 ba c5 a1 44 bd 85 cf 81 bc
       0.054332018 -0.0012425901 -0.048005838 -0.015846023
000370 7c fd 85 bd db 0b 86 3d 48 8a 8d 3d a4 45 29 3d
       -0.06542489 0.0654523 0.06911141 0.04132618
000380 3f 62 d9 3c 4e d7 27 3d 9d 5b 8a bd b5 d2 98 3d
       0.026536105 0.040976815 -0.06755755 0.07462064
000390 4a b2 36 bc fe e6 a6 3d 03 c7 a8 3d 8e d4 06 3d
       -0.011150906 0.08149527 0.082410835 0.03291755
0003a0 0a f0 ec bd 64 c7 96 bd b6 e6 e7 bb cf e3 ab 3c
       -0.11569221 -0.073622495 -0.0070770634 0.020982651
0003b0 f0 59 96 bd 92 2b ec 3c 3e 36 6a 3d 79 fe 3a 3d
       -0.07341373 0.02882937 0.057180636 0.04565284
0003c0 57 5c e7 bd 3b e2 ad bc 48 d3 86 bd c8 c5 d1 bd
       -0.11296909 -0.02122604 -0.065832675 -0.10242802
0003d0 14 17 07 bc f1 94 a1 bd ea cb 8a bd cc 67 24 3c
       -0.008245248 -0.078897364 -0.06777175 0.010034513
0003e0 96 8d 98 bd 69 bc d4 3c 4e fb 1c 3d 03 12 95 3d
       -0.074488804 0.025968747 0.0383256 0.07278826
0003f0 b7 1a 11 3d 06 09 bb 3c 94 2a d2 3c 60 f5 78 bd
       0.035425868 0.022831451 0.025655068 -0.060780883

layer2.bias f4 [64]
000000 be 76 84 3d 0d ac 70 3d 78 b5 8f bc 8e 43 c3 bc
       0.06467961 0.05875783 -0.017542586 -0.023835924
000010 47 88 18 3d 91 39 5a 3d 35 c6 b0 3b 7f 08 84 3d
       0.03723934 0.053277556 0.005394722 0.06446933
000020 1d e0 8d 3d c7 91 73 3c 71 1f 9c bd 9f 5a 9f 3d
       0.06927512 0.014866299 -0.076231845 0.077809565
000030 91 1f b6 3d 2f c8 26 bd 39 16 c0 bb 5b 6c de bc
       0.088927396 -0.040718254 -0.005862024 -0.027151277
000040 69 1b 37 3d f3 4f 37 bc 8e 34 6e 3d 0b e4 19 bd
       0.044703875 -0.011188495 0.05815559 -0.037570994
000050 92 8b c3 3d 1b a2 a7 3c cc 7f 68 ba 35 35 95 bd
       0.09548105 0.02046304 -0.0008869141 -0.07285539
000060 12 44 a4 3d a5 5f 3f bd 7e ec 9b 3d 03 85 70 bd
       0.08020796 -0.046722073 0.07613467 -0.0587206
000070 34 05 60 bd 36 8d 66 bd bf 53 a6 bc 62 cc fc 3c
       -0.054692462 -0.056287013 -0.020303605 0.030859176
000080 b6 87 af 3d 13 f0 3f bc 6e 42 e1 3c b8 53 eb 3c
       0.08570807 -0.011714953 0.027497496 0.028726444
000090 b3 1d 34 bd 3b af 87 3d 96 52 0e bd 13 80 28 bc
       -0.043973636 0.066252194 -0.03474673 -0.0102844415
0000a0 2a bf d6 3c 74 f9 b4 bb 52 ec 9c 3d 51 9c 8e bd
       0.026214201 -0.005522901 0.07662262 -0.06963409
0000b0 01 15 57 3d ee 47 24 bc fe d7 40 bd 30 37 28 bd
       0.052510265 -0.010026915 -0.047080986 -0.041068256
0000c0 78 53 2f 3d a4 af a4 bd 17 ca a2 3d db 9f ca 3c
       0.04280421 -0.08041313 0.07948702 0.024734428
0000d0 2e 88 8d bd 76 48 56 3d 5e f4 99 bd 2d 36 86 bd
       -0.0691074 0.052315198 -0.075173125 -0.06553302
0000e0 2b 35 42 3a 97 69 f6 3c a4 78 02 3c 9f 9e a5 3d
       0.00074084353 0.030079646 0.007963333 0.08086895
0000f0 c2 58 50 b9 8c 8c 53 bc 44 58 a0 bd 6c d2 7a 3d
       -0.0001986949 -0.012911927 -0.07829335 0.06123583

layer3.weight f4 [6, 64]
000000 25 6c 03 be fb 93 15 3e 6e 90 e8 bd 21 3a d3 3d
       -0.12834223 0.14607231 -0.11355673 0.103138216
000010 ec e7 63 bd 00 c0 95 3d 12 51 2a 3e b7 73 42 bc
       -0.0556411 0.07312012 0.16632488 -0.011868409
000020 8d c8 0d be 58 ae 1d bc 58 e0 c8 3d 68 c3 3d be
       -0.13846035 -0.009624086 0.09808415 -0.18531573
000030 70 83 9e 3d db 1c 1e be a6 41 f3 bd 6c 67 15 3e
       0.077399135 -0.15440695 -0.11877756 0.14590234
000040 de e6 ac bd dd 28 3b 3c 93 53 ee bd 97 d0 01 3e
       -0.08442472 0.011423317 -0.11637034 0.12677227
000050 d0 28 a9 bd 89 6f 9c 3d b8 db d0 3c 51 fd ad 3d
       -0.082597375 0.07638461 0.025495395 0.08495582
000060 7a 7e ed 3d 98 f7 d8 3c 19 eb b7 bd 5a cf 07 3e
       0.11596389 0.02648525 -0.08980388 0.13262692
000070 00 62 f9 3d 42 ac 14 be 56 c2 e3 3d 3f e5 24 be
       0.12176895 -0.14518836 0.11121051 -0.16103075
000080 71 5e 27 be c9 a8 0b be e3 18 f2 3d e9 a8 01 3e
       -0.1634462 -0.13638605 0.11821153 0.1266209
000090 eb 96 c4 bd ec a0 2f bd 25 bd 29 be be 4b be 3c
       -0.09599098 -0.042878076 -0.16576059 0.023229476
0000a0 5c f9 bf bd c3 b5 63 3d ac 4b ab 3d ac be 79 bd
       -0.093737334 0.055593263 0.08364043 -0.060972854
0000b0 9a 2e 4a be e1 4c 11 be 08 7e a3 3d 4f 38 28 bc
       -0.1974434 -0.14189483 0.07983023 -0.010267331
0000c0 09 12 3b be 70 8d bb ba 4a 78 87 bd 76 2e 38 3e
       -0.18268599 -0.001430912 -0.0661474 0.17986473
0000d0 af 6c 90 bd 35 8d 0b 3e d2 a0 07 3d 48 ac dd 3d
       -0.0705198 0.13628085 0.033112355 0.10823876
0000e0 44 9a 80 bd a3 da 17 3e 20 e5 52 bc 15 07 b1 ba
       -0.06279424 0.14829497 -0.0128720105 -0.0013506139
0000f0 46 2b 90 bd 7d 55 9b 3d 34 dd b2 bd 88 08 0e 3e
       -0.07039504 0.07584665 -0.087335974 0.13870442
000100 e3 d7 12 be 52 fb 95 3d de 6e f3 3d f5 84 b3 bd
       -0.14340167 0.07323326 0.118863806 -0.08765594
000110 dc dc 0c be d7 c2 a1 bc 83 b6 31 3e 9a 49 36 3e
       -0.13756126 -0.019746227 0.17354779 0.17801514
000120 37 cb e1 3d 9a 77 7d 3d 48 f2 14 3d 5b 79 35 bc
       0.11025088 0.06188164 0.03636387 -0.011076297
000130 6e 96 d1 3d 9d 95 20 be ea a7 7b 3d 45 32 10 3e
       0.1023377 -0.15682073 0.061439432 0.14081676
000140 ba 6b f6 3c d1 bf f9 3d 8e 75 74 ba 4c e9 06 be
       0.030080665 0.12194789 -0.00093253783 -0.13174933
000150 2d 87 d8 bc ba 00 c5 bd 38 e1 bc 3d 7b c2 0f 3e
       -0.026431644 -0.09619279 0.092226446 0.14039032
000160 3f cc 94 bd 6e 57 ac bd 88 3d 04 3e f7 d6 ab 3d
       -0.07265519 -0.084151134 0.12914097 0.08390611
000170 26 ba de 3d f8 62 c3 bc 07 0f 09 be ae 5b f2 3d
       0.10875349 -0.023850903 -0.13384639 0.11833893
000180 af f6 1a 3e 49 fa 54 be 58 91 93 bd fb 0d 91 bd
       0.15133165 -0.20798601 -0.072054565 -0.07082745
000190 1e 1e 30 be f5 b4 65 3c 5e 79 ba 3d 86 ca ae bd
       -0.17198989 0.014020194 0.0910518 -0.08534722
0001a0 3f cc 03 3e d8 9f a5 bd 0d 98 9e 3d a1 e3 0b be
       0.12870882 -0.080871284 0.07743845 -0.13661052
0001b0 5c ad d8 bc f2 cd 84 3d 92 3c ca 3d f4 57 8a 3d
       -0.026449852 0.064845935 0.09874834 0.06755057
0001c0 35 a8 ce bd 0e 35 d3 bd da 56 1b 3d 8f 32 3b 3e
       -0.10090677 -0.10312854 0.037924625 0.18281005
0001d0 98 61 2c 3e a9 2e 2e 3d 70 56 39 be 14 75 87 bb
       0.16834104 0.042524967 -0.1809938 -0.00413383
0001e0 5d b4 da 3d d1 bf f2 3d 60 86 b2 3d d5 70 3b bd
       0.10678933 0.11852992 0.08717036 -0.045761902
0001f0 10 76 30 3e b6 55 63 bd 33 50 80 bd 54 10 fe bd
       0.17232537 -0.055501662 -0.06265297 -0.12405458
000200 72 04 41 bc 18 be 07 bc e4 6a c4 3c 8e 54 85 bd
       -0.011780845 -0.008285068 0.02397675 -0.06510268
000210 d6 66 ed 3d 01 a4 f9 bd 62 dc 94 bd de bf 97 bd
       0.1159188 -0.121894844 -0.07268597 -0.07409643
000220 67 03 2e 3e e4 db ac 3d a4 d7 83 bc 32 a1 22 3e
       0.16993485 0.08440378 -0.016094036 0.15881804
000230 54 94 1c bd 76 e9 3e bd 33 73 51 bd 47 3e 16 3d
       -0.038227394 -0.046609364 -0.051135253 0.036680486
000240 e7 9f 38 bd bb d9 c7 bd b3 dd c8 3d 9e 6d 00 be
       -0.04507437 -0.09758326 0.09807911 -0.12541816
000250 64 d7 2b bd 12 28 f2 3d 00 e4 17 3d 6a 26 51 bc
       -0.04195346 0.11824049 0.037082672 -0.012765506
000260 b4 20 44 3d f0 e1 61 3d 16 a4 4c 3d e2 af 03 3d
       0.04788275 0.05514711 0.049961172 0.032150157
000270 86 72 f3 bd a5 e8 14 bd 75 4e d3 3d e0 a6 96 3d
       -0.11887078 -0.03635468 0.10317699 0.07356048
000280 e9 01 42 3d 24 bb 04 3e cc db 8f 3d 4b 15 b8 3d
       0.047365103 0.12962013 0.07024345 0.08988436
000290 ff 73 ee 3d e9 67 72 bd bc 73 8e 3c fe 81 87 3d
       0.11643218 -0.059181128 0.01738917 0.06616591
0002a0 86 b2 83 3d f4 0b c6 3c bb 58 a7 3d 41 fc b2 bd
       0.06430535 0.024175622 0.08171221 -0.0873952
0002b0 75 9a c9 bd 70 53 50 3d 98 34 00 be 52 e3 bb bd
       -0.098439135 0.050860822 -0.12520063 -0.09174217
0002c0 63 dc c6 3b 54 3a 3b 3d b8 c0 ab 3d 44 94 03 3e
       0.0060687526 0.045709923 0.083863676 0.12849528
0002d0 9c a7 fc bc 6c d9 68 bd 59 63 e1 bd 70 a3 29 3d
       -0.030841641 -0.056847975 -0.11005277 0.04141563
0002e0 4c 71 d4 3d 7c ee 52 3d 30 1e b1 3d dd c3 f1 3d
       0.10373172 0.051496968 0.08648336 0.11804936
0002f0 5d f3 e8 3d 38 16 61 3b 83 c3 9c bd ed 9f 1d bd
       0.11374543 0.0034345519 -0.076544784 -0.038482595
000300 c4 15 74 bd 76 13 3c 3d a4 e8 8d bc 42 7f d5 3d
       -0.05959107 0.045916997 -0.017322846 0.10424663
000310 ae 9d 10 3c f8 7b 02 bc 78 fe e7 3d ee c7 a1 3c
       0.008826656 -0.007964127 0.11327833 0.019748654
000320 59 7c b2 3d c1 bc 7f 3d 78 13 98 bc 54 96 9d bc
       0.08715124 0.06243587 -0.01856397 -0.019236721
000330 bb 6f ae bd 4b bb a2 3d 97 1f 9b bc 26 9f 2f 3e
       -0.08517405 0.079458795 -0.018935962 0.17150554
000340 23 c8 0d 3c 93 4d 2d 3d 40 e3 0c 3d bd a9 f3 bc
       0.008653673 0.04231031 0.03439641 -0.029744023
000350 cd fa ab bd 93 6b 09 be 7a 24 d7 3d c0 97 1d 3d
       -0.08397446 -0.13419943 0.10505004 0.0384748
000360 c0 52 c7 bd 56 20 b5 3c 81 99 3c bd 90 43 05 be
       -0.0973258 0.022110146 -0.04604483 -0.13014054
000370 fe 92 8c 3d 76 4b ab 3d 80 cd 0e bd 1e 68 81 3c
       0.06863974 0.083640024 -0.03486395 0.015796717
000380 48 85 14 be 05 9b cb 3d a2 db a7 3d 4e be f7 3d
       -0.14503968 0.09941677 0.081961885 0.120968446
000390 56 61 11 be a6 0e 17 be fa 41 9e 3c 6e 78 c1 bd
       -0.14197287 -0.14751682 0.01931857 -0.09446798
0003a0 13 4e a4 bd 13 8a 24 bc 9e c8 c1 3d 32 16 4e 3d
       -0.08022704 -0.010042685 0.09462093 0.050314136
0003b0 66 ff 70 3d bc 02 88 bd 8f ce 95 bd 6c 0a b7 3d
       0.058837317 -0.066411465 -0.073147886 0.08937535
0003c0 d5 2c 39 3d d8 a2 ff bd c7 8d 5b 3d 48 08 2d bd
       0.04520877 -0.12482232 0.053602006 -0.042244226
0003d0 95 13 0c bd 6f 4a c0 bc 04 6c 35 3d 08 a2 b4 bc
       -0.034198362 -0.023472993 0.044292465 -0.022049919
0003e0 8f b6 66 bd 0e ee 00 be ac 5a 9c 3c 33 8f bc bc
       -0.056326445 -0.1259081 0.019086204 -0.023017501
0003f0 07 7f 85 3c ba 77 ee 3d 92 38 d6 3d 44 f7 01 bd
       0.016295923 0.1164393 0.10460009 -0.03172995

layer3.bias f4 [6]
000000 c2 31 4a bd 77 0e 5b 3d 5b c9 c1 bc f9 aa de 3d
       -0.04936386 0.05348059 -0.023655584 0.10872454
000010 00 16 09 bc 67 8b ea 3d
       -0.008367062 0.1145237
