drl_deep_project/scripts/our_agent/models/dqn_20250120_101855.pt (torch, 78784 bytes, 6 tensors)

layer1.weight f4 [128, 80]
00000000: acf6 563d 1f36 4dbd 3fc5 f93d 8258 7cbd
00000010: 06d5 0cbc 358f 4dbd 58d8 cdbd f343 303d
00000020: 3919 523e 5bd7 b43d 9626 f83d 8ad7 273e
00000030: 4993 e9bd 6c49 bd3b 198d d6bd 159b 9eba
00000040: 39aa 0b3d 7dd8 1c3d 785e 88bd e1d5 063d
00000050: 5ac4 e13c 755d 0abe 7342 283e 2054 a0bd
00000060: ec0b 8e3d acbc 6abc fb5e 863d 14df 153d
00000070: f35a 1c3b efe7 62bb c31e 1d3d abd6 2f3d
00000080: bc40 dd3d 3eee c5bd 4c3e 5bbc cfdb b8bd
00000090: dc48 d4ba b494 983d 1e6f c1bd dcd2 ae3c
000000a0: 16ea cbbd 5f5b 02be 3718 9abd 78fa b3bd
000000b0: aba0 923d dabe 8ebc 7e77 babc 9aea 32bc
000000c0: 3991 73be e94e c93d cb22 21bd 5872 953e
000000d0: b8b4 b8bd 2d78 13bc bdb9 bb3d 42b0 683d
000000e0: 4964 253e 3346 2c3d ebfc 14bd fd62 a8bd
000000f0: d4c9 9cbd 34b5 99bd 7803 7bbd fa06 2c3e
00000100: cbb9 cebd 629c 673d c330 33be 449a a63d
00000110: b2f7 4abd 318b 123e e161 b73c e6fc a6bc
00000120: 2afe 26be f190 c53d 33e1 c73d c3ac ca3d
00000130: cef0 913e c452 903e 4f49 853d b6f3 4a3d
00000140: 00b3 2dbd f740 003d bc28 1c3d 7246 ad3b
00000150: cba5 f23d 4754 4fbc 08cc 29bd 3624 323e
00000160: 5e31 1fbe 935e 443d 6240 603c 7ba2 e7bc
00000170: 3529 ca3d 6837 293e d202 903d 67ed c83d
00000180: 109c 74bb c492 833d 5058 103e 38f1 c73d
00000190: 55ed a1bd 6f83 2e3d 9bb7 b5bc 9769 66be
000001a0: 9328 c5bd 2f71 80bc 7553 873d 9f78 f83b
000001b0: 998a 20be c7b7 bdbd 16e0 d73d 687c 24bd
000001c0: a9e6 12bd 3a6d cf3d 68af 723d 33ea 10bd
000001d0: 9b15 4c3d 7118 22bd b613 af3c fc2f 753d
000001e0: f5a5 cbbd 14be 09bc 3b77 67bd 71ff 88bd
000001f0: 93d3 5e3d 9038 b43d 01e4 bcbd a974 ff3c
00000200: 1a81 1e3d 29dc 9f3d 3d10 b5bd 0514 c2be
00000210: 0fdc 8abd 41f6 c13d b32b 2dbe 163f c13d
00000220: ceb8 9c3d 83d6 9ebe 4e67 a0bd ff71 b1bd
00000230: 45a5 84bd 07ee aebc f60e 3e3d 19c2 04bd
00000240: 0002 c2bd babb 93bd 75f2 c73d b8fa 2a3b
00000250: 9f86 c43d b5b9 01be c603 d63d 253d f3bb
00000260: dbf6 b43e 75ea aa3d 2928 b2bc 7b26 ecbd
00000270: 84df e3bd ee0b b1bc aabd 783d cda8 a73d
00000280: 73d8 043d 6faa 893d 8b52 a8bc b6c2 563c
00000290: e5e0 31bd 35c6 20bc d26b 8bbd c5af b63c
000002a0: 9321 3f3e c90f cfbd 4008 8dbd 733c d6bd
000002b0: 2b93 15be b8b3 7e3d fe26 b33d 6ac8 473e
000002c0: 4542 153e 538d 543d f7e6 95bd 3778 a6bd
000002d0: 3ca0 03be 1cff 8ebd 2e84 f53d d2f5 17bd
000002e0: c96c ffbc 28ba d53d 9719 d3bd edd8 92bc
000002f0: f4bc 47bd b84f 123d 25d0 0e3d 2027 1fbe
00000300: 55c2 acbd 59b2 2d3d 694c b5bd 727f 8d3a
00000310: e159 40be d243 a4bd 36d5 4e3e 77db f03b
00000320: 9c4e 283d 4c2a bd3d ab62 cebd 316a 0cbe
00000330: 9f51 b03d 6b94 723d 6b9a 30be 2d4e 123d
00000340: bc62 533d f095 84bc 9dd8 a4bd b47c 0b3e
00000350: 76a0 dc3c 85b2 17bb 4b0a 6c3e fd9f a9bd
00000360: 0961 383c 9cf2 f53d 692e 5cbd fbf5 9d3d
00000370: 4952 033b cce2 90bd 8716 b9bd 0468 97be
00000380: d73d bf3b 66af 9f3c e797 a6be 2221 403c
00000390: 7cd9 58bd 90f2 afbd 96bf 4abd c193 f53d
000003a0: 7635 19be b767 6b3d eafb 0d3e 0b52 4cbc
000003b0: 39ec ef3d 6208 be3c 0fc6 433e 490e 083e
000003c0: b9de a0bc fe0e 4a3d ebef 853c 52fa 533d
000003d0: 0eae 433d 34f3 4e3d 441a b7bd b8f2 a0bd
000003e0: caa5 19bd 5bd5 9fbd cd1b 8b3d 477c 043e
000003f0: 2f22 d53d c22c 27b7 9a6c 85bc 34d4 ccbd
0.05248134 -0.050100442 0.12195825 -0.061607845 -0.008595711 -0.0501854 -0.1005103 0.04303355
0.20517434 0.08830138 0.12116735 0.16390815 -0.114050455 0.005776575 -0.10476131 -0.0012100661
0.034097884 0.038292397 -0.066586435 0.032918815 0.027559448 -0.13512214 0.16431598 -0.078285456
0.06935868 -0.014327209 0.06561085 0.036589697 0.002385792 -0.0034623106 0.038359415 0.042929333
0.10803363 -0.09664582 -0.013381552 -0.090263 -0.001619603 0.07450238 -0.09445022 0.02134078
-0.09956758 -0.12730168 -0.0752415 -0.087880075 0.07159551 -0.01742499 -0.022762056 -0.010920191
-0.23785867 0.09829504 -0.03933982 0.291888 -0.09018844 -0.00900082 0.09166286 0.056808718
0.16151537 0.042059135 -0.036374014 -0.082220055 -0.07655683 -0.07505265 -0.061282605 0.16799536
-0.10094031 0.056545623 -0.1749907 0.081348926 -0.049552627 0.1431091 0.02238554 -0.020384263
-0.16307893 0.09646786 0.0975975 0.09896233 0.28504032 0.28188145 0.06508123 0.049548827
-0.042407036 0.031311955 0.038124785 0.0052879388 0.11848029 -0.012654371 -0.041454345 0.17396626
-0.15546176 0.047941756 0.013687225 -0.028275719 0.09871141 0.16525042 0.07031788 0.09810906
-0.0037324466 0.06424478 0.14096189 0.09762806 -0.079065956 0.042605814 -0.022182276 -0.22501217
-0.096268795 -0.01567897 0.06607715 0.0075827385 -0.15677871 -0.09263568 0.10540788 -0.040157706
-0.035864506 0.10128255 0.05924931 -0.0353796 0.049825292 -0.03957409 0.021371704 0.059860215
-0.09943763 -0.008407135 -0.05651019 -0.066893466 0.05440099 0.08799851 -0.09223176 0.031183558
0.03869734 0.07805664 -0.08840988 -0.379059 -0.06780254 0.09470797 -0.16911201 0.09435861
0.07652436 -0.31023034 -0.07832204 -0.08664321 -0.06476835 -0.021353735 0.046400987 -0.03241167
-0.09473038 -0.072135404 0.09763042 0.0026089381 0.095959894 -0.12668498 0.104499385 -0.0074230605
0.35344586 0.083455004 -0.021747665 -0.11530777 -0.111266166 -0.021612134 0.060727753 0.08186493
0.032432985 0.06721961 -0.020547172 0.013107946 -0.043427367 -0.009812881 -0.068076745 0.02230061
0.18665151 -0.10110433 -0.06886339 -0.104607485 -0.14606921 0.062183112 0.087476715 0.19510046
0.14576061 0.05189259 -0.07319444 -0.08128398 -0.12854093 -0.06982252 0.11988102 -0.037099667
-0.031179802 0.10435897 -0.10307615 -0.017925704 -0.048764184 0.035720557 0.03486647 -0.15542269
-0.084355034 0.042406414 -0.08852465 0.0010795428 -0.18784286 -0.08020748 0.20198521 0.007350381
0.041090593 0.09236583 -0.10077413 -0.13712384 0.08609318 0.059223574 -0.17246406 0.035719085
0.051607832 -0.016184777 -0.08049128 0.13621789 0.026931982 -0.0023147177 0.23050801 -0.082824685
0.011253604 0.12009165 -0.053755198 0.07712933 0.002003806 -0.07074508 -0.090375 -0.29571545
0.0058362293 0.019492816 -0.32537767 0.0117266495 -0.052941784 -0.08591187 -0.049499117 0.119910724
-0.149618 0.057471957 0.13865629 -0.012470732 0.11714978 0.023197357 0.19118522 0.132867
-0.019637452 0.049330704 0.016349753 0.051752396 0.047773413 0.050524905 -0.08940557 -0.07858795
-0.037511624 -0.07804366 0.06792412 0.12938033 0.10406911 -9.964397e-06 -0.016287137 -0.10001412

layer1.bias f4 [128]
00000000: ff88 ff3d 0128 06be 3713 c33d ecde 663d
00000010: 28de fa3d 7a4d 273d 9f40 ab3d bb5e 093e
00000020: 5316 3e3d 2f46 603d 788d 3f3d c639 95bd
00000030: 4613 103e b94a 0ebe a11a 903d 19b9 adbd
00000040: 7bf1 483d c43e 1d3e a27a a13d db2a da3d
00000050: f476 e73d ca43 0d3e 78d9 51bd eae2 c9bb
00000060: ecb6 023e fd23 cbbd 43f6 16be e2c7 ec3d
00000070: 491c 493d 243b eabc 9c70 0f3e 7295 8c3d
00000080: a075 0c3e 2712 323e 8957 6c3d fc35 4d3e
00000090: 7734 0abc 0465 173e fa4c 213d f6b5 66bd
000000a0: bc9f 413e 5460 cf3b e230 f33d 5306 263d
000000b0: 539e 62bd 5af0 98bd bb34 4e3d c1d4 e6bb
000000c0: 6100 2b3e e07e 85bd a432 13bd b92a 8a3c
000000d0: 3eff 113d 4453 a33c d62a 0dbd eba0 9dbd
000000e0: 9a65 1c3e b281 ef3c e920 143d e39e 243e
000000f0: 7501 debd 783c 68bd 4153 bfbc ba52 c33c
00000100: 2468 5abb ed83 a0ba 6ad9 1b3e e1cc 47bd
00000110: 6d29 333b 92de 9bbc 06ad 073d 807d b6bd
00000120: 9397 b0bd 520c aebd 8048 263e 0339 c63d
00000130: 06ed 7e3d 0e39 533e 7ce6 47bc 0fd6 15bd
00000140: b4f1 273d 582a a43d 8e04 afbd 53aa 23bd
00000150: f3d4 073e 68ea d2bc e82d 4fbb 8fea dc3d
00000160: 63d0 eabd 9866 e53c c86f 363e 832c 183e
00000170: e8b1 143e a508 023e 0f8f 9cbd 6f66 7dbd
00000180: a132 943d 21de 4f3d 3a7d 393c 7c4e 5b3b
00000190: 3040 043e 31e2 113c f456 a7bd b383 9e3d
000001a0: 44cb b03d 0fb3 bb3d dc30 433c 5f66 763d
000001b0: 0137 143e 5cf5 9a3d 9e75 ec3d 9b8d 6a3d
000001c0: 92ee 023e 8ce8 f8bd d378 283e ae78 85bd
000001d0: 65cf 073d 43f2 193e 674f 783d ff46 fc3d
000001e0: 2f06 6b3d eebe f13d 7428 983d 175a 0e3e
000001f0: 3d0c fb3d 26e1 923d 8216 73ba 06fe 22bc
0.12477302 -0.13101198 0.09525149 0.05636494 0.12249404 0.04084537 0.08361935 0.13415043
0.04640801 0.054754432 0.046765774 -0.0728641 0.14069852 -0.13895692 0.07036329 -0.0848257
0.04905842 0.15355974 0.078847185 0.10652705 0.113019854 0.1379539 -0.051232785 -0.0061610835
0.12765092 -0.099189736 -0.14742379 0.11561562 0.04909924 -0.028592654 0.14007801 0.06864442
0.13716745 0.17389737 0.057700668 0.20040125 -0.00843536 0.14784628 0.03938005 -0.056325875
0.1890859 0.006328622 0.11874558 0.040533375 -0.05532677 -0.074677184 0.050343256 -0.007044405
0.16699363 -0.0651834 -0.035936967 0.016866075 0.03564381 0.019937165 -0.03446468 -0.07696708
0.15273133 0.029236648 0.036164198 0.16076235 -0.10840122 -0.056698292 -0.023355128 0.023843158
-0.0033326233 -0.0012246348 0.15219656 -0.048779372 0.0027337924 -0.019027028 0.033123992 -0.08910656
-0.086226605 -0.08498444 0.16238594 0.09678843 0.062237762 0.20627233 -0.012200948 -0.036581095
0.04100199 0.08015889 -0.085457906 -0.039957356 0.13264827 -0.02574654 -0.0031613056 0.10786926
-0.11465528 0.028003022 0.17816079 0.1486073 0.14520991 0.1269861 -0.07644474 -0.061865266
0.07236219 0.050748948 0.01132136 0.0033463528 0.1291511 0.008904026 -0.08170882 0.077399634
0.0863252 0.09165012 0.011913504 0.060156222 0.14474107 0.0756633 0.11545871 0.05726395
0.1278632 -0.1215373 0.16452341 -0.065171584 0.03315677 0.15033822 0.0606226 0.12318229
0.057378944 0.11803995 0.07429591 0.13901554 0.12258194 0.0717185 -0.0009273068 -0.009948259

layer2.weight f4 [64, 128]
00000000: e1e4 853e 4c24 68be 6002 953e 8907 8a3e
00000010: c938 063e f797 bebd 5cf7 6d3e 8ae3 243e
00000020: 73ac 51bf 9b3d 783e 75de 6b3e 9e62 9fbe
00000030: 2245 4c3e bb48 01bf f0a4 3b3d e180 fb3d
00000040: 1fdd 363e a44d 8f3e 88f8 153e 309a da3d
00000050: be4f 043e ee89 6e3e a30b bd3e 0e5e f1be
00000060: 5723 653e c270 4dbd c739 263d 7300 013e
00000070: 6a1f c2be 5001 f9be eb98 1abf 0234 583e
00000080: 6544 413e b4f9 483e 425d 10be 2c93 e73e
00000090: 9bc8 633e 65bf 633e b4b8 6d3e 6c3d fcbc
000000a0: 2206 f73e 6ca9 503e a570 253e 971a c83e
000000b0: 30ae d13d dd43 1f3e c420 883e b248 993d
000000c0: 7a48 11bf 2803 93bd de55 f33d 70e7 353d
000000d0: 807f 323e c626 a23d b985 96bc bd4f 193c
000000e0: 9905 1e3e 5733 f23d 228d 24bf 52d7 c93d
000000f0: 2af5 503d a06d bf3e b8f4 c8bc 5613 8a3e
00000100: bd30 8c3d f093 993c a1c8 893e 2f96 76be
00000110: 70b3 8bbe 006d ec3d cb8a 04bf 8f4f 483d
00000120: 8985 adbe df93 16bd 78b1 963d 73e5 0d3e
00000130: fd11 60be afdd 393e 7cf8 e8be b3f4 773e
00000140: 0cc5 a33e 653f 3a3e 4aeb 51be 224d fbbe
00000150: 9873 9f3d 77b8 183e a2aa 1e3d 620f ad3e
00000160: 583f 7abe faed 593e 45e3 dc3d 10a2 033e
00000170: 24d2 f43e 5087 683e d3cd a7be 7202 60be
00000180: e7fb 443e 1fae 983c 258d 85bd 88b1 953e
00000190: 881a 3cbd 5c17 53be 789f 35be 90fe fd3e
000001a0: 42b2 ee3e 2d1f f6be e2e4 d5be 1304 7f3e
000001b0: f373 083e 9fbb a3be b5cb 433d aadd a7bd
000001c0: d499 153e a4ac 9dbe 6591 183e 1483 d5bd
000001d0: d279 503e cdd0 683d 0c7e 123e c476 a13e
000001e0: b87f 9b3d 79c7 cf3e 551c a73e 943e 0e3e
000001f0: 6c03 09bf af34 7e3d 8c44 1d3e b961 c8be
00000200: 4550 1a3e 303e bdbd 5fea 603e aa94 ad3b
00000210: cc8d eb3d 2d99 22be cec7 553d b733 c63d
00000220: 9078 93be 7372 4d3d f8da f4bc b27b 7bbe
00000230: 62c4 e93c 3706 5ebe 8a91 6a3d d65e a93d
00000240: 4ddf c33a fb27 123e a23c d13c d390 773d
00000250: fe79 c33d 7654 1a3d f89d ab3e 9013 b3bd
00000260: 3705 3b3e 0468 393d fd22 593d 436b 153e
00000270: 8174 6ebe 8557 49be 94dc ddbe 804f 363c
00000280: c299 0bbc 3ea4 2a3e 6320 3c3d baa0 7b3e
00000290: 7b95 1e3c b7a3 4f3d 2d98 873d 3420 53bd
000002a0: dd93 c43b 9d6d 2c3e ea6f 9dbd a429 d23d
000002b0: 7303 103e ba94 2b3e 961e b1ba bf56 0e3d
000002c0: dc48 6cbe 9e49 703d 583a 083d ab56 833c
000002d0: fad7 ad3d bfe9 88bd f893 f33d e75a 183d
000002e0: 3b8f cf3d 4a6b 2e3e 7099 41be 9c67 333c
000002f0: 9f6d bf3d 25c4 263e a4d2 de3c c124 253e
00000300: 7c7f 5c39 63e0 2cbc 114e 153e c817 d53d
00000310: 5d2d 8cbd 395d 03bd b45e 51be b3b1 243d
00000320: 5adf 89bd 5cb0 9b3d ac3d fb3d 2f50 033e
00000330: 143a febd 5932 a13d 7621 7fbe ac0e 9c3e
00000340: 1a82 e13c 16f8 103e 4f8d 57be 25c4 97be
00000350: 12c5 d13c de14 083e 317c ba3d 4b11 b03d
00000360: 019d b8bd 59d2 103e 579f ef3c 9a5b c43d
00000370: 889b 4b3e 581a e63b 183e debd 9cfb 10be
00000380: 02de af3d 3558 d13c 3cdb 5abd b4de 923d
00000390: 31e5 bd3c 258e d33d cef6 b7bd 131f 6c3e
000003a0: cb27 a93d ed03 dbbe 8ae9 d4be fc4b 293e
000003b0: 5430 633d 9e7c f6bb 46d2 a03d ed3f 96bb
000003c0: d6d2 bb3d 022b 4ebe 6aa5 1f3d 5e18 b1bd
000003d0: 3ecd b33d 422c 8d3c 98e9 f93c f1c4 6d3e
000003e0: 71bb a73b c986 633e d4e4 483e 3305 f33d
000003f0: 9c01 95be 0462 85bd 05ae 69be 8ea1 90be
0.26151183 -0.22670096 0.29103374 0.26958874 0.131076 -0.09306329 0.23238891 0.16102424
-0.8190376 0.2424225 0.2303408 -0.31129926 0.19948247 -0.505016 0.045811594 0.12280441
0.17857789 0.27988923 0.14645588 0.1067394 0.12921044 0.23294804 0.3692294 -0.4714207
0.22376762 -0.050156362 0.040582445 0.12597828 -0.37914592 -0.48633814 -0.60389584 0.2111359
0.18873747 0.19626504 -0.14098075 0.4522947 0.22244494 0.2224098 0.2321499 -0.030791007
0.48246866 0.2037713 0.16156252 0.39082786 0.10238302 0.15553232 0.26587498 0.07484569
-0.56751215 -0.071783364 0.11881612 0.04441017 0.1743145 0.07917552 -0.01837431 0.00935739
0.15431823 0.118261985 -0.6427785 0.09855522 0.051015057 0.37388325 -0.024530753 0.26967877
0.068452336 0.0187473 0.2691088 -0.24080728 -0.27285337 0.115442276 -0.5177428 0.048903998
-0.33890942 -0.036762115 0.07358068 0.13857059 -0.21881862 0.18150972 -0.4550208 0.24214439
0.31986272 0.18188246 -0.20499912 -0.49082285 0.0778572 0.14914118 0.038736947 0.338008
-0.24438226 0.21282187 0.10785536 0.1285479 0.47816575 0.22707868 -0.3277422 -0.21875933
0.19236718 0.018637715 -0.06521062 0.29237008 -0.04592374 -0.2061438 -0.17736614 0.49608278
0.46620375 -0.4807066 -0.41776186 0.24903898 0.13325481 -0.3197908 0.047801692 -0.08196576
0.14609462 -0.30795777 0.14899214 -0.10425392 0.20358971 0.056839753 0.14305896 0.31535923
0.0759272 0.40581873 0.32638803 0.13891059 -0.53520846 0.06206196 0.1535818 -0.39137056
0.15069683 -0.09240377 0.21964405 0.005297263 0.11501655 -0.15878744 0.0521925 0.096778326
-0.2880292 0.050157975 -0.029889569 -0.24558905 0.028536025 -0.21682058 0.057267703 0.08270042
0.0014943868 0.14273064 0.025541607 0.06044085 0.095447525 0.037678204 0.33518958 -0.087439656
0.18263708 0.045265213 0.053011883 0.14591698 -0.2328663 -0.19662292 -0.4333235 0.011127353
-0.008520545 0.16664216 0.045929324 0.24573031 0.009679194 0.05069324 0.06620822 -0.051544383
0.005999072 0.16838689 -0.076873615 0.102618486 0.14063816 0.16755953 -0.0013513144 0.034750696
-0.23074669 0.058663957 0.033258766 0.016032537 0.0848846 -0.066852085 0.11893457 0.037196066
0.10134741 0.17033115 -0.18906188 0.010949995 0.093470804 0.1628576 0.02720005 0.16127302
0.00021028327 -0.010551545 0.14580561 0.104049265 -0.0684459 -0.032071326 -0.20446283 0.04020853
-0.06732054 0.07601997 0.12267622 0.12823556 -0.12413421 0.07870931 -0.24915108 0.30479944
0.027527858 0.14157137 -0.21049999 -0.29641834 0.025606666 0.1328921 0.09105719 0.08597048
-0.09014321 0.14142741 0.029250784 0.09587784 0.19883549 0.0070221834 -0.10851687 -0.14158481
0.085872665 0.025554756 -0.053431734 0.071713835 0.023180576 0.10329846 -0.08982621 0.23058729
0.08259543 -0.42776433 -0.41584426 0.16532892 0.05546601 -0.0075221797 0.078526065 -0.0045852573
0.09171073 -0.20133594 0.03897611 -0.08647226 0.08779381 0.017233018 0.030506894 0.23219658
0.0051187803 0.22219385 0.19618541 0.11866226 -0.2910279 -0.065128356 -0.2282029 -0.28248256

layer2.bias f4 [64]
00000000: 4f7e e33d cbd9 243d 9af2 0f3d 72d0 c53d
00000010: 4ad4 823b 96d0 213e 1dac 43bd 0563 a63d
00000020: 3fc4 80bd 2dd0 2e3d 397b a43d 2be6 b23c
00000030: 2ade bd3d 8fe6 1e3d d5b0 0abd 0d89 843c
00000040: 6650 693d a569 b0bd 3562 8abd 8271 54bd
00000050: 17ad 16bd efff 1e3b 610c aabc 73ae 98bd
00000060: 7ce2 033c 2e14 ddbb 4457 173e feb5 96bd
00000070: 7bd1 123d 1710 983d 0d50 0abd 1be0 a23c
00000080: e79b dbbc 753a d53c 8913 7e3d 963a 743d
00000090: 8b5f b03d dc5d bbbc 3bdb cb3c 2617 5dbc
000000a0: 4ec0 97bd d09e 863d 786e 09bd 10f2 1a3d
000000b0: 35eb bd3d 1fda 7bbd 6240 9b3d ba47 b4bc
000000c0: f4d3 ec3c c854 a2bd ff12 50bd 1c17 9cbc
000000d0: 7769 653d af4e 1bbd 551f 1e3d 1d66 433c
000000e0: d3a7 10bd 71f7 ab3b 0d79 3e3d 47bf 2a3d
000000f0: e722 85bd 8a6c 0c3d a282 6c3d 8b9c 883d
0.11108076 0.040246766 0.035143472 0.096588984 0.003992592 0.15802225 -0.047771562 0.08124355
-0.06287431 0.042679 0.08031315 0.021838268 0.0927089 0.038794097 -0.033860046 0.016178632
0.05696144 -0.086139 -0.06757013 -0.051866062 -0.036786165 0.0024261435 -0.020757856 -0.074551485
0.008049604 -0.0067467904 0.14779383 -0.07358931 0.035844307 0.07424944 -0.03376775 0.019882252
-0.026807738 0.026028851 0.06203035 0.059626184 0.086119734 -0.022871904 0.02488481 -0.013494289
-0.07409726 0.0657326 -0.033552617 0.037828505 0.09273378 -0.061487313 0.075806394 -0.022006858
0.02890966 -0.07926327 -0.050799366 -0.019053988 0.056008782 -0.037916835 0.0386041 0.011926201
-0.0353163 0.005248003 0.04650216 0.041686323 -0.06500798 0.0342832 0.05774177 0.06670483

layer3.weight f4 [6, 64]
00000000: 8fa4 a43e c4d6 9fbc 888a 0d3e 8aec 8e3e
00000010: fddc 473e 07e4 9e3e 8e1b febe 5ed5 40bd
00000020: 9d24 b1be f4a1 24be 79f6 953d 90a3 923e
00000030: 8328 e13d 9a5f bfbb bbea e5be 7082 003e
00000040: d292 833e 92f1 fb3d 5491 d63d 38f5 753d
00000050: 6d19 c43e 2539 d5be 88ae 773e 0db8 363e
00000060: 44b5 a03e 44c1 3f3e c47e 0c3e 7fdb fe3d
00000070: 5cef 2b3d 3079 4c3e 7521 e6be c063 7a3e
00000080: 209f 093b 3c75 923e e86d e93d 8ea7 2a3e
00000090: a430 9f3e 7466 bf3e 304d 9b3e d01c 8f3d
000000a0: 2233 c4be b2c4 863e 5dba d2be 5198 d43e
000000b0: e02b 663e 4539 143e 98f0 2bbe 4c3b 0fbf
000000c0: 0ced dfbc d6f8 bebe 11c3 ef3d bb0b babe
000000d0: 9495 773d 0472 cebd b14c 99be bab7 2d3e
000000e0: debf 13be 5d93 813e d519 973e 5752 edbc
000000f0: f5ac 4d3e e66a a43e 24e9 80be 5a2e 8a3e
00000100: aee5 3f3e 44bf 073e b330 1e3e fe1e 903e
00000110: 4f80 823e ee79 723e 0c4a 96be 757c 84bd
00000120: 425c 433e 48e5 ffbe 615a abbe df08 e93c
00000130: 245d b6be f25e 35be bda8 dd3d cd84 8d3e
00000140: 78e7 c73d 71fa 02bf e902 a43d 8428 67bd
00000150: 65e0 7f3e a5a5 05bf 1b16 fb3d a0d1 96be
00000160: e750 95be 4412 533e 77fa de3d ac72 803e
00000170: d642 60be 2bcf 103e 2fd1 99bd 4683 273e
00000180: 9bb6 adbe a68d 593e d6b9 993e b517 79bd
00000190: fdcf 9d3e 348c c83e c44c 093d b61c 263e
000001a0: 9fcf b1be 2a5c 103e e1c7 00bf 2268 32be
000001b0: c873 033d cbd2 8f3e a8ab 4b3e 370c a6b9
000001c0: de64 4a3d 6373 143c c70d 973e b64f bd3c
000001d0: 8b26 213e e637 97bd e3e9 f6be 2130 8e3e
000001e0: 7d41 f93d 71b8 9c3e 53b9 343e 3031 8b3e
000001f0: 89e6 1d3e 49c2 23be fdd2 a2be 37ad 713e
00000200: 1878 bf3e 8c77 863e da1b 7c3e 6683 073e
00000210: 63df 843e fd30 283e 9b50 cbbd 6890 2cbe
00000220: a3c5 2f3c c2ac 48be a068 4bbe 7743 5b3e
00000230: 3945 74bd d178 733e b4b2 143e aca7 333e
00000240: ab4e 103e 3169 04bf 1308 eebd 709f f1bb
00000250: 4d7b b63e 872c b1bd ab08 86bd 1777 febd
00000260: 1998 713e 97fb ca3b a316 993e fb50 183e
00000270: 8e88 9dbe a852 383e 5ce9 063e 3e4f 22bd
00000280: bbaf 88be 6971 89be eae7 453e f099 a83e
00000290: 94c3 873d 8ac5 55bd f227 aa3e 1735 c33e
000002a0: 9944 c2be 6885 06bd 03a5 dbbd 9ef9 9b3e
000002b0: 7157 863e 8616 913c 281a babd 2c17 4e3e
000002c0: ecf6 94bd ec16 09bf 7905 9a3c 119a 86bd
000002d0: c52c 43be cb41 dc3d 38e1 163d 5a10 053e
000002e0: 5f5e c73d 420d 333e d86f 623e f4f9 8f3e
000002f0: 7829 22bd 33bf 443e 6463 b9be 79b2 143e
00000300: 2dfe bd3e 4e02 923c e7d6 583e f793 833b
00000310: 6614 a23d 3324 9a3e 0b8e 8dbe 16cf cf3e
00000320: bf9d 03bd 1531 6b3e 7e00 133e cae2 32ba
00000330: bc38 0d3e d496 803e 78da adbe becf a03e
00000340: bb0a a13e 0654 e3be 0403 953d 7efe aebc
00000350: b5c4 8d3d c52e 5cbe 3b6f 483e 12ac ecbe
00000360: c3d8 f83e 2209 9a3e 535d 8e3e 50de 42bd
00000370: 02d1 afbe 5851 303e 1928 8ebe 6e2a ee3c
00000380: 3b20 193e 24a3 653c ebe5 4e3e ccdc 9d3e
00000390: f6bb 9a3e a060 15be 422d 893e 0a7f 943d
000003a0: 75cd a8be e362 eebb 3dab dfbe 07a6 e63e
000003b0: 922d 873e 1c36 9f3d 0150 213e 034d 92be
000003c0: ac6f 493c 08c6 bbbe e9c9 943e 786a acbe
000003d0: f520 25be 71ea 9ebd 260b d93c 903a 663e
000003e0: bceb ce3d 7372 0f3e c7a4 a03e 50a2 a33d
000003f0: 8161 823d 3665 933c 68bf a0be b086 0c3d
0.32156798 -0.019511588 0.13822377 0.2791484 0.19517894 0.31033346 -0.49630398 -0.047078483
-0.34598246 -0.16077405 0.073224016 0.28640413 0.10994055 -0.005840254 -0.44905648 0.12549758
0.25697953 0.12301935 0.10476938 0.060048312 0.38300648 -0.4164516 0.24187672 0.17843647
0.31388295 0.18726069 0.13720232 0.12444209 0.041976318 0.19968104 -0.449474 0.24452114
0.0020999387 0.28605068 0.11397916 0.1666548 0.31091797 0.37382853 0.30332327 0.069879174
-0.3832026 0.26321942 -0.4115781 0.41522458 0.22477674 0.14474972 -0.16790998 -0.55949855
-0.027334712 -0.37299222 0.11707128 -0.36337075 0.060445383 -0.100803405 -0.29941323 0.16964617
-0.1442866 0.25307742 0.29511896 -0.028969927 0.20085509 0.32112807 -0.25177872 0.26988488
0.1873996 0.13256556 0.15448265 0.28148645 0.25488517 0.23679325 -0.29353368 -0.06469051
0.19078162 -0.49979615 -0.3346739 0.028446613 -0.35617936 -0.17712 0.108232 0.2764038
0.09760946 -0.51163393 0.080083676 -0.056435123 0.24987943 -0.5220588 0.12260076 -0.29456806
-0.29163286 0.20612437 0.10887616 0.25087488 -0.21900496 0.14141528 -0.07510602 0.1635867
-0.3392838 0.21245441 0.30024594 -0.060813624 0.30822745 0.39169466 0.033520475 0.1622189
-0.34728715 0.14097658 -0.5030499 -0.17422536 0.03209284 0.2809051 0.198897 -0.00031671088
0.0494126 0.009060713 0.295027 0.023109298 0.15737359 -0.07383709 -0.48225316 0.27771094
0.12170694 0.30609468 0.1764882 0.27185965 0.15419973 -0.15992083 -0.31801596 0.23601232
0.37396312 0.26263082 0.2462 0.13233718 0.2595168 0.16424938 -0.09927484 -0.16851962
0.010728273 -0.19597152 -0.1986413 0.21412455 -0.05963633 0.23776557 0.14521295 0.1754443
0.1409251 -0.5172301 -0.11622634 -0.0073737428 0.35640946 -0.08651071 -0.06544622 -0.12425058
0.23593177 0.0061945426 0.29900083 0.14874642 -0.30768245 0.18000281 0.13174957 -0.039626352
-0.26696572 -0.26844338 0.1932675 0.32929945 0.066291004 -0.05219034 0.332336 0.38126442
-0.3794296 -0.03284207 -0.10724833 0.3046388 0.26238587 0.017710935 -0.0908702 0.20126027
-0.07273659 -0.535506 0.018801438 -0.065723546 -0.19060047 0.107547365 0.03683588 0.12994519
0.09734797 0.17485526 0.22112978 0.28120387 -0.03959033 0.19213562 -0.36208642 0.14521207
0.37107983 0.017823365 0.21175729 0.0040154415 0.07914047 0.30105743 -0.27647433 0.40587682
-0.03213286 0.22967942 0.14355657 -0.00068239553 0.13791174 0.25115073 -0.3395574 0.31408495
0.314535 -0.44400042 0.07275966 -0.021361586 0.069222845 -0.21502216 0.19573681 -0.4622503
0.48602876 0.30085093 0.27805576 -0.047575295 -0.34339148 0.1721853 -0.27764967 0.029072966
0.14953701 0.014015947 0.20204894 0.30832517 0.30221528 -0.14587641 0.2679234 0.07250793
-0.3296925 -0.007274972 -0.43685332 0.45048544 0.26401955 0.077739924 0.15753175 -0.2857438
0.012294691 -0.36674523 0.29060295 -0.3367498 -0.16125853 -0.0775956 0.026494574 0.22483277
0.101035565 0.14008503 0.31375715 0.07989943 0.06366254 0.017992597 -0.3139603 0.034308136

layer3.bias f4 [6]
00000000: b4a2 cabc afd2 e0bd 46e9 9b3d dcb8 123d
00000010: fe9b 083c e63f 83be
-0.024735786 -0.10977685 0.07612853 0.035820827 0.008337973 -0.25634688
