drl_deep_project/scripts/our_agent/models/dqn_20250120_222919.pt (torch, 78784 bytes, 6 tensors)

layer1.weight f4 [128, 80]
000000 79 f3 86 3d df 21 bf 3c 01 95 b5 3c ec c8 4c bd
       0.065894075 0.02333158 0.022165777 -0.0499963
000010 c6 d0 a9 bd 6a 69 7f be a7 ca 31 be d5 28 0b be
       -0.082917735 -0.24942556 -0.17362462 -0.13589795
000020 f4 ff 1e 3d 42 24 61 bb a9 49 9b be 1b 4b e0 bc
       0.038818315 -0.0034353887 -0.30329636 -0.027379563
000030 23 cc fc 3c 9c 29 94 bd c9 e3 61 3d 82 3e aa 3c
       0.030859059 -0.07234499 0.055148873 0.02078176
000040 08 b5 a5 bb bd ff 50 3e c7 cf 2a bc f7 aa 2b 3d
       -0.005056981 0.20410056 -0.010425515 0.04191109
000050 ea 8e 0c be 0f 5a d9 bd 5f aa 94 bd 82 96 4b 3d
       -0.13726392 -0.106128804 -0.07259058 0.049704082
000060 2f 05 46 3d c8 01 8a 3e 26 43 9a 3e 9f 0d 2e 3d
       0.048344787 0.26954484 0.30129355 0.04249346
000070 0c 20 13 be 2b a3 49 bd a0 d8 e9 3c af d5 de bd
       -0.14367694 -0.049227875 0.028545678 -0.10880601
000080 45 48 a7 be c6 06 1c bd 50 0a af bd 69 01 a6 bd
       -0.32672325 -0.038092397 -0.08546889 -0.08105738
000090 db 7e 9e bd c7 96 f3 bd 66 66 77 3e 17 65 a5 bd
       -0.077390395 -0.11893993 0.24160156 -0.08075922
0000a0 19 6d 16 3d c8 ad 67 3d ed b2 de bd ed cc 6e 3d
       0.036725137 0.056562215 -0.10873971 0.0583009
0000b0 8e 9a d1 3d 4a 4b 20 3d 06 c3 d7 3c 8e bf 75 3d
       0.10234557 0.0391343 0.026338112 0.059997134
0000c0 cf 94 86 3d 3c 89 47 bd bc d3 20 3d 60 bd 59 3e
       0.06571352 -0.04871486 0.039264426 0.21263647
0000d0 fe da 4d 3e 2e 88 87 bd 62 f2 63 bd b0 40 0f 3e
       0.2010307 -0.06617771 -0.055651076 0.1398952
0000e0 75 02 a7 bd 9d 2d 2b bc 74 0d 73 bd 0a 54 06 3d
       -0.081547655 -0.010447887 -0.059339 0.03279499
0000f0 7b 7c f0 bd fb cc 06 be f0 31 a2 3c 4a 5e be 3d
       -0.11742493 -0.13164131 0.019799203 0.09295328
000100 e0 56 c1 bc 10 72 4b 3e d9 3c f8 bd 50 56 8f bd
       -0.023600996 0.1986773 -0.12120981 -0.06998885
000110 bb bd e1 3d 2c 23 83 3e 6b 59 f8 bc 82 c3 db 3d
       0.11022516 0.25612772 -0.030316075 0.107306495
000120 75 31 98 bd c9 21 26 3e a9 cf da be 35 a6 b4 bd
       -0.07431308 0.16223826 -0.42736557 -0.08820764
000130 9a 7f 0a bb df ee a1 3c 0f da a3 3e be 8b 22 bd
       -0.0021133185 0.019767223 0.32002303 -0.03968405
000140 3f ba a7 3c 7e 2d 98 be 07 80 a4 39 41 68 a4 be
       0.020474551 -0.29722208 0.00031375905 -0.3211079
000150 bb de 15 3e a1 cb 9f 3d db a9 18 3d 68 83 3c 3d
       0.14635746 0.07802511 0.03727136 0.046023756
000160 f9 41 61 bb eb 0d ea bd 02 28 5c be ac 8c c1 3d
       -0.0034371598 -0.11428436 -0.21499637 0.09450659
000170 70 dd 2e 3e cf 50 85 3d a6 c5 a8 3b ca 38 8b 3d
       0.17076659 0.06509554 0.0051505147 0.06797941
000180 04 a0 0b 3f be d1 38 bc 58 44 4f 3e 48 8b 1b be
       0.5454104 -0.011280475 0.20240915 -0.1518985
000190 2d 74 70 3e 1e 1a 60 3d f4 73 40 3d fa e1 77 bd
       0.23481818 0.054712407 0.04698558 -0.060518242
0001a0 c0 d1 b0 bd 8f 66 cb 3b 6c da cf 3e a1 60 5f bc
       -0.08633757 0.0062072943 0.4059633 -0.013633878
0001b0 45 34 2e 3d 06 b8 45 bd 9c 33 f7 bd 95 7a 31 3d
       0.042530317 -0.0482712 -0.120703906 0.043329794
0001c0 02 b9 91 bd e0 38 ad 3d fc 9c 01 ba 50 d2 d6 bc
       -0.071153656 0.08458114 -0.0004944352 -0.026223332
0001d0 da 9e 4d bd 57 35 d7 bb c2 f3 ba bc 6a 14 92 3d
       -0.05020032 -0.006567638 -0.02282131 0.071328
0001e0 81 ef 6f 3c 6b e4 73 3d 4e f1 4c bd a2 38 1c 3e
       0.0146445045 0.05954401 -0.050034814 0.15255979
0001f0 9c 6d 9d bd bb 68 fb 3c 0e 4f 02 3e 42 9c 48 bd
       -0.07686922 0.030689588 0.1272547 -0.048977144
000200 0f 13 98 be 3b 86 19 3c 6a 67 2b bd 62 04 91 3e
       -0.2970204 0.009370382 -0.04184667 0.28323656
000210 07 18 81 3c 99 9a 63 bd 41 68 eb be f9 d4 8d be
       0.015758527 -0.055567358 -0.45977977 -0.27701548
000220 33 4d 1d bd 7e 36 de 3e 0c 6c db 3d bf fc 94 bc
       -0.0384037 0.4340095 0.10713968 -0.018186925
000230 fd cd 20 be 04 94 46 bc b6 e1 1a bd a6 e0 2a bd
       -0.15703578 -0.012120251 -0.03781291 -0.041718148
000240 a5 e2 3c 3e 5d 28 42 3d 4e 8a 31 3e 8d 5a e8 bd
       0.18445833 0.047401775 0.17337915 -0.11345396
000250 0a 09 15 3e f4 6b e3 bd dd 92 c0 bd 3d cf 17 be
       0.1455423 -0.11104575 -0.09403012 -0.14825149
000260 b3 85 d6 3c 74 9f 82 3e 71 bd 4e 3d f8 f7 db bc
       0.0261868 0.25512278 0.050473634 -0.02685164
000270 b5 93 ee 3b 05 90 65 bd 65 d3 ff 3d 74 49 1f bc
       0.0072807916 -0.05604555 0.12491492 -0.009722102
000280 45 57 b6 3d 44 51 85 be 58 c0 42 bd 27 a5 2b 3d
       0.08903364 -0.26038563 -0.047546715 0.04190555
000290 7a 06 2e be ba 0c d6 bd a6 b1 b6 3d 75 0a c4 3d
       -0.16994658 -0.10451646 0.089206025 0.09572307
0002a0 c8 75 16 3e b7 d3 81 bc 51 90 eb be bd a0 78 bf
       0.14693367 -0.015848024 -0.46008542 -0.9712027
0002b0 49 03 86 3e 83 13 6c be de 05 8c bd 9e 21 c8 3e
       0.2617438 -0.23054318 -0.068370566 0.39088148
0002c0 3e f0 14 3f d0 eb 8a bc 65 b4 3a 3d 4a 7c 1c be
       0.5817908 -0.016958147 0.045582194 -0.15281788
0002d0 1a 11 53 3d 04 23 20 3e 6b 8e 72 bd 5d 75 80 3e
       0.05152998 0.15638357 -0.05921785 0.2508954
0002e0 21 9e 46 bd 88 15 b7 3d 2d 2e ac 3e 99 dc 09 3e
       -0.048490647 0.08939654 0.3362898 0.13463058
0002f0 86 8b 68 3d b1 a4 83 bb 07 52 f8 3d 18 01 8e 3e
       0.056773685 -0.0040174355 0.121250205 0.2773521
000300 cd c7 68 3e 40 c3 04 be 96 91 a0 bd 99 24 89 3d
       0.22732468 -0.12965107 -0.07840268 0.066964336
000310 97 cd 1b 3e c9 f8 50 bc 81 8e 37 bd 8c a3 6f bd
       0.15215145 -0.0127546275 -0.044813637 -0.05850558
000320 91 42 1d bd 94 4f 41 3e 96 7f 0e be 02 f6 ae bd
       -0.03839356 0.18878013 -0.13915858 -0.08543016
000330 5a c6 87 3d 13 1d f0 3c bb be cf 3e 5e 19 e4 bc
       0.066296294 0.029310739 0.40575203 -0.027844127
000340 fa 31 3f 3e c1 84 73 3d 4d 94 6c bd a1 1a 94 bc
       0.18671408 0.059452776 -0.05775862 -0.018079104
000350 d6 be 4b 3d 06 05 45 bd e6 ff be 3d 00 81 0b 3e
       0.049742542 -0.048100494 0.093261525 0.13623428
000360 d5 48 03 3e ab 53 7e 3e e4 72 43 bd 4e 19 66 3d
       0.12820752 0.24836604 -0.04771699 0.056176476
000370 f0 61 f6 3d 96 24 8c 39 da d1 f6 3c 6a 80 5f 3d
       0.12030399 0.0002673014 0.030129362 0.054565825
000380 60 5b ea 3d dc 68 56 3d bd 3a f8 bc 6c 96 91 bd
       0.1144321 0.052346095 -0.030301446 -0.07108769
000390 a4 e1 b3 3d 37 1f f0 bd 29 83 3f bd c1 1e 91 bc
       0.08783272 -0.11724704 -0.046755943 -0.01771486
0003a0 ba 9e ae bc 3d c6 e8 3e ca e7 10 3f 6f 9c 95 3d
       -0.021315921 0.45463744 0.5660368 0.07305228
0003b0 10 71 72 3b 81 42 b8 bd 13 5e 4b 3d d5 1a 23 3e
       0.003699366 -0.089970596 0.049650263 0.15928204
0003c0 6e 6a 95 3c 3a ac 1b 3e 4c a5 5d 3d d6 06 a1 3d
       0.018239226 0.15202418 0.054112718 0.07862632
0003d0 e7 f2 30 be d2 92 79 3e a6 19 c9 3c fa a1 73 3d
       -0.1728016 0.24372414 0.024548363 0.059480645
0003e0 96 5a 53 be ec 16 1a 3a 44 3f a5 be e7 29 91 be
       -0.20640025 0.00058780494 -0.3227483 -0.2835228
0003f0 ad a3 7f 3b d8 a0 3a be 0e 8a 54 3d c0 17 af bd
       0.003900747 -0.1822542 0.05188947 -0.08549452

layer1.bias f4 [128]
000000 f4 3e a6 3c cb ab c2 bd f7 a7 ef 3c 87 58 1c 3e
       0.02029369 -0.09505423 0.029254897 0.15268146
000010 1f d3 81 bb 7e 5f 8d bd 8a ee 2c 3e cd 48 c0 3c
       -0.003961935 -0.06902979 0.1688787 0.023472214
000020 f3 80 84 3c d4 e0 8c 3c 6e a4 81 3c fc 7f ba bd
       0.016174769 0.01719705 0.015825476 -0.09106442
000030 e9 4f 69 bd 18 83 66 bd 8a d4 0a 3e 41 9c 29 3d
       -0.056960974 -0.056277364 0.1355764 0.04140878
000040 0d c4 be bd 9e 7c 74 bd 55 13 fb 3c c4 97 b4 3d
       -0.093147375 -0.059689157 0.030648867 0.088180095
000050 56 14 ad bd 78 55 f1 3d 9c 07 7c bb d4 e8 a3 3b
       -0.084511444 0.1178388 -0.0038456684 0.0050021205
000060 5e 94 98 3d b9 9b 98 3d 51 82 18 be db 80 24 3c
       0.07450174 0.07451577 -0.14893462 0.010040487
000070 55 b4 33 3b 20 eb e7 3d 61 ea b0 bd be 56 d7 bc
       0.0027420719 0.113241434 -0.08638454 -0.02628648
000080 5f 79 48 bd a9 51 a2 3d f4 63 1a 3c 04 e7 2d bd
       -0.048943873 0.07925732 0.009423245 -0.04245664
000090 a1 c9 3d be a3 11 88 bc 58 f8 97 3c 32 33 39 3d
       -0.18533947 -0.016609972 0.018551037 0.04521484
0000a0 fc d1 38 3d 6c 5d 06 3d 6c 9e 46 bd f8 72 70 3d
       0.04512213 0.032803938 -0.048490927 0.058703393
0000b0 1f 15 8d bd 15 2b 9e bd 16 f3 80 bd 88 3b 34 bc
       -0.06888794 -0.07723061 -0.06296365 -0.0110005215
0000c0 d0 ba 0d 3e 82 be 8e bd a0 6f 00 3d a4 1e 83 bd
       0.13840795 -0.0696993 0.031356454 -0.064023286
0000d0 04 e9 80 3d 6a f8 fc 3d 50 a6 16 3e 2a d3 05 be
       0.06294444 0.12352069 0.1471188 -0.13068834
0000e0 2b 45 5f bb 31 ea f2 bd c8 c5 34 3d a6 2f b2 3d
       -0.0034068327 -0.11861075 0.04413393 0.087004945
0000f0 09 ee 2e 3d 34 96 b5 3d 96 2f 52 bb cb 2e 90 bb
       0.042707477 0.088665396 -0.003207182 -0.0044001094
000100 f5 6d 9a 3d 2b 6d 9b 3c 68 5a 97 3a 46 37 5f 3d
       0.07540504 0.018972954 0.0011547329 0.054496072
000110 47 df 93 bc da 6b 2e 3d 80 c5 60 bd a9 36 55 bc
       -0.018050803 0.042583324 -0.05487585 -0.01301352
000120 cb 22 68 bd 0d 6b 80 3c ad 38 e7 3b fc 6f 6f bd
       -0.056673806 0.015676046 0.007056317 -0.058456406
000130 9f 0b 03 be f1 16 19 3e 2f 0d 56 3d 5a d9 07 bd
       -0.12797402 0.14950158 0.052258667 -0.033166267
000140 70 05 fe bd b9 79 11 3d 22 e6 bd bc 1c ce 3b bd
       -0.12403381 0.035516474 -0.023181025 -0.045850858
000150 11 38 90 3c a7 01 aa 3d b6 60 8e 3d 39 52 bc 3d
       0.01760486 0.083010964 0.0695204 0.0919537
000160 18 b7 cc 3d 49 12 f8 bc 90 ba 2a bc 5e 25 61 bd
       0.0999586 -0.030282157 -0.0104204565 -0.054967277
000170 e9 62 97 3d f3 5d b2 3d 6d 1f 31 3d 24 2b 46 bd
       0.073919125 0.08709326 0.04324286 -0.048380986
000180 a7 68 78 3d 40 da 0f 3d e3 1f a7 bd 81 6e a4 bd
       0.06064668 0.03512025 -0.08160379 -0.080288894
000190 0e fa 19 bd 1b 40 e9 bb df 3f a9 3d 0c 03 99 3d
       -0.037591986 -0.0071182377 0.082641356 0.07471284
0001a0 ba c3 cb 3c c1 17 9a bd 04 5f 10 3b 8b 28 e1 3d
       0.024873603 -0.07524062 0.002202929 0.10994061
0001b0 e5 6b b7 bd c7 1d 68 bd 96 88 6c 3d 32 aa ca bd
       -0.08956126 -0.056669023 0.057747446 -0.098957434
0001c0 96 f4 74 bd f2 02 d7 3b 38 40 1c 3d 92 0c 94 3b
       -0.059803568 0.0065616304 0.03814718 0.0045181
0001d0 a3 53 07 3d 72 99 cc 3d 6a 2f 22 3d 19 51 fe bd
       0.033038747 0.09990205 0.039596 -0.12417812
0001e0 1d 7b 8d 3d 89 f6 f8 bd 9b e9 88 3d fe f3 6b 3d
       0.069082476 -0.12156398 0.06685182 0.057605736
0001f0 62 ab b7 bc d9 25 d1 3d 69 f6 a7 3c 66 f2 62 3c
       -0.022420589 0.10212297 0.02050324 0.013851738

layer2.weight f4 [64, 128]
000000 c2 f7 6e bc 1f fd ac be a0 13 6f 3e db 2d 93 bd
       -0.014585437 -0.33786866 0.2334733 -0.071864806
000010 44 af a4 3c 52 c1 4d bd b9 c1 ac 3d cf 05 80 be
       0.020103104 -0.050233193 0.08435387 -0.25004432
000020 73 59 88 bd 53 d2 3d bd 65 2a 0e 3e b3 24 21 be
       -0.06657686 -0.04634316 0.1388336 -0.15736656
000030 76 d8 b0 bd 83 de a8 3d cb 2f e4 3d 47 5c 2e bc
       -0.08635037 0.08245566 0.11141928 -0.010642118
000040 c2 fa 46 3d 98 85 47 3e 95 b5 e5 3d 91 6e 53 3e
       0.048578985 0.19484556 0.11216275 0.20647646
000050 86 9e 15 bd 97 cd 35 be 3f b1 8b bd 40 18 77 3d
       -0.036528133 -0.17754208 -0.068209164 0.06032586
000060 ac 78 94 3d 0d 5f 92 be 09 0c 02 be 54 25 9c 3e
       0.07249579 -0.28588143 -0.12699904 0.3049723
000070 51 6d a7 3d 6a 16 c5 3e ef de 97 be 5e 49 82 bd
       0.08175147 0.38493663 -0.29662272 -0.0636165
000080 53 11 3a be 30 3d 43 3d eb 41 9f 3d 23 e7 b5 be
       -0.18170671 0.047665775 0.07776245 -0.35527906
000090 e4 f8 31 be 91 15 c4 3c 5d b2 14 3e 03 a6 99 3b
       -0.173801 0.023936065 0.14521165 0.0046889796
0000a0 3e 1f aa bd b2 1f b3 bd 80 2f ce 3c 34 5a e7 bd
       -0.0830674 -0.0874628 0.025169134 -0.11296502
0000b0 8d 6b d1 3d ee 35 38 3e 6f 32 54 be 0d 96 74 bd
       0.10225592 0.17989323 -0.20722364 -0.059713412
0000c0 6a 86 42 3d 9c a0 2c 3e 4f 94 7e 3d 19 bc 05 bd
       0.04749147 0.16858143 0.062153157 -0.032650087
0000d0 4f 61 3e 3e 82 6f 23 be 06 2d d3 3d 7a 42 a3 3e
       0.18591808 -0.15960506 0.10311322 0.31886655
0000e0 2d 37 bd 3d b8 f0 9d bd cc aa c0 bd 5c 86 c5 3d
       0.092390396 -0.07711929 -0.09407577 0.09644768
0000f0 98 b3 00 be c1 e5 c1 be cd db 1e 3c ae 6d 88 be
       -0.1256851 -0.378706 0.009695959 -0.2664618
000100 9a 7e 19 be 1e 35 8e bc 03 f5 06 3d 59 21 d4 3d
       -0.14989701 -0.017359313 0.032948505 0.10357923
000110 17 4d 56 3e 20 9a 53 3e c0 a4 2b be b9 f6 f4 3c
       0.20927845 0.20664263 -0.16762066 0.029902803
000120 cc 9a d3 bd 45 a7 98 3d 21 0e 9a 3c 06 cf 32 3d
       -0.103322595 0.07453779 0.018805565 0.043654464
000130 72 ab 93 3b d8 b9 2e 3e db c1 d5 3d d0 fc 8a bd
       0.004506522 0.17063081 0.104373656 -0.067865014
000140 d4 79 31 3d fb ff 58 be 83 06 aa be f1 d1 7d be
       0.043329075 -0.21191399 -0.33208093 -0.24787118
000150 85 1e 8e 3e 83 e0 95 3e f0 f5 f8 3c b2 4c 39 3e
       0.2775766 0.2927285 0.03039071 0.18095663
000160 84 72 b5 3e 4c 1b ec 3b 46 17 7d bd 5a 39 ef bd
       0.3543893 0.0072054025 -0.061789773 -0.11680861
000170 f1 b1 e3 3d b1 55 aa 3e 21 ec c7 3d 47 7d 54 3e
       0.11117924 0.33268502 0.09761835 0.20750915
000180 d3 e1 94 3e 45 87 e5 bc 9c fc 89 bc 20 6b 8f be
       0.2907854 -0.028018603 -0.016844086 -0.28011417
000190 42 67 9b bc e5 b4 5d 3e 82 ed 42 bd 9b 97 2c be
       -0.018970136 0.21651037 -0.047589786 -0.16854708
0001a0 93 4e 69 3e f0 a3 32 bd 9c 49 87 be 40 d2 9d 3e
       0.2278388 -0.043613374 -0.26423347 0.3082447
0001b0 b7 e7 d2 3d c6 4f 3b be 3a d4 9b bb 7d e1 a4 3e
       0.10298102 -0.1829215 -0.004755524 0.32203284
0001c0 33 75 15 be 1b 4f 7c bd 9b 00 f9 3d b7 3e 38 be
       -0.14595489 -0.06159888 0.121583186 -0.17992674
0001d0 c9 c9 2f be 16 8c be 3e b4 84 a2 3e d5 54 b6 bd
       -0.17166819 0.37216252 0.3174187 -0.08902899
0001e0 e3 4f ce bc 4b af 28 be 2c 2b cf bd da 2b b6 bd
       -0.025184577 -0.16473119 -0.10115656 -0.08895083
0001f0 ec 94 97 3c d2 bb 65 3e 68 d9 ad bd cb 1f 87 3e
       0.018503629 0.22434929 -0.084887326 0.26391444
000200 13 27 b5 3e 30 87 e5 3d 25 33 86 bd 1c 81 66 3e
       0.35381374 0.112074256 -0.06552724 0.22510189
000210 1e 0b c1 3d b5 f3 91 bd 8f a3 66 be 8f 01 26 3c
       0.094259486 -0.071265616 -0.2252333 0.010132208
000220 f3 db 52 3c 5c 15 cd bb 82 68 65 be 98 6d d6 3e
       0.012869823 -0.0062586498 -0.22403148 0.41880488
000230 d4 8a e3 3e b7 bb 94 be 27 10 eb 3d 61 81 52 be
       0.44441855 -0.29049465 0.1147769 -0.20557167
000240 14 0f f1 3d f2 a8 0a bf 87 3d 55 bd 0b 75 ea bd
       0.11770454 -0.5416404 -0.05206063 -0.114481054
000250 82 7a 24 3f 31 05 c4 3e 11 d2 c6 be 9b 30 a8 3d
       0.6424943 0.3828521 -0.38832143 0.08212396
000260 16 cd 01 3e cd 06 a0 3e bd 83 2f 3f 58 c7 95 3e
       0.1267589 0.3125519 0.6856039 0.2925365
000270 d0 08 93 be f4 f9 59 bf ab bb 41 3e c2 b3 32 3e
       -0.2871766 -0.85147023 0.18919246 0.17451385
000280 4f 7c 1c 3f ea fc 28 3e 41 38 d3 3c 27 04 af 3e
       0.6112718 0.16502729 0.02578366 0.34182855
000290 8f 16 8b 3e 32 69 af 3e 50 06 30 bd 52 6c b1 bd
       0.27165648 0.34259945 -0.04297477 -0.086632386
0002a0 33 fe 62 3d 07 57 09 be 30 29 51 3d 4f 63 ee be
       0.055418205 -0.13412105 0.05106467 -0.4656014
0002b0 82 96 a7 3d da 13 cd 3c f4 d4 82 3e bb e6 b9 bd
       0.08183004 0.02503388 0.25553095 -0.090772115
0002c0 71 e5 53 3d 9d 77 79 be 93 37 dc be 0f 1c c8 3b
       0.051732484 -0.24362035 -0.4301115 0.0061068605
0002d0 0f 88 16 bf 2d bb cc 3d 47 75 74 bd 35 50 9b be
       -0.5880136 0.099966384 -0.059682157 -0.3033463
0002e0 a9 79 80 3e eb 7c 65 3c c4 3f 6a be ec 01 ad be
       0.2509282 0.014006834 -0.22875887 -0.3379053
0002f0 b5 8b 8b bd 90 c6 0d 3f e9 42 b3 bd 57 28 95 3e
       -0.068137564 0.5538111 -0.087529965 0.2913234
000300 a5 29 71 3e 79 52 1d 3e 87 cb 3c be b9 a6 8b bd
       0.23551042 0.15363492 -0.18437015 -0.06818909
000310 b4 56 ed bd f8 52 8a be 57 f8 8e bd 69 7f cb be
       -0.11588803 -0.27016425 -0.06980961 -0.39745644
000320 85 5f 0f 3e 34 f4 63 be 35 1c 28 3d e9 e9 69 be
       0.14001282 -0.22261125 0.041042525 -0.22843136
000330 af 67 c0 be fe a6 77 be bd 47 7c 3c 18 35 9c 3e
       -0.37579104 -0.24184796 0.015397963 0.30509257
000340 49 67 b0 be f5 48 a5 bb cd 57 08 3e c4 3d c1 3e
       -0.344538 -0.0050440975 0.13314743 0.37742436
000350 e6 e3 ed be ac 6e 57 bf 3c a6 ff 3d 0c 0b a3 bb
       -0.46462935 -0.84153247 0.124828786 -0.004975682
000360 12 2a fe 3c cb 27 42 3f b3 b8 d8 3d 2a 95 dc bd
       0.03102592 0.7584197 0.105821036 -0.10770638
000370 e5 be d0 bd 2d 43 16 bf dc 25 da bd cb b6 5f bd
       -0.1019266 -0.5869625 -0.10651752 -0.054617684
000380 3b 4f 09 3e 8d a2 93 3e 8d 88 f8 3c 42 c6 e0 bc
       0.1340913 0.28834954 0.03033855 -0.027438287
000390 98 3c e9 3e f8 eb 3e bf 73 3a 92 bc 0f a0 55 3d
       0.45554042 -0.7457881 -0.017850136 0.052154597
0003a0 c3 5f 12 3f e5 1f 25 3e 64 36 a6 be 23 ac 67 be
       0.5717737 0.16125448 -0.32463372 -0.22624259
0003b0 99 34 a6 3e 9e 85 f0 3e f2 94 ad be 91 26 4b be
       0.32462004 0.46976942 -0.339027 -0.1983893
0003c0 4a 6b 7a 3e 84 5d 4d be ff 2e 37 be 72 f3 fb be
       0.2445499 -0.20055205 -0.17889021 -0.49209172
0003d0 6c 07 a4 3e 25 5b 9b bf 83 c2 f6 bc 92 d0 67 bd
       0.32036912 -1.213719 -0.030122047 -0.056595393
0003e0 5a 5d ef bc f7 ae c2 3e bf 54 b8 3e 12 64 05 3e
       -0.029219318 0.38024113 0.36002156 0.13026455
0003f0 fc 2f 6c be 90 8e 7c be 6c f2 73 3e 52 14 01 bf
       -0.2306518 -0.24663758 0.23822945 -0.5042163

layer2.bias f4 [64]
000000 dc d7 3a 3e 3f d0 96 bd 4e ac 80 3e 86 cf a9 3d
       0.18246406 -0.073639385 0.25131458 0.08291535
000010 54 49 cf bd 32 68 d3 3b d9 be 77 3d 45 d8 c3 3d
       -0.10121408 0.00645163 0.06048474 0.095627345
000020 19 2a 3d bc 4a 26 84 3d 3c 05 c7 bd d0 84 21 3b
       -0.011545681 0.064526156 -0.09717795 0.0024645813
000030 34 d6 a0 3d 78 1f a4 3c 72 a2 fe bc 7e 54 cd bc
       0.07853356 0.020034537 -0.03108332 -0.025064703
000040 6d d6 3a 3d d5 25 a0 bc 97 75 48 3d eb d2 c8 3c
       0.04561465 -0.01954929 0.048940267 0.024514636
000050 3c 89 dd bc e8 da 65 3d ef 71 5c 3d 6a 0b 9e 3a
       -0.027042978 0.05611697 0.053819593 0.0012057845
000060 26 f2 c8 3d 3f 4a 80 3c 97 89 c1 3d 0c e2 7a 3d
       0.09811811 0.015660403 0.09450071 0.06125073
000070 a5 68 5e bd 71 51 66 3c 57 0e 02 3d cc 6f 84 3d
       -0.054299016 0.014057503 0.031751957 0.06466636
000080 78 5c 57 3a 08 31 ed bc 9c 96 33 3d c8 37 78 bd
       0.0008215378 -0.028954044 0.043844804 -0.060600072
000090 40 52 ab bd b3 a5 72 bc b0 51 d4 bb 67 5d 24 bb
       -0.08365297 -0.014810014 -0.0064794645 -0.0025080086
0000a0 a1 15 35 3c ad f3 d5 bb 33 93 ba bd a2 43 56 bc
       0.01105252 -0.0065292926 -0.09110107 -0.013077648
0000b0 eb a7 40 3c 29 00 03 3e 9e 8a 08 bd c5 9c e1 3d
       0.011758785 0.1279303 -0.03333532 0.110162295
0000c0 d1 87 a0 3c e6 fe 38 3d 85 04 2a 3d 6c 9b d2 bc
       0.019596012 0.045164965 0.041508216 -0.025708877
0000d0 32 2d 24 be 4d 41 42 bc c9 3e 33 bd 37 93 4c bd
       -0.16032866 -0.011856389 -0.04376105 -0.049945083
0000e0 b0 38 2f 3c 1a 00 08 3e 8b a3 55 3d f1 fa 4a bd
       0.010694668 0.13281289 0.05215792 -0.049555723
0000f0 7d 45 9b bd ed 71 94 3d ed 94 6a 3c f3 4c 39 3d
       -0.07581613 0.07248292 0.014317733 0.0452394

layer3.weight f4 [6, 64]
000000 69 5d 95 3e aa f2 c3 3d f8 22 3d 3d 26 e2 1b bf
       0.2917283 0.09567769 0.046175927 -0.6089195
000010 a6 db a9 bf 28 0b 29 3f 07 35 ae bf 28 9d 62 3f
       -1.3270156 0.6603265 -1.3609933 0.8852105
000020 d0 c3 ab be a7 a0 84 3f ae 68 30 be c9 c0 aa bf
       -0.3354783 1.0361527 -0.17227432 -1.3340083
000030 d6 c2 a8 bf 50 f5 87 3f c9 84 f9 bc d6 5b a7 3f
       -1.3184459 1.0621738 -0.030458825 1.3074901
000040 d5 32 14 be a6 d1 31 3f fb a2 ae be d9 e7 67 3e
       -0.14472516 0.69460523 -0.3410872 0.22647037
000050 7d 5b 1f bf 96 53 d3 be 9d 5c cc be f8 48 c3 bf
       -0.62248975 -0.41274709 -0.39914408 -1.5256643
000060 55 71 f2 3f ca 69 e0 bf c4 cb a2 3f 0d 81 ac bd
       1.8940836 -1.7532284 1.2718434 -0.08423052
000070 d7 fc 0e bd 45 8d 06 3f 3c c1 2e bf f6 56 3a 3e
       -0.034909096 0.5255931 -0.682636 0.18197235
000080 73 5f 00 3f 00 44 09 3f 50 f2 c2 be b1 bb c8 3e
       0.50145644 0.53619385 -0.38075495 0.39205697
000090 a3 3b c3 3e de dd 0f bf 68 86 77 3d 5b 2c 91 be
       0.38131437 -0.5619792 0.060430914 -0.28354153
0000a0 0c 4c f2 be 72 22 b0 3d de 6a a5 3f c3 37 e5 bd
       -0.47323644 0.0860032 1.2923238 -0.11192276
0000b0 6a 06 8e be f9 d1 b1 be d4 0d 42 3e ea 6f b7 be
       -0.2773927 -0.3473051 0.18950588 -0.3582757
0000c0 c0 b5 84 3e 20 54 3b c0 40 11 55 3e e9 a9 db bf
       0.25919914 -2.9270096 0.20807362 -1.7161227
0000d0 a4 31 b9 bc 71 93 e2 bf 55 29 09 bf 50 11 b0 3f
       -0.022606678 -1.7701246 -0.5357869 1.3755283
0000e0 2b 5c e2 bf c6 92 a8 3e 56 4a 4c 3f 91 c5 91 3e
       -1.7684377 0.3292448 0.7980093 0.28471044
0000f0 ad 4a 98 be 31 d6 8d 3e d9 13 80 bf b4 c9 6b 3d
       -0.29744473 0.27702478 -1.0006057 0.057565406
000100 17 02 85 3d 3a c0 2b c0 45 c8 a1 3e 04 87 1e be
       0.06494539 -2.6836076 0.31598106 -0.15481192
000110 1a ee 3e bd ee 51 61 bf 7f 60 e7 be 12 20 c0 3d
       -0.04661379 -0.8801564 -0.45190808 0.09381117
000120 24 95 91 3f 16 b0 63 3f ac e5 be bf f0 b1 35 bf
       1.1373639 0.8894056 -1.491384 -0.70974636
000130 bf a7 4a 3f 04 1e 33 3f 9a 17 d9 bd cd 1d 63 bf
       0.7916221 0.69967675 -0.10600205 -0.8871735
000140 de 44 08 3f 40 e9 32 3f d6 26 9c 3d 3a a4 b0 3f
       0.53230083 0.6988716 0.07624595 1.3800118
000150 3d 89 af 3f 37 a4 20 ba 8f 35 19 bf 49 76 49 3f
       1.3713757 -0.00061279855 -0.5984735 0.78696114
000160 c1 ae b2 be 69 06 d4 bf 52 21 7f 3f 29 d5 b3 3e
       -0.34898952 -1.6564456 0.9966022 0.35123566
000170 3e d3 0e bf 51 ef 11 be b7 2f a1 be 09 7c af bc
       -0.5579108 -0.14251448 -0.31481716 -0.02142145
000180 62 f4 db 3e 25 f7 48 bf 1a 0c 04 3f 22 8e 05 bc
       0.42959887 -0.7850211 0.51580966 -0.008151563
000190 10 da ce bd 11 15 b8 be 55 e4 2f bf 13 7f 9f 3d
       -0.10100186 -0.35953572 -0.6870778 0.07787909
0001a0 4b 74 93 3f 15 7b 4a 3f 83 5f 12 bf f5 4d 73 3f
       1.1519865 0.7909406 -0.5717699 0.9504083
0001b0 f8 eb ec bd 45 08 a4 be e0 28 38 bf 22 0d e9 3e
       -0.11568445 -0.3203756 -0.7193737 0.45517832
0001c0 ee 1d f4 bd 52 52 d7 3e b2 b0 c6 be c3 06 cb bf
       -0.11919771 0.42054993 -0.38806683 -1.5861439
0001d0 69 09 bc be 00 70 6e bf 9a ee 23 bf 1b e5 10 be
       -0.3672593 -0.9313965 -0.6403595 -0.14149897
0001e0 0b 6f f1 be d0 91 26 3e 0e 57 0b 3f 0f f8 66 3e
       -0.47155032 0.1626656 0.5442971 0.22555564
0001f0 28 50 c9 be ae 54 47 be 6e 20 cc bf 08 b9 d9 be
       -0.39318967 -0.19465896 -1.5947397 -0.4252398
000200 6d d7 34 3d 83 1c b9 be fb 00 a7 3e 33 62 2e 3d
       0.04415076 -0.36154565 0.32617936 0.04257412
000210 4d a2 e3 bf 83 3b d4 be 31 ff 6e be 21 7e 53 be
       -1.7783905 -0.41451654 -0.23339535 -0.20653583
000220 30 18 9a bd 5b 63 19 3f 4f d5 57 3f ae 99 6f bf
       -0.07524145 0.5991723 0.8430986 -0.9359387
000230 e6 3d a5 3e 9e a5 1e 3f 31 55 f9 be 07 a1 67 bf
       0.32273787 0.6197146 -0.48697808 -0.90480083
000240 bd 04 4d be 8d 3a 3f 3f 61 fd 0b 3f 36 bd 99 bf
       -0.20021339 0.74698716 0.546835 -1.2010868
000250 ab 15 8a 3f 32 b6 39 be c5 0f 84 be d8 2c 00 c0
       1.0787863 -0.18135908 -0.2579328 -2.002737
000260 7e 13 53 3e 20 21 b3 be c1 7c 89 be 25 7b 83 3f
       0.20612904 -0.3498621 -0.26852992 1.0271956
000270 ca e7 4d bf 29 e9 8c 3e 24 c3 00 bf 6e fb b6 3e
       -0.8043181 0.27521637 -0.5029776 0.357387
000280 38 50 00 3e d0 78 ca 3e de 77 6e 3f 5d 4f 34 3e
       0.12530601 0.39545298 0.9315165 0.176084
000290 69 ef 58 bf 0a de 9a 3f 41 2b 67 bf 49 06 cf 3f
       -0.8474031 1.2099011 -0.90300375 1.6173793
0002a0 5a 17 d7 be c0 68 de bf 80 b4 c0 be 9f a4 00 3f
       -0.42010003 -1.7375717 -0.3763771 0.5025119
0002b0 fd e5 65 bf ff 44 91 be 7d aa 9b bd e6 eb 16 bf
       -0.8980406 -0.28372952 -0.076008774 -0.589537
0002c0 97 5a f4 be 8b 5c 22 3e 3f a3 88 bf 97 3e 98 bc
       -0.47725365 0.15855615 -1.0674819 -0.018584533
0002d0 bd 6f c5 3e 59 43 80 bf ce ea b9 3d c8 75 84 3f
       0.38561812 -1.0020553 0.090779886 1.0348444
0002e0 6d 57 c8 bd 79 25 0c 3e b7 54 25 3f f1 23 7a bf
       -0.097823 0.1368617 0.6458239 -0.9771109
0002f0 99 03 a1 be f3 3e 08 3f de 62 4d be a8 ae 3d c0
       -0.31448057 0.5322105 -0.20057246 -2.9637852
000300 cc d1 ef bc 23 d5 1b bd 15 6e 83 3e be 5b 19 bf
       -0.029274844 -0.03804506 0.25669923 -0.5990561
000310 3d 7e 06 3f 84 63 a4 bf 0a 60 56 be ea c7 ee be
       0.52536374 -1.284287 -0.20935073 -0.46636897
000320 d2 f8 17 3f fb 20 9f 3f fe 32 97 3d b4 c7 4c 3f
       0.59364045 1.243194 0.07382773 0.7999222
000330 bd de 21 bf d1 6d f6 3f 4e 6d 0e 3e ae 9b d1 be
       -0.63230497 1.9252263 0.13908884 -0.40939087
000340 b0 68 80 3d 6c 21 70 3f 7e 70 4f be 61 5a aa bf
       0.062699676 0.93801 -0.20257756 -1.3308831
000350 19 27 0d 3f e2 e9 66 be 30 a7 d8 3e ae 3b 52 bf
       0.55137783 -0.22550157 0.42315054 -0.82122314
000360 41 df 85 3e f2 50 b0 be 51 98 f5 be 77 da 0d 3f
       0.26146892 -0.34436756 -0.4796777 0.55411476
000370 54 2d 1c bf d7 ac 49 3f c8 68 f1 3d 79 9d db 3e
       -0.61006665 0.7877936 0.117875636 0.4289358
000380 e8 a8 0e c0 73 db b4 be b2 81 e8 be 27 03 67 3e
       -2.2290592 -0.35323676 -0.4541145 0.22559796
000390 39 65 0b c0 ca 8c eb bf b6 c0 40 be eb c3 88 3d
       -2.1780531 -1.840234 -0.18823513 0.066779934
0003a0 70 1c cc 3e 85 ab a9 be 8f 9c 1b be fd ba 84 bf
       0.39865446 -0.33138672 -0.15196441 -1.0369564
0003b0 df 8b 01 c0 24 20 ef bd 41 fd 5b bf 0d 4a 8c 3e
       -2.024162 -0.11676052 -0.8593331 0.27400246
0003c0 48 2d 22 3e 45 0b 71 bd 8f af fc be 7c c5 30 3f
       0.15837586 -0.058848638 -0.4935269 0.6905134
0003d0 a5 c2 12 3c 13 40 8e 3e fc ee 69 bf 4d 4b 68 3f
       0.00895754 0.2778326 -0.91380286 0.907399
0003e0 b5 ef e6 bd bc a0 ac be 29 0c fc 3e cd d3 c1 3d
       -0.11276189 -0.3371638 0.49228027 0.09464226
0003f0 fa 10 2c be 64 fb 25 3f 0d 5d ca bf 0b 0b c7 3e
       -0.16803351 0.64836717 -1.5809647 0.38875613

layer3.bias f4 [6]
000000 23 f3 82 bd 5a 9a 5a 3d 58 51 e5 3a e1 1b ec 3b
       -0.06394031 0.053369857 0.0017495556 0.007205472
000010 68 c7 34 3e 0b ff 86 3d
       0.17654192 0.06591614
