drl_deep_project/scripts/our_agent/models/dqn_20250114_211855.pt (torch, 539392 bytes, 6 tensors)

layer1.weight f4 [64, 2024]
00000000: f5db 34bb 7b78 3dbb cada 43bb 3e8f 2dbb
00000010: aa00 44bb f09f 29bb 082d 2fbb 039d 40bb
00000020: 07b0 42bb 4838 43bb 7f6d 39bb ff18 31bb
00000030: a659 3cbb dcaa 2bbb 6e63 2bbb bfed 42bb
00000040: f1c4 40bb 0ba4 34bb 7189 e8b8 dc04 51b8
00000050: 7404 2ab9 658c b538 8008 b338 0e84 0339
00000060: eeb4 5e39 1f56 73b9 50b4 1db9 8e31 6039
00000070: b407 beb8 3857 5db9 3a80 45b9 d16a 2fb8
00000080: a0ca ddb8 7dfc 33bb ba7d 3fbb c1db 0c39
00000090: 2dda 26bb c7e3 0ab9 74e9 35bb 7a3a 49b9
000000a0: c70f 40bb 9222 1b38 99db 34bb b8b6 7737
000000b0: 1e7a 3ebb 0fe8 2539 43e5 29bb f300 1839
000000c0: 91bc 26bb 4cf2 72b9 4f33 43bb be53 44bb
000000d0: 9659 27b9 bdce 3c39 67e8 8538 6502 ff38
000000e0: 8b6f 37b9 4fa2 eab8 5ce1 2439 a708 2939
000000f0: fe03 0538 34b0 96b7 7af2 55b9 6ff6 9d38
00000100: e539 dc38 6151 83b7 88b2 51b9 7c3d 42bb
00000110: 9998 3cbb e708 ce38 1296 32bb 0dd7 2739
00000120: e0fc 3ebb 38c3 52b6 7f68 33bb 195b 2ab9
00000130: dc47 2ebb 07fc 6e39 5896 2cbb b826 f238
00000140: cde0 3dbb 1221 1639 ade0 31bb 1a9d 2939
00000150: 3c54 35bb 91a3 28bb 83aa 15b9 bf53 a8b8
00000160: cb9c 31b8 1d9d 8936 5692 40b9 23fa 1139
00000170: f4e6 2537 a724 4839 ba18 4838 c7b6 ca37
00000180: 9f4e 9238 45d6 39b9 56c2 61b8 8865 01b9
00000190: 7aba fe38 441b 39bb 4fce 3abb 0eb9 4eb9
000001a0: e4fd 42bb 1d49 0cb9 94d4 28bb 18b1 1b38
000001b0: ef4e 2abb 0f62 0139 f811 37bb b351 9bb7
000001c0: c85c 38bb c7c7 4d39 096b 31bb 3d20 7339
000001d0: 9769 35bb 7228 2ab9 ae0c 37bb caf6 42bb
000001e0: c557 9838 f570 c538 e669 fa38 889c 6539
000001f0: 4980 12b8 5e68 7b37 de68 d838 cd76 f9b8
00000200: cc56 2a39 8e6d 8a38 bd64 2539 abf6 d0b8
00000210: 85ea 3539 e851 2c39 9122 1cb9 22e2 41bb
00000220: e909 41bb fca4 ebb7 362e 35bb 68cb ac37
00000230: 63a2 31bb b83c 4e36 99f7 2fbb 8534 1339
00000240: 6a62 34bb eff8 f2b8 7565 43bb 495f 7bb9
00000250: ddf9 27bb afef 1039 b8c4 2cbb dfdd 4339
00000260: eb75 2bbb b5e0 3bbb 4fb7 ffb8 0736 c338
00000270: 2fab afb8 c8f6 af38 d7a6 1db8 1748 1839
00000280: f8df b1b8 5564 84b8 ff09 39b9 7657 12b8
00000290: 98a0 0039 89d4 0d38 fe50 9337 ce22 d2b8
000002a0: 7910 c7b8 f83e 27bb 888b 44bb 9d62 14b9
000002b0: 98bb 3bbb 8a4f 0bb8 a1e8 2bbb b6dc 8737
000002c0: f012 3dbb f61e 2db8 3074 3bbb 8149 e038
000002d0: c31f 27bb 663d 1f39 bc25 36bb 49e9 80b8
000002e0: f0dc 40bb 2381 52b9 df2b 37bb fdab 3fbb
000002f0: 2ae9 2c39 4695 e3b8 124f 4438 53fb 76b9
00000300: c67c e538 c4a0 1db9 7da8 2db9 3091 b5b7
00000310: 4034 3bb9 f1ca 2c39 1627 5939 f346 3a39
00000320: 55af 6338 7e3b 2ab9 e31f 7637 07c6 30bb
00000330: 0ee6 42bb 6215 c438 2b4f 44bb 1d9b 8537
00000340: a04b 3dbb ca10 e438 04d4 42bb e3bf 7038
00000350: 9a31 3abb 0a60 8ab8 0a18 39bb 74a7 e3b8
00000360: ad70 35bb 3e0d 8c38 ff59 37bb 57cd 8638
00000370: 5faf 2bbb dcd5 32bb 4acb 0236 a0fa d837
00000380: 9586 37b8 c800 f038 9804 0d39 a42a 8e38
00000390: 6573 f3b8 2ea8 6739 eba4 dcb8 e864 da38
000003a0: c401 8537 9bf6 1538 e58b 2eb9 b7c6 7f38
000003b0: 28ae 54b9 6686 26bb c060 2bbb d386 6d39
000003c0: b66e 38bb 12e9 65b9 eebb 2fbb 9713 6039
000003d0: af64 3cbb 0f9c 1439 a1c9 43bb b01e 3a37
000003e0: 3baf 35bb ffce 3d39 6879 42bb 4336 6fb9
000003f0: 6273 33bb 4753 1d39 b724 2bbb 5c69 41bb
-0.0027596925 -0.0028910923 -0.0029885047 -0.0026483084 -0.0029907622 -0.0025882684 -0.0026729722 -0.0029390461
-0.0029706971 -0.0029788185 -0.0028294025 -0.0027022955 -0.0028739958 -0.002619437 -0.0026151794 -0.0029743758
-0.0029414261 -0.0027563598 -0.000110882225 -4.983401e-05 -0.00016214122 8.656903e-05 8.5369684e-05 0.00012542328
0.00021238971 -0.00023206368 -0.00015039858 0.00021380765 -9.061341e-05 -0.00021108694 -0.00018835152 -4.1822732e-05
-0.00010575843 -0.0027463727 -0.0029219226 0.00013433305 -0.0025459633 -0.00013245559 -0.0027757557 -0.00019190638
-0.002930628 3.6987076e-05 -0.002759671 1.476489e-05 -0.0029064487 0.00015822075 -0.0025924004 0.00014496203
-0.0025441984 -0.00023169181 -0.002978522 -0.002995714 -0.00015959734 0.00018006093 6.3852225e-05 0.000121597936
-0.00017493793 -0.00011188222 0.00015724212 0.00016120319 3.171339e-05 -1.7963444e-05 -0.00020403592 7.532245e-05
0.00010501201 -1.5654312e-05 -0.00019998301 -0.0029638698 -0.0028777479 9.824504e-05 -0.0027250093 0.00016006474
-0.0029142424 -3.140607e-06 -0.0027375517 -0.000162464 -0.0026593124 0.00022791336 -0.002633473 0.00011546671
-0.0028973103 0.00014317434 -0.0027141974 0.00016175621 -0.0027668616 -0.0025732259 -0.00014273268 -8.026463e-05
-4.2346113e-05 4.1012086e-06 -0.00018365061 0.00013921461 9.888539e-06 0.0001908714 4.7706744e-05 2.4165389e-05
6.976467e-05 -0.00017722796 -5.382517e-05 -0.00012340222 0.00012146398 -0.0028245011 -0.0028504317 -0.00019714629
-0.0029753381 -0.00013378677 -0.0025761472 3.711981e-05 -0.002598699 0.00012338928 -0.0027934294 -1.8515484e-05
-0.0028131474 0.00019624746 -0.0027071855 0.00023186296 -0.0027681345 -0.0001622753 -0.0027931142 -0.0029749149
7.264273e-05 9.414732e-05 0.00011940654 0.00021897454 -3.4928587e-05 1.4985066e-05 0.00010319216 -0.000118953736
0.00016244798 6.600759e-05 0.00015773154 -9.9641584e-05 0.0001734887 0.0001643371 -0.00014890196 -0.0029584249
-0.002945537 -2.809101e-05 -0.0027645952 2.0598716e-05 -0.0027104847 3.0731735e-06 -0.002685046 0.00014038578
-0.002752448 -0.00011585827 -0.0029815112 -0.00023972722 -0.0025631108 0.00013822199 -0.002636237 0.00018679303
-0.0026162814 -0.0028667871 -0.000121934914 9.308388e-05 -8.376536e-05 8.390617e-05 -3.75871e-05 0.00014522705
-8.481735e-05 -6.312939e-05 -0.00017646699 -3.4890567e-05 0.00012266857 3.381496e-05 1.756148e-05 -0.00010020063
-9.492128e-05 -0.002551971 -0.0029990394 -0.00014151116 -0.002864575 -3.321426e-05 -0.0026231187 1.619603e-05
-0.00288504 -4.127525e-05 -0.0028603189 0.000106948435 -0.002550111 0.00015186294 -0.0027793488 -6.1469684e-05
-0.0029428564 -0.00020075268 -0.0027949733 -0.00292468 0.00016490059 -0.00010852008 4.680368e-05 -0.00023554014
0.00010942812 -0.00015032577 -0.00016561332 -2.164449e-05 -0.00017853174 0.000164788 0.00020709293 0.00017764773
5.4284308e-05 -0.00016234626 1.4670167e-05 -0.0026973502 -0.0029739174 9.349991e-05 -0.0029954414 1.5927066e-05
-0.0028884187 0.000108750144 -0.0029728422 5.7399167e-05 -0.0028410912 -6.5982415e-05 -0.0028243088 -0.00010855394
-0.0027685568 6.678187e-05 -0.0027977226 6.4278654e-05 -0.0026197059 -0.0027288115 1.948984e-06 2.5865913e-05
-4.375594e-05 0.00011444237 0.00013448519 6.77903e-05 -0.00011608637 0.00022092529 -0.00010521136 0.00010413845
1.5855658e-05 3.5754038e-05 -0.00016646048 6.0981805e-05 -0.00020282774 -0.0025409698 -0.0026150197 0.00022652307
-0.002814216 -0.00021925967 -0.0026814896 0.00021369602 -0.0028746536 0.00014172516 -0.002987482 1.1093609e-05
-0.0027722854 0.00018101557 -0.0029674415 -0.0002281303 -0.0027382006 0.0001500371 -0.0026114413 -0.0029512262

layer1.bias f4 [64]
00000000: 2fd2 2cbb ea2d a53b ed5a 603d b228 91bb
00000010: dc2a c53d e437 c4bb cf99 0db8 33fd 833c
00000020: 33d2 1b3b 6f97 9abb 1c59 9dbb e307 883b
00000030: 2ac9 813b f17e c63a 9fc9 a63c 9dda 9f3b
00000040: 8510 863a 4fe8 37b9 1708 d9ba 6c78 c43a
00000050: 7845 18bb cbcd 933a 8486 7b3b 9d4b 15bc
00000060: 05da 363d b4e0 a63b 7275 39bb 98c5 fd3b
00000070: fc7e 593b fe01 9d39 8973 27ba a5cc a2bb
00000080: 9f09 2d38 8626 6d3a cf99 123b 8d25 6438
00000090: 622b babb 8dbe ce3b 2c55 513b 3a8c 053d
000000a0: ea1e bd3b 9c87 8c39 6632 123b 42f9 c5bb
000000b0: b231 e23a 0ff8 1339 46b1 9e3a aedf 19bb
000000c0: 6b37 80bb 4647 46bb 5245 a33b bdc1 7fbc
000000d0: d196 1a39 adf3 8a3a 046f d13b 36bc 91ba
000000e0: bd63 0f3b 3184 93bb 5748 edbb 6500 d8bb
000000f0: 596a 32bc 5172 2abb 8490 8abb 1236 4d3c
-0.0026370396 0.005040874 0.054774214 -0.0044299 0.096273154 -0.005988108 -3.3760265e-05 0.016111946
0.0023776412 -0.0047177593 -0.0048018824 0.004151331 0.003960748 0.0015144033 0.020359812 0.0048783557
0.0010228312 -0.00017538782 -0.0016558197 0.0014989502 -0.0023234766 0.0011276541 0.0038379738 -0.009112266
0.044641513 0.0050927047 -0.0028298763 0.0077445023 0.003318726 0.00029946858 -0.00063877605 -0.004968243
4.1255375e-05 0.0009046573 0.002236951 5.4394408e-05 -0.005681441 0.0063093365 0.0031941636 0.032604434
0.0057715075 0.00026803918 0.0022307872 -0.0060416767 0.0017257242 0.00014111421 0.0012107275 -0.002347927
-0.0039128563 -0.0030254885 0.004982629 -0.015610156 0.00014742768 0.0010601185 0.006391408 -0.0011118713
0.0021879517 -0.0045018424 -0.0072412896 -0.006591844 -0.010889613 -0.002600808 -0.0042286534 0.012525098

layer2.weight f4 [64, 64]
00000000: d2b2 04be 6ea8 1c3c 46ee e63d 5a86 a7bc
00000010: 5faf 693d 03a9 98bc 5340 ba3c 1491 6b3c
00000020: 3082 0b3c f902 78bc afe2 ca3d fea2 cd3b
00000030: daef 513c d4b9 8a3c f35e e23b 4573 8a3a
00000040: b5dc 953c befe 843c 01e8 87bc b1fd f83b
00000050: e0ad f4bc 74ac 1abc 7a9c 1ebb 8494 2ebd
00000060: 4eaf a43c 5f79 b03c b119 23bc 7d7d f03b
00000070: e14d bf3b b006 36bc b099 bfbc 4202 36bd
00000080: 5c49 91bc df46 563b 11ae be3c 15c9 c73c
00000090: 1bda 41bc 4783 0abc 3a13 ce3b 334a cb3c
000000a0: 89ea a2b8 255e 32bc 2969 98bc e670 c6bc
000000b0: d8c3 223c 60ac 6d3c 02b2 da3b 1950 41bc
000000c0: 6426 5dbc 6fb3 b5bb d5b2 893c 639d 05bd
000000d0: 5c3e 72ba f53b ed3b f7dd f73b 08ff 9dbc
000000e0: 9c57 9c3c 2c57 81bc 6758 89bc 9402 85bc
000000f0: efa7 3ebd cf7d 37bc c622 93bc bcdb ce3c
00000100: f312 b9bc fee1 88bc f39c a7bb b7e9 483c
00000110: 2825 a5bb 9f7d d43a 4ff4 1abc 85a4 ecba
00000120: 80d1 b9bc 6b04 3b3b 2938 24bd 3578 43bc
00000130: 7729 3abc 484d 0dbc 1d3b b2ba 7bfd 53bc
00000140: 6e12 24bc efe6 05bb 87ed 513c 4832 28bc
00000150: b6fc 043c 73b0 953b b10d 853b 1e43 2a3c
00000160: a030 4a3b 1df9 c5bb da6a 7c3c 43b7 b3bb
00000170: 0cfd fcbb d507 403c d8cc be3b 5e9b b33c
00000180: 9228 a23c 6a79 19bc 31dc 9dbc 1c9d 05bc
00000190: 087c ef3b 4fb9 b1bc 3dca 133a d0fd ab3b
000001a0: 85b2 7bbc 7c32 b33b 8b6d b4bc 1630 043c
000001b0: 7312 bcba c201 dfbb 50c5 e0bb 2410 193c
000001c0: ce50 0f3c df94 213c 6987 633b 07d1 45bc
000001d0: 8528 1a3a 2a9e fbba c4da 43bc 46e8 ab3c
000001e0: 2bcd 1ebc f653 d33b 2aeb f53a f8bb b43b
000001f0: 87a9 743b af21 3d3c 558b b63b 028e ccbb
00000200: fb16 06be 0843 7c3c 08b6 df3d 73c0 1bbd
00000210: b957 da3d 0215 2abc 4ca9 273d cc6a 903c
00000220: 2ff7 293d b97c bbbc e29b 0a3e 2198 413c
00000230: f393 fa3c d717 003d fb36 843c ae58 0e3c
00000240: df75 fb3c c245 f33c 6246 0fbd 4c47 a43c
00000250: b3cd 14bd 0bb4 02bd 8264 24bc 2379 8dbd
00000260: 33f3 213d d8c2 343d 3bb2 1cbd d628 8b3c
00000270: 3cff 0e3c 6ffc 9dbc 3a02 c6bc 0303 82bd
00000280: 2a74 a9bc 1c2c 303c 0ee4 d93c 3b73 1f3d
00000290: 2b65 b5bc 7c55 5dbc f880 503c cd03 843d
000002a0: d616 da3b 20b6 b4bc 2cd8 5cbc 6ab0 48bd
000002b0: a22a a93c d2d7 d33c 42dc 663c 2885 b8bc
000002c0: 45a6 b7bc be65 a5bc df53 9bbc 3b6c 6ebd
000002d0: a587 933a 738b 2d3c 1f28 be3c 4b61 4dbc
000002e0: ac26 eb3c ecb0 08bd 392a fabc b183 02bd
000002f0: 2467 91bd b958 f5bc 07ca e7bc 7103 3a3d
00000300: a47d 00be 8b42 753d 241e 593d addc dbbc
00000310: 69c1 c23d 7f20 0c3c b2ea 1e3d d927 f63c
00000320: 01ea a53d 7265 e4bc 9df7 2b3e 64d7 113d
00000330: c367 853d 0311 493d c68d 273c 86bb 2b3d
00000340: aace 173d c21a ca3c 131e 30bd 3f9a 143d
00000350: 4c9d 11bd 2510 09bd 27b5 bb3c e29e ddbd
00000360: 59bd 113d af21 3e3d 4d6b 37bd 7f06 563c
00000370: 041c c23c dbf8 b4bc e027 dabc 0de4 83bd
00000380: eedd 36bc 74be d13c b868 953d bd2c 223d
00000390: f33e b0bc f951 71bc b7ba 9ebb b765 bc3d
000003a0: 3132 ac3c 2103 cdbc 8d35 6fbb abc8 8bbd
000003b0: 6cb4 a83c 5d5b 0d3d 37d8 d13c 5ccd bdbc
000003c0: 2547 01bd 530f c4bc 0371 0c3d d8ad 95bd
000003d0: 34e1 bf38 3d15 ea3b 88e7 4a3c 267a e3bb
000003e0: 8eb4 2b3d e7c3 1fbd dd58 51bd c8c3 20bd
000003f0: 3321 11be 9c34 febc 6e78 e4bc c81e 0c3e
-0.1295884 0.009561641 0.11275916 -0.020449806 0.057052013 -0.018635279 0.02273575 0.014377851
0.008514926 -0.0151374275 0.09906518 0.0062755337 0.012813533 0.016934313 0.0069082915 0.0010562917
0.018293718 0.016234752 -0.01659012 0.0075986017 -0.029868066 -0.00944053 -0.0024202154 -0.042622104
0.020103123 0.02154225 -0.009954856 0.007339178 0.0058381413 -0.011109993 -0.023388714 -0.044435747
-0.017735176 0.003269605 0.02327636 0.024387876 -0.011831786 -0.0084541505 0.006288913 0.024815654
-7.7684475e-05 -0.010886704 -0.018604832 -0.024223756 0.009934388 0.014506429 0.006674052 -0.011798882
-0.013497923 -0.005545072 0.016808907 -0.0326208 -0.00092408597 0.0072398135 0.007564302 -0.019286647
0.019084744 -0.015788637 -0.016765786 -0.01623658 -0.046546873 -0.011199429 -0.017960917 0.025251262
-0.022592044 -0.016709324 -0.0051151454 0.012262753 -0.0050398298 0.0016211754 -0.009457662 -0.0018054402
-0.022682905 0.002853657 -0.04009262 -0.011930515 -0.011362425 -0.008624382 -0.0013597939 -0.012938852
-0.01001416 -0.0020431837 0.012812979 -0.010265894 0.008116892 0.0045681535 0.00406047 0.010391979
0.0030851737 -0.0060416595 0.015406335 -0.005484493 -0.007720595 0.011720617 0.005822759 0.02192467
0.019794736 -0.009367326 -0.019270035 -0.008155134 0.007308487 -0.021694807 0.0005637741 0.0052487627
-0.015362387 0.0054686647 -0.02202489 0.008068105 -0.001434876 -0.0068056295 -0.006859459 0.009342227
0.008747293 0.009862154 0.0034718162 -0.012073762 0.00058806717 -0.0019196917 -0.011954013 0.02098478
-0.009692471 0.006449218 0.0018762101 0.0055155717 0.0037332491 0.011543675 0.005570809 -0.0062425146
-0.13094704 0.015396841 0.109233916 -0.03802533 0.10661263 -0.010380985 0.04093294 0.01762905
0.0414955 -0.02288662 0.13536027 0.0118160555 0.030588126 0.031272735 0.016139498 0.008688135
0.030695854 0.029696349 -0.03497923 0.020053528 -0.036328983 -0.031909984 -0.010033729 -0.069078706
0.039538573 0.04413113 -0.03825591 0.016987246 0.008727845 -0.019285409 -0.024170984 -0.06348231
-0.020685274 0.010752704 0.026598003 0.03892825 -0.022142967 -0.013509151 0.012726061 0.064460374
0.0066555543 -0.0220595 -0.013479274 -0.048996367 0.020650212 0.025859747 0.0140905995 -0.022524431
-0.02241815 -0.020190116 -0.018960891 -0.058208685 0.0011255635 0.010592329 0.02321249 -0.0125354035
0.028704964 -0.03337185 -0.030537711 -0.031863872 -0.07099751 -0.029949533 -0.028294576 0.04541344
-0.12547928 0.059877913 0.05300726 -0.026838625 0.09509546 0.00855267 0.03879804 0.030048298
0.08101273 -0.027880404 0.16793676 0.035605803 0.065139316 0.04908849 0.0102266725 0.041926883
0.037062325 0.024670962 -0.04299743 0.036279913 -0.0355504 -0.033462662 0.022913529 -0.1082132
0.035580967 0.046418842 -0.044780064 0.013063072 0.023695 -0.02209132 -0.026630342 -0.064399816
-0.011161311 0.02560351 0.07295364 0.039593447 -0.021514392 -0.014729016 -0.0048440355 0.09199088
0.021020027 -0.025025906 -0.0036500425 -0.06825384 0.020593844 0.03451096 0.025615795 -0.023169212
-0.03156199 -0.023933088 0.034287464 -0.07308549 9.149537e-05 0.007143645 0.012384303 -0.0069420515
0.041920237 -0.039005186 -0.051110137 -0.03924921 -0.14172821 -0.031030945 -0.027889457 0.13683617

layer2.bias f4 [64]
00000000: ce0b bc3c 6676 19bb 8b18 293d af62 383d
00000010: 0e59 313d cf47 4e3c f9d6 1e3d b2b7 bd3c
00000020: f995 b1ba e0a4 483b badd e83c 3cba f53c
00000030: 184c a5bb a32c 263d 4d5b c1ba 78b9 ef3c
00000040: 33de 00ba 390f fe3c 0406 113d d863 f9ba
00000050: 4d55 533d 5901 ce3b e3f5 093d f5fb a43c
00000060: 6abe 893b 717f 50bc 54b1 373d 262d e73c
00000070: 3c21 803c c303 a03d 0994 f73c 0749 63ba
00000080: ce72 1fbb 19a7 50bb 4209 7bba 71a0 c03c
00000090: 6921 8839 f30d 48bb 20d2 d23b 05cd ed3b
000000a0: 80fd acbb 2ea0 743c 9aa9 9d3c e7dc 173d
000000b0: c3f1 3b3d 70ac a53d b04d 5f3c cb2d e43c
000000c0: 6efa 3b3d f016 a33c 458a 023c e5b8 383d
000000d0: f8d8 793c dd32 74ba f0cc aaba 922b f1bb
000000e0: 9a1f 783d 92fb 0a3d a254 013d 6195 e639
000000f0: 809d 103d d60d b5ba a4fa e338 c524 bb3c
0.022954848 -0.0023416518 0.04128317 0.045015987 0.04329782 0.012590363 0.038779233 0.023158882
-0.0013548724 0.0030615851 0.02842604 0.02999603 -0.0050444715 0.040569913 -0.0014751941 0.029263243
-0.0004915923 0.031013118 0.035406128 -0.0019026948 0.05159502 0.0062867817 0.03368176 0.020139674
0.0042036073 -0.012725697 0.044846848 0.02821977 0.015640847 0.078132175 0.030221956 -0.0008670245
-0.0024329904 -0.003183788 -0.00095762697 0.023514004 0.00025964834 -0.0030525893 0.0064337403 0.0072571062
-0.005279243 0.014930768 0.019245911 0.037075903 0.04588486 0.080895305 0.013629362 0.027853867
0.045893125 0.019908398 0.007967536 0.045098204 0.015249483 -0.00093154405 -0.0013031047 -0.0073599303
0.060577013 0.033931322 0.031574853 0.00043980315 0.035306454 -0.0013813328 0.00010870889 0.022844682

layer3.weight f4 [6, 64]
00000000: d860 c7bc ec9d 9d3c 7903 0fbd 4e95 6dbd
00000010: 0d24 74bf 5ff9 04bd 8ad3 5abd 8c49 e5bc
00000020: 4c53 073c 1fdb 9c3e 9014 f9be 5635 77bd
00000030: d644 023e d582 64bd a7c0 153e 6135 16bd
00000040: 28b5 aa3a c41c 0bbd be29 61bd d989 2d3c
00000050: da66 6fbe edd1 46bf f02e 5cbd 766d fcbc
00000060: 0bca 0cbe 07f7 353d 8347 86bd 334f 5cbd
00000070: ffd1 93bc 137e 79bd b29e 97bd 7dd3 61b6
00000080: 1f9f 9eba 755c 4dbd 9332 623e 8788 1bbe
00000090: 933a b23d 5563 9c3c bcf2 b43c aa4b 58bc
000000a0: 3538 983c e893 cdbc c836 7dbd dcbf 33bd
000000b0: 4e85 9dbb 4772 0dbd bc3a 93bd 47c9 25bd
000000c0: 416b 63bd b85c d43e 1db6 36bf 2b37 13bd
000000d0: 7531 0ebe c452 06b8 774f 81ba 610d 723e
000000e0: 2201 70bd 3eb6 0bbd 451e 1ebf 049b ba39
000000f0: 3e98 a9bd dfff 20ba 3e50 293b 0ba5 6ebd
00000100: eb3c edbc 278c b13c b618 32bd b6ad dabd
00000110: f3bb 73bf f367 cabc 49e8 30bd 6017 e0bc
00000120: e736 113c ea85 763e 7c27 00bf 7cf8 0cbd
00000130: 04b8 0c3e 5800 07bd cec8 0f3e 077c d0bc
00000140: 2d3d 5c3a 9b3b 49bd 7881 debc 557a 003c
00000150: 3a14 75be a14d 43bf 4503 57bd 42cd edbc
00000160: 9d12 88bc 9f7f 143d a00c 4dbd 5020 13bd
00000170: 6979 adbc ef6f 9ebd 55b7 8ebd ca0a bab9
00000180: f06d 853b d128 20be 87fa 573e 740c 59bc
00000190: fde2 efbd f777 903c 5dea d2b8 aa33 04bf
000001a0: d805 003d 40d5 9bbc ea32 a0bc b2f8 32bd
000001b0: 78c0 45bd ff65 51bd eede abbe 95e1 a3bc
000001c0: 7261 82bd 96f2 eb3e 465a bdbc bc04 55bd
000001d0: 1a77 2dbe ac0e 9a38 c258 15ba 85e1 7d3e
000001e0: fc24 d5bd e834 bcbc c266 09bf 2bb9 063b
000001f0: ce8d dabd b14e 0cbb 866a bf3b 5284 87bc
00000200: fdce 16bd a9a5 833c 7a6e 5abd 693a b4bd
00000210: 5649 79bf e267 bdbc 8c22 45bd 690c 39bc
00000220: b0ef fd3b a499 993e db6f febe f355 2bbd
00000230: 4da4 553e 6c92 66bd 1176 133e 8708 bdbc
00000240: ca67 593a 206c 49bd 3ab4 32bd 7d60 853b
00000250: 974e 6abe 5ea7 42bf 3409 75bd a3ed 93bc
00000260: abd0 c23b 83cf bf3c d59d 22bd 25fa 30bd
00000270: a1e0 b9bc 628c 94bd be4f fdbc ad98 1cba
00000280: 396e b13c 73aa a1bd 4ef8 5e3e c22b fabe
00000290: 5e18 a13c c001 a53c f8b8 6bbe 06a1 be3b
000002a0: 1804 e33c 4da5 81bc de62 d7bc 0271 2dbd
000002b0: d20a 10bf 6200 6abd 6cd7 3fbd 980f 21bd
000002c0: cb8b 7cbd 0257 d23e 460a 5cbd 4f7b 4cbd
000002d0: 8f94 1ebe 8692 0fba af83 55ba 3b0a 6c3e
000002e0: 8dfb a4bd de0d 1ebd 157d 1bbf 4b2d b4b7
000002f0: 8c64 81bd 69e3 253c 5dea 773b 968d eabc
00000300: 4904 c0bc 71bc bb3c d2b5 8bbd e8ac b0bd
00000310: c7dc 7abf 2f71 64bc 21f1 4abd 0c3e 76bc
00000320: b9c7 113c 74d4 753e 169b 02bf 4e64 22bd
00000330: 6a4d 893d a4fc 48bd f119 153e 5d24 03bf
00000340: 3630 dd3a a43d 37bd d28e c9bc 1518 013c
00000350: a856 7abe f904 46bf dfd5 46bd 5901 babc
00000360: f242 623c 3e3b 593d ca30 23bd ea7a c6bc
00000370: 5379 b1bc fba3 97bd 0353 2bbd c17a 4a3a
00000380: b5dd 423c 67fe 11be 0042 603e 03f6 d93b
00000390: 258d d73d 8bc1 8d3c 0b5f bfbd c280 54bd
000003a0: f476 ee3c a299 73bc e77b f7bc b68e 3cbd
000003b0: 0762 2cbd b47b 62bd b8b9 06bc 0d6c 9abc
000003c0: 8542 8fbd 3565 ec3e 38bf c8bc 71f4 36bd
000003d0: 39cd 2abe 0082 6439 3852 f3b9 a710 813e
000003e0: 462c e0bd cbf2 0ebd da8e 08bf 1191 ee3a
000003f0: 58e4 c2bd 9423 ec3b de7c be3b daa3 99bc
-0.02433817 0.019240342 -0.03491542 -0.058003716 -0.9536751 -0.03246438 -0.053424396 -0.027989171
0.008259606 0.30635926 -0.486485 -0.0603536 0.12721571 -0.055788834 0.14624272 -0.036672
0.001302396 -0.03396298 -0.05497145 0.0105919475 -0.23379079 -0.7766407 -0.0537557 -0.030813914
-0.13748948 0.044425037 -0.065566085 -0.053786468 -0.01804447 -0.06091125 -0.074033156 -3.3650715e-06
-0.0012101865 -0.050137002 0.22089605 -0.151888 0.087025784 0.019090334 0.022088401 -0.0132016335
0.01858149 -0.025094941 -0.06181982 -0.043884143 -0.004807151 -0.03453281 -0.07188937 -0.040475156
-0.055522207 0.4147699 -0.7137163 -0.035941284 -0.13886054 -3.202517e-05 -0.0009865601 0.23637916
-0.05859483 -0.034109347 -0.6176494 0.0003559218 -0.08280991 -0.00061416434 0.0025835182 -0.058262866
-0.028959712 0.021673275 -0.043480597 -0.10677664 -0.9520866 -0.02470777 -0.043190274 -0.027354896
0.008863187 0.24074522 -0.5006025 -0.03441666 0.13742071 -0.032959312 0.14041445 -0.025449766
0.000840145 -0.04912911 -0.027161345 0.007841666 -0.23933497 -0.7629033 -0.052493352 -0.029028539
-0.016610438 0.03625452 -0.05006087 -0.035919487 -0.021176057 -0.077361934 -0.069685616 -0.00035484723
0.0040719435 -0.1564057 0.21091662 -0.013247598 -0.117132165 0.017635329 -0.00010057234 -0.51641333
0.031255573 -0.019022584 -0.019555528 -0.043694206 -0.048279256 -0.05112266 -0.3356852 -0.020005027
-0.063662425 0.46083516 -0.023114335 -0.05200647 -0.16939965 7.346025e-05 -0.0005697125 0.2479306
-0.10407445 -0.022974446 -0.5367242 0.0020557146 -0.10671578 -0.0021409208 0.005841556 -0.016542587
-0.036818493 0.016070204 -0.053328015 -0.08800203 -0.97377527 -0.023120824 -0.04812865 -0.011294463
0.0077495202 0.3000003 -0.49694714 -0.041830014 0.20863457 -0.056291983 0.14400508 -0.023075355
0.0008293359 -0.04917538 -0.04362891 0.00407034 -0.22881542 -0.7603663 -0.05982323 -0.01805765
0.0059452853 0.023414379 -0.0397013 -0.043207306 -0.02269012 -0.072533384 -0.030921813 -0.0005973678
0.021659004 -0.07893839 0.21774408 -0.4886151 0.01966494 0.020142436 -0.23019779 0.0058175353
0.027711913 -0.015825892 -0.02629226 -0.0423441 -0.5626651 -0.05712927 -0.0468363 -0.039321512
-0.061656754 0.41082007 -0.053720735 -0.049922284 -0.15486358 -0.0005476851 -0.00081449276 0.23050778
-0.08055792 -0.038587444 -0.60737735 -2.1478763e-05 -0.06318006 0.01012502 0.00378289 -0.028631967
-0.023439543 0.022917004 -0.06821789 -0.08626729 -0.9799313 -0.013943001 -0.049546365 -0.015029442
0.008897715 0.24006826 -0.5101789 -0.03964644 0.06704219 -0.049069062 0.14560677 -0.5122736
0.001687533 -0.04473652 -0.024604235 0.007879277 -0.24447119 -0.7735134 -0.048543807 -0.02270572
0.013809906 0.053035013 -0.03984145 -0.024228532 -0.021664297 -0.07404324 -0.041827213 0.000772398
0.011893679 -0.14257203 0.21900177 0.0066516413 0.10524968 0.017304203 -0.093443 -0.051880606
0.029109456 -0.014868172 -0.030210448 -0.046034537 -0.042085674 -0.055293754 -0.00822299 -0.01885035
-0.069951095 0.46170965 -0.024505243 -0.04466671 -0.16679849 0.00021792203 -0.0004640983 0.25208017
-0.109459445 -0.034899514 -0.53342974 0.0018201192 -0.09516209 0.0072063897 0.005813225 -0.018754888

layer3.bias f4 [6]
00000000: 6f50 77bd 23ce 46bd 56f0 45bd 4fd9 29bd
00000010: 6df9 0fbd 2db9 92bc
-0.06037944 -0.04853643 -0.048324905 -0.041467007 -0.03514998 -0.017910564
