drl_deep_project/scripts/our_agent/models/dqn_a_20250117_175333.pt (torch, 29396 bytes, 6 tensors)

layer1.weight f4 [64, 32]
00000000: ff4c ffbd 74bd 2a3d 00df 743e f6c8 07be
00000010: 3889 813c d4be 0ebe 101f 273d 2c95 923c
00000020: 2361 08be e7f2 3abd 4c0e c73e b02e 1e3e
00000030: e555 413f 705e b3bd 1c00 0f3e 71e8 cc3d
00000040: d07f 8f3e e7b4 8c3d d121 df3d 046c d1bd
00000050: 077c 333f 19a1 403d 849f 003e 3d88 0dbe
00000060: 4053 6c3a bca5 d2be 1db9 363e 6d9b e33c
00000070: 354c 37be 9126 6d3d 8699 aabe 2d17 273e
00000080: 89f0 17bd 2701 223d 9c40 bbbd 6712 bbbd
00000090: 16af ea3c 2d51 49bd 4398 17be 421c 9a3d
000000a0: 99b6 6dbd a1b1 f43c 94c7 ef3c 2111 91bc
000000b0: 3af7 213c a527 283d e4ad 4bbe cf4a b03d
000000c0: 08e3 fc3d 313e 7c3d d4b1 94be 2bca bd3d
000000d0: ec38 f2bd 27d5 2c3e 99b2 59be 85a0 afbc
000000e0: 9657 aebc 6dc3 89bf 8899 823e 197f b7bc
000000f0: 470a 95bd 851f 3e3e 3fb6 b1be 6e56 9cbd
00000100: 6a82 983d a07f 1bbe d560 78bd c442 7b3d
00000110: cc47 c53a 0186 4d3e a433 f63d 1ad3 823d
00000120: 407a fb3e c9b4 d6bc 5626 8e3d 8c31 c03c
00000130: b5c6 af3d 01b1 23bc ab57 3f3e 07ba 033d
00000140: bd23 013f 44dc bbbc e59e 89bd 44e9 bbbc
00000150: f11d a83e 5dd1 0ebe 46c9 443d 54a2 57bc
00000160: 8a07 cfbd 9d5d 163e dd1b 85bc 15c4 02bd
00000170: 3c95 2a3b 4e8c 613d 1f29 343e f138 b63d
00000180: 3f48 af3c 0731 073e 96c3 7d3e c7b8 92be
00000190: c5bf a43e a97c 80bd 838a f1b9 aaec 01bd
000001a0: b0ba 85be 2499 b9bb 0b11 963e f593 043e
000001b0: 7586 7cbe bf28 843c 974a 693e 6aa8 16bd
000001c0: d2cd 643e a7c0 a3bc b030 7dbc be09 95bd
000001d0: 85a7 24be 8ca9 143c 3e23 b93e 97e5 a8bc
000001e0: e315 64bd b895 fbbd 9424 21bd ca8e 1f3e
000001f0: 1c9a 7fbc 7bc2 053a 3cd7 9c3e 58d3 143d
00000200: 664e 0cbe 53fe 293e 47f2 bbbc e88d 4bbe
00000210: 22c5 2b3d 6f17 3d3e fe95 50be ccf7 dc3c
00000220: 2f8a 263e adb9 1b3c 3f04 7abe 4c33 fe3c
00000230: e3a5 81bd c220 a3bb ecb3 90be 0f74 3d3e
00000240: 4e1c 713e 0e96 b4bc dcda 1dbe 919d 90bc
00000250: 95fa 05bd 5016 3bbe 21d7 863d 786a 253d
00000260: 7ffb 79bd 1c6d 383d 6e38 a0bd a969 21bd
00000270: e8b5 f8bd ed1c 4e3d 4a68 d2be 823c efbc
00000280: 58de a13d f65a 963c d773 223e 7f01 7fbd
00000290: 505b f13d c88f 7dbe 3719 853d 5384 55be
000002a0: 2be0 a9ba a88c 293d 09c9 fd3d 0011 f13d
000002b0: a5e6 163e f76b 303e 57be c13d 8316 093d
000002c0: ed4a a4bd 679a a0bd 60e2 f03d 5f97 cb3c
000002d0: b91e 873d 761d 7fbd 086a 6a3e d12f 60bd
000002e0: 4c4e 463d da53 32bd 9aef 6d3c 7462 febd
000002f0: 6ce2 183b 7091 b43d 23f2 51bd 5ab7 243d
00000300: 4943 1d3d 9df8 c53d fd85 d13d 9079 b6bd
00000310: 0838 2d3e c828 7e3d 3b97 223e 7c87 42bd
00000320: d0ca a0be 8fad 403e a196 be3d bc71 4b3d
00000330: 6394 c3be ad71 85bd 66fd 463d d0d9 e8bd
00000340: 1a2a afbe c480 e4bc 0b93 febc 4e4c cf3d
00000350: a1f0 d2be 2f1d 013e fcb9 a33d ed24 413d
00000360: 675e 933d 6919 96bd 5081 a43d 7b7b e03d
00000370: 3878 b8bd b0e2 573e 562e 943c 78ae d53d
00000380: 35c0 85bc b526 d13d 0e18 313e c3f1 cdbc
00000390: 0ab8 d83d 4c9b 053e 18fb 91bd 5867 ac3b
000003a0: 6e00 113f 43e2 d13d 4aa7 9dbe 3afa e4bd
000003b0: 619e fcbe ecc1 f7bd 2375 4f3e 6fa5 bf3d
000003c0: 33a8 e23e ebfa 5fbd 99ef 1f3e d141 e9bd
000003d0: 5231 ec3e 9364 eabd c8a8 2f3c 1956 13be
000003e0: 6c49 42be 3d99 97bd 7781 83bc cb7d 823d
000003f0: 3472 45be 8ed4 90bd c847 38be e161 8f3c
-0.12465858 0.041684583 0.23913193 -0.13260254 0.015812501 -0.13939983 0.040801108 0.017893396
-0.13318305 -0.045641806 0.38878095 0.15447497 0.7552169 -0.08758247 0.13964885 0.10005272
0.280272 0.06870442 0.10895122 -0.102256805 0.70111126 0.047028635 0.1256085 -0.13821502
0.0009015091 -0.4114207 0.17844053 0.027784074 -0.17900164 0.057898108 -0.33320254 0.16317435
-0.037094627 0.03955188 -0.09143183 -0.09134369 0.02864794 -0.04914968 -0.14804177 0.07524921
-0.058035467 0.029869856 0.029269971 -0.017708363 0.009885604 0.041053433 -0.19890553 0.086080186
0.1234799 0.061582748 -0.29041922 0.09267076 -0.11827263 0.16878186 -0.21259536 -0.021438846
-0.021281999 -1.0762764 0.2550776 -0.022399472 -0.07277351 0.18566711 -0.34709355 -0.07633673
0.074467495 -0.15185404 -0.06063922 0.06134297 0.0015051304 0.2007065 0.120215684 0.06387921
0.49116707 -0.026209252 0.06940906 0.023461126 0.08582822 -0.0099909315 0.18685786 0.03215983
0.5044516 -0.02293218 -0.0671976 -0.022938378 0.32835343 -0.13947053 0.04804351 -0.013161261
-0.1010886 0.14684148 -0.016248638 -0.03192528 0.0026028892 0.055065446 0.17593811 0.088975795
0.021396754 0.13202296 0.24781641 -0.286566 0.3217756 -0.06273777 -0.000460703 -0.03171984
-0.26118994 -0.0056640077 0.29309878 0.12947066 -0.24660666 0.01613271 0.2278236 -0.036781706
0.22344139 -0.019989325 -0.015453503 -0.07277249 -0.16079529 0.009073626 0.361597 -0.02061729
-0.055684935 -0.12284416 -0.039341524 0.15581813 -0.015600707 0.0005102527 0.3063296 0.036334366
-0.13701782 0.16600923 -0.022942675 -0.19878352 0.041936047 0.1846597 -0.20369717 0.026973628
0.1626365 0.009504718 -0.24415682 0.03103032 -0.063304685 -0.0049782703 -0.2826227 0.18501304
0.23545954 -0.022044208 -0.1541552 -0.017653259 -0.032709677 -0.1827023 0.06584001 0.04038474
-0.06103086 0.04502593 -0.07823263 -0.039407406 -0.12144071 0.050320555 -0.4109519 -0.029203657
0.07903737 0.01835392 0.15864502 -0.062257286 0.117849946 -0.2476188 0.0649895 -0.20851259
-0.0012960484 0.041393906 0.1239186 0.117708206 0.14736421 0.17228685 0.094601326 0.033468734
-0.080221035 -0.0784195 0.117619276 0.024852453 0.06597657 -0.062283956 0.2289201 -0.0547331
0.048414513 -0.043537 0.0145224575 -0.12421122 0.0023328317 0.088168025 -0.05125631 0.04021392
0.038394246 0.0966656 0.10230634 -0.08909905 0.16915905 0.06205061 0.15878002 -0.04749249
-0.31404734 0.18816207 0.09306074 0.049669012 -0.38199148 -0.065158226 0.048581503 -0.113696694
-0.34211808 -0.027893431 -0.031075975 0.10121976 -0.4119921 0.12608789 0.07994458 0.047154356
0.0719574 -0.07329065 0.08032477 0.10961052 -0.09007305 0.21082568 0.018088501 0.10433668
-0.016327003 0.10212461 0.17294332 -0.025139695 0.10581978 0.13047522 -0.071279705 0.005261343
0.5664128 0.10248234 -0.30791694 -0.111805394 -0.49339584 -0.120975345 0.20259528 0.09357726
0.4426895 -0.054682653 0.15618743 -0.113895066 0.46131378 -0.11444964 0.010721393 -0.14388312
-0.1897332 -0.07402275 -0.016052945 0.06371649 -0.19281846 -0.070717916 -0.17996132 0.017502727

layer1.bias f4 [64]
00000000: 99a2 a13d 3df3 4a3e bf14 aebc 594e dd3d
00000010: 3467 553d 7489 eb3d 1fff 4a3e 1e1d 71bd
00000020: 83eb 7dbd 8fbd b1bd 767e 52be 417f 053d
00000030: e396 b43d 43d5 8bbd b974 923c 40b4 453e
00000040: dbac 463e d3fb a63d 905c 4f3e b00a 1e3d
00000050: 7f8b f13d c25c d13d b3e2 453e bafc 08be
00000060: 0f92 a13b f26e d0bd aa07 903d c48d ef3b
00000070: ceb2 083e 998b bbbd c005 0bbd 84fa 61be
00000080: f3be dc3d 731a b73c 48d4 77be ee09 24bd
00000090: 2639 713d ee54 1abc 5605 4d3d 9fca abbd
000000a0: c4eb 103e 64b0 69bc 29ad 103d 2e19 063e
000000b0: c24d e53d 994f 663c e944 a23b 9dc2 c83d
000000c0: 6314 f43c d61d e03d b54f 983d 56f6 123e
000000d0: d416 503d 0da3 68bc ca6c 223e 83e6 25bd
000000e0: a858 573e d390 063e 417b f93d af88 5fbd
000000f0: 44a5 4cbe e3de d53c ef92 973d fb52 0bbc
0.07892341 0.1981935 -0.021250127 0.10805959 0.052100375 0.115008265 0.19823883 -0.05886566
-0.06199218 -0.086787336 -0.20556054 0.032592062 0.08817842 -0.06827786 0.017877923 0.19307041
0.19401877 0.081535004 0.20250154 0.03858441 0.11794185 0.1022277 0.1932476 -0.13377658
0.0049307416 -0.10177411 0.07032712 0.007310601 0.13349459 -0.091574855 -0.03394103 -0.2206822
0.10778608 0.02235148 -0.24202073 -0.040048532 0.05889239 -0.009419663 0.050053917 -0.08388256
0.14152437 -0.014263246 0.03532139 0.13095543 0.11196472 0.0140570635 0.0049520624 0.098027445
0.029794877 0.10943191 0.07437078 0.14351782 0.05080302 -0.014199031 0.15861812 -0.040503036
0.21029913 0.13141184 0.12181712 -0.05457371 -0.19984919 0.026107257 0.07401072 -0.008503671

layer2.weight f4 [64, 64]
00000000: e222 e33d b9e4 82be 354c 31bd 8ab0 113e
00000010: 479f e23b 0bcb 8ebc cec7 40bc 7f41 6f3d
00000020: eea5 403e a1f2 ea3d 5be1 a83e 4ccd 2aba
00000030: 9486 603d 218e 9fbd c8e1 e53d 7367 dfbc
00000040: 7b5a 13be e64e 943c 4e35 4a3c eb36 c53d
00000050: 3b09 b13d 3b79 07be 4253 113b eac5 663e
00000060: 284e 34be d2dc ad3d 7cb3 943d 190d 1b3d
00000070: 9b9b 193e 4dd8 4b3e 60b8 043e 23e2 3d3e
00000080: a941 bf3d ec15 13be 9001 8f3e 0575 db3c
00000090: 08f9 21bd c6a6 a9be 9e07 383e 81eb bf3d
000000a0: 8427 083d 1ce0 fe3d 81e5 033f b4ee 07bf
000000b0: 24cb 8abd 4549 daba 4456 df3c 0c6e 91be
000000c0: 15d4 963e 4828 0abe 6a3d 8e3d ce62 fb3d
000000d0: 77dd 433e 6028 f7bb f58c d2bd aef9 8a3c
000000e0: a4c6 69bc a6cc 29bc 9bc8 753d cdad 6e3e
000000f0: 5e0d 963e c745 44be 0050 76bd 89f1 113e
00000100: e1b9 e83d 129e 3a3d 0fef 8a3d ba34 fa3c
00000110: 9d29 cabd 2cc1 d83c 706b 0a3e b0d7 0d3e
00000120: 9cd7 253e 2404 a5bd 356b 6fbd ccb3 76bd
00000130: cf53 1a3e 8126 9abc 7cef 9e3d fbf3 983d
00000140: b8c4 893d 43d1 fe3d 9998 c5bc 6bc0 86bd
00000150: eff5 0bbc 6e3b eb3c c9bd 3d3d 7624 7c3c
00000160: b6ff 8a3d 4427 5038 f882 393e 5d02 053e
00000170: fc68 cb3d 5a5d 4b3b c033 28be 2a7a a0bd
00000180: 43a4 80bd b82d 7f3c fe7a 2dbe 10e4 b1bd
00000190: 77fa 26bd 105f 88bc 4f00 0b3e ad79 3cbe
000001a0: 9e11 ea3c c1a2 1ebe f67c 713c a26a 84bc
000001b0: b9f2 91bd 6ed3 ea3c bef1 30bd 0e7c f13d
000001c0: 608b ebbd 2076 1d3e c928 233e 143a 53be
000001d0: 3e41 66bd 8d33 b23d a658 31be 48a5 c5bd
000001e0: f490 323c 9146 773e 7199 8c3e 6943 30be
000001f0: 96af 073e e39c 203b c7d6 05be fed3 0cbd
00000200: cf25 583b 520f 4d3d 5dce 863d b010 0f3e
00000210: 5293 9cbd a632 2bbd db52 c3bc 78fb e5bd
00000220: 1010 203c b1a0 8b3d 4fdb cebe ab4a 2a3e
00000230: 90c1 283e a518 2a3e 2ae4 dc3c f518 013e
00000240: 510c f03d bbeb 033d 07fc 5d3d 5014 683c
00000250: f15b 62bd 2ece 1a3d ecb7 e23d 8373 dabd
00000260: 1535 f13d a10f 39be 5d97 8a3e c318 963b
00000270: 43e2 c33c 971d 90bc 3b8a 0d3d 109c 67be
00000280: a080 7ebc 7ee3 553d 4544 22be f2c4 7f3b
00000290: 02ea 023e e2a5 dd3e e20c 63bd 2430 363d
000002a0: e047 213d b515 403e be96 f33d 73de 22be
000002b0: 3bb4 ba3d 87ac 33bc 9e90 79be fe0a 2f3e
000002c0: 0510 013e f6e5 7e3e a878 7c3e a199 7e3d
000002d0: 45ea 8d3c 0156 b53c f07f 6a3d 7410 b03d
000002e0: 2145 96bb 63b5 bf3d d430 c93c a93e dcbb
000002f0: a581 45be 225e 913e 1c8c 073e 90ab f9bc
00000300: 1193 9d3d ee94 b3bd 3080 5a3e 503c 32be
00000310: e61b bd3d be0d 55be 8a00 c1be f34a ed3e
00000320: 5a93 933e 2bfd 78bd 2ec0 873f e9ec c0bc
00000330: 797d 9f3d a6c5 01bf a7a4 4ebe 5ef8 62be
00000340: dc90 f9be 3ab0 19bf f160 dfbd f57c abbd
00000350: 05d7 f23c 3446 e6bd 4c7d 73be e212 223e
00000360: 2bfb a2bd 1ec7 db3e 7ce4 19bd 8c6a 1dbe
00000370: ef76 21bd 3ef9 b63d b8c9 843e aa27 2a3f
00000380: 5615 a23e a4bd 14be 02a6 843f 8044 99bd
00000390: 90f7 88bd cbaa ecbe 9446 043c 25c7 3f3d
000003a0: 72ab 453d 087b c1bd 630b b6bc bcde 1c3e
000003b0: e383 8dbe 63d4 583e f607 0c3f bc25 2ebf
000003c0: 207b 753d 378d 13be 28fe b23d 5216 4dbd
000003d0: 8a75 30be e7b0 d33e e63c 14bf a8bd 59be
000003e0: e5ab 10be d6e3 c0bd 86fd 6bbe 6654 dabc
000003f0: 42b2 243f 5700 113e 9acf 8c3d 12e1 b43e
0.11090638 -0.25565127 -0.043285567 0.142275 0.00691596 -0.017430803 -0.011766387 0.05841207
0.18813297 0.11472059 0.32984433 -0.0006515577 0.054815844 -0.07790781 0.11224705 -0.027271008
-0.14389984 0.018104028 0.01234181 0.096296154 0.08644339 -0.1322984 0.002217487 0.22536436
-0.17607939 0.08489384 0.072607964 0.037854288 0.15000765 0.19906731 0.12960958 0.18543296
0.093386956 -0.14363831 0.2793088 0.026789198 -0.039544135 -0.3313505 0.17971656 0.09371091
0.03324081 0.12445089 0.5152207 -0.5309861 -0.06777027 -0.0016653916 0.027262814 -0.28404272
0.2945868 -0.13491929 0.069453076 0.12274705 0.19127451 -0.007542655 -0.10280792 0.01696476
-0.014268551 -0.010363733 0.060005765 0.23308487 0.29307073 -0.19167243 -0.060134888 0.14252295
0.113635786 0.045560904 0.06783878 0.03054272 -0.09871218 0.026459299 0.13517547 0.1385181
0.1619553 -0.080574304 -0.05845185 -0.06023006 0.15071033 -0.018817188 0.07760522 0.074684106
0.06726974 0.12442257 -0.024120616 -0.065796696 -0.008542522 0.028714862 0.04632357 0.015389552
0.06787054 4.9627633e-05 0.18116367 0.12989183 0.099321336 0.0031030984 -0.16425991 -0.07835801
-0.062813304 0.015574865 -0.16941449 -0.086860776 -0.040766206 -0.016646892 0.13574336 -0.1840579
0.028572854 -0.15491773 0.014739266 -0.016164128 -0.07126374 0.02866527 -0.043199293 0.1179124
-0.11501193 0.15377092 0.15933527 -0.20627624 -0.056214564 0.08701239 -0.17318973 -0.096506655
0.010898817 0.24148013 0.27460817 -0.17213215 0.13250574 0.0024507574 -0.13070212 -0.03438186
0.003298152 0.05006344 0.065823294 0.1397121 -0.076452866 -0.04179635 -0.02384322 -0.112296045
0.009769455 0.06817759 -0.40401694 0.16630046 0.16480088 0.16610964 0.026964266 0.12607177
0.11721099 0.032207232 0.05419543 0.014164999 -0.055263463 0.037794285 0.110702366 -0.10666563
0.11777703 -0.18072368 0.27068606 0.0045805885 0.023911601 -0.017592235 0.034555655 -0.22618127
-0.015533596 0.052218907 -0.15846355 0.00390273 0.1278458 0.4329062 -0.055432208 0.044479504
0.039375186 0.1875828 0.11893986 -0.1590517 0.091164075 -0.010966427 -0.24371573 0.17094037
0.12603767 0.2489241 0.24655402 0.06215823 0.017323622 0.022135736 0.057250917 0.08596888
-0.0045858775 0.09360769 0.024559416 -0.006721337 -0.19287737 0.2839213 0.13237041 -0.030477315
0.07694066 -0.087686405 0.21337962 -0.1740582 0.09233837 -0.20806023 -0.37695724 0.46346244
0.28823358 -0.060788315 1.0605524 -0.023550468 0.07787604 -0.5069221 -0.20179997 -0.22165057
-0.4874333 -0.60034525 -0.10907162 -0.08373443 0.029643545 -0.11243859 -0.23778266 0.15827516
-0.07958063 0.42925352 -0.037571415 -0.15372676 -0.039420065 0.08934258 0.2593515 0.6646677
0.31656903 -0.14525467 1.0363162 -0.074837685 -0.06687844 -0.46224055 0.008073468 0.04682078
0.048259206 -0.094472945 -0.022222226 0.15319341 -0.27639684 0.21174769 0.5469965 -0.6802633
0.059931874 -0.14409338 0.08739883 -0.050070114 -0.17232338 0.41345903 -0.57905424 -0.21263754
-0.14128073 -0.09418456 -0.2304593 -0.026651572 0.643345 0.14160286 0.06875534 0.35327965

layer2.bias f4 [64]
00000000: 53c7 683d 4cf6 adbc da63 d83c ee3d 65be
00000010: f621 b23d ba43 ab3d e5ae 8abd 169f a93d
00000020: b6fa 7b3d 8bd7 f5bd 3afa 353d 132f 8d3d
00000030: fb51 033d 37eb 31bd 14d2 e63d 7533 fa3d
00000040: cb99 033d 2cd9 51bd 24b3 d43d d946 9fbd
00000050: 071c fb3d c43a da3b ac62 083e 1ad6 313e
00000060: 8b5f fb3d ceeb 87bc 7134 123d a14d bc3d
00000070: a106 a63c bc0f a13d 7e89 873d bbfd a13d
00000080: d604 4cbd e045 8a3b fbbf 4cbb fcbf 82bc
00000090: 846f 2dbe af8c b0bc 76c5 0abd 2517 10bd
000000a0: 96b1 cbbb 26de a7bd 84d2 b1bd 1c09 9ebd
000000b0: ec0e bf3d 6156 313d 59b7 563c 5ae4 f23d
000000c0: 25b7 f73c 28d3 193d 5203 71bd 6f9c ae3d
000000d0: a698 1e3d 0b21 27ba a4d8 233c 4c04 b13d
000000e0: 8aed 5ebd 6e9e ce3a 68f4 913d 2c49 6a3d
000000f0: f359 b1bc 6906 903d 5d18 c53b 535d efbd
0.056830715 -0.021235608 0.0264148 -0.22386906 0.08697884 0.08362527 -0.0677164 0.08282296
0.061518393 -0.12004002 0.044428088 0.06893744 0.032060605 -0.04343721 0.11270538 0.12216846
0.03212909 -0.051232502 0.10385731 -0.07777185 0.12261205 0.0066598374 0.1331889 0.1736683
0.12274083 -0.016591933 0.035694543 0.09194494 0.020266833 0.07864329 0.066180214 0.07909723
-0.0498093 0.0042197555 -0.003124236 -0.015960686 -0.16937071 -0.021551458 -0.03387972 -0.035178322
-0.0062162383 -0.08196668 -0.08682731 -0.07716581 0.09329018 0.043295268 0.013105237 0.11859961
0.030238697 0.03755489 -0.058841057 0.08525931 0.038719796 -0.0006375468 0.010000382 0.08643398
-0.054425754 0.0015763768 0.07126695 0.05719869 -0.021649336 0.07032473 0.006014867 -0.11687722

layer3.weight f4 [6, 64]
00000000: aec1 f43d 8217 913d a579 0abe 85f6 6f3f
00000010: a60a 0fbe a292 cdbc db74 a93e c3af c93d
00000020: 1fb4 18be 01b0 2dbd 08f8 10bc 98d6 cabd
00000030: fb97 763e 5b0d cabe 9558 fcbd 23c4 ad3e
00000040: ff7b b2bd 92cf 22be a416 853d f393 093f
00000050: af72 8e3d 5140 56be 3c01 a2bd e2d6 833d
00000060: 3712 85be 2bc9 37be 8d8c 8bbd 66c6 95be
00000070: b42b 0dbe f92b ecbd e2fc 6a3e 8187 d33d
00000080: 7243 ec3d aa64 053e 0548 773c 5d14 143f
00000090: 837a 14bd 8585 44bd 6557 ddbb ccec 093e
000000a0: a36a 953e f704 53be 23a0 fb3e bd65 c43c
000000b0: e29f 13be 6314 2a3e cc36 563b 27b8 04be
000000c0: f165 06be 1468 91be c8bc 25be ce84 0ebe
000000d0: 5a32 87bd d5e1 02be 743f a63d a437 213e
000000e0: 2e5c 61bb 5dd5 a4be 6204 84be 8292 87be
000000f0: a18e 43be c044 bc3d fe15 af3e b082 2f3d
00000100: cffa 4f3e bf6e 9b3e 17fa efbd bc9d 5d3f
00000110: 044b 61bc 29ae eabd 5892 1a3e 39a1 55be
00000120: 088f 22be 9c8e 083f ed58 d2be f982 92bd
00000130: b82e 56be 09fc 02be f16d f0bc 2a44 373e
00000140: b5c6 20be 34f6 15be 0094 1e3f 350c 0a3f
00000150: ca91 7a3c fb78 b13c 89ae 1cbe 12f2 52be
00000160: e07e 1fbe e596 b5be 12db 3ebe a369 06be
00000170: 1a99 74be 036c 373e d242 a9bd 335a 17be
00000180: 5926 98bc 472d 9dbd 30e9 433d 7a7b 1ebe
00000190: 49d1 e4bd c3ca 4dbe 654a 01bd 48bd d13e
000001a0: 7aa0 41bd 941a c13e 201b f9bd 6d37 2c3f
000001b0: 1b52 b53c f3a2 5b3e 88a8 2a3d f2f9 eabd
000001c0: ce8c a1bd fcd1 4d3e 5218 88be 05dd 423e
000001d0: b645 20bd 1f74 cabc a8b6 d3be 4886 babc
000001e0: ad71 db3c cf4b c93e af34 2d3e 5211 e13d
000001f0: 7787 81be d5b5 d93e 33f3 153d e87b d93e
00000200: ba83 d23d b655 dcbd bd29 ddbd 6e34 843f
00000210: d978 72be fe52 3bbe d710 acbc 53e1 13be
00000220: 82e2 f7bd f091 8bbd a14d ebbd b104 1fbe
00000230: 5f8c 0bbe 7102 a6be 5967 90bd c806 213f
00000240: 596f a8bd e3ea 043e fc54 46bc bc61 1b3f
00000250: 5825 93ba 3c9b 48be fb10 07bd fc3e f0bd
00000260: 89bc 013e 52e7 c63d d590 d5bd 01d8 efbd
00000270: cc06 0dbe 1162 7fbe 0f5e 823e 47ef b4bc
00000280: 11b4 14bd 5715 15be 15c4 a1bd 09de 26bf
00000290: c110 783f 709a e03c e231 ffbd a226 563e
000002a0: eb7d 7d3e 378e e63e 854d 5cbe 8d79 01bf
000002b0: e192 89be 4b46 923e 5985 04be 0bc1 14be
000002c0: c7bd d7bd 6cfa 8dbe c51d 11bc 42f4 4f3e
000002d0: b323 8bbe cb60 08be 0055 833e f654 363d
000002e0: 5ddf 48bd 2398 143e 0eab 24bc cf6a 113d
000002f0: 87c9 033f 7a89 ce3e 3cc0 743d 9a45 293b
00000300: ecd6 653e 57eb 6fbe 8581 b2bd 002d 2bbe
00000310: f41f 463c 87c3 6d3d 490a 873e 384f 43be
00000320: 87ad 7dbc bffb 023f 47fc 5a3e c4e6 b2bd
00000330: 9757 70bd 1026 5d3e 1f79 1fbe 83c8 223f
00000340: d334 cebd 40ce 5cbe 8f9f 1fbe 77d3 133f
00000350: 839f 9d3d 9c94 273e 2191 cb3d 3270 3fbe
00000360: 7c78 c7bd a724 693d a423 16bd 1a61 98be
00000370: aa8b e6bd eea5 18be dc55 f33d 0929 15be
00000380: 1e3c 533f a703 23be 72b2 173d 464d c23d
00000390: bf83 c43e a41a 28be f78a 47bb 02ce 1f3e
000003a0: 8a99 283e c5f0 3bbe 9785 c2be 3f32 093f
000003b0: 902e 24bd a99f 2bbe e6d1 d6bd c736 23be
000003c0: 68d4 4dbe 1da3 7ebe 1515 603d 1d12 653b
000003d0: 677e e8bd 5d73 2cbe 9bc8 b23d d2f9 17be
000003e0: 6b9f 44bb 010c f6be ff28 f43c f72c 923d
000003f0: d981 303c 5325 97bd 3aa1 d13e e76a 3ebe
0.11951004 0.07084562 -0.13522966 0.93735534 -0.13968906 -0.025094334 0.33096966 0.09847977
-0.1491246 -0.04240418 -0.008848198 -0.09904212 0.24081413 -0.39463314 -0.12321583 0.33938703
-0.08715057 -0.15899494 0.06498459 0.5374138 0.06955468 -0.20922972 -0.07910392 0.0643747
-0.2599046 -0.17947833 -0.06813917 -0.29252928 -0.13786203 -0.115318246 0.2294803 0.1032858
0.11536302 0.13026682 0.015092854 0.5784357 -0.03624965 -0.047978897 -0.006754803 0.13469237
0.2918292 -0.20607363 0.49145612 0.023974294 -0.14416459 0.1660934 0.003268647 -0.12960874
-0.13124825 -0.28399718 -0.16185296 -0.13917848 -0.06601401 -0.1278146 0.081175715 0.15743881
-0.0034387219 -0.32194033 -0.25784594 -0.26478964 -0.19097377 0.091928005 0.34196466 0.042849243
0.2031052 0.3035793 -0.11717623 0.8656881 -0.013750795 -0.11459 0.15094888 -0.20862283
-0.15874875 0.53342605 -0.4108347 -0.07153887 -0.2091626 -0.12791456 -0.0293493 0.17897096
-0.157008 -0.146447 0.6194458 0.53924876 0.015293548 0.021664133 -0.15300955 -0.20600155
-0.15575743 -0.35466686 -0.18638256 -0.13126235 -0.23886529 0.17912297 -0.08264698 -0.14780502
-0.018572973 -0.076746516 0.047829807 -0.1547679 -0.111727305 -0.20096879 -0.03156509 0.40964723
-0.047272183 0.3771559 -0.12163377 0.67272073 0.022133878 0.21448879 0.04166463 -0.114734545
-0.078881845 0.20099634 -0.26581055 0.19029625 -0.03912898 -0.024713574 -0.41350293 -0.022769108
0.026787603 0.3931565 0.16914628 0.10989632 -0.25298664 0.4252154 0.036608886 0.42477345
0.10279031 -0.107585356 -0.107989766 1.03285 -0.23678912 -0.18293378 -0.021004124 -0.14441423
-0.1210375 -0.06814945 -0.11489416 -0.15529133 -0.13627766 -0.32423738 -0.07050962 0.6290097
-0.08224363 0.12980227 -0.012105223 0.60696006 -0.0011226339 -0.19590467 -0.03297518 -0.11730763
0.12669577 0.097120896 -0.10428015 -0.11711121 -0.13772124 -0.24939753 0.25462386 -0.022086753
-0.036304537 -0.14558922 -0.07898728 -0.6518255 0.96900564 0.027417392 -0.12460686 0.20913175
0.24755065 0.45030376 -0.21513946 -0.50576097 -0.26869872 0.28569254 -0.12941493 -0.14526765
-0.10534244 -0.2773012 -0.008857195 0.2030802 -0.27175674 -0.13318174 0.25650787 0.04451462
-0.04904114 0.1451116 -0.010050548 0.03550225 0.5147938 0.4033926 0.05975364 0.002582884
0.22445267 -0.23429619 -0.0871611 -0.16716385 0.012092579 0.058047798 0.26375034 -0.19073188
-0.015483267 0.51165384 0.21385299 -0.08735421 -0.058677282 0.21596551 -0.15573548 0.63587207
-0.10068669 -0.21563053 -0.1558821 0.57744545 0.0769644 0.16365284 0.099397905 -0.18695143
-0.097397774 0.05691972 -0.036655083 -0.29761583 -0.112571076 -0.14907047 0.11881611 -0.14566435
0.82513607 -0.15919362 0.037035413 0.09487395 0.38381764 -0.16416413 -0.003044782 0.1560593
0.1646482 -0.18353565 -0.37992546 0.53592294 -0.040083468 -0.16760124 -0.10489254 -0.15938865
-0.20100558 -0.2486691 0.054707605 0.0034953423 -0.11352234 -0.16840883 0.08729669 -0.14841393
-0.0030002247 -0.48056033 0.029804705 0.071374826 0.010773146 -0.07380166 0.4094332 -0.18595468

layer3.bias f4 [6]
00000000: 47f0 4abd f54f 3a3d 15b6 b5bc d38c 80bd
00000010: 9fae 423d a537 933c
-0.049545553 0.04548641 -0.02218155 -0.0627686 0.047529813 0.01797087
