drl_deep_project/scripts/our_agent/models/dqn_20250120_120308.pt (torch, 78784 bytes, 6 tensors)

layer1.weight f4 [128, 80]
0.09819022 0.012056861 -0.046482705 0.036997057 -0.0614866 0.00929941 -0.08495981 -0.05262139
0.071408145 -0.04731432 0.12514144 0.07028962 0.011590904 0.15102993 0.04319619 -0.0062114582
-0.4449235 -0.02373713 0.026544726 0.03973986 0.09111624 0.044010047 0.03948336 -0.44595715
0.09147839 -0.14663652 -0.23589967 0.0037883036 0.017349713 -0.022561809 0.10459891 0.075747535
-0.0038135715 -0.18934056 -0.03268595 -0.083140284 0.111300774 0.05292749 -0.2139214 0.07560937
0.033808023 0.1097336 0.030737588 -0.5477681 0.09124502 -0.041700613 -0.1247936 -0.21782866
-0.114650324 -0.025730763 0.07076638 0.044047177 0.013331402 -0.094246395 -0.021477278 -0.017275816
0.11296108 -0.0051359744 -0.05525942 -0.01164632 0.08352653 -0.0215661 0.046345804 0.040363178
-0.087517545 -0.1481758 0.4683387 -0.002337111 0.0013223595 -0.030340305 -0.09942751 0.068394005
0.24220258 -0.023690311 -0.07566174 0.06272736 0.13238326 0.011169042 0.17514142 -0.09974287
-0.029651497 0.049093246 0.12786356 0.05201137 0.037168477 0.0037629206 -0.049125027 0.099929824
0.04004744 -0.0054080854 -0.17457597 0.044796985 -0.011540029 -0.22833495 0.013515828 -0.29115853
-0.36684918 0.14239061 -0.23375608 0.07124358 -0.06522738 -0.38895488 -0.11870519 -0.07276793
0.06418924 -0.2467474 -0.13270584 0.055392396 0.13019237 -0.03852319 -0.08507762 -0.43731004
-0.49208027 -0.18397583 0.10281693 0.103960924 0.06416051 -0.02285484 0.17601 -0.024153331
-0.051282115 -0.15652244 -0.17607668 -0.117641285 0.025344295 -0.004116596 -0.0016203518 -0.058294915
-0.30380857 -0.007791121 0.13998543 -0.20703119 -0.102816634 -0.056115642 0.18214568 -0.07093478
0.05313649 -0.2675031 0.022407878 0.12151494 -0.10476703 -0.083107404 -0.026299601 0.038354285
0.08282266 0.10109197 -0.025665231 -0.0657574 0.011756432 0.052527137 -0.08292561 0.026536439
0.0556698 0.032491513 -0.14497373 -0.22631896 0.23032022 -0.060119852 0.03201428 -0.42460617
-0.023699004 0.14591917 -0.051646333 -0.03982337 0.058997177 0.1400746 -0.04484134 0.055102464
0.12038746 0.032828305 -0.1584899 -0.3178828 0.07772761 0.09438051 0.040551852 -0.27739692
-0.38419136 0.06331094 -0.059509587 0.028599964 -0.37322927 -0.09565094 -0.09361079 -0.30076346
0.07656431 -0.36808094 -0.2948359 0.17850539 0.17835195 -0.06031503 -0.038379636 -0.052551508
0.21591443 0.123356625 0.06328483 0.10214477 -0.29409286 -0.07201359 -0.25176823 0.0094596725
-0.0018890015 -0.3178089 0.0011539746 0.119026095 0.071957305 -0.09361706 -0.12354161 0.029375976
0.017232625 0.008084892 -0.049305424 -0.18328598 -0.10095106 0.051233165 0.017613998 -0.05094881
0.012364355 -0.179518 -0.046153586 -0.005777407 -0.023949323 -0.08502114 0.06067735 0.026972516
0.036460925 -0.012866419 0.004536435 -0.07269185 0.10424367 -0.0066626067 -0.02612068 0.09661046
0.26573148 0.30341783 -0.14652671 -0.10689669 0.26654023 0.10187453 0.082432956 -0.4356662
0.055775326 0.037118204 -0.058536492 0.09350978 0.103008874 0.019385578 0.08957512 0.021161068
0.07632728 0.09443776 0.10235154 0.06764046 -0.07136655 -0.2797966 0.012385088 -0.3703656
00000000: f417 c93d 248a 453c a664 3ebd 3a8a 173d
00000010: 60d9 7bbd 8d5c 183c 69ff adbd 8789 57bd
00000020: 6f3e 923d a9cc 41bd 1425 003e 01f4 8f3d
00000030: c6e7 3d3c 97a7 1a3e 7dee 303d 7d89 cbbb
00000040: 03cd e3be 5f74 c2bc 5374 d93c 43c6 223d
00000050: 279b ba3d e143 343d 4eb9 213d 7f54 e4be
00000060: 0659 bb3d e227 16be af8f 71be 3045 783b
00000070: fc20 8e3c 8bd3 b8bc f437 d63d 8621 9b3d
00000080: 1ded 79bb 7ee2 41be b4e1 05bd 7445 aabd
00000090: a9f1 e33d 7fca 583d 360e 5bbe 16d9 9a3d
000000a0: 487a 0a3d 02bc e03d 65cd fb3c 883a 0cbf
000000b0: abde ba3d 43ce 2abd c993 ffbd 7a0e 5fbe
000000c0: cacd eabd 52c9 d2bc f7ed 903d d06a 343d
000000d0: f46b 5a3c 4104 c1bd 1ef1 afbc 0386 8dbc
000000e0: 2458 e73d ad4b a8bb b457 62bd 35d0 3ebc
000000f0: f50f ab3d 64ab b0bc 19d5 3d3d dc53 253d
00000100: 663c b3bd 66bb 17be 17ca ef3e 372a 19bb
00000110: 0653 ad3a 3b8c f8bc a6a0 cbbd 2812 8c3d
00000120: f403 783e 2f12 c2bc 8bf4 9abd 3477 803d
00000130: 7a8f 073e 5cfe 363c 4658 333e fd45 ccbd
00000140: b2e7 f2bc 0016 493d aaee 023e e009 553d
00000150: f93d 183d 559b 763b 5337 49bd 02a8 cc3d
00000160: c908 243d 4f36 b1bb 0bc4 32be 0b7d 373d
00000170: 6412 3dbc a3d0 69be 7e71 5d3c bb12 95be
00000180: a8d3 bbbe d8ce 113e c15d 6fbe 27e8 913d
00000190: ef95 85bd 1825 c7be b51b f3bd 5a07 95bd
000001a0: a675 833d 5aab 7cbe 0ae4 07be 23e3 623d
000001b0: 2651 053e 7eca 1dbd 2d3d aebd 1ae7 dfbe
000001c0: f2f1 fbbe 2964 3cbe af91 d23d 77e9 d43d
000001d0: 9666 833d 133a bbbc f73b 343e 35dd c5bc
000001e0: 320d 52bd 6b47 20be 724d 34be eaed f0bd
000001f0: d79e cf3c 83e4 86bb fc61 d4ba a6c6 6ebd
00000200: cc8c 9bbe a94c ffbb 5758 0f3e fcff 53be
00000210: 8791 d2bd 84d9 65bd 6684 3a3e 4146 91bd
00000220: a6a5 593d 2bf6 88be ba90 b73c d3dc f83d
00000230: 1990 d6bd 3734 aabd 4372 d7bc 6219 1d3d
00000240: ed9e a93d 4f09 cf3d e43f d2bc d1ab 86bd
00000250: 0d9e 403c b226 573d e7d4 a9bd f262 d93c
00000260: 0406 643d d215 053d fe73 14be 28c0 67be
00000270: 10d9 6b3e 3c40 76bd 6821 033d fb65 d9be
00000280: 6a24 c2bc d66b 153e 1b8b 53bd d41d 23bd
00000290: 06a7 713d b76f 0f3e 8eab 37bd 1fb3 613d
000002a0: b38d f63d f976 063d 2d4b 22be 89c1 a2be
000002b0: a72f 9f3d 924a c13d b319 263d f806 8ebe
000002c0: bbb4 c4be 2ba9 813d 53c0 73bd 794a ea3c
000002d0: e817 bfbe a4e4 c3bd 04b7 bfbd abfd 99be
000002e0: c0cd 9c3d 1b75 bcbe bbf4 96be 1eca 363e
000002f0: e5a1 363e e50c 77bd f733 1dbd 4040 57bd
00000300: ac18 5d3e 66a2 fc3d 7a9b 813d 4731 d13d
00000310: 5793 96be dc7b 93bd c4e7 80be befc 1a3c
00000320: 5f98 f7ba d9b7 a2be f640 973a f4c3 f33d
00000330: 5a5e 933d 4dba bfbd 6203 fdbd e3a5 f03c
00000340: 6f2b 8d3c 7f76 043c 7cf4 49bd 52af 3bbe
00000350: 6ebf cebd ded9 513d 3b4b 903c b3af 50bd
00000360: dd93 4a3c 91d3 37be 8b0b 3dbd 6750 bdbb
00000370: 5f31 c4bc 901f aebd d088 783d 77f5 dc3c
00000380: 0d58 153d accd 52bc 60a6 943b 77df 94bd
00000390: b57d d53d ff51 dabb 09fb d5bc b4db c53d
000003a0: f50d 883e 9559 9b3e 190b 16be a7ec dabd
000003b0: f677 883e 98a3 d03d 9cd2 a83d a40f dfbe
000003c0: ab74 643d 4209 183d f6c3 6fbd 0e82 bf3d
000003d0: 51f6 d23d 81ce 9e3c 2973 b73d fa59 ad3c
000003e0: 7a51 9c3d 9668 c13d af9d d13d 1587 8a3d
000003f0: a028 92bd 8041 8fbe d3ea 4a3c 8fa0 bdbe

layer1.bias f4 [128]
0.116125375 -0.00453963 -0.024986314 0.08407204 -0.03442158 -0.06672653 0.1191215 -0.068773404
-0.050035305 -0.05121037 -0.061177645 0.079373896 -0.06536239 0.115183495 -0.07825772 -0.037974816
0.046315078 0.15874474 0.019677058 -0.08330661 -0.015998216 0.012849251 0.008060131 -0.036491197
-0.04573154 -0.06367593 -0.067605935 0.050207946 -0.034448523 -0.038855497 -0.026100378 0.022038873
0.041394465 0.033075236 -0.053890005 -0.108966716 -0.093316756 0.045896385 0.13999099 0.0656877
0.035186343 -0.050963324 0.09703385 0.06861198 -0.046133287 0.06258617 0.06897636 0.08199047
0.0153406095 0.116598696 -0.089035735 -0.0075143385 -0.006159377 0.086964 -0.023068257 0.16235678
0.10010474 -0.023695571 0.014195014 -0.013161312 0.0558169 0.042811394 0.01989193 -0.055940337
-0.08576895 -0.034335572 -0.038896255 0.112722754 -0.12032739 -0.006979049 -0.07789449 0.116150744
-0.050570283 -0.0070270733 0.018555671 -0.076106906 0.07173044 0.055094376 0.102794304 0.063311614
0.0011497759 0.0791314 -0.042115044 0.052505337 -0.00891603 0.11635961 -0.025761956 -0.054646615
0.111481525 -0.09162124 -0.026358917 -0.071247086 0.030553449 0.008478654 0.0885868 0.1294065
0.101618156 0.16539894 -0.030772272 -0.10146382 0.014403939 0.17078413 -0.011430016 0.081650585
0.086545244 -0.08061792 -0.019930726 -0.04750165 0.04800512 -0.049710777 -0.008083701 0.0015665425
-0.06728037 0.1504023 0.045033187 -0.04614025 -0.080782995 0.08100679 0.21604712 -0.022278279
0.03918198 -0.030279242 0.11605236 -0.024105411 0.001255371 0.083743505 -0.08755847 -0.09959408
00000000: 24d3 ed3d 2dc1 94bb 19b0 ccbc f62d ac3d
00000010: a5fd 0cbd eba7 88bd f9f5 f33d 12d9 8cbd
00000020: d2f1 4cbd f7c1 51bd 6995 7abd c88e a23d
00000030: b7dc 85bd 53e5 eb3d 9545 a0bd 7b8b 1bbd
00000040: e1b4 3d3d fb8d 223e c831 a13c a89c aabd
00000050: b10e 83bc aa85 523c a40e 043c cb77 15bd
00000060: ff50 3bbd 8768 82bd fb74 8abd d9a6 4d3d
00000070: e519 0dbd f126 1fbd 76d0 d5bc de8a b43c
00000080: 3e8d 293d e679 073d c4bb 5cbd f129 dfbd
00000090: db1c bfbd d9fd 3b3d cc59 0f3e 4687 863d
000000a0: 8e1f 103d ebbe 50bd afb9 c63d 7084 8c3d
000000b0: 42f6 3cbd 2e2d 803d 7a43 8d3d 9fea a73d
000000c0: 2e57 7b3c 4ccb ee3d 5e58 b6bd d73a f6bb
000000d0: 99d4 c9bb 2e1a b23d a4f9 bcbc db40 263e
000000e0: b703 cd3d 371d c2bc 3492 683c 8ba2 57bc
000000f0: 43a0 643d 005b 2f3d 67f4 a23c b221 65bd
00000100: a2a7 afbd 75a3 0cbd ae51 1fbd 30db e63d
00000110: 356e f6bd 82b0 e4bb 2587 9fbd 71e0 ed3d
00000120: c922 4fbd 5d43 e6bb 1002 983c f0dd 9bbd
00000130: 69e7 923d a4aa 613d d285 d23d 85a9 813d
00000140: 14b4 963a a50f a23d d380 2cbd d60f 573d
00000150: 8a14 12bc f24d ee3d bd0a d3bc 21d5 5fbd
00000160: 6d50 e43d eba3 bbbd a8ee d7bc fee9 91bd
00000170: 3a4b fa3c 0dea 0a3c ff6c b53d 2383 043e
00000180: 2e1d d03d 575e 293e 2216 fcbc 43cc cfbd
00000190: 80fe 6b3c 09e2 2e3e f644 3bbc 6c38 a73d
000001a0: a23e b13d 021b a5bd c345 a3bc 1791 42bd
000001b0: 04a1 443d 879d 4bbd 8071 04bc 7254 cd3a
000001c0: 4aca 89bd 0f03 1a3e b874 383d 8ffd 3cbd
000001d0: 8e71 a5bd e3e6 a53d 753b 5d3e f080 b6bc
000001e0: 497d 203d 2c0c f8bc dcac ed3d b678 c5bc
000001f0: 438b a43a b781 ab3d db51 b3bd fbf7 cbbd

layer2.weight f4 [64, 128]
0.0058164736 -0.005206215 0.040777355 0.027334556 0.010817127 -0.014230529 0.14749973 -0.099541314
-0.13597356 -0.013340847 -0.024526803 -0.059000414 0.1353321 0.028663365 0.028575325 0.0006749863
-0.080133215 0.007675582 -0.07828265 0.04217298 -0.08543512 -0.055895984 0.109704055 -0.06414982
-0.02280614 -0.043667432 -0.12062617 0.06287188 0.049353592 0.1367268 0.11132724 0.033648543
0.3140946 0.03681781 -0.026126957 0.09516049 -0.0765059 -0.09624721 0.040474612 0.13372397
-0.06875119 0.12060889 0.14764413 0.032467645 0.07171444 -0.011519393 0.024217777 0.20273283
0.015870282 0.052235734 -0.109451234 0.0009828942 0.023536438 0.0038719566 0.03321532 0.045055445
0.011867336 -0.013943612 0.061046705 -0.02890679 -0.07492174 0.002002543 0.17083383 0.08036144
0.12154427 0.002323844 -0.024407791 0.06259889 0.2398372 -0.014507641 -0.025872026 0.17692322
-0.06678278 0.098595634 0.1357353 -0.035834864 0.054639544 0.18550146 0.3213708 0.0032019156
0.09826848 -0.05157632 0.11616784 0.08699638 0.018915404 -0.032250226 0.09901102 -0.13347991
-0.048545957 0.0712422 0.068297364 0.039090462 -0.049048822 0.08848705 -0.028923158 0.008433386
0.07425153 -0.11725471 0.17277226 -0.19063468 -0.059002604 -0.017681839 -0.05610431 0.040317982
-0.13044907 0.0054458724 0.06862949 0.08214288 0.03472492 -0.09878748 -0.01913395 -0.025548624
0.056661326 0.08282859 -0.020315552 -0.22066116 0.1213945 0.004570187 0.15905055 -0.01745045
-0.05359816 0.06422587 -0.038295835 -0.026543248 0.030600965 0.058671225 -0.3002476 0.07359913
-0.041923344 0.07529833 -0.19417877 0.015735762 0.017258877 0.021871783 0.202342 0.048464485
0.038293634 -0.023075413 -0.21490353 0.1040144 -0.104362264 0.14611273 0.121663265 0.09263139
-0.090169236 0.182748 -0.03687905 -0.17781416 0.1149311 -0.062383387 -0.020732896 0.1263166
0.19216195 -0.16614716 -0.096795164 0.10439622 -0.36337304 0.0016665921 0.27452973 -0.030289516
0.48756114 -0.31660017 0.2549868 -0.1481615 -0.015831107 0.09364376 -0.28641808 0.0770915
-0.1163887 0.17241585 0.076272674 0.11972412 0.060613714 -0.14820175 0.45513776 0.07865399
0.13520771 0.100382835 -0.14325874 0.008903808 0.12103938 -0.019833015 0.052937422 0.22229101
-0.0833749 0.076946154 0.027113074 -0.010724355 -0.035539288 0.03333714 0.17556024 0.057988778
-0.03746043 -0.19252247 0.44726616 0.32461357 0.56923324 0.40737635 -0.044193886 0.46867847
0.0629436 -0.43314728 0.14681733 -0.05057634 0.0081925215 0.20903218 0.28407758 0.07229104
0.15413688 0.056316495 0.10167524 0.12125913 0.15202014 0.14229296 0.34375075 0.27579573
0.17248382 -0.03563076 0.058576625 0.09588325 -0.35223612 0.11123268 -0.49201515 0.155787
0.07233538 0.119491376 -0.004547861 -0.19472434 0.024406487 0.08813471 0.14710131 0.140648
-0.33394155 0.11324494 0.18066655 0.5011972 -6.033325e-05 -0.18889327 0.04349247 0.15464874
0.028335305 0.19634295 -0.12667447 -0.30907637 -0.06665256 -0.14575061 0.05255512 -0.06841454
-0.00096862065 -0.095322184 0.12595984 0.011386058 0.12956218 -0.2817142 -0.25683692 0.053781014
00000000: 1e98 be3b e698 aabb 2806 273d b8ec df3c
00000010: 523a 313c 2a27 69bc 2b0a 173e 51dc cbbd
00000020: a73c 0bbe 9193 5abc 6fec c8bc 6baa 71bd
00000030: 7f94 0a3e 6fcf ea3c cd16 ea3c 90f1 303a
00000040: e21c a4bd 7383 fb3b a752 a0bd 93bd 2c3d
00000050: 9cf8 aebd 30f3 64bd 85ac e03d fb60 83bd
00000060: f1d3 babc 9fdc 32bd da0a f7bd f9c2 803d
00000070: fe26 4a3d 1c02 0c3e 89ff e33d 0ed3 093d
00000080: 02d1 a03e 46ce 163d 3308 d6bc 81e3 c23d
00000090: 20af 9cbd 421d c5bd b5c8 253d f0ee 083e
000000a0: 6dcd 8cbd cb01 f73d 0630 173e cbfc 043d
000000b0: 05df 923d d6bb 3cbc 5c64 c63c 3299 4f3e
000000c0: 6502 823c 23f5 553d f827 e0bd 75d4 803a
000000d0: 7dcf c03c a7c0 7d3b ca0c 083d 0f8c 383d
000000e0: 376f 423c bf73 64bc 1c0c 7a3d efcd ecbc
000000f0: 9270 99bd 193d 033b 10ef 2e3e 8a94 a43d
00000100: 34ec f83d a24b 183b d9f2 c7bc d933 803d
00000110: e297 753e 75b1 6dbc 92f1 d3bc 5c2b 353e
00000120: 69c5 88bd 82ec c93d 32fe 0a3e 94c7 12bd
00000130: b7cd 5f3d 18f4 3d3e b78a a43e 3bd7 513b
00000140: fc40 c93d b141 53bd 68e9 ed3d 282b b23d
00000150: 7af4 9a3c d018 04bd 4ac6 ca3d f5ae 08be
00000160: 20d8 46bd 6ee7 913d 7ddf 8b3d 521d 203d
00000170: 6be7 48bd b338 b53d 42f0 ecbc 2f2c 0a3c
00000180: 3011 983d 3d23 f0bd 36eb 303e bd35 43be
00000190: b7ac 71bd 81d9 90bc a2cd 65bd 7824 253d
000001a0: 7194 05be 4a73 b23b 9e8d 8c3d 873a a83d
000001b0: b83b 0e3d 1751 cabd cdbe 9cbc 594b d1bc
000001c0: b515 683d 09a2 a93d cd6c a6bc 00f5 61be
000001d0: ae9d f83d 82c1 953b 26de 223e 3ff4 8ebc
000001e0: bf89 5bbd da88 833d 18dc 1cbd 3a71 d9bc
000001f0: e0ae fa3c 3d51 703d 0eba 99be 24bb 963d
00000200: d0b7 2bbd 0336 9a3d cdd6 46be 49e8 803c
00000210: 7d62 8d3c 742c b33c be32 4f3e b282 463d
00000220: c9d9 1c3d a608 bdbc ac0f 5cbe 8005 d53d
00000230: e2bb d5bd 939e 153e 972a f93d 87b5 bd3d
00000240: a6aa b8bd 4b22 3b3e 7d0e 17bd ea14 36be
00000250: ff60 eb3d b985 7fbd 09d8 a9bc 2459 013e
00000260: 1ac6 443e 7b22 2abe 8b3c c6bd afcd d53d
00000270: 080c babe 8d71 da3a 298f 8c3e b821 f8bc
00000280: 9da1 f93e 6b19 a2be a18d 823e a6b7 17be
00000290: 3db0 81bc 4dc8 bf3d 64a5 92be 26e2 9d3d
000002a0: 335d eebd c88d 303e d934 9c3d eb31 f53d
000002b0: 1646 783d 33c2 17be d107 e93e 5815 a13d
000002c0: e473 0a3e 8495 cd3d 6bb2 12be 47e1 113c
000002d0: 7fe3 f73d d978 a2bc e9d4 583d 41a0 633e
000002e0: 76c0 aabd f295 9d3d 3d1c de3c 34b5 2fbc
000002f0: a591 11bd 868c 083d 10c6 333e a485 6d3d
00000300: 1c70 19bd 9c24 45be 1200 e53e c033 a63e
00000310: 45b9 113f a293 d03e a604 35bd a0f6 ef3e
00000320: 93e8 803d 7bc5 ddbe 4857 163e 2329 4fbd
00000330: ed39 063c 880c 563e 9e72 913e 530d 943d
00000340: 0fd6 1d3e 20ac 663d 1c3b d03d b556 f83d
00000350: 2bab 1b3e 3fb5 113e 1900 b03e 1935 8d3e
00000360: 999f 303e 8ff1 11bd 0bee 6f3d 705e c43d
00000370: 4b58 b4be f6cd e33d 69e9 fbbe a186 1f3e
00000380: 9224 943d e5b7 f43d 3906 95bb d165 47be
00000390: 1df0 c73c f97f b43d baa1 163e 0806 103e
000003a0: 63fa aabe f7ec e73d a700 393e 764e 003f
000003b0: 550e 7db8 3d6d 41be 2925 323d 3d5c 1e3e
000003c0: 711f e83c 200e 493e f4b6 01be 423f 9ebe
000003d0: 2381 88bd a63f 15be 0a44 573d ec1c 8cbd
000003e0: 08eb 7dba 4738 c3bd 9efb 003e 978c 3a3c
000003f0: f3ab 043e d83c 90be 2180 83be 7b49 5c3d

layer2.bias f4 [64]
-0.015761118 0.066072434 -0.048936803 0.0062757935 -0.0340477 -0.04657517 0.012618855 0.051510025
0.0392573 -0.054489538 0.025818337 -0.00021082583 -0.07697173 -0.051282983 -0.0148452185 -0.09602085
-0.060937732 0.058969084 0.07635579 0.13059157 0.025914088 0.05349503 -0.004927641 0.047352947
0.033369135 0.06215706 0.012911428 0.005107819 0.06080194 0.07363348 -0.04118333 -0.122571185
0.06837033 0.003923458 0.052645568 -0.041512348 0.030965816 0.04972066 0.079830594 0.037712462
0.043152194 0.059398778 0.051185988 0.00809477 -0.097269505 0.070366584 0.06878039 0.06963361
-0.025953334 -0.03512109 -0.06072753 0.07233818 0.003453969 -0.05319362 0.08597661 -0.0107493345
0.08481373 0.054409895 0.029970957 0.06374971 0.04161393 0.033182982 0.07041 0.07703743
00000000: 761d 81bc fc50 873d f571 48bd 2ca5 cd3b
00000010: 9a75 0bbd 9bc5 3ebd 50bf 4e3c 2dfc 523d
00000020: 43cc 203d 6c30 5fbd fa80 d33c 2111 5db9
00000030: 5ba3 9dbd 1b0e 52bd 5c39 73bc 94a6 c4bd
00000040: d899 79bd 9189 713d 6d60 9c3d ccb9 053e
00000050: c849 d43c 9b1d 5b3d 0c78 a1bb 2af5 413d
00000060: 13ae 083d 6798 7e3d 748a 533c 7e5f a73b
00000070: 740b 793d 26cd 963d daaf 28bd 9a06 fbbd
00000080: be05 8c3d 5a90 803b e1a2 573d da08 2abd
00000090: 06ac fd3c e4a7 4b3d 397e a33d 6278 1a3d
000000a0: 5bc0 303d 224c 733d 66a8 513d ed9f 043c
000000b0: 3c35 c7bd 5b1c 903d bcdc 8c3d 119c 8e3d
000000c0: 169c d4bc 22db 0fbd 6ebd 78bd 0a26 943d
000000d0: fc5b 623b 8ee1 59bd 8114 b03d fa1d 30bc
000000e0: d2b2 ad3d e9dc 5e3d a785 f53c 358f 823d
000000f0: 5e73 2a3d e1ea 073d 1e33 903d cdc5 9d3d

layer3.weight f4 [6, 64]
0.16855307 0.098438494 -0.35569426 -0.27626678 0.31787372 -0.061056282 0.25466257 0.03855103
0.2097962 0.6618377 -0.099566154 0.032052096 -0.053792156 -0.60487217 0.104665644 -0.09177004
-0.26912382 0.0605754 -0.030795075 -0.18045382 -0.2407346 0.097159915 -0.2502633 -0.22809188
0.008742723 -0.22192319 0.35442942 -0.33841473 0.05609159 0.005637402 -0.87209433 0.4078745
-0.09019042 -0.119254105 -0.21630925 0.25958636 -0.35006452 0.5816044 0.23820801 0.39708593
0.051889967 0.21624176 -0.038212508 -0.11622096 -0.23932803 0.16470893 0.11600531 0.20125294
0.10985299 -0.18763565 0.40595174 -0.01700319 0.2805606 0.16106066 -0.09402956 -0.0707496
0.2457316 -0.14178123 -0.001414258 -0.18353088 0.12078117 -0.09172825 0.2563566 -0.2779105
-0.019494679 0.042136356 -0.050929572 -0.38112146 -0.08321772 -0.05762009 0.055518676 0.104640536
0.058653444 -0.45094678 -0.023729388 -0.20155492 -0.04598586 -0.2609443 -0.08571492 -0.113359004
-0.64242357 -0.52699924 -0.132338 -0.099252015 -0.10628591 0.26840687 -0.51567096 0.11061276
-0.1200038 0.37048566 0.30876887 -0.19781339 0.19947307 0.30532977 -0.531406 0.1497672
0.034349017 0.08284687 -0.17871821 -0.09917268 -0.12792827 -0.035445344 0.2204029 -0.10873172
0.35211 0.24940452 -0.1746709 -0.8043356 -0.41100252 -0.039000724 0.2174989 0.15611428
-0.3262313 0.2740563 -0.43654886 -0.21126164 -0.38930205 0.27416724 -0.16613683 0.38343638
-0.08115126 0.301481 0.12004203 -0.2702518 -0.1177573 0.12113633 0.025776893 0.07331326
0.010217026 0.37975904 -0.09416757 -0.12706408 -0.16287856 0.013916571 0.16746178 -0.027821673
0.15735689 0.11607546 0.1260206 -0.1608251 -0.04436893 0.34281856 -0.108585775 -0.1440708
0.11918452 -0.1802547 -0.054579575 0.18090746 -0.14187858 -0.46056816 0.11960775 -0.064549014
-0.1527359 0.014067188 -0.0888106 -1.0115476 -0.10187592 0.32722226 -0.011868022 -0.37998918
-0.043769285 -0.21385273 -0.14773874 -0.07315536 -0.08628376 -0.08130599 0.054099448 0.024646668
0.014211297 0.13538659 -0.012093475 0.044652812 -0.3218152 0.06650361 -0.23064037 0.20750034
-0.04668476 0.25079837 0.027628131 0.07499964 0.21931069 0.04649214 -0.08596313 -0.08598737
0.09211956 0.11048703 0.17388801 0.073695235 0.04517928 -0.17686687 -0.31523213 -0.021856746
-0.1055765 0.13869344 -0.034363974 -0.16642947 -0.24094774 -0.0917433 0.072750814 -0.030543119
0.35658163 0.26440933 -0.10071494 -0.015077385 0.04242223 -0.4497064 -0.2534464 -0.7200378
-0.24637054 -0.44624138 -0.09903695 0.2789162 0.1524126 0.23676333 -0.12007193 0.05193905
0.057189427 0.018655699 0.33852488 0.41999888 -0.2429912 -0.16479303 -0.0189095 -0.57434624
0.104878895 -0.068291456 -0.14643928 -0.004845313 -0.0730594 -0.2993345 0.14761807 -0.018203521
-0.19761066 0.05724963 0.14987652 0.08651617 0.27915883 0.043315373 -0.33962354 0.18413456
-0.38158002 -0.09495978 0.10665002 -0.114723876 -0.2060402 -0.07653158 -0.118914194 0.26036742
0.11712096 0.17560685 -0.57533973 -0.08382031 0.1400686 0.017700307 -0.30981383 -0.13557436
00000000: 2d99 2c3e 1f9a c93d 8f1d b6be d772 8dbe
00000010: 58c0 a23e 2716 7abd 2263 823e afe7 1d3d
00000020: d1d4 563e 326e 293f 57e9 cbbd 0f49 033d
00000030: 2a55 5cbd e7d8 1abf f15a d63d eef1 bbbd
00000040: 99ca 89be e91d 783d f445 fcbc e3c8 38be
00000050: 2283 76be c7fb c63d 8322 80be eb90 69be
00000060: a33d 0f3c d53f 63be c677 b53e b244 adbe
00000070: 4cc0 653d f5b9 b83b 9341 5fbf edd4 d03e
00000080: c1b5 b8bd 7f3b f4bd 2c80 5dbe 81e8 843e
00000090: a83b b3be 07e4 143f cdec 733e d94e cb3e
000000a0: 938a 543d 7b6e 5d3e b884 1cbd 4105 eebd
000000b0: 6812 75be 75a9 283e 3194 ed3d 4015 4e3e
000000c0: 9bfa e03d 8f23 40be e8d8 cf3e 464a 8bbc
000000d0: a4a5 8f3e 16ed 243e 9292 c0bd 2be5 90bd
000000e0: 11a1 7b3e 192f 11be a05e b9ba 85ef 3bbe
000000f0: 1e5c f73d 05dc bbbd 2c41 833e 494a 8ebe
00000100: 4eb3 9fbc 2c97 2c3d 879b 50bd 5a22 c3be
00000110: 0d6e aabd 0b03 6cbd 8d67 633d c74d d63d
00000120: 983e 703d 7fe2 e6be 2264 c2bc 6a64 4ebe
00000130: ab5b 3cbd 7e9a 85be 4e8b afbd c428 e8bd
00000140: df75 24bf 6ce9 06bf 9d83 07be a444 cbbd
00000150: 6dac d9bd a06c 893e 0303 04bf f188 e23d
00000160: 8dc4 f5bd 4cb0 bd3e f416 9e3e 988f 4abe
00000170: ab42 4c3e 2f54 9c3e 390a 08bf 935c 193e
00000180: 8eb1 0c3d 9fab a93d e801 37be 0c1b cbbd
00000190: a1ff 02be 232f 11bd 4cb1 613e bcae debd
000001a0: c347 b43e e663 7f3e eedc 32be f0e8 4dbf
000001b0: ec6e d2be 39bf 1fbd 08b8 5e3e 6cdc 1f3e
000001c0: ca07 a7be 1b51 8c3e 5583 dfbe f954 58be
000001d0: 9952 c7be a65f 8c3e c61f 2abe c651 c43e
000001e0: a232 a6bd b85b 9a3e 99d8 f53d 725e 8abe
000001f0: bd2a f1bd 5316 f83d 102a d33c 4325 963d
00000200: 5065 273c c76f c23e edda c0bd 161d 02be
00000210: a3c9 26be 5402 643c 1a7b 2b3e 47ea e3bc
00000220: 2a22 213e f9b8 ed3d 8b0b 013e 56af 24be
00000230: 32bc 35bd ea85 af3e 3862 debd 4c87 13be
00000240: 0317 f43d b094 38be d58e 5fbd ce3f 393e
00000250: 9e48 11be 97cf ebbe e8f4 f43d 4632 84bd
00000260: cd66 1cbe 107a 663c 55e2 b5bd 647a 81bf
00000270: 53a4 d0bd ad89 a73e 1872 42bc f18d c2be
00000280: 6c47 33bd 36fc 5abe d348 17be 7ad2 95bd
00000290: 8ab5 b0bd c183 a6bd 6297 5d3d cfe7 c93c
000002a0: 80d6 683c c8a2 0a3e b623 46bc dee5 363d
000002b0: f6c4 a4be 0b33 883d fd2c 6cbe f87a 543e
000002c0: 8538 3fbd a568 803e 6454 e23c 6999 993d
000002d0: fb92 603e 8b6e 3e3d 700d b0bd 251a b0bd
000002e0: 2ea9 bc3d 0647 e23d b30f 323e 87ed 963d
000002f0: e90d 393d 971c 35be 1b66 a1be eb0c b3bc
00000300: 7e38 d8bd a705 0e3e 3dc1 0cbd 7d6c 2abe
00000310: 01bb 76be e9e3 bbbd 61fe 943d 9035 fabc
00000320: de91 b63e a960 873e a243 cebd 2307 77bc
00000330: efc2 2d3d eb3f e6be bac3 81be 6654 38bf
00000340: 8f48 7cbe c079 e4be e2d3 cabd 1bce 8e3e
00000350: 0c12 1c3e 1672 723e 46e8 f5bd 0bbe 543d
00000360: 763f 6a3d d6d3 983c 2253 ad3e 180a d73e
00000370: afd2 78be 81bf 28be 19e8 9abc 5b08 13bf
00000380: bfca d63d 64dc 8bbd 2ef4 15be 6ec5 9ebb
00000390: 2ba0 95bd 5f42 99be 3129 173e 8d1f 95bc
000003a0: 735a 4abe 977e 6a3d 3b79 193e 642f b13d
000003b0: e8ed 8e3e 766b 313d 23e3 adbe c58d 3c3e
000003c0: 755e c3be 467a c2bd 536b da3d 5af4 eabd
000003d0: 34fc 52be 97bc 9cbd 4989 f3bd e14e 853e
000003e0: 1ddd ef3d 48d2 333e 7749 13bf fca9 abbd
000003f0: 256e 0f3e 3c00 913c eb9f 9ebe 01d4 0abe

layer3.bias f4 [6]
-0.011716033 -0.092879266 0.061334353 0.11852221 0.06604627 0.059075464
00000000: 9bf4 3fbc 7c37 bebd bb39 7b3d c6bb f23d
00000010: 4443 873d 1df9 713d
