drl_deep_project/scripts/our_agent/models/dqn_20250120_103733.pt (torch, 78784 bytes, 6 tensors)

layer1.weight f4 [128, 80]
000000 20 1e 4a 3b 21 80 f5 3c b4 fb a2 bc 20 48 f4 bc
       0.003084071 0.029968323 -0.019895412 -0.029819548
000010 50 19 2e be 52 84 4d 3d 6d e1 3b 3d ce eb 3f bd
       -0.17001843 0.05017502 0.04586928 -0.04685574
000020 65 57 0a 3e 12 92 4a 3c 27 03 46 be 86 a4 20 3e
       0.13509901 0.012363927 -0.1933714 0.1568776
000030 f7 44 7d bd 33 2d 91 be a0 ef a6 bc 7a bb 3d 3e
       -0.061833348 -0.28354797 -0.020377934 0.18528548
000040 63 fc 78 3d 94 a7 0d 3e ee 97 57 ba 97 d9 74 3d
       0.06078757 0.13833457 -0.00082242384 0.059777822
000050 62 79 67 3c 32 bf 82 be 06 27 18 3d 2c bc 06 3e
       0.014128061 -0.25536495 0.03714659 0.1315772
000060 47 d4 cc bd cb 9d 30 be 8f 33 97 be 2f ba ea bd
       -0.10001426 -0.17247693 -0.29531524 -0.11461293
000070 2a 90 88 bd 40 3f b1 bd d2 76 bd 3d 35 cb 3b bb
       -0.06668122 -0.08654642 0.09251179 -0.0028655056
000080 2a 39 95 bd d3 af 25 3e cf 6d bf bd 7c 8a 10 bd
       -0.07286294 0.16180353 -0.09347116 -0.03528832
000090 03 db 8e 3e 89 1c 53 3d 1f 8a bc 3e d9 9f c8 bc
       0.27901468 0.051540885 0.36824128 -0.024490284
0000a0 3d 8e 08 3d f4 3e 22 3e 03 5c 20 be d2 31 9e 3e
       0.033338774 0.15844327 -0.156601 0.30897385
0000b0 d3 9e a9 3d 4b 51 9a 3b 4b 1c 90 3e af 2d b1 bc
       0.082822464 0.004709398 0.28146586 -0.021628229
0000c0 90 d9 71 be 4c 3d b9 bd 15 2a 40 bd 3e 3b 42 3d
       -0.2361815 -0.090448946 -0.046915133 0.04741978
0000d0 6a 89 ab bd 5f e5 bc 3d 88 be 62 be 8d 9f cb 3d
       -0.08375819 0.092234366 -0.22142994 0.09942541
0000e0 c9 1b 94 3d 38 ee 9e bc 95 93 87 3d cf ac 8c 3d
       0.07231862 -0.0194007 0.06619946 0.06868898
0000f0 90 3d 13 3e a3 08 38 3d a9 27 b8 bd 69 9d 08 be
       0.14378953 0.04493011 -0.089919396 -0.13341297
000100 0f 34 a7 3c 6d 30 1d 3e 8b 61 8b 3e ab 92 5f bd
       0.020410566 0.15350504 0.27222857 -0.054583233
000110 f3 30 be 3d 98 32 b6 3d b6 18 a6 bb f7 5c ad 3d
       0.0928668 0.08896369 -0.0050688637 0.08464997
000120 16 aa 32 be a5 15 83 3e bf ac 65 be c2 4b a9 3d
       -0.17447695 0.2560245 -0.22429179 0.08266403
000130 55 9c f7 3d 28 2d 6e 3d 05 8d cb 3c cb 82 1a 3c
       0.12090365 0.058148533 0.024847517 0.009430598
000140 7f f1 53 bc 4d 6d 26 3d a2 71 14 3d c7 e9 f6 3d
       -0.012935995 0.04063158 0.03624118 0.12056308
000150 07 e3 57 bc 1b 17 a2 3c 1e 82 ed bc 98 73 9e 3d
       -0.013176686 0.019786408 -0.028992709 0.077368915
000160 26 1f 45 bd f2 3a dd 3a 6e 1c b3 3b b7 c5 4f be
       -0.04812541 0.0016878529 0.0054660356 -0.20290266
000170 f7 80 f4 bc 48 56 0a 3e e9 8f b1 bd 82 23 d5 3d
       -0.029846651 0.13509476 -0.08670027 0.10407163
000180 dd 4e 4c 3e 0e ce df bd e0 78 f7 bc 8f 4a 4d bd
       0.19951959 -0.10927974 -0.030209005 -0.050119933
000190 ad 1f 64 3c cd a6 d6 bd ca fa ce 3d c2 ac 0c 3e
       0.013923568 -0.104810335 0.10106428 0.13737777
0001a0 60 ae a9 39 14 52 7e be 6f 7b 46 bc 27 05 db 3d
       0.0003236411 -0.24835998 -0.01211439 0.10694342
0001b0 a3 2e 6c 3e fd 2b b0 3d 65 8d 79 3d 36 c5 96 be
       0.23064665 0.0860214 0.06092586 -0.29447335
0001c0 c7 48 ca bd c0 64 75 3d 51 59 21 bc a3 43 92 3d
       -0.098771624 0.059910536 -0.009847955 0.07141807
0001d0 13 c9 44 3d c0 f9 ce 3d 2e f1 dd bd ed 85 2c bc
       0.04804332 0.1010623 -0.10837017 -0.010529977
0001e0 53 2c 59 bd 04 f3 1f bd f9 78 09 3e e0 67 d7 3c
       -0.053020786 -0.039050117 0.13425054 0.026294649
0001f0 29 89 42 bd 55 f1 cc bd 8c 04 24 be 4e 7b 81 3c
       -0.047494087 -0.10006968 -0.1601736 0.015805867
000200 30 2f 3c be 53 86 2e 3c f0 21 9f 3d 9a d5 13 bc
       -0.18377376 0.010652143 0.07770145 -0.009023095
000210 32 cf 1f 3d 65 f3 7d bd cb 11 cd bc 12 4a 07 bd
       0.039015956 -0.061999697 -0.025032898 -0.033029623
000220 6e a2 09 3e 46 1d d4 be 48 74 13 3b c3 f9 82 bd
       0.13440868 -0.41428584 0.002249973 -0.063952945
000230 5e 05 a3 be 71 7b c2 bd 90 c1 b9 bd 02 89 fd bd
       -0.31840032 -0.09496201 -0.09070122 -0.12379648
000240 4c 38 24 3d 18 71 75 3d e8 fc 03 bc 77 b9 0a bc
       0.04009275 0.059922308 -0.008055903 -0.00846707
000250 55 7c 0d bb 42 d9 30 bd da 08 02 bd 1e 6a 8e 3c
       -0.0021589 -0.043175943 -0.031746723 0.017384585
000260 06 40 0b bd 57 8c 6e 3d f2 b6 38 bd b1 33 95 bd
       -0.033996604 0.058239307 -0.045096345 -0.0728525
000270 2f b0 f7 bc 28 c5 56 3d 48 96 20 3d ca 51 83 be
       -0.030235378 0.052434117 0.03920582 -0.25648338
000280 02 0d 49 bd 0d c1 21 bd 5e a6 1d be b4 1e c8 3d
       -0.04908467 -0.03949075 -0.15395495 0.09771481
000290 77 f2 25 3e d3 13 2d bd 8a 2d 27 bc 77 11 ae 3c
       0.16205774 -0.042255234 -0.010203728 0.021248562
0002a0 60 78 41 3e da 35 1a 3c 02 9a bf 3c 2a c9 97 bc
       0.18893576 0.009412253 0.023388866 -0.01852854
0002b0 59 22 0d be 81 d3 18 be 13 d8 c3 3d fd 73 f6 be
       -0.13782634 -0.14924432 0.09562697 -0.48135367
0002c0 62 d6 dc be 6e ff 7d 3d a4 f3 85 be 75 5a 88 bc
       -0.4313231 0.062011175 -0.26162446 -0.016644696
0002d0 dd af d4 be 68 a7 71 bd 87 99 5d bd b0 5a 14 bd
       -0.41540423 -0.05899754 -0.054101493 -0.0362193
0002e0 11 62 a7 3d ea f1 fd 3c 35 c7 fc 3d 83 40 12 3e
       0.081730016 0.030999143 0.12342683 0.14282422
0002f0 d4 43 65 be 95 52 aa bc 24 08 a2 3d ac e0 a5 3e
       -0.22389156 -0.020791331 0.07911709 0.32397974
000300 be fa 6c 3d 31 da 41 3e 23 89 b8 bc 1b 48 81 3c
       0.057856314 0.1893089 -0.02252633 0.015781453
000310 f8 ad c4 bd 77 50 d3 bc 61 5d 59 3d 04 ff 39 3d
       -0.096034944 -0.025795205 0.05306757 0.045409217
000320 f3 18 6e 3d 7e 1c 79 3e 74 d8 03 be a4 12 4a bd
       0.058129262 0.24327275 -0.12875539 -0.049334183
000330 45 ed 26 3a 71 85 84 3d 80 c2 27 be 62 93 d0 bd
       0.00063677534 0.064707644 -0.1638279 -0.10184361
000340 7c 2e 44 3e 87 48 b5 3d 3d 0d 1a 3d 91 3d 1c bd
       0.19158357 0.08851724 0.03761028 -0.03814465
000350 83 df 42 3c c3 8c 69 bd e3 aa 12 be d9 7a 3e ba
       0.01189411 -0.057019006 -0.14323 -0.00072662305
000360 57 9a 17 bd 2c 57 f2 3d 3d 23 a4 3d 76 97 ae 3d
       -0.037012424 0.11833033 0.08014534 0.08524983
000370 ac 75 b5 3d 22 6f ce bd 22 1e 1c bc e0 58 d2 3d
       0.08860335 -0.10079791 -0.009528669 0.10270858
000380 dd ed c2 bc 1d 9b 03 be 0e 36 48 bd aa 7c 65 3d
       -0.023795063 -0.1285214 -0.048879676 0.056027092
000390 60 3d 61 bc 18 60 b3 3b f3 35 c6 bd 6a 3f 86 bd
       -0.013747543 0.0054741018 -0.09678259 -0.06555064
0003a0 49 7c bf bc 95 c4 0c 3e 02 a6 8e be e9 b0 83 3d
       -0.023374693 0.13746865 -0.2786103 0.06430227
0003b0 b4 0e 59 3e 00 17 5d bc 91 67 68 3e 52 ab 20 bf
       0.21197015 -0.013494253 0.22695757 -0.62761414
0003c0 7d ce d3 bd ad ac aa bb 74 29 bf 3c 7f 03 15 bc
       -0.10342119 -0.005208573 0.023335196 -0.009095072
0003d0 47 a1 eb bd 8e 64 0e bc c6 4a ba 3c 29 14 16 3d
       -0.115053706 -0.008690966 0.022740733 0.03664032
0003e0 0c 40 14 3e 95 f4 aa bd 6c 3f b3 be 96 a4 c1 be
       0.14477557 -0.083474316 -0.35009325 -0.37820882
0003f0 5f 42 1d bd 05 72 c8 be be e7 6d bd 53 69 41 be
       -0.038393375 -0.3914949 -0.058082335 -0.18887834

layer1.bias f4 [128]
000000 c7 0d 0f 3d 7b db 93 3d 2b 7b 0b 3e 7a 25 ae 3d
       0.03492525 0.07219597 0.13621204 0.08503242
000010 da 11 47 3d 44 5b 85 bd f4 38 6a 3d 04 ea 96 3d
       0.04860101 -0.06511548 0.05718322 0.07368854
000020 c2 e3 0a 3e 28 fe f1 3d 60 d5 75 3d c7 8a 35 3d
       0.13563445 0.118160546 0.060017943 0.0443218
000030 2f 27 d3 3c 35 e5 f3 3d 01 88 f1 3d 9c e0 8f 3d
       0.02577552 0.11908952 0.11793519 0.07025263
000040 f1 4e 8b 3d d3 ba 89 bc f8 66 9c 3c 9c 79 0b 3e
       0.06802166 -0.016812718 0.019092068 0.13620609
000050 94 23 1f bd be 52 5d bd 00 39 a9 3d 88 0c 0b 3d
       -0.03885229 -0.054033987 0.08262825 0.033947498
000060 fd 5d 17 3d b9 33 fd 3d de 22 fd bd 8c 1a bf 3d
       0.03695487 0.12363381 -0.12360166 0.09331235
000070 c2 47 6c bd 16 fa 88 3d e4 c9 ee 3d 2b af 96 3d
       -0.05768562 0.06688325 0.11659601 0.073576294
000080 ff c4 52 bc 06 ce fc 3d c0 87 23 3d d5 88 4c 3d
       -0.01286435 0.12343983 0.039924383 0.04993518
000090 c6 d7 bb 3d 21 c5 a9 3d 00 e9 19 3d 84 c4 fd 3c
       0.09172015 0.082895525 0.03757572 0.030977495
0000a0 45 17 8f bb 1c 62 d2 3d a3 c7 b6 3c 17 2d 7e 3d
       -0.0043667876 0.10272619 0.022311991 0.06205472
0000b0 1c f1 41 bd c5 0e b0 bd eb b6 16 3d e4 b7 7c 3d
       -0.04734908 -0.08596567 0.036795538 0.06169881
0000c0 53 4e 08 bd b6 4d 17 bd 79 a8 0b bd c0 4b c1 3d
       -0.03327782 -0.036939345 -0.034096215 0.09438276
0000d0 88 be d9 3d 15 e1 c1 bd a2 43 84 bc 97 d3 83 3d
       0.10632044 -0.09466759 -0.016145531 0.06436842
0000e0 e3 3d ee 3d ff 63 92 3d 34 24 2d bd 83 c3 ae 3b
       0.11632898 0.07147979 -0.042270854 0.0053333654
0000f0 df e8 c1 3d 26 06 4a bc 89 4b 83 3b e0 6b 86 3d
       0.09468245 -0.012330567 0.004006807 0.06563544
000100 37 10 80 bd 60 99 ea 3d d2 62 91 3b 19 b8 52 bd
       -0.06253093 0.11455035 0.004436829 -0.0514451
000110 b5 c0 80 3d 9a b0 da 3d 91 a5 b1 3d 64 24 80 3b
       0.06286756 0.10678215 0.086741574 0.003910588
000120 12 c8 af bd 11 8c 8f bd 82 18 9a 3d 44 f6 23 3d
       -0.08583082 -0.070091374 0.07524206 0.04002978
000130 03 6d 2c 3d d7 d4 6d 3d 02 35 e9 3d 01 3a c5 3d
       0.04209615 0.058064308 0.113870636 0.09630204
000140 7d 32 5c bd 38 30 cf 3d d6 4e 80 bb 5c 58 cb 3d
       -0.053759087 0.10116619 -0.003915648 0.099289626
000150 d3 a8 d5 bd cc a3 b5 bd 32 70 c3 3d be a2 bd 3d
       -0.10432591 -0.088691324 0.09542884 0.09259556
000160 53 11 44 3d 05 dd 12 3b 68 52 4f 3d 47 dc 51 3d
       0.047868084 0.002240957 0.050615698 0.051235463
000170 b3 a4 1e 3d e3 85 80 3d ac 9d ac bc 78 0b 94 bc
       0.03873129 0.06275537 -0.021071278 -0.018071875
000180 6d 20 d5 3d ef ba 98 3d 6e c8 72 bd 61 a2 e0 bd
       0.10406575 0.0745753 -0.059273176 -0.10968471
000190 d6 6a 13 3d a5 fc bf 3d 72 50 be 3d a4 66 fd bc
       0.03599056 0.0937436 0.092926875 -0.030932732
0001a0 eb 6f cb 3d 22 a7 ab 3d 33 cd 96 bd 44 45 02 3d
       0.09933456 0.083814874 -0.073633574 0.031804338
0001b0 cd 11 59 3d 3f 70 4f bd d3 b9 d7 bc 12 27 62 3d
       0.05299549 -0.050644156 -0.026333725 0.05521304
0001c0 e4 f0 b1 3c 65 db 38 3c 49 44 1c 3e 44 4f be bc
       0.02172131 0.0112827765 0.15260424 -0.023231156
0001d0 50 49 55 3d da e7 24 3e ec d5 dd bd c8 7f 68 bd
       0.05207187 0.1610407 -0.10831818 -0.056762487
0001e0 bf df 8c bd a8 20 24 bd 35 fc d9 bd 80 68 2b 3d
       -0.06878614 -0.040070206 -0.10643808 0.041847706
0001f0 18 87 59 bd 24 85 7b bd 15 29 20 3d 23 b9 52 bd
       -0.05310735 -0.06140627 0.03910168 -0.05144609

layer2.weight f4 [64, 128]
000000 8e e0 bd 3d 5e 66 8a 3d e8 cc b7 3c fc 87 78 3e
       0.09271346 0.06757806 0.022436574 0.24270624
000010 49 b6 8f 3d 29 88 91 3d 91 27 80 bc 37 ec 2d be
       0.0701719 0.071060486 -0.015643867 -0.1698464
000020 fd b2 2b be 23 04 c0 3e 61 de 00 3e 03 ec 6e 3d
       -0.16767497 0.37503156 0.12584831 0.058330547
000030 fe 2a f7 3b 41 8d c3 3d c3 9c 30 bd b6 0c 3f bd
       0.007542967 0.095484264 -0.04311825 -0.04664298
000040 5a 5f 99 bd ae 7e 04 be 82 29 ba bd 42 d0 42 3d
       -0.0748889 -0.1293895 -0.09089948 0.04756189
000050 e4 8b 8a bd e3 6e 80 3e 96 9d 77 3e ce 6d 94 bd
       -0.06764963 0.250846 0.24181208 -0.07247506
000060 37 f5 6f be 4c 57 00 3d aa 25 0f bd 26 c5 82 3d
       -0.23433386 0.031333253 -0.03494803 0.06385259
000070 a9 b9 8d 3e b7 59 88 bd bf b4 1b be 27 0c 47 be
       0.2768071 -0.06657737 -0.15205668 -0.1943823
000080 a7 de c6 3c 4f 88 0a 3e 71 ec be 3d 44 36 68 be
       0.02427609 0.1352856 0.09322441 -0.2267695
000090 9a 3a 6f 3e d6 19 37 3d 1f 25 2b bd e8 58 15 bd
       0.23362198 0.044702373 -0.04178345 -0.03646174
0000a0 1e 4b af 3d 14 06 92 bd d8 d7 e7 ba 49 ac 73 3d
       0.08559249 -0.071300656 -0.0017688228 0.059490476
0000b0 d6 d1 87 3d 7b 3a c6 3c 43 a8 27 3e 55 9a 78 bc
       0.0663182 0.024197808 0.1637278 -0.015173514
0000c0 18 09 10 3e d4 0d 33 3d 26 07 20 3e 3e 2e 20 3c
       0.14065969 0.04371436 0.15627727 0.00977665
0000d0 b2 c4 3d 3d 5c e3 15 bd 0e 69 9b 3e 10 0d 21 bb
       0.04633016 -0.03659378 0.30353588 -0.0024574436
0000e0 61 e9 73 3b d3 a1 0b 3e 5d 36 3f 3d 0d 35 87 3d
       0.0037217962 0.1363595 0.046682704 0.066019155
0000f0 73 ec af 3c 32 fd e7 bd 9e 25 fe 3d 82 28 30 3d
       0.021475052 -0.1132759 0.12409519 0.04300738
000100 1c 8b 9a be ed cd 9c 3d 57 0d 0b be 58 5e 5f 3e
       -0.30184257 0.07656465 -0.13579307 0.21813333
000110 ed 62 9c 3e 8b 70 1e 3d c7 6e 94 be 05 34 07 be
       0.30544224 0.038681548 -0.28990766 -0.13203438
000120 ec b7 48 3c 02 9f 24 be 78 6a ae bd 76 4e c3 3d
       0.012250882 -0.16076282 -0.08516401 0.095364496
000130 a8 8c 06 3d cf 39 50 bd 7b 7c 72 3d 1f 6d 56 3d
       0.032848984 -0.05083638 0.059200745 0.05235016
000140 f6 49 24 3b 78 c6 39 3d c3 52 79 bd 1d 03 da bd
       0.0025068498 0.04535529 -0.060869943 -0.10645125
000150 16 ea 65 3c 5e ee aa 3d 90 4e 38 3d 28 cf aa 3d
       0.014032861 0.08346246 0.044996798 0.08340293
000160 d7 ff be 3d 76 5f f6 3c 14 9a 66 3e d8 46 a3 be
       0.09326141 0.030074816 0.22519714 -0.31889987
000170 a3 ff 10 bd d9 8f 99 3d 73 37 72 3e 7c 28 9a 3d
       -0.035400044 0.0749814 0.23653965 0.07527253
000180 a7 61 3d 3e d3 55 0d 3e 11 bf 02 3e 51 89 8f 3e
       0.18494283 0.1380227 0.12768199 0.28034452
000190 35 34 2b 3c bd 5d d2 3c fb 86 f6 bd b7 1f 04 3e
       0.010449459 0.025679464 -0.12037464 0.12902723
0001a0 a9 24 16 3c 68 3b 12 bc 67 ea e2 bc 78 f1 ea bd
       0.009164014 -0.008925296 -0.027699662 -0.11471838
0001b0 c0 bf 15 be 5b 0d d9 3d e1 9a 0f 3f f2 d4 16 3a
       -0.14623928 0.105982505 0.560957 0.0005753777
0001c0 01 ca 5f 3d 98 68 5e 3e d8 52 ee bd 6b 11 52 3d
       0.054636005 0.21719587 -0.11636895 0.051286142
0001d0 83 d2 cd bd 6f a9 57 3e 5a 91 94 3e 96 40 1b 3e
       -0.100499175 0.21060728 0.29017144 0.15161356
0001e0 b4 a3 94 3e 91 b3 93 3c 28 ee 81 3e 99 ef f9 3d
       0.29031146 0.01802996 0.2537701 0.12203903
0001f0 76 2f 14 3e 9b 0f 68 be 36 ff 85 3e 86 a2 23 3d
       0.1447123 -0.22662203 0.26171273 0.039949916
000200 fe 09 93 3d 2c 19 a7 3d 39 32 aa 3e 02 ea 5d bd
       0.0717964 0.08159098 0.33241442 -0.054178245
000210 7b 65 54 3c 17 d1 9b 3d 7d 79 b0 3d aa ee 1f 3c
       0.012963648 0.0760824 0.08616922 0.009761492
000220 7f e9 92 ba 43 41 aa 3e 0b 97 84 3d f3 2c ca bd
       -0.0011208503 0.33252916 0.06474122 -0.09871855
000230 31 8a e2 3c 9b e6 37 3c f3 0e 10 3d c8 1e b6 3c
       0.027653785 0.011224414 0.035170507 0.022231475
000240 2c 9c 93 3c b8 ef 84 3d 73 32 e1 3d d1 35 ca 3d
       0.018018804 0.06491035 0.109959505 0.09873546
000250 50 a8 9c bd 58 43 ac bc cd d1 a9 3d 41 db bc 3d
       -0.076492906 -0.021028206 0.082919694 0.09221507
000260 85 8a 31 3e c6 35 0d bd 1c 66 a5 bd 30 a8 a7 3d
       0.17337997 -0.03447511 -0.080761164 0.08186376
000270 94 f2 35 3d 49 ac aa 3d 84 16 9a bc a0 6a f2 bc
       0.044420794 0.08333642 -0.018809564 -0.029591858
000280 12 4c 07 bd f5 88 ff 3c b9 d7 ae 3c 4d a3 a5 3e
       -0.03303153 0.031193236 0.021343099 0.3235115
000290 73 53 1f 3d d8 b5 a3 bb b0 e7 1a bd b6 7e 82 bc
       0.038897943 -0.0049960427 -0.03781861 -0.015929561
0002a0 8c 83 7e bd 36 72 42 3d 5d 4e 25 bd 6b 6b a7 3d
       -0.06213717 0.0474722 -0.040357936 0.08174785
0002b0 44 80 8b bc 32 3e 3c 3d 21 5d 65 bd bf 08 87 3d
       -0.017028935 0.04595775 -0.055997018 0.06593465
0002c0 53 28 0e 3d 35 fc 42 bd 68 70 95 3d 22 c2 c1 3d
       0.034706425 -0.047603805 0.072968304 0.09460856
0002d0 94 a3 66 3d e0 71 9f 3d 2b 18 de 3c 38 5c 05 3d
       0.056308344 0.07785392 0.027111134 0.03255865
0002e0 9e 5a b2 bc 63 fe 01 ba 15 89 65 3d db e1 64 bd
       -0.021771725 -0.0004958866 0.056038935 -0.055879455
0002f0 46 79 88 3d e5 2b 6f bd 3c 82 70 bd 05 bc 2f 3e
       0.06663756 -0.05839147 -0.05871795 0.17161568
000300 26 84 03 3e 7b 34 83 3d a4 af 38 bd 4d e1 18 3c
       0.1284338 0.06406494 -0.04508938 0.00933106
000310 be a8 eb bd 6f 20 91 ba 77 cb d9 bd 97 75 a1 bd
       -0.115067944 -0.0011072288 -0.10634511 -0.078837566
000320 53 36 47 3d 0c 7a 11 bd dd 50 b1 3d 0e 20 b2 3d
       0.048635792 -0.035516784 0.086580016 0.0869752
000330 5e 6a 39 3d 1a 3a 86 3c 3f 41 87 bd e6 c8 5b bb
       0.045267455 0.016385127 -0.066042416 -0.0033536493
000340 69 c7 a4 bd 93 ce 91 3c f8 66 6a bd a6 c9 a1 3b
       -0.08045847 0.017798698 -0.057227105 0.0049373684
000350 52 ac b1 3c 87 fa 5d 3d 16 39 1d 3d c8 a1 69 bc
       0.021688614 0.054194 0.03838452 -0.014259763
000360 bb 94 97 3c 24 ae 94 3d 6e 74 62 3d 30 98 5a 3d
       0.018503537 0.07259777 0.055286817 0.053367794
000370 b5 bb 26 3e 0f be 53 3d 77 6f 71 bd f0 03 a0 bd
       0.16282542 0.051694926 -0.05894419 -0.07813251
000380 8d 1e 72 bb a8 52 5f bd 12 ab 8f 3d 8a 0e 4c 3c
       -0.003694448 -0.054522187 0.07015051 0.012454638
000390 14 de b5 3c ac 13 b2 bd 1c c9 97 bc 80 b6 3b 3e
       0.022200622 -0.08695158 -0.018528514 0.18331337
0003a0 0c 0d cc bd b7 07 2f bd aa 4d a3 3d c8 1c bd 3d
       -0.09963426 -0.042731967 0.079737976 0.09234005
0003b0 5c 33 c8 3c 22 20 3e 3d d3 52 6c be b8 6c 8f 3d
       0.024438553 0.046417363 -0.2307847 0.07003158
0003c0 16 a9 28 3d 09 7c d0 3d f6 7c b4 3d 27 66 57 3d
       0.041176878 0.10179908 0.08812897 0.052587654
0003d0 1b 0a 22 bd cb ae 22 3c 52 de 29 be 69 10 a8 bd
       -0.03956042 0.009929369 -0.16588715 -0.08206255
0003e0 8c 4a 94 3e bb 0b 9f 3d 82 88 5f bd 44 d8 33 3d
       0.28963125 0.07765909 -0.054573543 0.04390742
0003f0 6c 80 d8 3c 0f 27 16 3e 7e 88 50 3e 10 f4 29 3d
       0.026428424 0.14663337 0.20364568 0.04149252

layer2.bias f4 [64]
000000 e3 63 0f bd 8b d8 0c bc 64 7b a7 3d 58 43 15 bc
       -0.03500737 -0.00859655 0.08177832 -0.009110294
000010 9b 66 32 3d 8f 77 4f bd fe 88 4c bd 7b ed 90 3d
       0.043554883 -0.05065113 -0.049935333 0.07076546
000020 48 f4 7e bd f8 2a c0 3b 3d 8f 96 3d 2e 3e 06 3d
       -0.062244684 0.0058644973 0.07351539 0.032774143
000030 37 f3 19 3d a2 14 03 3d e6 ad 57 3d c4 dd 71 bd
       0.037585463 0.0320021 0.052656077 -0.059049383
000040 4b 11 1e 3c 0b f2 89 3d 18 41 29 3c 3c 5d 76 bd
       0.009647678 0.06735619 0.010330461 -0.06014751
000050 87 ca b5 bc 52 6b 93 3d fd 51 07 bd d2 cd d8 bd
       -0.0221913 0.07198204 -0.033037174 -0.10586132
000060 d4 4c 5b bc 11 94 b6 bd c5 00 c2 ba 87 17 8d bd
       -0.0133850165 -0.0891496 -0.0014801255 -0.06889253
000070 80 79 f9 3c 16 6c 4d 3c c9 70 96 bb 2e bc fa bc
       0.030453444 0.012537977 -0.0045910818 -0.03060731
000080 5a c3 85 bd 46 02 62 3d 59 f2 17 3d 78 cc 77 3d
       -0.06531401 0.05517795 0.037096355 0.06049773
000090 76 bf 74 3d 5c 89 39 3d 54 d4 46 bd b3 9e a5 3c
       0.059752904 0.04529701 -0.048542336 0.020217275
0000a0 2b 00 36 3d f4 73 83 3c 99 ba b0 3d 10 fa 91 3b
       0.044433754 0.016046502 0.08629341 0.0044548586
0000b0 51 0a e7 bc 0b 0b 90 3c 2e 13 f9 bc d9 e2 b6 bd
       -0.028203161 0.01758339 -0.030404653 -0.089299865
0000c0 8a 90 f2 bc 4c 2c 13 bd 71 1a 4a 3d 50 74 42 3d
       -0.029609937 -0.035930917 0.049341623 0.047474205
0000d0 c7 d8 02 3d 9b 95 7b bd ae dc 8b 3b c8 f3 83 3c
       0.031945016 -0.06142197 0.0042682504 0.016107455
0000e0 77 52 5e bd fa 7d b3 3d be 37 b0 3d e8 12 15 3d
       -0.054277863 0.087642625 0.08604382 0.036394984
0000f0 7e 83 36 3d 19 53 e2 bc d6 78 7a 3d 05 8a 98 3c
       0.044558994 -0.027627515 0.061150394 0.0186205

layer3.weight f4 [6, 64]
000000 6d b5 f1 bc 73 e8 07 be b2 91 f4 3e 6e 7a 0e 3f
       -0.029505456 -0.13272266 0.47767407 0.5565556
000010 bf 31 ca 3e 1b 3c 9e 3d 94 bf e2 3e 8a 8b 4a be
       0.39491078 0.07726308 0.44286788 -0.19779792
000020 06 2b 68 bd 92 f5 48 be d2 c8 7e 3d fe 1e 21 be
       -0.056681655 -0.19624928 0.062203236 -0.15734479
000030 65 74 cf bd 21 4d 00 3e 27 e7 3c 3e 2f 18 5c 3e
       -0.10129622 0.12529422 0.18447553 0.214936
000040 1c aa 22 be 34 12 58 3e e4 dd 85 3d 20 dc 6e 3c
       -0.15885204 0.21100694 0.06536463 0.014578849
000050 cd ff 89 bd 12 3f cf 3e 6c e3 01 be b3 82 cc be
       -0.06738243 0.40477806 -0.12684411 -0.39943466
000060 4a 08 e0 bd df fe 21 be 40 b2 4f be 89 a8 55 bd
       -0.10939081 -0.15819882 -0.2028284 -0.05216268
000070 5d b7 d6 3d 31 3e e2 bd a2 e3 9e 3d 6b 67 1b be
       0.104841925 -0.11047018 0.07758261 -0.1517617
000080 10 32 80 be 9b 61 5e be 18 74 2d be 0e 9e 80 3d
       -0.25038195 -0.21716921 -0.16938818 0.062801465
000090 d2 63 02 3f 75 d1 23 be e7 c2 f0 3d 05 7a c0 3e
       0.50933564 -0.1599787 0.11755925 0.37593094
0000a0 52 7a 76 3d 28 69 25 3e cd 4a 4c bc 4f b4 c3 3e
       0.060175247 0.16153395 -0.012469006 0.38223502
0000b0 f8 42 46 3f 8e 52 69 bd 3d 83 ea bd 15 1e 19 bf
       0.77445936 -0.056963496 -0.11450813 -0.59811527
0000c0 31 f0 2c be 21 47 ea 3d b0 84 47 3e d1 d8 9f 3d
       -0.16888501 0.11439348 0.1948421 0.07805026
0000d0 b2 9b 76 3e 47 d9 5a be b5 d4 5e be a9 ac f0 3c
       0.2408283 -0.21371947 -0.21760829 0.029379206
0000e0 4b 93 93 3e 28 38 96 3e 05 4a a7 3c 50 fe b2 3d
       0.28823313 0.2933972 0.020421037 0.087399125
0000f0 91 1b 2b bd 1a ff c8 3d c4 17 de bd 95 13 70 3d
       -0.041774336 0.09814282 -0.10844377 0.058612425
000100 f5 0d be be 4c ef c5 3d 8b dc 44 3e 19 90 dd be
       -0.37120023 0.09664783 0.19224755 -0.43274
000110 b9 f6 8d be 67 b0 33 3e 49 27 cf be 3e 0d 76 bd
       -0.27727297 0.17547761 -0.4045966 -0.060071222
000120 44 fb 2f bd d6 94 b6 3d 20 fc 2b be 15 2f d0 bd
       -0.042964235 0.08915107 -0.16795397 -0.1016523
000130 1d 3a 2e be 59 4d 89 3c e6 f0 b4 3e 7b ac 84 3e
       -0.17014356 0.016760515 0.3534004 0.25912842
000140 86 64 a7 be e5 0d e4 3e b3 c1 16 be 46 07 01 3f
       -0.3269388 0.4454185 -0.14722328 0.50401723
000150 a1 93 5b be 3b fa a9 3e 7c 0d bb bd 2e 32 34 bd
       -0.21443035 0.33198723 -0.09133431 -0.043993168
000160 6b 36 a2 3a 32 01 c7 3d d9 bc 2c be da 6c 8a 3d
       0.0012375837 0.09717025 -0.16868915 0.06759043
000170 10 e8 05 be 58 b5 37 be 81 99 c0 be a1 5a 43 3d
       -0.13076806 -0.17940271 -0.37617114 0.047693852
000180 c7 b5 50 3f 45 d0 14 3e 44 5e 02 be aa 76 0a bf
       0.8152737 0.14532574 -0.12731272 -0.54087317
000190 a3 e8 9a be 18 6c 88 be a9 94 d5 3d 46 03 4b bd
       -0.30255613 -0.2664497 0.10428745 -0.04956367
0001a0 5b 37 c5 3d 2f 64 7f 3d 6c 85 4a be e3 b4 80 3d
       0.09629699 0.062351402 -0.19777459 0.062845014
0001b0 08 3c a5 3d f0 ac e9 bc b6 14 a0 3d 0a 9f 6c bc
       0.08068091 -0.028524846 0.0781645 -0.014442215
0001c0 70 f9 44 bd 78 aa f2 3d 3b 0e 05 be 72 f4 bd 3e
       -0.048089445 0.118489206 -0.1299371 0.3710056
0001d0 a4 4c b2 3d d9 1d 03 be 75 a1 1b be c6 8d 5a bc
       0.08706024 -0.12804355 -0.1519831 -0.0133394655
0001e0 4c 66 d4 be 07 9e 79 3e dc a2 1d 3e d2 36 85 bd
       -0.41484296 0.24376689 0.15394157 -0.06504597
0001f0 22 db db 3d af d1 59 be 44 b0 d6 bd 4b b0 ef bd
       0.10735156 -0.21271394 -0.10482839 -0.11703547
000200 c4 e6 7b be 76 75 85 bd 34 64 f5 3d 1b 86 36 be
       -0.24599749 -0.065165445 0.11982003 -0.17824595
000210 a2 4c 89 be 24 40 63 3e 8f 43 f9 3e 04 0a 2a be
       -0.2681628 0.22192436 0.48684356 -0.16605383
000220 d6 f1 97 bd 97 c9 72 3e e2 89 c3 be 1d 6c b7 3d
       -0.074191734 0.23709713 -0.38191134 0.08956168
000230 42 83 04 3d 22 5d 79 3e 0c 50 01 be f9 d9 01 bf
       0.03235174 0.24351934 -0.12628192 -0.50723225
000240 b7 95 cc be a9 97 4a 3e d0 d3 36 3e ad 37 46 3d
       -0.39957973 0.19784416 0.17854238 0.04839294
000250 9e 65 22 bd 2c 4f cc be 2d a8 66 bd ba c2 2c bd
       -0.03964769 -0.39904153 -0.05631273 -0.042177893
000260 02 7a 2f be c2 9d 72 be f5 eb 35 be 0b d6 1e bd
       -0.17136386 -0.23692992 -0.17765792 -0.038778346
000270 95 c8 bb 3d 7c 02 bf bd c0 45 3f 3e 26 21 78 be
       0.09169117 -0.09326646 0.18678951 -0.24231395
000280 55 cb ec be f1 95 61 3c 65 f8 51 bc 0c af 60 3e
       -0.4624888 0.013768659 -0.0128155695 0.21941775
000290 e5 95 c6 be 3e 1c 5f bf fe a3 8b bd f9 a5 62 3e
       -0.38786235 -0.8715247 -0.068183884 0.22133626
0002a0 2a a6 10 be ac 07 dc be 53 2b bb be 74 06 cc 3d
       -0.14125887 -0.42974603 -0.3655649 0.09962168
0002b0 47 bc 19 3f bc ba ad 3e db 4d 63 3e c7 42 26 3e
       0.60052913 0.3393153 0.22197668 0.16236411
0002c0 23 7a b6 3c 2d 3e 9c 3d 72 f4 c9 be 0f 8c 0d 3f
       0.022275036 0.076290466 -0.3944431 0.5529184
0002d0 85 61 9c 3e 7d b4 70 bd a6 67 5d bd 56 7a d4 3c
       0.30543151 -0.058765877 -0.054053925 0.02593724
0002e0 ab 71 ad 3e 08 9d f7 3d 4a f4 00 bf b9 ec 99 3e
       0.33875784 0.12090498 -0.50372756 0.30063418
0002f0 9f 23 ef 3b e6 7f 90 3e 66 79 3c be 34 f2 81 be
       0.0072979475 0.2822258 -0.18405685 -0.253801
000300 64 00 1f be 58 c9 b5 3d 18 bf 91 be f9 04 4c be
       -0.15527493 0.08876294 -0.28466105 -0.19923772
000310 61 33 e1 3e 9c 83 01 3e 45 76 92 3e 91 1f 5d be
       0.43984511 0.12647861 0.28605857 -0.21594073
000320 b2 2a 53 bd 2b 4e 8c bd 1c e3 15 bf 11 fc 11 3e
       -0.05155439 -0.06850847 -0.58549666 0.14256312
000330 e7 14 f7 bd d8 a9 ea be 69 35 c3 3d 43 ce c2 be
       -0.12064534 -0.45832705 0.095316716 -0.3804799
000340 5f 0b c1 3d 2f 35 c8 3d 6f 89 85 be 77 0a 2a bf
       0.09425997 0.09775769 -0.26081416 -0.6642222
000350 29 26 d7 be ea 72 54 bd 3d c6 4d be 8f 5c 34 3e
       -0.420213 -0.051867403 -0.20095153 0.17613433
000360 b3 05 ae bd 3c ef 48 3e 90 7d 3f bc 31 56 ed bd
       -0.08497181 0.1962251 -0.011687651 -0.11588705
000370 19 bf 32 be 5a 1f c0 bd 70 b8 c9 3e 37 a2 b8 3e
       -0.1745571 -0.0938098 0.39398527 0.3606126
000380 44 ee 05 3f 9b 37 af bc da dc 37 be ac 11 0f bd
       0.5231669 -0.02138882 -0.17955342 -0.034928963
000390 15 c5 f7 3e 98 75 ec be 26 c0 94 bf 5d d1 92 3e
       0.4839255 -0.46183467 -1.1621139 0.28675357
0003a0 d1 98 74 be 81 f1 38 be c4 0a d3 3c 96 e4 e8 bd
       -0.2388642 -0.18060876 0.02576197 -0.11371724
0003b0 3e 1d f1 3e fd aa 05 3e 60 11 08 3d 9f 41 f2 be
       0.47092623 0.13053508 0.033219695 -0.4731569
0003c0 b5 85 c6 bd 36 9d a1 3d 45 bc d5 be 32 47 c6 be
       -0.09693471 0.07891314 -0.417452 -0.38726193
0003d0 96 6e 95 3e 22 aa 38 be 12 f8 00 3c 02 a7 e4 bc
       0.29185933 -0.1803365 0.007871645 -0.027911667
0003e0 41 8b 10 3e a8 cd 88 3e d4 1c 13 3f 71 8a 14 3f
       0.14115621 0.26719403 0.57465863 0.58023745
0003f0 22 4c 47 bd 31 49 18 bd 30 eb 9f 3d 47 dc 86 be
       -0.04865659 -0.037179176 0.0780853 -0.26339933

layer3.bias f4 [6]
000000 b9 f9 ce 3d 2d 1a fb 3c 10 d5 1f bd ee 8c a1 bd
       0.101062246 0.03065213 -0.03902155 -0.07888208
000010 8e d3 44 bd 0e 2a 69 3d
       -0.048053317 0.056924872
