drl_deep_project/scripts/our_agent/models/dqn_20250119_210611.pt (torch, 29440 bytes, 6 tensors)

layer1.weight f4 [64, 32]
0	0x3c2b4456	0.010453304
1	0xbc8479e3	-0.016171401
2	0xbdb47fde	-0.08813451
3	0x3e146714	0.14492446
4	0x3d83084b	0.06398066
5	0xbe81ec30	-0.2537551
6	0x3d7f63e8	0.062351137
7	0xbd55f091	-0.052231375
8	0x3d5c6efe	0.053816788
9	0xbe09802e	-0.13427803
10	0xbd2a117b	-0.041520577
11	0x3d0ac385	0.03387787
12	0x3c80f26b	0.015740594
13	0xbc52fe1c	-0.012877967
14	0x3dabd907	0.08391004
15	0x3d82c868	0.06385881
16	0xbe241d53	-0.16026811
17	0xbdceace8	-0.10091573
18	0xbe0067a2	-0.12539533
19	0x3d3ef8a0	0.046623826
20	0x3e61d087	0.22052203
21	0x3c86f2b8	0.01647316
22	0xbdd17d54	-0.102289826
23	0xbda21874	-0.0791482
24	0xbeb2e56e	-0.34940666
25	0x3dc0c0ef	0.09411799
26	0x3e2f2dab	0.17107265
27	0x3ed366ba	0.41289312
28	0x3e154a1a	0.14579049
29	0x3db91d1a	0.09038754
30	0x3dc562e6	0.09638004
31	0xbd8d399e	-0.06895755
32	0xbaab8b67	-0.001308781
33	0x3e107b94	0.14109641
34	0x3e02c53c	0.12770551
35	0x3e18ca6e	0.14920971
36	0xbc720b4f	-0.014773204
37	0xbd3d404a	-0.04620389
38	0xbdff8dd1	-0.12478221
39	0x3e768d57	0.24077354
40	0xbeee0c62	-0.46493822
41	0xbd531dd2	-0.05154211
42	0x3de464b8	0.11152023
43	0x3e02c232	0.12769392
44	0xbe7ff8b0	-0.2499721
45	0x3d1d54cc	0.038410947
46	0xbd0b0116	-0.033936583
47	0x3d93bddb	0.072139464
48	0xbf468d1d	-0.7755907
49	0x3df0a51d	0.11750243
50	0x3d2cade4	0.042158023
51	0x3e09b8ee	0.13449451
52	0xbf3f6a96	-0.7477201
53	0x3ddcb10f	0.10775959
54	0x3dbe7549	0.09299714
55	0xbcd99430	-0.02655992
56	0x3fa782f6	1.3086841
57	0xbc954043	-0.018219119
58	0x3e20cf52	0.15704086
59	0x3e5cd8ab	0.21567027
60	0x3e73b00c	0.23797625
61	0x3c3dba44	0.011580054
62	0xbde24dcc	-0.11049995
63	0x3d8659b8	0.06560081
64	0x3d319347	0.043353345
65	0xbe1d8f1a	-0.1538662
66	0xbc360c8d	-0.011111391
67	0x3c9c4754	0.01907698
68	0xbe113773	-0.14181308
69	0x3ba16b9d	0.0049261586
70	0x3cb36699	0.021899508
71	0x3cc27271	0.02373621
72	0x3c2e9c5e	0.010657398
73	0xbbb03075	-0.0053768703
74	0x3d05d86b	0.032677095
75	0x3ceee6f3	0.02916286
76	0xbcb85d9b	-0.022505572
77	0xbe0568e2	-0.13028291
78	0x3c0e1fbd	0.008674559
79	0x3bae4a88	0.0053189434
80	0xbcabbcc8	-0.020964041
81	0xbdab612e	-0.08368145
82	0xbbcb05fe	-0.0061957827
83	0x3d499a4a	0.049219407
84	0x3e44e473	0.19227771
85	0xbd72e7f8	-0.059303254
86	0x3cc38f98	0.023872182
87	0xbdca8b9f	-0.09889912
88	0xbf560abd	-0.83610135
89	0xbda3117f	-0.079623215
90	0x3e3e454b	0.1858112
91	0x3ede78f9	0.4345167
92	0x3e33eeaf	0.1757152
93	0xbd31bf3b	-0.043395262
94	0x3dde288d	0.10847578
95	0x3d29df62	0.0414728
96	0x3de1ee22	0.11031748
97	0x3da9f5c9	0.08298833
98	0x3d650648	0.055914193
99	0x3e20578d	0.15658398
100	0x3d78c890	0.060738146
101	0x3e4e8979	0.20169629
102	0xbda6469e	-0.08118938
103	0xbd493453	-0.049122166
104	0x3dea205c	0.11431953
105	0x3d8d46eb	0.06898292
106	0x3dbd477d	0.09242151
107	0xbe0b8772	-0.13625887
108	0xbe335d86	-0.17516145
109	0x3df78fb7	0.12087958
110	0x3d807fcc	0.06274375
111	0xbd548780	-0.051887035
112	0x3d1abe78	0.0377793
113	0xbd078b92	-0.03309209
114	0xbe06c729	-0.13161911
115	0x3c1b0972	0.009462701
116	0xbcc68994	-0.024235524
117	0xbdc2c10c	-0.09509477
118	0xbdf340dc	-0.11877605
119	0xbd8d58a2	-0.06901671
120	0x3ece2ce2	0.40268618
121	0x3e60cf87	0.21954165
122	0x3e12a068	0.14319003
123	0xbe7b89cf	-0.24564289
124	0x3e957cc9	0.29196766
125	0x3cad9035	0.021186927
126	0x3df68d5b	0.1203868
127	0x3e72c460	0.23707724
128	0xbd2df170	-0.04246658
129	0x3de48aa6	0.111592576
130	0x3d8791ac	0.066195816
131	0xbdaaeb6b	-0.08345684
132	0xbce254bf	-0.0276283
133	0xbdce38f1	-0.100694545
134	0x3c358962	0.011080118
135	0xbd71a7cd	-0.058997918
136	0xbe4afdea	-0.19823423
137	0x3bf88d0f	0.007585175
138	0x3e27541f	0.16340683
139	0x3c82def6	0.015975457
140	0x3d31501f	0.0432893
141	0x3d8cadbc	0.06869075
142	0xbe3241ff	-0.17407988
143	0xbbf997b3	-0.007616961
144	0xbe429b8e	-0.19004652
145	0xbdda5e18	-0.10662478
146	0x3e188d18	0.14897573
147	0xbd331432	-0.04372043
148	0xbe182be7	-0.14860497
149	0x3d88117a	0.066439584
150	0x3d76126f	0.060076173
151	0xbdc09861	-0.09404064
152	0xbe3203e3	-0.17384295
153	0x3c0c64ac	0.008568924
154	0x3dfb6453	0.12274995
155	0x3ee2be80	0.44285965
156	0x3c90641d	0.017625863
157	0x3d94498d	0.07240591
158	0x3d588d1f	0.05286896
159	0xbd5c9b2e	-0.05385893
160	0x3dad8b77	0.084738664
161	0xbdcaeaa7	-0.09908038
162	0xbcc86e71	-0.024466725
163	0x3dcf2ebf	0.10116338
164	0xbddbbb55	-0.1072909
165	0x3bc053b8	0.005869355
166	0x3a68075d	0.0008851195
167	0x3d5ca8cd	0.05387192
168	0xbe538a00	-0.20658112
169	0x3e00f910	0.1259501
170	0x3db9a432	0.09064521
171	0x3d097e48	0.033567697
172	0xbeb04366	-0.3442642
173	0xbe015415	-0.12629731
174	0x3ea1b048	0.31579804
175	0xbcbf0af8	-0.02332066
176	0xbe29601a	-0.16540566
177	0x3dddcb76	0.10829823
178	0x3e3d00cf	0.1845734
179	0x3dcfc43a	0.10144849
180	0x3db95e82	0.09051229
181	0xbdf1e9cc	-0.11812171
182	0xbd796759	-0.060889576
183	0x3b791ef2	0.003801283
184	0xbdafc7b5	-0.08583013
185	0xbd69a079	-0.057037804
186	0x3de25e87	0.11053186
187	0x3e99756a	0.29972392
188	0x3dbae77a	0.09126182
189	0x3d8c3ece	0.068479165
190	0x3dc6e2e7	0.09711247
191	0xbdb501da	-0.08838244
192	0x3e686198	0.22693479
193	0x3d0debf3	0.034648847
194	0xbdccba9b	-0.0999653
195	0xbdabe2c9	-0.08392865
196	0x3dcba985	0.09944443
197	0xbd415e56	-0.047209106
198	0x3d843803	0.06455996
199	0xbd65f9e3	-0.056146514
200	0x3a4d6f49	0.0007836712
201	0xbd2a388a	-0.041557826
202	0xbe41bc2f	-0.18919443
203	0xbd03519a	-0.032060243
204	0xbf1a1687	-0.60190624
205	0x3d01c520	0.031682134
206	0x3d936aba	0.07198091
207	0x3d0355cd	0.032064248
208	0xbf381edc	-0.7192209
209	0xbca01da8	-0.019545391
210	0x3eb852f0	0.36000776
211	0x3d247f1f	0.040160295
212	0xbf65cd7f	-0.8976669
213	0x3c8e48eb	0.017368754
214	0xbc2db8d8	-0.010603152
215	0x3cb6e438	0.02232562
216	0x3f063ab6	0.52433336
217	0xbd673d22	-0.056454785
218	0xbdef5678	-0.116864145
219	0x3ded7572	0.115946665
220	0xbe0e6920	-0.1390729
221	0xbddfaf92	-0.10922159
222	0xbc32db72	-0.010916578
223	0xbd3d77dd	-0.04625689
224	0x3d9e543a	0.07730909
225	0x3e0d10e4	0.13775975
226	0x3dd204e4	0.10254839
227	0xbc7dd371	-0.015492306
228	0x3ced5cd2	0.028974924
229	0x3e1dff3e	0.15429398
230	0x3dec5fb0	0.115416884
231	0x3de0a0eb	0.10968193
232	0x3d97b5c0	0.07407713
233	0x3d615420	0.05501187
234	0x3eb4e561	0.35331252
235	0xbdfc7ffb	-0.12329098
236	0x3d527c97	0.05138835
237	0x3d288008	0.041137725
238	0x3cae2140	0.02125609
239	0xbd6495df	-0.05580699
240	0xbe150b14	-0.14555007
241	0x3df05b31	0.117361434
242	0x3cf83497	0.030298514
243	0xbd5e4a82	-0.054270275
244	0x3e5861ed	0.21131106
245	0xbb326ba8	-0.0027224813
246	0x3b93db75	0.0045122453
247	0x3db4d324	0.088293344
248	0xbe034d25	-0.12822397
249	0xbe850e1c	-0.25987327
250	0xbcd3fb27	-0.025876595
251	0x3dd1d927	0.10246497
252	0x3edc1d78	0.42991233
253	0x3d9ce706	0.07661252
254	0xbe4e3295	-0.20136483
255	0x3db9d8a9	0.09074528

layer1.bias f4 [64]
0	0x3da2f749	0.07957322
1	0xbcfc65a9	-0.030810194
2	0x3c16331f	0.009167462
3	0x3e3961b6	0.1810368
4	0x3e47ab75	0.19499
5	0x3e2682d3	0.16260843
6	0x3e034a4d	0.12821312
7	0x3e39a495	0.1812919
8	0x3e417f32	0.18896177
9	0xbd86a929	-0.065752335
10	0x3e898aa1	0.26863578
11	0x3e60954f	0.21931957
12	0x3d977d5e	0.07396959
13	0x3d66450d	0.056218196
14	0xbe215eef	-0.1575887
15	0x3e5f8cf5	0.21831115
16	0x3dbdb5dd	0.09263203
17	0xbd8df91d	-0.0693228
18	0x3cb2c10d	0.02182057
19	0xbde95fa7	-0.11395197
20	0x3e03209a	0.12805405
21	0x3b862024	0.004093187
22	0xbd8c2ba9	-0.06844265
23	0x3e271011	0.16314723
24	0xbda56301	-0.08075524
25	0x3dbdc91c	0.09266874
26	0xbd8655cf	-0.065593354
27	0x3db54587	0.08851152
28	0x3ce82461	0.02833766
29	0x3db729df	0.08943533
30	0x3d3586e4	0.044318095
31	0x3dc534f7	0.09629243
32	0xbd16f847	-0.03685787
33	0x3e6d3bb3	0.23167305
34	0x3d0dc023	0.034607064
35	0x3e3c9e52	0.1841977
36	0xbd003eff	-0.031310078
37	0x3d089ad5	0.033350784
38	0x3e3b7bae	0.18308899
39	0x3d4282e8	0.047488123
40	0x3b371cd4	0.0027940767
41	0x3d474357	0.048648205
42	0x3d4da7a4	0.050208703
43	0xbc17111a	-0.009220386
44	0x3e0fe6da	0.14052907
45	0x3de76753	0.112990044
46	0xbd4f87ff	-0.050666805
47	0x3e1a606a	0.15075842
48	0xb866b909	-5.50086e-05
49	0x3d5a2ead	0.05326717
50	0x3ddb289f	0.10701107
51	0x3e3770f9	0.1791419
52	0x3e13fb2f	0.14451288
53	0x3dd481a4	0.103762895
54	0x3e5527c9	0.20815958
55	0x3e1a7d47	0.15086852
56	0x3dda8f4d	0.10671864
57	0x3c9cf5fd	0.019160265
58	0x3d018f6b	0.031630915
59	0x3e7d1ffa	0.2471923
60	0x3d90b0dc	0.07064983
61	0xbde38043	-0.11108448
62	0x3d595d59	0.05306754
63	0x3d8c2a35	0.06843988

layer2.weight f4 [64, 64]
0	0x3e11821f	0.14209794
1	0x3e4c7333	0.1996582
2	0x3e61a1a5	0.22034319
3	0xbe324dfb	-0.1741256
4	0x3e4e905c	0.20172256
5	0x3e1c9e2f	0.15294717
6	0xbcd2b176	-0.025719386
7	0x3e1dea57	0.15421425
8	0x3e9b1ba9	0.3029454
9	0x3db57109	0.0885945
10	0x3d659450	0.056049645
11	0x3d9979fa	0.07493968
12	0x3e842d23	0.25815687
13	0x3dcdf239	0.10055966
14	0xbdc3dd7d	-0.0956373
15	0x3db2036f	0.08692061
16	0x3dfca0aa	0.12335332
17	0x3e802631	0.25029138
18	0xbebd8927	-0.370187
19	0x3e33d8ff	0.17563246
20	0x3d4694da	0.0484818
21	0x3e14bb16	0.14524493
22	0x3e689fac	0.2271716
23	0x3ebd9c81	0.37033466
24	0xbe284c08	-0.16435254
25	0x3d2dcf0c	0.042433783
26	0x3d81c7f9	0.0633697
27	0x3ddabbad	0.106803276
28	0x3e08af0f	0.1334803
29	0x3e2fb0e3	0.1715732
30	0x3e29a080	0.16565132
31	0xbee3235d	-0.44362918
32	0x3de8fe32	0.11376609
33	0xbeb32c6a	-0.34994823
34	0x3e3b67a7	0.18301259
35	0x3dbab733	0.09116974
36	0x3e469b2d	0.19395132
37	0x3c6ffad0	0.014647201
38	0xbd7033b6	-0.058643065
39	0xbe64fe7d	-0.22362705
40	0x3e007857	0.12545906
41	0x3c7e059e	0.015504269
42	0x3e5cd4d4	0.21565562
43	0x3df1fcdf	0.118158095
44	0x3e0bc4e1	0.13649322
45	0xbe06a4ac	-0.13148755
46	0x3b664793	0.0035137876
47	0xbe5f0987	-0.21780978
48	0xbe4cdd7e	-0.20006368
49	0x3e126908	0.14297879
50	0x3e9401fc	0.28907764
51	0x3e208361	0.15675117
52	0x3e2024c4	0.15639025
53	0x3e0226dc	0.12710136
54	0xbd9e7582	-0.077372566
55	0x3dcb7eec	0.09936318
56	0x3e2c9da7	0.16857015
57	0xb91e08e3	-0.00015071365
58	0x3decdfb6	0.11566107
59	0xbe02d2f1	-0.1277578
60	0x3dacbcd7	0.08434456
61	0x3f519e17	0.8188185
62	0x3d630192	0.05542142
63	0xbe86da3e	-0.2633838
64	0x3e78921a	0.24274483
65	0x3e1cb260	0.1530242
66	0x3e984569	0.29740456
67	0xbdb43fbf	-0.08801221
68	0x3d6b8547	0.05750015
69	0x3e39fb2f	0.18162225
70	0xbe544a67	-0.20731507
71	0x3e9cedef	0.3065028
72	0x3dac1490	0.084023595
73	0xbca02776	-0.019550066
74	0xbd71b86c	-0.05901377
75	0x3c75a52b	0.014992992
76	0x3e064790	0.13113236
77	0x3d8b87f0	0.068130374
78	0xbe3980d3	-0.18115549
79	0x3d4312ee	0.047625475
80	0x3e107c70	0.14109969
81	0x3e5ae943	0.21378045
82	0xbeb20ea9	-0.3477681
83	0x3d7b8961	0.06141031
84	0x3d071177	0.03297564
85	0x3c09f77a	0.008420819
86	0x3e201b9c	0.15635532
87	0x3e83672b	0.25664648
88	0xbd7e6177	-0.06210467
89	0xbd5ad6c3	-0.05342747
90	0xbd83c0e1	-0.06433273
91	0x3dabf94e	0.083971605
92	0x3deb1279	0.11478133
93	0x3de75392	0.11295237
94	0x3e32cbca	0.17460552
95	0xbde463c9	-0.11151845
96	0xbd86ecbd	-0.06588123
97	0xbe107747	-0.14108
98	0x3e3e6fcc	0.18597335
99	0x3e22d880	0.159029
100	0x3e0aeb25	0.13566263
101	0x3cf8e66b	0.03038331
102	0xbd921ea9	-0.07134754
103	0xbe989dc2	-0.2980786
104	0x3e9ca463	0.30594167
105	0x3dd43588	0.10361773
106	0x3da876a4	0.08225754
107	0x3ce1914e	0.027535107
108	0xbc77d067	-0.015125371
109	0x3d1c3f30	0.038146198
110	0x3daa85ab	0.083262764
111	0xbe332188	-0.1749326
112	0xbd9e8f61	-0.07742191
113	0x3dddb5de	0.10825704
114	0x3e80e6c5	0.25176063
115	0x3dceefea	0.10104354
116	0x3c60b786	0.01371563
117	0x3cbd66dc	0.023120336
118	0xbdb00003	-0.08593752
119	0x3db7ce73	0.08974924
120	0x3e42d986	0.19028291
121	0xbd4879a0	-0.048944116
122	0x3d368184	0.04455711
123	0xbdc2dae0	-0.09514403
124	0xbcf0ebe7	-0.029409362
125	0x3f08e73b	0.5347783
126	0xbdd72646	-0.10505347
127	0x3d8b1bae	0.06792389
128	0x3e463b33	0.1935852
129	0x3e41aaee	0.18912861
130	0x3ea9b6d9	0.33147314
131	0xbd9e9e08	-0.07744986
132	0x3e7a4904	0.24441916
133	0x3e96a087	0.29419348
134	0xbd120368	-0.03564778
135	0x3d395a89	0.045252357
136	0x3e8a6eca	0.2703765
137	0x3de26237	0.11053889
138	0xbd985add	-0.07439206
139	0x3de2982f	0.11064183
140	0x3e38033d	0.17969985
141	0x3e04b4c1	0.12959577
142	0xbe2cba30	-0.168679
143	0x3e2cd12d	0.16876669
144	0x3e3cf68a	0.18453422
145	0x3e5b579b	0.21420138
146	0xbebbc8b0	-0.3667655
147	0x3dea3071	0.11435021
148	0x3d286869	0.0411152
149	0x3e00cbd8	0.1257776
150	0x3e07409f	0.13208245
151	0x3eb29f9a	0.3488739
152	0xbe9976e8	-0.2997353
153	0xbdb5af17	-0.08871286
154	0xbcaf45a7	-0.021395518
155	0x3e7f9265	0.24958189
156	0x3e2f23a6	0.17103443
157	0x3e8aed88	0.27134347
158	0x3e82dfa1	0.2556124
159	0xbec4af8c	-0.38415182
160	0x3da5bbbf	0.0809245
161	0xbee9a394	-0.45632613
162	0x3e801aec	0.2502054
163	0x3e58e3de	0.21180674
164	0x3e801df3	0.2502285
165	0x3e2892f5	0.1646231
166	0xbe052c48	-0.13005173
167	0xbe8962ed	-0.26833287
168	0x3e4c970e	0.19979498
169	0x3e43e847	0.19131576
170	0x3e5d245e	0.21595904
171	0x3e3fcda3	0.18730788
172	0x3d84f2f8	0.06491655
173	0xbbd6be81	-0.0065534716
174	0x3da06c4c	0.07833156
175	0xbe8e7c0a	-0.2782901
176	0xbe045625	-0.12923487
177	0x3e00658f	0.12538742
178	0x3ea8f583	0.3299981
179	0x3e68da33	0.22739486
180	0x3e292051	0.16516234
181	0x3e551c0c	0.2081148
182	0xbe0ec256	-0.13941321
183	0x3df34a48	0.118794024
184	0x3e6f591b	0.23373835
185	0x3d865ffc	0.06561276
186	0x3e0edf89	0.1395246
187	0xbe48e7b8	-0.19619644
188	0x3df4e9d0	0.11958659
189	0x3f583739	0.84459263
190	0xbe33d589	-0.17561926
191	0xbe1ea912	-0.15494183
192	0xbb0e2a51	-0.0021692703
193	0xbd197f69	-0.037475023
194	0x3c2d9e9e	0.010596899
195	0xbd05c54d	-0.032658864
196	0xbd71f1f8	-0.05906865
197	0x3cdc17e4	0.02686686
198	0x3daf6868	0.08564836
199	0xbc1a4e64	-0.009418104
200	0xbdb4107f	-0.08792209
201	0xbd366329	-0.04452816
202	0xbd80ae3a	-0.06283231
203	0x3c928da2	0.017889801
204	0xbce0cdd0	-0.027441889
205	0x3bf7879c	0.0075540077
206	0xbd6282bc	-0.05530046
207	0x3cff589d	0.031170184
208	0xbcb35d10	-0.021894962
209	0x3c234a59	0.009966456
210	0x3c8c0a9e	0.017094906
211	0x3d0881c0	0.033326864
212	0xbc4fcef9	-0.0126836235
213	0x3da2ffce	0.07958947
214	0x3d89c088	0.067261755
215	0x3dba5fbf	0.09100293
216	0xbdaef9bc	-0.08543727
217	0xbda1add3	-0.078944825
218	0xbd147dc6	-0.03625276
219	0x3da60832	0.08107032
220	0xbc5c21cb	-0.013435791
221	0xbd211596	-0.039327227
222	0xbd80d814	-0.06291214
223	0x3d23fc45	0.040035505
224	0xbd7e9752	-0.06215603
225	0xbd404f04	-0.046950355
226	0x3d8e7cf7	0.06957429
227	0xbb423a9b	-0.0029636982
228	0x3d96fcf6	0.07372467
229	0x3c6ef36a	0.014584402
230	0x3d00bc65	0.031429667
231	0xbbbb4f4a	-0.005716239
232	0xbda2353b	-0.07920309
233	0x3d0e0426	0.034671925
234	0xbd97b0b1	-0.07406748
235	0xbcbe9069	-0.02326222
236	0xbd8786b4	-0.066174895
237	0xbd8afecc	-0.0678688
238	0xbcc96e86	-0.024588834
239	0xbda6e86a	-0.08149798
240	0x3d8509e8	0.0649603
241	0x3da1ccf1	0.079004176
242	0x3aee825a	0.0018196807
243	0xbd8d1caa	-0.06890233
244	0x3c247040	0.010036528
245	0x3d3f2c6f	0.046673235
246	0xbcf252cd	-0.029580498
247	0x3b5176f7	0.0031961778
248	0x3cdfa070	0.027298182
249	0x3ba2717a	0.004957375
250	0xbdc4de3e	-0.09612702
251	0x3cee6c11	0.029104264
252	0xbd3d4dc6	-0.04621675
253	0x3c938d61	0.01801175
254	0x3d69573d	0.056967963
255	0xbda7b96c	-0.08189663

layer2.bias f4 [64]
0	0x3d69be7f	0.057066437
1	0x3d16e808	0.036842376
2	0xbba18bac	-0.0049299803
3	0xbdbffad1	-0.09374011
4	0xbd648c61	-0.05579794
5	0xbda3f8f4	-0.080064684
6	0x3d1373d6	0.03599914
7	0x3d9f0802	0.07765199
8	0x3e33819e	0.17529914
9	0x3cbb1ddc	0.022841386
10	0xbe092b35	-0.13395388
11	0x3d364425	0.04449858
12	0x3db37501	0.08762551
13	0xbdad4430	-0.08460271
14	0xbe1d2d40	-0.15349293
15	0xbd541d90	-0.051786005
16	0x3d836850	0.064163804
17	0xbd71a841	-0.05899835
18	0x3de48550	0.1115824
19	0x3e1c0937	0.1523789
20	0xbd7623f6	-0.06009289
21	0x3de4e2f8	0.11176103
22	0xbdde810f	-0.1086446
23	0x3cccacf1	0.024984809
24	0x3e108cb8	0.1411618
25	0xbd93ed58	-0.07223004
26	0x3de45840	0.11149645
27	0x3d94ee3e	0.072720036
28	0xbd720401	-0.05908585
29	0xbda53036	-0.08065836
30	0xbc82edd7	-0.015982552
31	0x3d1527e6	0.036415003
32	0x3d145474	0.036213353
33	0x3dc974a3	0.098367
34	0x3d8bea31	0.06831778
35	0x3c7248a1	0.014787824
36	0x3d37d164	0.044877425
37	0xbd8a4d97	-0.0675308
38	0xbd9e8bdf	-0.07741522
39	0xbdae6a2b	-0.08516344
40	0xbd0fd0d5	-0.035111267
41	0x3d0d364c	0.03447561
42	0x3e0617d3	0.13095026
43	0x3d283392	0.041064806
44	0x3defc18b	0.11706837
45	0x3dd309e9	0.103046246
46	0x3dbc7e31	0.092037566
47	0x3dc9d384	0.098547965
48	0x3e6bf920	0.23044252
49	0x3afb72eb	0.0019184028
50	0x3dda3076	0.106537744
51	0x3cad9ab7	0.021191938
52	0x3d2e6b97	0.042583074
53	0x3da9fc71	0.083001025
54	0x3d6b08d6	0.057381473
55	0xbcd9581b	-0.02653127
56	0xbb05cdc9	-0.0020416847
57	0xbcd90be9	-0.026494937
58	0xbdd179af	-0.102282874
59	0xbcde8d90	-0.027167112
60	0x3df26707	0.11836057
61	0x3d44bfd2	0.048034497
62	0x3d536da0	0.05161822
63	0x3d9908c0	0.07472372

layer3.weight f4 [6, 64]
0	0x3e49a191	0.19690539
1	0x3e036625	0.12831934
2	0x3e53feaf	0.20702623
3	0x3d11f6fe	0.03563594
4	0xbdc07da7	-0.09398966
5	0x3e7d9e79	0.24767484
6	0xbc249be6	-0.010046935
7	0x3d16eb20	0.036845326
8	0xbe230090	-0.15918183
9	0x3daeac9f	0.085290186
10	0xbde8c813	-0.11366286
11	0x3c0a455b	0.008439387
12	0x3e0af2d2	0.13569191
13	0xbdb5daf8	-0.088796556
14	0x3e9f972e	0.31170028
15	0xbe31340d	-0.17305012
16	0x3e7fe70d	0.24990483
17	0x3da186ed	0.07887063
18	0xbe8dab0a	-0.27669555
19	0xbe4ad149	-0.19806398
20	0x3da8b2f1	0.08237255
21	0xbdc8d1e7	-0.09805661
22	0x3e6d2477	0.23158441
23	0x3e844d45	0.25840202
24	0xbe9bb734	-0.3041321
25	0x3cc971c7	0.024590386
26	0xbe5761a9	-0.21033348
27	0xbe914d1b	-0.2837914
28	0x3bce9462	0.0063043097
29	0x3e81742f	0.25283954
30	0x3e6aa5f5	0.2291487
31	0xbe61cad6	-0.22050032
32	0xbc075183	-0.00825918
33	0xbdfe2266	-0.12408905
34	0x3bcf9873	0.006335312
35	0x3e77a853	0.24185304
36	0xbe3ae797	-0.18252407
37	0x3c1938c4	0.009351913
38	0x3e2be997	0.16788326
39	0xbde3dae3	-0.11125734
40	0x3e476970	0.19473815
41	0x3dc6c75f	0.09705996
42	0xbf3a11c5	-0.72683364
43	0xbdb4fbca	-0.088370875
44	0xbeaa3193	-0.33240947
45	0xbda1b8d9	-0.07896585
46	0x3e268734	0.16262513
47	0xbe99f1d7	-0.30067322
48	0xbe980c7d	-0.29697028
49	0x3e5b4024	0.21411186
50	0x3e26ab47	0.16276275
51	0x3e1a67fd	0.15078731
52	0xbe9aebc5	-0.30258003
53	0x3e314e30	0.17314982
54	0x3e3155a5	0.17317827
55	0x3e292447	0.16517745
56	0xbe0ab639	-0.13546075
57	0xbd40fc15	-0.047115404
58	0xbedd6355	-0.43239847
59	0x3db8b380	0.09018612
60	0x3e53e830	0.20694041
61	0xbf49a6e0	-0.78770256
62	0x3d082435	0.033237655
63	0xbf246c02	-0.64227307
64	0x3e35abce	0.1774132
65	0x3dd70637	0.10499232
66	0x3de4f326	0.111791894
67	0x3d590a91	0.052988593
68	0xbc71f091	-0.014766828
69	0x3e5a8d72	0.2134302
70	0xbf14e9bd	-0.58169156
71	0x3d7d5ec8	0.06185797
72	0xbe6523fb	-0.22377007
73	0x3c6ca7a1	0.014444263
74	0x3da6c692	0.08143343
75	0xbe86e05a	-0.26343042
76	0x3e98e2a6	0.2986042
77	0xbbe0a7cd	-0.006855941
78	0xbeaea7fd	-0.3411254
79	0xbdf36cf6	-0.11886017
80	0x3ea9c78d	0.33160058
81	0x3e2be348	0.1678592
82	0xbece270c	-0.40264165
83	0xbe8bd4cb	-0.27310786
84	0x3dd5dc22	0.104423776
85	0xbd06c11b	-0.032899003
86	0x3e4eecd9	0.20207538
87	0x3e8d3cea	0.27585536
88	0xbe972185	-0.2951776
89	0x3e6bd823	0.23031668
90	0xbe58932f	-0.21149896
91	0x3dc154f6	0.09440033
92	0x3d7d7698	0.061880678
93	0xbb490265	-0.0030671593
94	0x3dcbdfc7	0.099547915
95	0xbe953422	-0.29141337
96	0x3e047e86	0.1293889
97	0x3eb06674	0.34453166
98	0x3da09b95	0.07842175
99	0x3e737702	0.23775867
100	0xbecbc8f1	-0.39801744
101	0xbe397206	-0.18109903
102	0x3e9673f7	0.2938535
103	0xbdeb38fc	-0.11485478
104	0x3e50572b	0.20345752
105	0x3e51f7e4	0.20504719
106	0xbf2b94d5	-0.67023975
107	0xbf825074	-1.0180802
108	0xbe11abcc	-0.14225692
109	0xbec9149a	-0.3927353
110	0xbeb9618f	-0.36207244
111	0xbf17fba3	-0.5936834
112	0xbdb9a4e3	-0.09064653
113	0x3dd15865	0.10221938
114	0x3dc4c178	0.09607214
115	0x3e083504	0.13301474
116	0x3e58135c	0.21101135
117	0xbd091e45	-0.033476133
118	0xbb6499bd	-0.0034881674
119	0x3da35712	0.07975592
120	0xbef555f7	-0.47917148
121	0x3dfb1ff0	0.12261951
122	0x3d2fb1f3	0.042894315
123	0x3e9caf43	0.30602464
124	0x3cd7d170	0.026344985
125	0xbf16f6cb	-0.58970326
126	0x3e140e50	0.14458585
127	0xbddf8eee	-0.109159335
128	0x3e0a2168	0.13489306
129	0x3e4ce5b4	0.200095
130	0x3e4dc89e	0.2009606
131	0xbd4a325a	-0.049364425
132	0xbdaf1b2d	-0.08550105
133	0xbb8b0e25	-0.0042436295
134	0xbd704ce0	-0.058667064
135	0xbe235bb2	-0.15952948
136	0xbe1df9c9	-0.15427317
137	0xbd20bc83	-0.03924228
138	0xbe1da7ee	-0.15396091
139	0xbe8a8192	-0.2705198
140	0xbcd2451e	-0.025667723
141	0x3c3c8ee3	0.011508676
142	0x3eccd4ec	0.40006196
143	0xbf36368d	-0.7117699
144	0x3ea179b4	0.31538165
145	0x3e998f39	0.29992083
146	0xbe1046d2	-0.14089516
147	0xbe6552e4	-0.22394902
148	0x3e127141	0.14301015
149	0xbe059c09	-0.13047804
150	0x3e6ead68	0.23308337
151	0x3c4e0cc0	0.012576282
152	0xbecbf5ee	-0.39836067
153	0x3e8ebc4b	0.2787803
154	0xbe554cad	-0.2083003
155	0xbd8e23c0	-0.069404125
156	0xbda69663	-0.08134153
157	0xbc8d26d9	-0.017230438
158	0x3e4514ca	0.19246212
159	0xbd295f05	-0.041350383
160	0x3e1200e8	0.14258158
161	0xbec1364c	-0.37736738
162	0x3bcfc4f4	0.0063406173
163	0x3e444b5a	0.1916937
164	0xbed53844	-0.4164449
165	0x3d06085a	0.03272281
166	0x3e9b0536	0.30277413
167	0x3e1fd3ac	0.1560809
168	0xbce9157d	-0.02845263
169	0x3e0e400e	0.13891622
170	0xbf34cda5	-0.7062629
171	0xbcfd090b	-0.030888101
172	0xbe6679b7	-0.22507368
173	0xbe8ca368	-0.2746842
174	0x3e112b42	0.14176658
175	0xbf05c4a3	-0.5225317
176	0xbe37d3e9	-0.17951931
177	0xbdd88517	-0.1057226
178	0x3d5a3192	0.05326993
179	0x3e3f3310	0.18671823
180	0x3df2c836	0.118545935
181	0xbcacd888	-0.021099344
182	0x3dd95767	0.10612374
183	0x3e96f64b	0.29484782
184	0xbdca6ff6	-0.09884636
185	0x3da82afd	0.08211324
186	0xbf1efb6a	-0.6210238
187	0x3d1bdfa6	0.038055085
188	0xbd2db1cb	-0.042405885
189	0xbdbee803	-0.093215965
190	0x3e284e70	0.16436172
191	0xbdf4321f	-0.11923622
192	0x3e130091	0.14355685
193	0x3e63196f	0.22177671
194	0x3e81d1db	0.2535542
195	0x3d83eef2	0.064420596
196	0x3d09026a	0.033449568
197	0x3e33401b	0.17504923
198	0x3e44f809	0.19235243
199	0xbda99b3f	-0.08281564
200	0xbe423865	-0.18966825
201	0xbccd0b96	-0.025029939
202	0xbe62b6e0	-0.22140074
203	0xbf308027	-0.68945545
204	0x3e5b328f	0.21406005
205	0xbdb5d54b	-0.08878573
206	0xbea74df9	-0.32676676
207	0x3dd0d93f	0.101976864
208	0x3eb8f4a5	0.3612415
209	0x3e44d7ce	0.19222948
210	0xbecf20f3	-0.40454826
211	0xbd316153	-0.043305706
212	0x3e474bce	0.19462511
213	0xbe88c886	-0.26715487
214	0x3e184617	0.14870487
215	0xbe80f61b	-0.25187764
216	0xbe996a8d	-0.29964104
217	0xbaabd698	-0.0013110219
218	0xbe96c4fc	-0.29447162
219	0xbe95511e	-0.2916345
220	0xbda337c8	-0.07969624
221	0x3e1de987	0.15421115
222	0xbd0ed37b	-0.034869652
223	0xbe7c57a5	-0.24642809
224	0x3dd44796	0.103652164
225	0xbf1d39cb	-0.6141631
226	0x3cdb1c3d	0.026746863
227	0x3e5d255e	0.21596286
228	0xbea26113	-0.31714687
229	0x3e502e1b	0.20330088
230	0xbd9cd223	-0.07657268
231	0x3e37cde5	0.17949636
232	0xbd820932	-0.0634941
233	0x3e91bc24	0.28463852
234	0xbf5f14d6	-0.8714117
235	0xbf51bdcb	-0.81930226
236	0xbcbee296	-0.023301404
237	0xbe5cfcab	-0.2158076
238	0xbf03a105	-0.5141757
239	0xbf197aae	-0.5995282
240	0xbe8bbfb2	-0.2729469
241	0x3d27812c	0.040894672
242	0xbc763071	-0.015026198
243	0x3cee95d9	0.029124187
244	0xbc65ca9d	-0.014025358
245	0x3e00a589	0.12563147
246	0x3dc5e370	0.09662521
247	0x3e5a5580	0.21321678
248	0xbf2fd65d	-0.6868647
249	0x3e68f2c6	0.2274886
250	0x3dc28f98	0.095000446
251	0x3e5150ad	0.20440932
252	0x3e781e27	0.24230252
253	0x3e264060	0.16235495
254	0x3e2f19b7	0.17099653
255	0xbe5028fc	-0.20328134

layer3.bias f4 [6]
0	0xbce1e7bf	-0.027576325
1	0xbd042367	-0.032260325
2	0xbd0a7bee	-0.033809595
3	0x3d331eee	0.04373067
4	0x3db0db25	0.086355485
5	0xbde0a206	-0.109684035
