drl_deep_project/scripts/our_agent/models/dqn_20250119_143454.pt (torch, 29440 bytes, 6 tensors)

layer1.weight f4 [64, 32]
0	0xbbba2400	-0.005680561
1	0xbc9627ba	-0.01832949
2	0x3cae6b19	0.021291303
3	0xbcbc00ff	-0.022949694
4	0xbd037d12	-0.0321017
5	0xbd07f1b3	-0.033189487
6	0xbc1503fe	-0.00909519
7	0x3c4d8e08	0.01254607
8	0x3d4b4597	0.049626913
9	0x3c94e40c	0.018175147
10	0xbe4edd81	-0.20201685
11	0xbb3acd47	-0.0028503702
12	0x3d199a7a	0.037500836
13	0x3d1b8fe5	0.037979025
14	0xbd2cfeac	-0.04223506
15	0xbc814a32	-0.01578245
16	0xbdd2b93d	-0.10289238
17	0x3d561bec	0.052272722
18	0xbd52b8aa	-0.05144564
19	0xbc457fcc	-0.012054395
20	0xba0cbc3b	-0.00053686247
21	0x3d6d4a93	0.057932448
22	0xbd6c15c9	-0.057637963
23	0xbb0d5e0b	-0.0021570947
24	0xbfa2145b	-1.2662462
25	0x3da5e245	0.08099798
26	0x3d313c68	0.0432705
27	0x3e9e9d21	0.30979255
28	0xbcf0d852	-0.029400025
29	0xbc0e1600	-0.008672237
30	0xbd1d76e8	-0.038443476
31	0xbd0460d0	-0.03231889
32	0xbbf1e8f3	-0.007382506
33	0x3e0d2a85	0.13785751
34	0x3e2ac259	0.166757
35	0x3d8f96c4	0.07011178
36	0xbcc8caa5	-0.024510691
37	0x3df40819	0.11915607
38	0xbd38fffb	-0.045165997
39	0x3dde58b2	0.10856761
40	0x3e0b1fab	0.13586299
41	0x3cb7e55c	0.022448234
42	0xbd354ff5	-0.044265706
43	0x3cc32304	0.023820408
44	0x3dce4ae2	0.100728765
45	0xbc34524f	-0.011005952
46	0xbdcdb537	-0.100443296
47	0xb9811e92	-0.00024627574
48	0x3e31215b	0.1729788
49	0xbd645c8d	-0.055752326
50	0xbe3d9bea	-0.18516508
51	0x3d3c4374	0.045962766
52	0x3dae6188	0.08514696
53	0x3cc1dcec	0.023664914
54	0x3c38340c	0.011242878
55	0x3d817f6a	0.063231304
56	0xbe50a718	-0.20376241
57	0x3de74d06	0.11293988
58	0x3de0681f	0.109573595
59	0x3e1969c2	0.1498175
60	0x3db4d619	0.088298984
61	0x3cbb3f38	0.022857293
62	0x3da4995f	0.08037066
63	0x3d4a9edf	0.049467918
64	0x3d2b59bb	0.04183362
65	0x3ddb0d82	0.10695936
66	0x3dc5eb6b	0.09664043
67	0x3e18bae5	0.14915045
68	0x3ce08229	0.027405815
69	0xbc438cbf	-0.011935412
70	0x3d181229	0.037126694
71	0x3e036b4e	0.12833902
72	0x3e5554f8	0.20833194
73	0x3d4341d9	0.04767022
74	0x3db9860e	0.09058772
75	0xbd43b524	-0.04778017
76	0xbd9101dc	-0.07080433
77	0x3cdc66fc	0.026904576
78	0xbde5c30c	-0.11218843
79	0xbc1b6888	-0.009485371
80	0x3e92114e	0.28528827
81	0x3d168745	0.036750097
82	0x3e27811f	0.1635785
83	0x3d152624	0.036413327
84	0xbd0a327d	-0.033739556
85	0x3d0b02b5	0.03393813
86	0xbdf53785	-0.1197348
87	0x3d50522e	0.050859623
88	0x3f016aa9	0.50553375
89	0x3ce624f2	0.028093789
90	0x3e870ed1	0.26378492
91	0xbec0193e	-0.37519258
92	0x3e8addc4	0.2712232
93	0xbd0985d5	-0.033574898
94	0x3ddd8591	0.108164914
95	0xbdcfdf2a	-0.10149987
96	0xbc314fd7	-0.010822258
97	0x3c20308c	0.0097771995
98	0xbdbe496e	-0.09291349
99	0xbdb93b60	-0.09044528
100	0x3c77b324	0.015118394
101	0xbcb0bc2e	-0.021574106
102	0xbd658fe1	-0.056045417
103	0x3d62d88a	0.05538229
104	0xbec9d91b	-0.3942345
105	0x3ca9b21e	0.020714816
106	0x3aa8f651	0.0012890791
107	0x3d7c21b3	0.061555576
108	0xbe9ecfa2	-0.31017786
109	0x3d1a26c9	0.037634645
110	0xbd8a497f	-0.067522995
111	0xbb85ccbf	-0.0040832455
112	0xbe65c191	-0.22437121
113	0x3d179e2b	0.037016075
114	0xbe3089d2	-0.17240074
115	0xbc1a7cd2	-0.009429174
116	0xbde9d4b9	-0.11417527
117	0xbd2c67bf	-0.042091127
118	0x3d82261d	0.06354926
119	0x3cd26772	0.025684092
120	0xbeff3493	-0.49844798
121	0xbd6073b1	-0.054797832
122	0xbdf1e84b	-0.118118845
123	0x3e93ec22	0.28891093
124	0xbe230dd2	-0.15923241
125	0x3d172729	0.03690258
126	0x3b851bbf	0.0040621455
127	0x3dda8056	0.106690094
128	0xbd03d059	-0.032181118
129	0xbddc7269	-0.107640095
130	0xbc49411a	-0.012283588
131	0x3d7f05dc	0.062261447
132	0x3cc511d4	0.024056353
133	0xbc9c0c0b	-0.019048711
134	0x3cd781e6	0.026307058
135	0xbd2eed1b	-0.04270659
136	0x3f3ac43a	0.7295567
137	0xbd02c6b4	-0.03192778
138	0x3c84735f	0.016168294
139	0x3cac306f	0.021019189
140	0x3e0016f6	0.12508759
141	0x3cd56c01	0.026052477
142	0xbe9148b3	-0.28375778
143	0xbd6c72b5	-0.05772658
144	0x3f460359	0.7734886
145	0x3d276703	0.040869724
146	0xbd27b7a7	-0.04094663
147	0xbd620462	-0.05517996
148	0x3d9b8375	0.07593433
149	0xbd562699	-0.052282903
150	0xbd657b86	-0.056026004
151	0x3d8721bd	0.06598232
152	0xbf8f9b15	-1.1219202
153	0xbe138c05	-0.14408882
154	0xbe195700	-0.14974594
155	0x3eebe0eb	0.46070036
156	0xbeb096d4	-0.34490073
157	0xbd63972e	-0.055564098
158	0xbc398616	-0.0113234725
159	0xbd3ba48d	-0.045811225
160	0x3cc22430	0.023698896
161	0xba7e4964	-0.0009700267
162	0x3d0a50e8	0.033768564
163	0x3aa7d20e	0.001280369
164	0xbd058928	-0.032601506
165	0x3b44f263	0.00300517
166	0x3ce542e0	0.02798599
167	0xbc762531	-0.015023516
168	0x3c597f47	0.013274974
169	0x3d17e1af	0.037080463
170	0xbe010983	-0.12601285
171	0x3c4b5c3a	0.012412125
172	0x3b989d47	0.004657421
173	0xbade8f51	-0.0016979967
174	0xbddce6e1	-0.10786224
175	0xbc5111a4	-0.0127605535
176	0x3e56f82d	0.20993109
177	0x3cad88a4	0.02118332
178	0xbe1625cd	-0.14662857
179	0xbcd13480	-0.02553773
180	0x3d40b884	0.047050968
181	0x3b74f011	0.0037374536
182	0x3d601939	0.054711554
183	0xbc318dcf	-0.010837032
184	0xbe265cab	-0.16246288
185	0x3deba38d	0.11505804
186	0x3e1e4157	0.15454613
187	0x3e4cb556	0.19991049
188	0x3da681af	0.08130204
189	0x3cf18d07	0.029486192
190	0x3dccb3e6	0.099952504
191	0x3d014106	0.03155615
192	0x3c3f8c29	0.011691132
193	0x3d3517b2	0.04421205
194	0x3e02f105	0.12787254
195	0x3d5af489	0.053455863
196	0x3c94a0bf	0.018143056
197	0x3ca8d867	0.020611001
198	0xbcd7cb54	-0.026342072
199	0x3d880972	0.066424266
200	0xbe2dd8e0	-0.16977262
201	0xbd151615	-0.036398012
202	0x3d2fc032	0.0429079
203	0xbd85b7db	-0.06529208
204	0x3e035a7e	0.12827489
205	0x3c4e5712	0.012594001
206	0x3dae4a63	0.08510282
207	0x3d11c99f	0.03559267
208	0xbe1eb896	-0.15500101
209	0xbd0e5db8	-0.034757346
210	0x3d244dab	0.040113132
211	0x3bdfb213	0.006826648
212	0xbde46fcd	-0.11154137
213	0x3d8292b3	0.06375637
214	0x3c2de137	0.010612777
215	0xbc98ed41	-0.018667819
216	0xbe9386f8	-0.2881391
217	0xbc9d1a2c	-0.019177519
218	0x3dd18c8c	0.10231885
219	0x3eadc4ae	0.33939117
220	0x3e8c63c9	0.2741988
221	0x3d866aa0	0.06563306
222	0x3dd0a4bf	0.10187673
223	0xbd6a9c09	-0.057277713
224	0xbd542f8c	-0.051803157
225	0xbdcb9c6d	-0.09941945
226	0xbd9afda0	-0.075679064
227	0xbd962701	-0.07331658
228	0x3d05f53c	0.032704577
229	0xbc99cc65	-0.01877422
230	0x3d49ef38	0.049300402
231	0xbcbc78e2	-0.02300686
232	0x3bdcedf1	0.006742232
233	0x3be868b6	0.0070925606
234	0x3d1d15d9	0.038350914
235	0x3d850609	0.06495292
236	0xbcd29840	-0.025707364
237	0x3cfef5dc	0.031123094
238	0x3ce29e35	0.02766333
239	0xbcae446d	-0.021272862
240	0xbefc5040	-0.49279976
241	0xbce5fc5b	-0.028074434
242	0xbc94174f	-0.01807752
243	0x3c518dba	0.012790138
244	0xbc726c60	-0.014796346
245	0x3bc80567	0.0061041596
246	0xbcd78959	-0.02631061
247	0x3d78f723	0.060782563
248	0x3f42fd1a	0.7616745
249	0xbe348143	-0.17627434
250	0xbeab31b9	-0.33436373
251	0x3ec73570	0.38907957
252	0xbec185eb	-0.37797484
253	0x3d890190	0.06689751
254	0xbd9da119	-0.076967426
255	0xbcb930da	-0.022606302

layer1.bias f4 [64]
0	0x3d09e6d4	0.0336674
1	0x3de36620	0.11103463
2	0x3e1785c5	0.14797123
3	0xbe29a2b0	-0.16565967
4	0xbe1ff35e	-0.15620181
5	0x3e2a89e1	0.16654159
6	0x3d825667	0.06364136
7	0xbea28ead	-0.31749478
8	0xbcd51a15	-0.026013413
9	0xbcc94891	-0.024570735
10	0x3e6b097c	0.22952837
11	0xbce4e110	-0.02793935
12	0x3e0a7ca7	0.13524114
13	0xbdb907dd	-0.09034703
14	0x3deff8f6	0.117174074
15	0x3dc9789f	0.0983746
16	0x3b375013	0.0027971312
17	0x3d83ebcf	0.06441461
18	0x3cc027ad	0.023456419
19	0x3d036552	0.03207905
20	0x3db02afe	0.0860195
21	0x3db8095f	0.089861624
22	0xbbe59b4d	-0.0070070387
23	0x3e187367	0.14887773
24	0x3e337ecd	0.1752884
25	0x3e20e4ee	0.1571233
26	0xbadfdde8	-0.0017079683
27	0x3db795ed	0.08964143
28	0xbd6676e4	-0.056265727
29	0x3d0145ee	0.03156083
30	0x3dce7457	0.10080784
31	0x3dc4d7fa	0.09611507
32	0xbd078737	-0.033087935
33	0x3d4f1d8b	0.050565284
34	0x3e0125b2	0.12612036
35	0x3e4f0cd7	0.20219742
36	0x3c3b747c	0.011441346
37	0x3cfac036	0.030609231
38	0x3df08cd6	0.11745612
39	0x3dc09fdb	0.0940549
40	0x3d187e07	0.037229564
41	0xbe08cb3f	-0.13358782
42	0xbe438433	-0.19093399
43	0x3e3edd78	0.18639171
44	0x3c4f6c58	0.0126601085
45	0x3caea4ba	0.021318782
46	0xbdd294df	-0.10282301
47	0x3d8152cc	0.063146204
48	0xbdfe1677	-0.124066286
49	0x3ddf587c	0.10905549
50	0x3e7553da	0.23957768
51	0xbd17cd62	-0.037061103
52	0x3e40d629	0.18831696
53	0x3e1efe5f	0.15526722
54	0x3e2fa643	0.17153268
55	0x3dac7656	0.08421008
56	0x3de6cc3f	0.112694256
57	0x3c094f75	0.00838076
58	0x3e1643b8	0.1467427
59	0x3de2b0f1	0.11068905
60	0xbe1e0b7a	-0.15434065
61	0x39fdaa4f	0.0004838281
62	0x3c8c6e37	0.017142398
63	0xbd6ecd65	-0.05830135

layer2.weight f4 [64, 64]
0	0x3cc5ec6f	0.024160592
1	0xba494ea8	-0.0007679262
2	0xbf0a4d24	-0.5402396
3	0x3e0cf56f	0.137655
4	0x3e8cf74e	0.27532429
5	0xbc1c6b40	-0.009547055
6	0x3d92295e	0.071367964
7	0x3e0b6666	0.1361328
8	0x3e56c0da	0.20972005
9	0xbd7621f6	-0.06009098
10	0x3cce6794	0.025195874
11	0xbc1eae8e	-0.009685172
12	0xbe9b4780	-0.30327988
13	0x3dd9f3ee	0.10642229
14	0x3b4b113a	0.003098561
15	0x3da64689	0.08118922
16	0xbec1b620	-0.37834263
17	0xbdbb5f93	-0.09149089
18	0x3e7d2df5	0.24724562
19	0x3dd2e50f	0.10297596
20	0x3bc087c6	0.0058755605
21	0x3dd543c0	0.10413313
22	0x3d7247d0	0.059150517
23	0x3d5820bc	0.052765593
24	0xbda9924e	-0.082798585
25	0x3dfd01b1	0.12353838
26	0x3e18447a	0.14869872
27	0xbe5d4587	-0.21608554
28	0x3e35ffb0	0.17773318
29	0xbc74534a	-0.014912436
30	0xbd4bbf66	-0.04974308
31	0xbd120fbb	-0.035659533
32	0xbead13df	-0.33804223
33	0xbe24334f	-0.16035198
34	0xb72c1dd5	-1.0258945e-05
35	0x3d399009	0.04530338
36	0x3e019a53	0.12656526
37	0x3d478d6b	0.04871885
38	0x3d082f51	0.03324825
39	0x3e9cf4d5	0.30655542
40	0xbe8202bb	-0.25392708
41	0x3c843436	0.016138177
42	0xbb0998d9	-0.0020995645
43	0xbe866f32	-0.2625671
44	0x3dce7b27	0.10082083
45	0x3dbfdef1	0.093686946
46	0x3d522040	0.051300287
47	0xbda161aa	-0.07879956
48	0x3dffd643	0.12492039
49	0x3d02a841	0.03189874
50	0xbd42906d	-0.047501016
51	0xbe8f446b	-0.27981886
52	0x3cadf321	0.021234097
53	0x3daad4fb	0.08341404
54	0x3d18a840	0.03726983
55	0x3d66c8ff	0.05634403
56	0xbf0c6c3d	-0.5485266
57	0xbf15d238	-0.58523893
58	0xbd0e950c	-0.03481011
59	0xbbf21f66	-0.007388997
60	0x3efbba6f	0.49165675
61	0x3d42acd8	0.047528118
62	0x3dcfd643	0.10148289
63	0xbd4499ab	-0.04799811
64	0x3d416652	0.04721672
65	0xbc8a7e19	-0.016905831
66	0x3e4d164f	0.20028041
67	0x3d7938be	0.06084513
68	0xbded991a	-0.116014674
69	0x3c99424b	0.018708369
70	0xbde186f8	-0.11012071
71	0xbd945667	-0.072430424
72	0xbe80df3c	-0.25170314
73	0x3d9039c2	0.070422664
74	0x3f1e642b	0.61871594
75	0xbcb98961	-0.022648515
76	0x3e3730a0	0.17889643
77	0xbe831526	-0.25602072
78	0xbcfd8fa8	-0.03095229
79	0xbdb8873f	-0.09010171
80	0x3ebd8026	0.37011832
81	0x3e0d24a8	0.13783514
82	0xbe43b0eb	-0.19110458
83	0x3d4c56fc	0.049887642
84	0xbdf3c3b4	-0.11902562
85	0x3d975207	0.07388692
86	0xbdbdf784	-0.092757255
87	0xbd730a70	-0.059336126
88	0x3be588e7	0.0070048454
89	0xbde28c5b	-0.11061927
90	0x3c74f7cd	0.014951658
91	0xbdc186bc	-0.09449527
92	0xbe165821	-0.14682056
93	0xbd0a691b	-0.033791643
94	0xbdbefce9	-0.093255825
95	0xbd7d71de	-0.06187617
96	0x3e917042	0.28405958
97	0x3e7f2965	0.24918135
98	0xbd0d7f14	-0.03454502
99	0xbb56f0f3	-0.0032797426
100	0xbe3366d8	-0.175197
101	0xbe4544c2	-0.1926451
102	0xbd61dc5a	-0.055141784
103	0xbe8f404a	-0.27978736
104	0x3e94abce	0.29037327
105	0x3d95845e	0.07300638
106	0x3e5c2f93	0.21502523
107	0x3e92fa75	0.2870671
108	0xbf22ee23	-0.6364462
109	0xbe82ce4a	-0.2554801
110	0x3e556dba	0.20842639
111	0xbc41ad3b	-0.0118210865
112	0xbdc2ddae	-0.09514938
113	0xbe00e62a	-0.125878
114	0x3e021e50	0.12706876
115	0x3ebfacb7	0.37436458
116	0x3e1cfd87	0.15331088
117	0xbd26a068	-0.04068032
118	0xbdbf4411	-0.093391545
119	0xbc50702e	-0.012722058
120	0x3db52a4f	0.0884596
121	0xbe6e6c7f	-0.23283575
122	0xbdb16aab	-0.086629234
123	0x3ccf3591	0.025294097
124	0xbf27cea0	-0.6554966
125	0xbedd1967	-0.43183443
126	0x3e46175f	0.19344853
127	0x3d8660c6	0.06561427
128	0x3d627d02	0.055294998
129	0xbd12b44e	-0.035816483
130	0xbdef5f01	-0.116880424
131	0x3eba35fe	0.36369318
132	0xbf705d15	-0.9389203
133	0xbda5b083	-0.080903076
134	0x3e076d88	0.13225377
135	0xbd6efc91	-0.058346335
136	0xbe1011d6	-0.14069304
137	0x3e34a188	0.17639744
138	0xbd84cd66	-0.06484489
139	0xbc9143a9	-0.017732458
140	0xbed78bc7	-0.4209883
141	0xbe8fab40	-0.2806034
142	0x3e36faf6	0.17869172
143	0xbd02e3f0	-0.03195566
144	0xbe922459	-0.28543356
145	0xbdfd2b8a	-0.1236182
146	0xbd9ab852	-0.075546876
147	0x3e00b533	0.12569122
148	0x3ae5b60d	0.0017525569
149	0xbd09c8b8	-0.033638686
150	0x3d697e2e	0.0570051
151	0xbda7ee99	-0.08199806
152	0x3ca3c53c	0.01999151
153	0x3cd8a279	0.02644466
154	0xbd8c826d	-0.06860814
155	0xbf743d91	-0.9540644
156	0x3ef3e5e4	0.4763633
157	0x3e58279e	0.21108863
158	0xbdba4fc1	-0.09097243
159	0x3e576137	0.21033178
160	0x3e961773	0.29314765
161	0x3de55a89	0.11198909
162	0x3e139c93	0.14415197
163	0x3e0fdefb	0.14049904
164	0xbe4e1171	-0.20123841
165	0xbb9a3670	-0.0047061965
166	0xbde22f51	-0.11044181
167	0x3e8f0500	0.27933502
168	0x3e8684a9	0.26273087
169	0xbe286980	-0.16446495
170	0xbd9b537a	-0.07584281
171	0x3e790e9a	0.24321976
172	0xbe14a581	-0.1451626
173	0x3ce26428	0.027635649
174	0x3e1bf15a	0.15228787
175	0x3eb01244	0.34388936
176	0xbe1e04a4	-0.15431458
177	0x39dd4f62	0.0004221155
178	0xbd22a6e6	-0.039709948
179	0x3e7a42fb	0.24439614
180	0x3df8d163	0.12149312
181	0x3d002c07	0.031291988
182	0x3db26264	0.08710173
183	0xbd373136	-0.044724666
184	0x3dff8270	0.12476051
185	0x3dbdc8ac	0.09266791
186	0x3c28ee06	0.010310655
187	0x3e50a57a	0.20375624
188	0x3e2d0290	0.16895509
189	0xbf1ff02c	-0.6247585
190	0x3e2f88cc	0.17142028
191	0xbed57d8b	-0.41697344
192	0xbe52ff96	-0.20605311
193	0x3cd667a7	0.026172472
194	0x3e46f357	0.19428764
195	0xbe756639	-0.23964776
196	0xbd5b10f4	-0.053482965
197	0xbc4e385f	-0.012586682
198	0xbe08bf08	-0.13354123
199	0xbd6c4eeb	-0.05769245
200	0x3dad4bef	0.08461749
201	0x3c3ebef6	0.011642208
202	0xbf1531e0	-0.5827923
203	0x3cf50985	0.029911766
204	0x3de5fd50	0.11229956
205	0xbd9a1e84	-0.07525352
206	0xbe024fb8	-0.12725723
207	0xbe2baedd	-0.16765924
208	0x3e00f858	0.12594736
209	0x3e0f25e3	0.13979296
210	0xbe85b058	-0.26111102
211	0xbe24666b	-0.16054694
212	0x3d4a1c8e	0.049343638
213	0xbddeca88	-0.108784735
214	0xbdd83964	-0.105578214
215	0x3cbf6684	0.023364313
216	0x3e664737	0.22488104
217	0xbd8567aa	-0.06513913
218	0xbe8d03d2	-0.27541977
219	0x3ec3f4b2	0.38272625
220	0xbcb82fa9	-0.022483664
221	0xbd5feae0	-0.054667354
222	0x3d4eb6f8	0.05046746
223	0x3cfc65c3	0.030810243
224	0x3c139776	0.009008279
225	0xbdefbb7a	-0.1170568
226	0x3d128577	0.035771813
227	0x3c656bb1	0.014002726
228	0xbe740c54	-0.23832828
229	0xbe35b89c	-0.17746204
230	0xbd00469b	-0.031317335
231	0x3d44062a	0.04785744
232	0xbda4e5b5	-0.08051626
233	0x3e821606	0.25407428
234	0x3d8c6700	0.06855583
235	0xbe477074	-0.19476491
236	0x3db2c523	0.08729007
237	0xbddcde7a	-0.107846215
238	0x38545252	5.0621406e-05
239	0xbb5c6ff9	-0.0033636077
240	0x3de51a39	0.11186642
241	0xbdcb5665	-0.09928588
242	0x3e9e9754	0.3097483
243	0x3e7127e2	0.2355037
244	0xbd8439ed	-0.06456361
245	0x3d7fe1de	0.062471263
246	0xbda5e577	-0.081004076
247	0xbb933e05	-0.0044934773
248	0x3db4da29	0.08830673
249	0x3d7bafbe	0.061446898
250	0x3dddeaa4	0.1083577
251	0xbdb37b5c	-0.08763763
252	0x3e370534	0.17873079
253	0x3f00b547	0.5027661
254	0xbf85d6b6	-1.045615
255	0x3e5cc814	0.21560699

layer2.bias f4 [64]
0	0xbc40673f	-0.011743366
1	0x3e02c12c	0.12769002
2	0x3d302197	0.043000784
3	0x3e037b98	0.12840116
4	0x3cf1aba2	0.029500786
5	0x3e2263f2	0.15858439
6	0x3dbe261b	0.09284612
7	0x3da357fb	0.07975765
8	0x3ca4c161	0.020111741
9	0xbd1753e4	-0.03694524
10	0x3ce4fe44	0.027953275
11	0xbd7afdf6	-0.061277352
12	0x3d417a90	0.047236025
13	0x3d101b45	0.035182256
14	0x3c971173	0.018440938
15	0x3de9f159	0.114229865
16	0x3dbd13b1	0.092322715
17	0x3dd45727	0.103681855
18	0xbcbcddb2	-0.023054931
19	0xbcbd7629	-0.023127632
20	0x3d6b4c8c	0.057446048
21	0xbe30197f	-0.17197226
22	0x3da78a84	0.08180717
23	0x3e37013e	0.17871568
24	0x3e05251c	0.13002437
25	0x3d5c47a2	0.053779252
26	0x3e00c58c	0.12575358
27	0x3d96ec56	0.07369296
28	0xbd834255	-0.06409136
29	0x3d839005	0.06423954
30	0x3c8018e6	0.015636873
31	0x3da27d17	0.07934015
32	0xbd4631de	-0.0483874
33	0xbb408f35	-0.0029382233
34	0x3c74e6de	0.014947621
35	0x3e01d6f7	0.12679659
36	0xbd242cc8	-0.04008177
37	0x3da48dd3	0.08034863
38	0x3dcf9622	0.101360574
39	0x3b93e290	0.0045130923
40	0x3e2558d9	0.16147174
41	0xbe050905	-0.12991722
42	0xbcb25178	-0.021767363
43	0x3d04959b	0.032369237
44	0x3db68e25	0.08913831
45	0xbd7290d7	-0.05922016
46	0x3ded6b0c	0.11592683
47	0xbd2fe2c6	-0.042940877
48	0x3b58830e	0.00330371
49	0xbd6757ee	-0.05648034
50	0xbc329434	-0.010899592
51	0xbd7977e2	-0.060905345
52	0x3c82f539	0.015986072
53	0x3e16d773	0.14730625
54	0x3cf998ec	0.030468427
55	0xbe001ac8	-0.12510216
56	0xbb42c067	-0.0029716732
57	0x3d38e899	0.045143697
58	0x3c054669	0.008134463
59	0x3ca0c2e6	0.019624185
60	0x3dc826dd	0.097730376
61	0xbd3f38d5	-0.04668506
62	0x3d4cb8fe	0.04998111
63	0x3c56ac2c	0.013102572

layer3.weight f4 [6, 64]
0	0x3ab982e9	0.0014153394
1	0x3edb610c	0.42847478
2	0xbeaa2c69	-0.33237007
3	0xbdd692bc	-0.10477206
4	0xbe33ee99	-0.17571487
5	0x3e2cefe1	0.16888382
6	0x3e2eaea8	0.17058814
7	0x3e0f656b	0.14003532
8	0x3dcc2530	0.099680305
9	0x3e1dc194	0.15405875
10	0x3f2f499b	0.6847169
11	0xbec17e83	-0.37791833
12	0x3e37181e	0.17880294
13	0x3ef7929e	0.48354048
14	0xbeac5926	-0.33661765
15	0x3e1f5119	0.1555828
16	0x3e5168fb	0.20450203
17	0x3e510771	0.20412995
18	0xbf146593	-0.5796749
19	0xbf4f8dfb	-0.8107602
20	0x3dad68a9	0.08467228
21	0xbf192276	-0.5981821
22	0x3e2fdd03	0.17174153
23	0x3e398d46	0.18120298
24	0x3e49ca7e	0.19706151
25	0xbf47009e	-0.77735317
26	0x3db4fc55	0.08837191
27	0x3d8111cc	0.063022226
28	0x3d5ccaf0	0.053904474
29	0x3e0425f8	0.12905109
30	0xbee6507b	-0.44983277
31	0x3d9b059c	0.07569429
32	0x3e72c1e9	0.23706783
33	0xbe89d2e0	-0.26918697
34	0xbee2149f	-0.44156358
35	0x3e7540c2	0.23950484
36	0xbc2260da	-0.0099107865
37	0xbf1d0a64	-0.6134398
38	0x3dcb7fa3	0.09936454
39	0xbdd40ed1	-0.103543885
40	0x3dfd55eb	0.12369903
41	0x3f3a9572	0.72884285
42	0x3dd75fda	0.10516329
43	0xbde06163	-0.10956075
44	0x3cd2de67	0.025740815
45	0x3e1ca99c	0.15299076
46	0x3e182698	0.14858472
47	0xbd2ebb95	-0.04265936
48	0x3e581abf	0.21103953
49	0x3e2f0bbc	0.1709432
50	0xbe86baca	-0.26314384
51	0x3db0aa42	0.08626224
52	0x3df50581	0.119639404
53	0x3e38f61d	0.18062635
54	0x3ed8eb0a	0.4236682
55	0xbe598983	-0.21243863
56	0xbf65f00b	-0.898194
57	0xbf667afd	-0.90031415
58	0xbca5669c	-0.02019053
59	0xbe120156	-0.14258322
60	0x3e2830b6	0.16424832
61	0xbe23900f	-0.15972923
62	0x3e9871ad	0.29774228
63	0x3e16c8fc	0.14725107
64	0x3df03ae5	0.11729983
65	0x3ea644fa	0.324745
66	0x3f07f583	0.53108996
67	0xbf548ed5	-0.83030444
68	0xbeba248f	-0.36356017
69	0x3e329224	0.1743856
70	0x3e211092	0.15728977
71	0x3dda8ed7	0.10671776
72	0xbeda7978	-0.42670798
73	0xbe988541	-0.29789165
74	0x3f251572	0.6448585
75	0xbee7d10c	-0.45276678
76	0x3e3836eb	0.179897
77	0x3ef17dfb	0.47166428
78	0xbfa5fd34	-1.2967896
79	0x3da04521	0.07825685
80	0x3e9d65e1	0.3074179
81	0x3da167c4	0.0788112
82	0xbec2730b	-0.37978396
83	0xbec5f268	-0.38661504
84	0x3e0c64d2	0.13710335
85	0x3d7392cd	0.059466172
86	0x3e3afb0c	0.1825983
87	0x3e191505	0.14949425
88	0x3e41f6fc	0.18941873
89	0xbf42222e	-0.75833404
90	0x3dd6206a	0.10455401
91	0x3de72411	0.11286176
92	0x3d87cac5	0.06630472
93	0x3e058a1e	0.13040969
94	0x3ef17ad9	0.47164038
95	0x3dfb16bc	0.122601956
96	0x3eda60dd	0.42652026
97	0x3ee5fb20	0.44918156
98	0xbe2d7636	-0.16939625
99	0x3e64eb60	0.22355413
100	0x3cdc2635	0.026873687
101	0xbf0d2d98	-0.55147696
102	0x3e1124dd	0.14174218
103	0x3f12ae41	0.5729714
104	0x3dc333d0	0.09531367
105	0x3e6c6e75	0.23089011
106	0xbb952326	-0.004551309
107	0xbebc0d3d	-0.3672885
108	0xbea53c56	-0.32272595
109	0x3c5fbe47	0.0136562055
110	0x3e353e9b	0.17699663
111	0x3b91b99f	0.0044471766
112	0x3db14472	0.08655633
113	0x3e4b7fa4	0.1987291
114	0x3dd7a0ff	0.105287544
115	0x3ed48ebd	0.4151515
116	0xbc972565	-0.018450448
117	0x3d50ceeb	0.050978582
118	0x3ed0e525	0.40799823
119	0xbf96121d	-1.1724278
120	0xbf55d41c	-0.8352678
121	0x3e265e0b	0.16246812
122	0x3e7c4edf	0.24639462
123	0xbdbb3a82	-0.09142019
124	0x3e14068a	0.1445562
125	0xbc9cf47e	-0.019159552
126	0x3d9a85e0	0.07545066
127	0xbea02f77	-0.31286213
128	0x3e3ff365	0.18745191
129	0x3eed4603	0.46342477
130	0xbf509599	-0.8147827
131	0xbe78b5d9	-0.2428812
132	0xbe90ef26	-0.28307456
133	0x3e1157cc	0.14193648
134	0x3e308e65	0.17241819
135	0x3df69b69	0.12041361
136	0xbcb6d6f6	-0.022319298
137	0xbee35264	-0.44398797
138	0x3f22209a	0.63330996
139	0xbf00d5d6	-0.5032629
140	0x3e020abf	0.12699412
141	0x3f0c4b42	0.54802334
142	0xbec6d45f	-0.388339
143	0x3ded98fd	0.11601446
144	0x3e8edd0b	0.27903017
145	0x3e535717	0.20638691
146	0xbe89b053	-0.26892337
147	0xbe406d3f	-0.18791674
148	0x3e406a2b	0.187905
149	0xbf4c5083	-0.7981035
150	0x3d8c99df	0.06865286
151	0x3df4d2d3	0.11954274
152	0x3de23166	0.11044578
153	0xbf2d32c1	-0.6765557
154	0x3e23dafc	0.16001505
155	0x3e24cdbe	0.1609411
156	0x3cd9bb4e	0.026578572
157	0x3e2ec062	0.17065576
158	0x3ecf776c	0.405208
159	0x3da1fde1	0.07909752
160	0x3e8ebf6a	0.27880412
161	0xbf0b6688	-0.54453325
162	0xbe8e6833	-0.27813873
163	0x3e6df46b	0.2323777
164	0x3c48a280	0.012245774
165	0xbee4bd62	-0.44675738
166	0x3e15fee8	0.1464802
167	0xbd025ab6	-0.03182479
168	0x3e163275	0.14667685
169	0x3ef8aaed	0.48567906
170	0x3e52eb61	0.20597602
171	0xbf0769fb	-0.5289609
172	0xbeeaf71f	-0.45891663
173	0xbdb5cac0	-0.08876562
174	0x3e53c8ef	0.20682119
175	0xbc9527db	-0.018207481
176	0xbd3a4486	-0.045475505
177	0xbf6613fb	-0.8987424
178	0xbecb3905	-0.3969194
179	0x3df1d7b7	0.118087225
180	0x3df5f8e3	0.12010362
181	0x3e01df95	0.12682946
182	0x3e11f043	0.14251809
183	0xbe4162ac	-0.18885297
184	0xbf248837	-0.6427035
185	0x3ea50ee6	0.3223793
186	0x3edf9fdc	0.4367665
187	0x3e82fddf	0.25584313
188	0x3e328ebb	0.1743726
189	0xbf46167e	-0.7737807
190	0x3e5b75a4	0.21431595
191	0x3ea886c2	0.32915312
192	0x3e4fe0ec	0.20300645
193	0x3e7d7667	0.24752198
194	0x3f2faf5a	0.6862694
195	0xbeec98b6	-0.4621026
196	0xbf2553fb	-0.6458127
197	0x3cb36045	0.02189649
198	0x3e159bd3	0.14610223
199	0x3e2ad315	0.16682084
200	0x3e97438b	0.2954372
201	0x3da074ad	0.07834754
202	0x3f26e79b	0.6519715
203	0xbe7f4ba1	-0.24931194
204	0x3dfa3965	0.122179784
205	0x3f557879	0.8338695
206	0xbf6046bc	-0.8760793
207	0x3e2144b3	0.15748863
208	0x3e982e18	0.29722667
209	0x3df8add0	0.12142527
210	0xbf5aa3e8	-0.8540635
211	0xbf803a14	-1.0017724
212	0x3e13b989	0.14426245
213	0xbd5bd75b	-0.053672176
214	0x3e333439	0.1750039
215	0x3dfa856b	0.12232479
216	0x3d6766e0	0.056494594
217	0xbf1dde57	-0.6166739
218	0x3df4e5dd	0.119579054
219	0x3e1850c3	0.14874558
220	0x3e121876	0.14267144
221	0x3e1f86b9	0.15578736
222	0xbe96f7dc	-0.29485977
223	0x3e0d41a6	0.13794574
224	0xbe2ad376	-0.16682228
225	0x3f345695	0.70444614
226	0xbee9c54f	-0.45658347
227	0x3e04493e	0.12918565
228	0x3d1de974	0.038552716
229	0xbf0344ba	-0.51276743
230	0x3e161df5	0.14659865
231	0x3e8189e1	0.25300506
232	0x3e1280a4	0.14306885
233	0x3f136f5c	0.57591796
234	0x3e8c5b23	0.27413282
235	0x3ed512e4	0.41615975
236	0xbec11e12	-0.37718254
237	0x3e5e9bef	0.21739171
238	0x3d82ad4f	0.06380712
239	0xbd095497	-0.033527937
240	0x3d5e2ceb	0.054242056
241	0xbea7e603	-0.32792673
242	0xbe8548ac	-0.26032007
243	0x3e148274	0.14502889
244	0x3e7b7964	0.24558026
245	0x3e150ab3	0.14554863
246	0x3c8d9786	0.017284166
247	0xbf637566	-0.8885101
248	0x3cd1d3ca	0.025613684
249	0x3e316a2e	0.1732566
250	0xbe3cbcf7	-0.1843146
251	0x3e823a77	0.2543523
252	0x3cbb2e3f	0.0228492
253	0xbf2afa23	-0.6678793
254	0x3e541409	0.20710768
255	0x3e2a3bd3	0.16624384

layer3.bias f4 [6]
0	0x3d39f201	0.04539681
1	0x3c3e743c	0.011624392
2	0x3d0cd40d	0.034381915
3	0x3d58b66a	0.05290834
4	0x3e851e60	0.25999737
5	0x3b91fff7	0.004455562
