drl_deep_project/scripts/our_agent/models/dqn_20250118_144734.pt (torch, 29376 bytes, 6 tensors)

layer1.weight f4 [64, 32]
00000000: 84da 683e 9298 4b3d b318 acbd 5c5b babd
00000010: e096 19be 885b 1b3e 8b35 d0bd b3ea 02be
00000020: 4a62 3bbd cb1f 893b cd90 543a 2e21 e53d
00000030: afbb 1c3f 965c b33b f30c 69be 7c7f 5ebe
00000040: 6320 3b3e 0b01 58be 2bd9 893d e04e 36bd
00000050: 9ac6 643e ccfc b13c 49ea 1d3e 3b02 5d3e
00000060: 3c09 c5bc e105 79be 21aa 383e bfa6 553e
00000070: 84a8 973d 82a9 8c3e bcd0 b8be cf9d f03d
00000080: 8943 91bd d49b 23bb 62b2 1a3e 6bdd 3e3e
00000090: 0612 5cbd cd51 43bf 1920 69bd e664 09be
000000a0: e33f 34bf 24d2 603b 6524 49bd a6eb 8bbd
000000b0: b932 54be 64e0 f53d a960 7b3e bea9 cd3d
000000c0: ae3e 183f 3522 afbb 385e 3cbc bf89 d2be
000000d0: 0b66 c33e 32aa 13be ff79 cdbe 4c80 00bd
000000e0: 69e6 aa3d 3e09 8c3b f64c 733e e97b c9bd
000000f0: b5a3 d6bb e67f d5bd 2239 60ba 5d29 1cbd
00000100: 72ec 4ebd e77c 68bd 0fd4 d5bd f51b 903b
00000110: 7913 03be ced3 5bbd a3a3 1dbe 5f01 12bd
00000120: 3787 7a3e 929a 123e dc78 cc3e 08b5 76be
00000130: c18b 043e 4fb0 05bd fc73 9ebe dd3d 35be
00000140: 8af4 3e3e 16cf cb3d 5175 1e3f 350e 31be
00000150: 8ec9 f43e d7ab a33c ce2c 5cbe 1c3f dabc
00000160: 3a9f ab3d 0b1d a8bf e51f 1b3e 5587 963c
00000170: 5ff5 553b 1ec9 283e dc9f 3fbe f881 e8bc
00000180: ae41 6b3c fa9c adbd abe6 233e f3f1 aebd
00000190: 9f9e 2cbd 05c0 3d3e a69b 3d3d 5bbd febd
000001a0: e4e3 b2bf 9254 98be e961 c0bd 2b31 e8bd
000001b0: 0de1 ab3d 5c9a 833c e47f 0fbe 4674 49bd
000001c0: 68b7 a5bf 06bd 57be a1d7 5ebe 565a b3be
000001d0: 6679 02bf c006 263e d715 623d bde8 ef3a
000001e0: eacb 3a3e 20b8 0bbe d1ef d3bd 593a cb3c
000001f0: d369 10bd 15ec f03c cfd1 df3d 6d52 143b
00000200: d85e b6bd 9b0e 33bd f9c8 7cbd b957 51bd
00000210: 9d48 a8bd 76df a8bd 5de0 033d 6a42 403e
00000220: 8f98 96be ac3b d53e a4aa 2c3c 7f7a 8e3e
00000230: 43e4 ae3e 2ad4 7e3e b64b f03c cd93 0ebe
00000240: 9bb4 92be 2889 a73e 03e4 403e d29d b4be
00000250: 49bf b13e c109 723e defb f53d a9ac 4ebe
00000260: 73df 5e3e e0f1 29c0 7514 af3e a82a b4bd
00000270: 7655 933e 24db 5c3e 0a68 39bf 2c3d 763a
00000280: e05c 29be 4c36 78be e9ca a1be ffae f13c
00000290: 4ac4 eebd 9601 e9bc 18c9 3bbd e6fe 52bc
000002a0: 5133 3a3d 78f8 1bbf a983 b33e 5def 0d3e
000002b0: cee3 c53e 0150 1a3e b733 adbe e6d6 77bd
000002c0: 40d5 383f c001 98bd c629 41be d4bc 7fbc
000002d0: 1ff2 66bf 8d02 08bf 3497 943e 5483 133e
000002e0: c015 d2bc 8e17 953d 48fa 5b3e 6265 a23d
000002f0: 5b75 6e3c c9e1 a2bb 8d66 733e 2107 23bd
00000300: 2de3 0e3e 38d6 84bd 7f4a 833e ab4f 0fbe
00000310: cc0a ff3c 072c f73c ce91 03bb fd5b 433b
00000320: 6a18 873f 3b08 c6be 86d2 fcbe 854d 00bf
00000330: 6e5a 233e 9cff 35bd feba 35bc ec1a 683e
00000340: 5501 113f bf79 2a3d 8b6a 54be 46a7 fa3d
00000350: 9a37 debc 1b88 a33d bcc9 693d d95c 28be
00000360: e28f 23bd d375 96bd 3ad6 72bc 095d 25bd
00000370: 8318 9b3c 9d78 10be 99d6 4ebe 685d 8c3c
00000380: 351f 493d 8aea 703c 8cc7 80bd 1a10 eabc
00000390: b849 aabd 1792 7dbd ce96 cf3d a09a a1bd
000003a0: 1134 de3e c4a2 643e 2354 2b3d 8fdf 673e
000003b0: 137d 313e da3c 003e bb0f c9ba 5f5f 9ebd
000003c0: ba53 0b3f 4bf5 c8be 1b4f 20bf c3e8 733e
000003d0: f804 9f3e 5b99 2b3c aa23 09bf fda2 8ebe
000003e0: 0ae7 51bd 6875 bf3d 6a51 bb3e 5b33 13be
000003f0: 0b27 cd3d 6fc0 e83d 07d5 0b3e 0dce 0bbd
0.22739607 0.04970605 -0.084031485 -0.09099457 -0.1499896 0.15171635 -0.101664625 -0.12784843
-0.045748033 0.004184698 0.0008108735 0.11187969 0.6122388 0.0054736836 -0.22758846 -0.21728319
0.18274073 -0.21094148 0.06730875 -0.044508815 0.22341385 0.021726988 0.15421404 0.21582882
-0.024052255 -0.24318649 0.18033649 0.2086439 0.07405189 0.27473074 -0.36096752 0.117488496
-0.070929594 -0.0024964707 0.1510711 0.18639152 -0.053728126 -0.76296693 -0.056915376 -0.13417396
-0.70409983 0.003430494 -0.049106974 -0.06832056 -0.20722474 0.1200569 0.24548592 0.100421414
0.5947064 -0.005344654 -0.011497073 -0.41120717 0.3816379 -0.14420393 -0.40132138 -0.031372353
0.083447285 0.0042735627 0.23759827 -0.09838087 -0.006550277 -0.10424785 -0.00085534353 -0.038125385
-0.05051846 -0.05675974 -0.104408376 0.004397864 -0.12800397 -0.05366879 -0.15394454 -0.03564584
0.24465643 0.14316776 0.39935958 -0.24092495 0.12943937 -0.032638844 -0.30947864 -0.1769938
0.18647972 0.09951608 0.6189776 -0.17290576 0.47810024 0.0199794 -0.21501467 -0.026641421
0.083799794 -1.3133863 0.15148886 0.018375078 0.0032647473 0.1648297 -0.18713325 -0.028382286
0.014358921 -0.084772065 0.16005962 -0.08542242 -0.04214346 0.18530281 0.046291016 -0.124384604
-1.3975797 -0.29752022 -0.09393675 -0.11337503 0.083925344 0.016064815 -0.1401363 -0.049183153
-1.2946596 -0.210682 -0.21761943 -0.35029858 -0.5096649 0.16213512 0.05519661 0.0018303614
0.1824185 -0.13644457 -0.10348476 0.024808096 -0.03525717 0.029409448 0.1092869 0.0022632137
-0.08904809 -0.0437151 -0.0617151 -0.05110905 -0.08216975 -0.08245747 0.03219639 0.18775335
-0.29413268 0.4164709 0.010538731 0.27827832 0.34158525 0.24885622 0.029332977 -0.13923569
-0.28653416 0.3272183 0.1883698 -0.35276657 0.34716251 0.23636533 0.120109305 -0.20183052
0.21764927 -2.6553879 0.34195295 -0.087971985 0.2877614 0.2156797 -0.72424376 0.00093932706
-0.16539335 -0.24239463 -0.3160012 0.02950239 -0.11658533 -0.028443139 -0.045846075 -0.012878155
0.045459095 -0.6092601 0.35061386 0.13860841 0.38650364 0.15069582 -0.33828518 -0.060507677
0.72200394 -0.07422209 -0.18863592 -0.015608985 -0.902132 -0.5312889 0.2902161 0.14405566
-0.025645137 0.07279883 0.21482193 0.079294935 0.014554347 -0.0049707633 0.23769589 -0.03980172
0.13953848 -0.064861715 0.25642774 -0.13995235 0.031133078 0.030172361 -0.002007592 0.0029809468
1.0554326 -0.38678154 -0.49379367 -0.50118285 0.15952465 -0.04443322 -0.011091946 0.2266652
0.5664266 0.041620012 -0.20743768 0.12238936 -0.027126122 0.079849444 0.057077155 -0.16441669
-0.03993214 -0.07346692 -0.014821583 -0.04037193 0.018932587 -0.1410851 -0.2019905 0.017134383
0.049102027 0.014704356 -0.062880605 -0.028572131 -0.08314842 -0.0619069 0.101361856 -0.078908205
0.433991 0.22327715 0.041828286 0.22643875 0.17332868 0.12523213 -0.0015339771 -0.07733034
0.5442463 -0.39249644 -0.62620705 0.2381926 0.31058478 0.0104735745 -0.53570044 -0.27858725
-0.051245727 0.09348565 0.36585552 -0.1437506 0.100172125 0.11364829 0.13655482 -0.034132052

layer1.bias f4 [64]
00000000: a213 813e c6f2 e03d f9e5 5bbd a14f 363c
00000010: 55ee 5f3e d9cd 883d 0716 43bd 2d37 223e
00000020: 0183 a639 696a ffbc 3ca5 76bd f807 483e
00000030: 2196 9bbd 5724 b03d 90f1 89bd 2f15 00bd
00000040: c33d a1bd ddcc 36bb 4f91 303e 250b 2d3d
00000050: 00c8 f9bc 3361 073e a63d afbc 69a2 f73d
00000060: 7464 853e 766d 2c3d 01cd 813e 89ca 43be
00000070: e999 053e 6430 eb3a 9beb 133e 29b0 1a3e
00000080: ed72 e73d 0e87 cebc e05e 003d e946 b43c
00000090: 5b74 223e 950c b4bd e5e3 883d 0b41 843d
000000a0: 8e2d b8bd 22ae 823d ce01 053e cf00 8ebc
000000b0: e2ba 003d fe59 40bd cba2 d7bd 89c1 823c
000000c0: 9516 fb3d 6d87 0fbe 88f1 803d 260e 27bd
000000d0: b97d 933e 0241 f83d a2fb 713c 6ab3 143d
000000e0: 472c 50bc 8a18 873d 3502 543e 506d 013e
000000f0: a2e6 42bd 6fb4 debc e943 86ba a681 043e
0.2521029 0.10983805 -0.053686116 0.011127383 0.2186826 0.06679887 -0.04762843 0.1584136
0.00031759593 -0.03117867 -0.060216174 0.1953429 -0.07596994 0.08600681 -0.067355275 -0.031270202
-0.07873108 -0.0027893104 0.17242931 0.042246956 -0.030490875 0.13220672 -0.021391701 0.12091524
0.26053202 0.042096578 0.25351718 -0.1912023 0.13046993 0.0017943499 0.14445345 0.15106262
0.11301217 -0.025210883 0.03134048 0.022006469 0.15864699 -0.08791462 0.066840924 0.064577185
-0.08993064 0.063808694 0.1298897 -0.01733437 0.031428225 -0.046960823 -0.10529097 0.015961425
0.122601666 -0.14016505 0.062960684 -0.040784977 0.28806856 0.12121774 0.014769467 0.036303915
-0.012705869 0.06596477 0.20703967 0.12639356 -0.04758323 -0.027185647 -0.0010243627 0.12940082

layer2.weight f4 [64, 64]
00000000: fa26 b53d 2e63 303e 3a78 073e 41fc 9c3d
00000010: 7a9e 9fbc ae0c b53e 8123 4fbe 4630 76bd
00000020: f351 573c 75c5 7c3d 3750 33bd 701c 8e3e
00000030: 39f4 0e3f 4642 1ebe 084a 6a3e 2ee9 7fbc
00000040: d269 b93d 6dc3 a43e 9f89 8bbe fd67 f33d
00000050: 06cf c6bd d072 dabd d112 48be 4d86 3c3e
00000060: 81c3 8c3d c1e7 a33e 3c9f 00bd a7e0 913d
00000070: d526 483d 7c61 773c 5f6a 06be 24ce c73e
00000080: 82ca 5ebd ebc3 38be f71e 1bbd 6bd9 363e
00000090: 58a0 2abd 41f9 9a3d 28fb 2c3b 39a2 483e
000000a0: dd48 9ebe 620c 423e d1f1 673d 77d7 9dbe
000000b0: c95d 253e 21d7 5d3d 282e bcbe eb8f 26be
000000c0: bbce c03e 03ad 3c3e 416b e93d 94e7 cabd
000000d0: 8a2c c9bd ca41 1bbd ff60 493d ec65 a23e
000000e0: d498 c73d aa26 163c 4104 e5bb c05c 463d
000000f0: 31d8 0dbd 75aa 9dbe bb19 983c 4021 fabc
00000100: e166 82be c4b7 07bd f5b2 b53c d79f 813e
00000110: 9de5 583e 0e66 0f3f 2e70 f33e 2621 42be
00000120: 32b4 edbc 6cee 403e 78f5 53bd df8c 513e
00000130: a329 52bd 861f e43c aff5 57bd 1828 c1bd
00000140: eb7c 583d 52b3 7a3e ca99 98be 9c03 823c
00000150: c6b3 bc3e e4a2 723e bc97 ee3e 8d11 1abd
00000160: 1bae da3d ac16 823d 4e88 743e 5a9e c43d
00000170: 8102 b13e e366 4b3d 6a27 053e 501e 68be
00000180: bebf c1bd a6be cabe 92f3 0d3f 4fe5 2b3f
00000190: b17d 97bd f61d 973d e2cf a73e 7d7a 853e
000001a0: d55c 27bf cfcd a73e a064 48be 72a2 873d
000001b0: 5d68 583e 4d63 7e3d bcdf 053d 10c0 e0bd
000001c0: 36ae 40be 520c a0bd 5722 d33c 12b6 97bd
000001d0: 0664 07bf 41fb 883e 358c afbd 6a48 57be
000001e0: 1ebd c2bd d278 8e3e ec06 5a3e 29ce f23e
000001f0: 76c1 a4bd 5ff3 773d 296f 7bbb 95c2 813e
00000200: f391 5b3d 01e5 49be 92ca ce3d 8241 373e
00000210: 4ad0 06be f0a4 9a3e 6150 3e3e 1e12 4bbe
00000220: e64c 223e fe70 dd3e 7086 66be c478 183c
00000230: d5b2 4dbe b8db 37be dada 7fbe e13d d6bd
00000240: 1f9f c3be 3c38 db3d a8a4 33bb d605 73bd
00000250: c8e0 f5bd cc04 96bd 32fc 243f 31dd 13be
00000260: 74b1 263d 7279 643e f747 2cbd 490d f13d
00000270: acda 2c3d 1659 063f 210e 493e b963 8bbe
00000280: 8b7c bfbe 3271 acbe 00c2 b03e 44db a93e
00000290: c7d7 0cbe b66f 8a3d 3236 1a3e 959a a73e
000002a0: 12a7 93be 8e01 6d3d 3f50 84bd a28d d5bd
000002b0: 358e 4cbd a32d 673d 1016 b0be 0a1f 0abe
000002c0: 90ed ddbd 89b0 cb3e dae7 b53e 86d7 f43b
000002d0: 8dd9 76bc b80d f33d 37e5 d23d a8e3 bc3d
000002e0: 37ff e13d 4a14 11be 3394 153c 4cf2 933e
000002f0: 6cd1 36bd 21df 363d 227b 893d 4c66 173e
00000300: e88e 8c3e 7240 c53e 5d95 3d3e 2fca cdbe
00000310: 0f03 003f 6852 54bf a8c2 2bbf 2b56 8d3e
00000320: 4498 273c 523c a4be 85bd 2eba e215 b3bd
00000330: 1b20 21be de2f 403e b614 ce3e 4d89 9f3e
00000340: f6ae 3f3d 4248 8cbf d8d1 593d 15dc 10be
00000350: 2d22 febc 86c7 f73e efa4 dabe 77b4 5fbd
00000360: 49e1 babd 4ffa e7bd a945 c93c 7a50 0f3f
00000370: 3ab5 353e 5b3b a53e 5f25 20bf c841 783e
00000380: c639 b1be 18c5 8f3e 7a9c a33e 7147 97be
00000390: 5be4 84bc 5aa6 41bd 801b 6c3d 20bd 63be
000003a0: 9df1 203e 8f5b a9bf 667a 5bbe b71f 7f3e
000003b0: ec7e 9fbf ecf8 36bd 1a7c b33e 9aab 493c
000003c0: 815e d63d ebe4 b3bd 0cdb 54be edb2 a5bd
000003d0: f25f 0e3e ee7d 0e3e 2fd7 62be 70e8 b7bd
000003e0: 11b5 97be cb02 ebbe 4350 95be d22b 2abe
000003f0: f34e 263e c9e0 0dbe 49d1 05be 930f dbbe
0.08845325 0.17225334 0.13229457 0.07665301 -0.019484747 0.35361236 -0.20228387 -0.06010463
0.013142097 0.061711747 -0.04377767 0.2775607 0.55841404 -0.15454969 0.22879803 -0.015619559
0.09053387 0.32180348 -0.27253434 0.118850686 -0.09707455 -0.1066643 -0.19538428 0.18410607
0.06873227 0.32012752 -0.031401858 0.07122927 0.048865158 0.015098926 -0.13126515 0.3902446
-0.054392345 -0.18043487 -0.037871327 0.17856376 -0.041656822 0.07567073 0.0026394818 0.19593133
-0.30914965 0.18950036 0.0566271 -0.3082845 0.16149057 0.05416024 -0.36753964 -0.16265838
0.37657723 0.18425374 0.1139741 -0.09907451 -0.09822948 -0.03790454 0.04916477 0.31718385
0.097459465 0.009164492 -0.0069890325 0.048428297 -0.034630004 -0.3079411 0.018566957 -0.030533433
-0.25469115 -0.033134237 0.02218006 0.2531726 0.2118134 0.560151 0.47546524 -0.18957958
-0.029016588 0.1884095 -0.05174777 0.20463894 -0.05130924 0.027847063 -0.052724537 -0.094314754
0.052853506 0.24482468 -0.29804832 0.015870862 0.36855906 0.2369495 0.4660014 -0.037614394
0.10677739 0.063519806 0.23880121 0.09600516 0.34572223 0.049658667 0.13003317 -0.22667813
-0.094604 -0.39598578 0.55449784 0.6714677 -0.073970206 0.073787615 0.3277579 0.26070014
-0.65376025 0.32774207 -0.19569635 0.06622781 0.21133561 0.06210642 0.032684073 -0.10974133
-0.18816456 -0.0781485 0.02577321 -0.07407774 -0.52887 0.26754192 -0.08571664 -0.21023718
-0.095087275 0.27826554 0.21291703 0.47422913 -0.08044712 0.06053483 -0.0038365817 0.25343767
0.053605985 -0.19716264 0.10097231 0.17896083 -0.13165393 0.30203962 0.1858535 -0.1983113
0.15849647 0.4325027 -0.22512221 0.0093061365 -0.2008775 -0.1795491 -0.24985829 -0.10461021
-0.38207337 0.10704085 -0.0027411375 -0.059331737 -0.12005764 -0.07325134 0.6444732 -0.14439847
0.040696576 0.22311953 -0.04206082 0.11770112 0.04220073 0.52479684 0.19634296 -0.2722452
-0.37399706 -0.3368011 0.3452301 0.331751 -0.13754188 0.067595884 0.15059736 0.32735124
-0.28838402 0.05786281 -0.06460618 -0.10427405 -0.049940307 0.056440007 -0.34391832 -0.13488403
-0.10836327 0.39783123 0.3552845 0.0074719815 -0.015066517 0.11867851 0.102976255 0.092231095
0.110350065 -0.14167896 0.009129572 0.28895795 -0.044633314 0.044646386 0.06712939 0.14785117
0.2745278 0.3852573 0.18514009 -0.40193316 0.5000467 -0.8293824 -0.67093897 0.27604803
0.010229174 -0.3207727 -0.0006665814 -0.08744408 -0.15734904 0.1876826 0.40250176 0.3115944
0.046797715 -1.0959551 0.05317864 -0.14146455 -0.031022156 0.48394412 -0.4270396 -0.054615464
-0.09125001 -0.113270395 0.02456935 0.5598217 0.17744914 0.32271847 -0.62557024 0.24243844
-0.3461439 0.28080058 0.3195532 -0.29546693 -0.01622217 -0.047277786 0.057643414 -0.22240114
0.15717168 -1.3231066 -0.2143341 0.24914442 -1.2460608 -0.044670984 0.3505562 0.012308979
0.10467244 -0.08783897 -0.20786685 -0.08090768 0.13903788 0.13915226 -0.22152399 -0.08979881
-0.2963033 -0.45900568 -0.29162797 -0.16618279 0.16241054 -0.1385528 -0.13068117 -0.4278532

layer2.bias f4 [64]
00000000: 77f3 ae3b b299 113d 5fe9 da3d bc8f 213e
00000010: 73f1 fe3d 4e24 643d 49c3 f63d 45d1 463d
00000020: 34ca be3d 430d 043d 41c7 b83d 1179 2f3e
00000030: 6e9e 373d 6f6d 803c 379f 81bd 2614 e83d
00000040: 4479 3b3d ebb1 f6bc c7b8 84bd 3670 b139
00000050: 4210 17bd 4d69 8dbd f047 063e 17f4 cbbd
00000060: 8869 fa3d 90c3 a7bc 1214 153e 01b2 d6bb
00000070: ebea 1dbd 296f c93d 6289 7f3d 9ce4 893d
00000080: 6d28 a33d 1596 153d 6eb9 a93b 06ea c23d
00000090: 4940 013d 17a8 6ebd 02dd 633c 64ff c63d
000000a0: 8efa 923c b90f a53d e76d febd fb40 923e
000000b0: 3780 ca3d 1842 bfbc dd2c 5d3e dc35 323e
000000c0: fdc0 ab3d 2343 2a3e 2bc8 e3bd f44d f13c
000000d0: 8dd8 0cbd 83ff 0f3d 090c 62bd aaec 7c3e
000000e0: f1c7 33bb 4cb4 523d 9504 303d 5129 cb3d
000000f0: 380f cf3d ee9d 30bc 131d 243e 52c5 ea3c
0.005339082 0.035546966 0.10689043 0.15777487 0.124483965 0.055698685 0.120489664 0.04853942
0.09315911 0.03223921 0.0902238 0.17136027 0.044828825 0.015677182 -0.06329196 0.11331968
0.045769945 -0.030114135 -0.06480556 0.00033843674 -0.03688074 -0.0690485 0.1311338 -0.09958666
0.1222716 -0.020478994 0.14558437 -0.0065519814 -0.038554113 0.09835655 0.062386878 0.06733057
0.07966695 0.036520083 0.0051795756 0.09517293 0.031555448 -0.05826577 0.013907673 0.09716681
0.01794174 0.080596395 -0.12423306 0.285652 0.09887736 -0.023346946 0.21599145 0.17403358
0.08386419 0.16627173 -0.111221634 0.029456116 -0.034386206 0.035155784 -0.05518726 0.24699655
-0.0027432407 0.051441476 0.04297312 0.0991999 0.101103246 -0.010779841 0.16026716 0.028658543

layer3.weight f4 [6, 64]
00000000: 29f2 babe 7f9a d53d 5d5b 0cbe 20e3 023f
00000010: 1d3d d0bd ce67 aebe 5e57 23be 68bd d6bd
00000020: 0318 503e b535 bd3e d135 333f c592 cd3d
00000030: 32ac e9bf 4536 4c3e ec71 283f f01e e7be
00000040: 390e b63d 17c9 513e b094 62bf cf72 6abe
00000050: c79e 803f 3df5 d53e 9323 b9be 3c81 943e
00000060: cbf7 a8be 7718 cabf 3d44 ba3e eace afbe
00000070: 3410 a9be 32f2 de3d 7ec0 03be 1cc3 67be
00000080: 4f1e bd3d a464 b1be 602c 463e 3bd0 0bbe
00000090: 6a49 2d3c f5b1 e6be 7d83 c23d edb3 8fbe
000000a0: 5792 9bbe 7f3c f9bd 6176 2dbf ba9c c63e
000000b0: ffa8 2cbd d371 e3b9 556b 843e 769b f53e
000000c0: de11 02bf 5660 4cbe e2b0 913f 6c53 9cbe
000000d0: c045 f4be 540c f7bc 6e22 e8be 0ba5 ba3e
000000e0: 6d4a 9d3e cfe0 3b3f ee72 8d3f bd44 243d
000000f0: 5ff8 613e 7501 45be 803e 5e3e 8973 303e
00000100: bd92 8abe 98f1 f9be be36 17bf 35d2 833e
00000110: d9c3 b53e 4139 873d c963 03bf 356c d4be
00000120: 785f 8e3e 8cd7 12bf 662f e13e 50e8 a93e
00000130: 58c7 fabe dbf8 a8bd 95e1 ba3e 9fbd 60be
00000140: 8f65 6cbe b4b8 c83e 33df 5abf 40c8 a7bd
00000150: 4a74 b13f 7a2d 943d f9ff 193e 2121 973d
00000160: f62f 423d 04e3 aabf 5970 85be c80f 50be
00000170: 6e91 15be e0fd d2bd e44e e43c 6f74 57be
00000180: 9693 9f3e 3b74 a6bf d6a2 f93e 643b 98bb
00000190: d069 39be d9eb 9dbe a67d 3cbe 1765 37be
000001a0: 3063 29be 7f3b d03e a9ac b8bd ab31 9d3e
000001b0: 0c23 183f b81f 87bc d8e7 333e 7299 e13d
000001c0: 919f afbe d42c 1abe 1b79 743f 20c9 3bbe
000001d0: 32df 343d eb55 d1be 02c1 d8be 4f24 cc3e
000001e0: 7f63 fb3e c418 4b3f b941 4e3f 9b1f b0bc
000001f0: 24fe 793f 2da8 5cbe 2d59 e43d ec5d cf3e
00000200: aca5 c73d e113 2fbe 88e8 91be e7bf 883f
00000210: b155 05be dd18 3abe 1da8 60bf 9392 a9be
00000220: 408e 803d d628 44be f04c 133f 640c cd3e
00000230: 85c1 31bd 282c 6bbe b2d7 113f 1001 83be
00000240: adaa a0be 1a2a 963e 4bc8 c1be fba7 493f
00000250: 7b87 a23e a83c 143f d6c8 f73d 705d f93d
00000260: 394c 16bf 6270 acbe 6d4e 2e3f 9036 a2be
00000270: 2301 9abe 854d 6c3e e34e 4d3e 994f 61be
00000280: c613 8a3d 093d bbbf 4133 e93e 0819 29be
00000290: 52f1 d93e 591e 7d3d 634c 73bd 07a6 83be
000002a0: fafb c4bd 2b83 8c3d 3b6c f93e fab0 043e
000002b0: 1e96 ad3e 155c 8abd d376 083e bf88 4f3e
000002c0: ce38 e7be d38b a3be 7f0e 623f 5e4f a9bd
000002d0: c255 363e e8b4 20bf b0b4 9abf 9f9c 873e
000002e0: 53ad 693f ec44 393f 9412 663f 590a debe
000002f0: d469 453f 2915 1abe 2ee6 3bbf 26b1 493f
00000300: 240d 2fbd 3b6b 03bf c49b 95be 0461 313f
00000310: ba79 673e 4ec4 7c3e a9ca eebe 2f55 8ebe
00000320: e980 453e e07e 283e a30d 0f3f 07da cf3d
00000330: c462 b6bf c736 4a3e 0c4b 0c3f 21d7 793b
00000340: 1334 d1be 03c5 f7be d185 95bd 17c7 273e
00000350: 5aaf 153f 8764 c93e db22 d6be 7628 9dbe
00000360: c4ad b1bd 4f63 f8be 198c 5b3f c02e b93d
00000370: 9a63 3fbe 839c 313e 1567 823e dfd9 cebd
00000380: 9b6c 353e 790d d7be 917e c23e 1c9a febe
00000390: 6b41 51bd df24 a6be 15a5 b7be a4cf babe
000003a0: ebde 36be 0bf3 c03c 6aa3 c0be aa89 aa3e
000003b0: 8a2e 063f 027e 50bc 1580 eb3e b72b 193e
000003c0: 3feb 18bf 272c 403d dffb 993f ef07 b1be
000003d0: c12f a7be adbc d4be e2e4 8dbf b420 ed3e
000003e0: add6 dabe 22ca 4a3f d9fe 9a3f 2709 73bd
000003f0: 9421 033f 9031 48be 932e e7be a686 013e
-0.3651288 0.104298584 -0.13706727 0.51127815 -0.101679064 -0.34063572 -0.15951297 -0.10485345
0.2032166 0.36955038 0.7000399 0.1003776 -1.8255675 0.19942577 0.6579883 -0.4514079
0.088894315 0.20486866 -0.8850813 -0.22895359 1.0048455 0.41788664 -0.36159953 0.29004848
-0.3300155 -1.5788716 0.36380187 -0.3433755 -0.33020175 0.10886039 -0.12866399 -0.22633022
0.092342965 -0.34647095 0.19352865 -0.13653652 0.010576585 -0.45057645 0.09497736 -0.2806696
-0.30385086 -0.12169742 -0.67758757 0.38791448 -0.042153355 -0.0004338162 0.25863138 0.4797017
-0.50808513 -0.19958624 1.1382105 -0.30532396 -0.47709465 -0.030157246 -0.45338768 0.36454043
0.30720845 0.73389906 1.1050699 0.040104616 0.22067402 -0.19238837 0.2170353 0.17231573
-0.27065077 -0.48817134 -0.59067905 0.25746313 0.35500982 0.06602717 -0.51324135 -0.41488805
0.27807212 -0.5736015 0.43981475 0.33185053 -0.48980212 -0.082505904 0.3650023 -0.21947335
-0.23085617 0.39203417 -0.85496825 -0.081924915 1.3863614 0.072352365 0.15039052 0.07379366
0.04740902 -1.335053 -0.26062277 -0.2031852 -0.14606258 -0.10302329 0.02786965 -0.2104051
0.31167287 -1.3004221 0.48757046 -0.004645752 -0.1810677 -0.30844 -0.18407306 -0.17909656
-0.16541743 0.40670392 -0.09017307 0.30701956 0.5942848 -0.016494617 0.1756891 0.110155955
-0.34301427 -0.15056163 0.9549729 -0.18338442 0.044158168 -0.40885863 -0.42334753 0.3987145
0.49099347 0.79334664 0.80569035 -0.021499446 0.9765341 -0.21548529 0.111498214 0.40501344
0.09748396 -0.17097427 -0.2849772 1.0683564 -0.1302097 -0.18173547 -0.8775652 -0.3311964
0.06277132 -0.19156203 0.5753927 0.40048516 -0.043397445 -0.22966063 0.5696975 -0.25586748
-0.31380215 0.29328996 -0.37848124 0.7877194 0.31743988 0.57905054 0.12098853 0.12176025
-0.58710057 -0.3367949 0.6808842 -0.31682253 -0.30078992 0.23076446 0.20049624 -0.2200302
0.06742053 -1.4628001 0.45546916 -0.16513455 0.42566925 0.06179652 -0.05939902 -0.25712606
-0.09618373 0.06860956 0.48715386 0.12958136 0.33903593 -0.067558445 0.13326578 0.20267008
-0.45160526 -0.31942615 0.8830337 -0.08267091 0.17806152 -0.6277604 -1.2086391 0.2648668
0.91280097 0.7237079 0.898721 -0.4336727 0.77114606 -0.15047134 -0.733981 0.7878593
-0.04273714 -0.51335496 -0.29220402 0.6928866 0.22605029 0.2468426 -0.46638992 -0.27799365
0.19287457 0.16454649 0.55880183 0.10149007 -1.4248891 0.19747458 0.5480201 0.0038122612
-0.40860042 -0.48392496 -0.07300914 0.1638454 0.5847069 0.3933451 -0.41823468 -0.30694932
-0.08675721 -0.48513266 0.8576065 0.0904212 -0.18690339 0.1734486 0.2546927 -0.10100149
0.17717211 -0.42002466 0.37987188 -0.4972695 -0.051087778 -0.32450005 -0.35868135 -0.36486542
-0.17858474 0.023553392 -0.37624675 0.33308154 0.5241476 -0.012725355 0.45996156 0.14958082
-0.5973396 0.046917107 1.202999 -0.34576365 -0.3265362 -0.41550198 -1.1085474 0.46314013
-0.4274191 0.7921468 1.2109023 -0.0593349 0.5122311 -0.19550157 -0.4515272 0.1264902

layer3.bias f4 [6]
00000000: 3244 823d 4fde 59bc 6a2b 11bc 135a abbc
00000010: 1179 f43d a1d2 493b
0.063606635 -0.013297631 -0.008860448 -0.020916974 0.11937154 0.003079571
