drl_deep_project/scripts/our_agent/models/dqn_20250121_221849.pt (torch, 64512 bytes, 6 tensors)

layer1.weight f4 [128, 52]
0	0x3c560f5c	0.013065185
1	0x3dc54049	0.09631402
2	0x3e02e1ce	0.1278145
3	0xbdcfb8bd	-0.10142658
4	0x3d6d0c7c	0.057873234
5	0x3d2bc3b8	0.0419347
6	0x3dd21630	0.10258138
7	0x3e0127e3	0.12612872
8	0x3dd4bbb0	0.10387361
9	0x3e2ff7cc	0.17184371
10	0x3d246033	0.040130805
11	0xbd8365b1	-0.064158805
12	0x3e06f853	0.13180666
13	0x3de92f19	0.11385936
14	0x3df3e4a6	0.119088456
15	0xbdb3e160	-0.08783221
16	0xbdd2f9e2	-0.103015676
17	0x3deb2314	0.114813
18	0x3dba8fc4	0.09109452
19	0x3e07a783	0.13247494
20	0xbc9ce578	-0.019152388
21	0x3d23f70e	0.04003053
22	0xbd95bc59	-0.07311315
23	0x3d24d858	0.040245384
24	0xbde182c6	-0.11011271
25	0x3e0e7f70	0.13915801
26	0xbdf0bf5c	-0.11755249
27	0xbde69117	-0.112581424
28	0xbab35838	-0.0013682907
29	0x3dbb9b79	0.091605134
30	0xbd6e0f25	-0.05811991
31	0xbc1d4bc6	-0.009600585
32	0xbc44eb32	-0.012018966
33	0xbd86b22d	-0.06576953
34	0xbd9124bb	-0.07087084
35	0xbe53649f	-0.20643853
36	0xbd35027a	-0.044191815
37	0xbdee99c8	-0.11650425
38	0x3d84ebc2	0.0649028
39	0x3da0be1e	0.07848762
40	0x3ceb6e80	0.028739214
41	0xbdaf3376	-0.08554737
42	0xbb8830ca	-0.0041562067
43	0x3d487b46	0.048945688
44	0x3cce7ea0	0.025206864
45	0x3dc06184	0.093936
46	0xbd3581e1	-0.044313315
47	0xbbd99620	-0.0066402107
48	0xbd8738c1	-0.06602622
49	0xbe3b5e94	-0.18297797
50	0xbd860a51	-0.065449364
51	0xba91a170	-0.0011110734
52	0x3d23f178	0.040025204
53	0x3e0117c9	0.1260673
54	0x3d1902bc	0.037356123
55	0x3e00dd60	0.12584448
56	0x3d07bb46	0.033137582
57	0xbcc8a032	-0.02449045
58	0x3bd4094c	0.006470835
59	0x3e71fa62	0.2363067
60	0xbda38dc3	-0.07986023
61	0x3d8977b7	0.06712287
62	0x3d8c8cc5	0.06862787
63	0xbd92d02c	-0.07168612
64	0xbe0fb022	-0.14032033
65	0x3e507297	0.20356213
66	0x3d820354	0.06348291
67	0x3e0ba7c7	0.1363822
68	0xbd2f6c60	-0.042827964
69	0x3df88631	0.1213497
70	0x3d9c49f7	0.07631295
71	0x3d941b8e	0.07231818
72	0xbd5059a8	-0.050866753
73	0xbcac1d65	-0.02101011
74	0xbda6a0b7	-0.08136123
75	0xbd9ff897	-0.078110866
76	0x3c64a616	0.013955614
77	0x3bb336fc	0.005469201
78	0xbddf49a0	-0.10902715
79	0xbd09ac0a	-0.033611335
80	0x3daa1190	0.08304131
81	0x3c7e4430	0.015519187
82	0xbe1a8596	-0.15090021
83	0x3e0b908d	0.1362936
84	0x3bed8ec0	0.007249683
85	0x3c60f052	0.013729172
86	0x3b059d8a	0.002038809
87	0x3d1453e9	0.036212835
88	0xbcef8a1c	-0.02924066
89	0xbd90aba4	-0.07063988
90	0x3e099d11	0.13438822
91	0x3e046783	0.12930112
92	0x3d40d18a	0.047074832
93	0x3b67dba4	0.0035378719
94	0x3de8995c	0.11357376
95	0xbcb73804	-0.022365578
96	0x3d0cdca3	0.034390103
97	0x3d8db899	0.06919975
98	0x3e2ab240	0.1666956
99	0x3d956cd8	0.07296151
100	0xbb14da87	-0.002271326
101	0x3c228434	0.009919215
102	0xbe4fea2c	-0.20304173
103	0x3dbc93ec	0.09207901
104	0x3cbc1ecb	0.022963902
105	0xbddb82cd	-0.10718308
106	0x3d69768b	0.056997817
107	0xbd631ac0	-0.055445433
108	0xbdeb15d3	-0.11478772
109	0x3e39a745	0.18130215
110	0x3ddcdac8	0.10783917
111	0xbe05de06	-0.13072976
112	0xbd2448b3	-0.040108394
113	0x3c42faff	0.011900662
114	0x3d17db38	0.037074298
115	0x3d61864a	0.05505971
116	0x3da52462	0.0806358
117	0x3d47cf90	0.04878193
118	0x3e015ded	0.12633486
119	0xbd80678e	-0.062697515
120	0xbc80e0a6	-0.01573212
121	0xbe4a31f5	-0.1974562
122	0x3cc4be94	0.024016656
123	0x3dbcfe86	0.09228234
124	0x3d8c26fa	0.06843372
125	0xbd949f06	-0.07256894
126	0x3c8c56a4	0.017131157
127	0xbd2f3ab3	-0.04278059
128	0xbdf5a7a9	-0.11994869
129	0x3df64452	0.1202475
130	0xbe061b41	-0.13096334
131	0x3d22c2a6	0.039736412
132	0x3d9076a8	0.07053882
133	0x3d9d2a37	0.076740675
134	0x3e682470	0.2267015
135	0x3d2ab61e	0.041677587
136	0xbcefad18	-0.029257342
137	0xbd513125	-0.05107226
138	0x3d5c393e	0.053765528
139	0xbd1a0be7	-0.037609007
140	0xbd27ee3c	-0.040998682
141	0x3cc2ca9a	0.023778249
142	0xbd959686	-0.07304101
143	0xbdbc0c02	-0.09181978
144	0xbdc3acce	-0.09554444
145	0x3d01ecea	0.03172008
146	0x3e05fc35	0.1308449
147	0x3d304084	0.043030277
148	0x3dffa32b	0.12482294
149	0x3ddf84bf	0.10913991
150	0xbe16cd70	-0.14726806
151	0x3d16e178	0.036836118
152	0xbd8cf59e	-0.06882785
153	0x3d97dc98	0.07415122
154	0xbd45d63d	-0.048300017
155	0xbe432bfb	-0.19059746
156	0xbe2dcc1b	-0.16972391
157	0x3d3ff696	0.046866022
158	0x3d995040	0.074860096
159	0x3d70a8ee	0.058754854
160	0xbddc1231	-0.10745657
161	0xbdedad3e	-0.11605309
162	0xbd028ff8	-0.03187558
163	0xbdb147c0	-0.08656263
164	0x3da5ab2a	0.080892876
165	0xbcf7da5a	-0.030255485
166	0x3a17ab79	0.0005785744
167	0xbb67ef90	-0.0035390593
168	0xbe1e5f66	-0.15466079
169	0xbdec345d	-0.11533425
170	0xbdd31704	-0.10307124
171	0x3d88bcba	0.06676622
172	0x3dfcdd40	0.123468876
173	0xbcc1221c	-0.023575835
174	0xbe49843b	-0.19679348
175	0x3c376558	0.011193596
176	0x3ac38b72	0.0014918877
177	0x3d4f6a68	0.050638586
178	0x3cccc1d0	0.02499476
179	0x3cbdc5ee	0.02316567
180	0x3df9d0b0	0.12198007
181	0xbde87559	-0.11350507
182	0x3cccedb4	0.02501569
183	0xbd9e1f06	-0.07720761
184	0xbcabdcb2	-0.02097926
185	0xbd0bd086	-0.03413441
186	0x3d992cc2	0.0747924
187	0x3dceae58	0.10091847
188	0x3d115a90	0.035486758
189	0xbd40985a	-0.047020294
190	0xbd65c77e	-0.056098454
191	0xbe0d7c77	-0.13817011
192	0xbdc0d99f	-0.09416508
193	0xbdaddf2c	-0.08489832
194	0x3db32f2a	0.0874923
195	0xbc21cece	-0.009875966
196	0x3de23cec	0.11046776
197	0x3cd56c1c	0.026052527
198	0xbdb9344c	-0.09043178
199	0xbcb5dc64	-0.022199817
200	0x3dd7edd5	0.1054341
201	0x3d341121	0.043961648
202	0x3df8f18c	0.121554464
203	0xbc66c614	-0.014085311
204	0x3d92de6c	0.0717133
205	0xbc77ae75	-0.015117277
206	0x3e193f96	0.14965662
207	0xbe048c4e	-0.12944147
208	0x3e25e624	0.16201073
209	0x3d7d05d4	0.061773136
210	0xbc220506	-0.009888893
211	0x3db6499a	0.08900757
212	0x3dede76a	0.11616404
213	0x3afc965b	0.0019270884
214	0xbd61f250	-0.055162728
215	0xbd57681a	-0.052589513
216	0xbc9a1994	-0.018811025
217	0x3d2efdba	0.04272244
218	0xbdae50ad	-0.085114814
219	0xbdba902a	-0.09109528
220	0x3cf9a302	0.030473236
221	0xbd226682	-0.03964854
222	0x3d072376	0.032992803
223	0xbdc0fc27	-0.09423094
224	0x3c329c78	0.010901563
225	0x3d8a912f	0.06765973
226	0xbde474d0	-0.11155093
227	0x3d0bc76e	0.034125738
228	0x3e006b2b	0.12540881
229	0xbd1aafcc	-0.03776531
230	0x3dcab8a5	0.098984994
231	0x3e26e575	0.16298468
232	0xbdbda310	-0.09259617
233	0x3e14b0f0	0.14520621
234	0xbcf48224	-0.029847212
235	0xbdc82d88	-0.097743094
236	0xbdd5c1f6	-0.10437386
237	0xbc80ad72	-0.015707705
238	0xbddb43ec	-0.107063144
239	0xbd3f4e74	-0.046705678
240	0xbdb3f316	-0.08786599
241	0x3df164fa	0.11786838
242	0xbc6c6870	-0.014429197
243	0x3e382fd1	0.1798699
244	0x3dcf6642	0.10126926
245	0xbdf94acc	-0.121724695
246	0x3c0890d8	0.008335315
247	0xbd86a152	-0.06573738
248	0x3e030523	0.12794928
249	0xbdd81a70	-0.105519176
250	0xbdca0f02	-0.09866144
251	0xbd141f62	-0.03616274
252	0x3d892efb	0.06698414
253	0x3e0fd80c	0.14047259
254	0xbe1b50ca	-0.15167537
255	0xbbbca419	-0.0057568667

layer1.bias f4 [128]
0	0x3ddbbcca	0.10729368
1	0x3a8db338	0.0010810858
2	0x3c4d26f7	0.012521497
3	0x3dfc0255	0.12305132
4	0x3d1a75f6	0.037710153
5	0x3d9ddef7	0.07708543
6	0x3dbcb58b	0.09214314
7	0x3da91089	0.08255107
8	0xbd519d2a	-0.051175274
9	0x3d923e3d	0.07140777
10	0x3df080d6	0.117433235
11	0x3e07708a	0.13226524
12	0xbdd34ba4	-0.10317162
13	0x3dc28244	0.094975024
14	0x3deb4c65	0.114891805
15	0x3c83ce5c	0.01608961
16	0xbd01a0c6	-0.031647466
17	0xbd086f0a	-0.03330902
18	0xbd2e4e68	-0.042555243
19	0xbd777202	-0.06041146
20	0x3dffb446	0.12485556
21	0xbc8c2ece	-0.017112162
22	0xbd659886	-0.05605366
23	0xbc7a55af	-0.015279218
24	0xbd2488c4	-0.040169492
25	0x3cda6d5f	0.02666348
26	0x3befe5ec	0.00732111
27	0x3dd9bfb5	0.10632268
28	0x3dd75d50	0.10515845
29	0x3ded8638	0.11597866
30	0x3d5c71fd	0.053819645
31	0xbdbd1a33	-0.09233513
32	0x3d87267b	0.065991364
33	0x3dd95dc2	0.10613586
34	0x3e09da3a	0.13462153
35	0xbc3cc98b	-0.011522661
36	0x3e087a56	0.13327917
37	0x3e07347e	0.13203618
38	0x3e153edb	0.14574759
39	0x3bc8f416	0.006132613
40	0x3e035554	0.12825519
41	0x3d5888b5	0.05286475
42	0x3e30aa21	0.17252399
43	0x3d8762b8	0.06610626
44	0xbd71db00	-0.059046745
45	0x3d9d4209	0.07678611
46	0xbd9ed4b0	-0.07755411
47	0x3e349762	0.17635873
48	0x3d9e6c1d	0.07735465
49	0x3e0367a7	0.12832509
50	0x3d82332d	0.06357417
51	0x3c870810	0.016483337
52	0xbdbc89ee	-0.092059955
53	0xbd9d229a	-0.07672615
54	0x3ad7c5b6	0.0016462121
55	0xbd3b1f38	-0.04568407
56	0xbda366c8	-0.07978588
57	0xbd671e3c	-0.056425318
58	0xbdb87c63	-0.090081
59	0xbdee99df	-0.11650442
60	0xbd3f0164	-0.046632186
61	0xbdc4076d	-0.09571729
62	0xbdc329ec	-0.0952948
63	0x3d6f5a39	0.058435652
64	0xbc83e77b	-0.01610159
65	0x3d91829a	0.071049884
66	0x3d806381	0.06268979
67	0x3d8d8664	0.069103986
68	0xbdcd6e7c	-0.10030839
69	0x3dea1554	0.11429849
70	0x3da6d787	0.08146577
71	0x3da6b8f1	0.081407435
72	0x3cc4d15f	0.024025617
73	0xbbdb3a2d	-0.0066902847
74	0x3d18baf6	0.037287675
75	0x3e1d91b4	0.15387613
76	0xbcae9517	-0.021311326
77	0x3d9d4f7e	0.076811776
78	0x3e308554	0.1723836
79	0x3e1ea0d1	0.15491034
80	0x3d13a999	0.036050413
81	0xbde4b619	-0.11167545
82	0xbb053b34	-0.0020329477
83	0x3c944c0b	0.018102666
84	0xbb2f00ab	-0.002670328
85	0x3e088841	0.13333227
86	0x3da49d6c	0.08037838
87	0x3de89262	0.11356045
88	0xbd62290d	-0.05521493
89	0xbd3d79f4	-0.04625888
90	0x3da5f760	0.08103824
91	0x3e058ace	0.13041231
92	0xbde5c966	-0.11220054
93	0x3e275557	0.16341148
94	0xbce9810e	-0.02850392
95	0xbd202f69	-0.039107714
96	0x3ddc81e7	0.107669644
97	0x3c0f6a95	0.0087534385
98	0x3ddbf9e1	0.1074102
99	0xbd28da45	-0.041223783
100	0xbc7e0452	-0.01550396
101	0x3dae8fcd	0.085235216
102	0x3da170d2	0.07882847
103	0xbc17db93	-0.009268659
104	0x3e013343	0.12617211
105	0xbd81bfc4	-0.063354045
106	0xbda17686	-0.07883935
107	0xbd96ad2e	-0.0735725
108	0xbce95185	-0.028481254
109	0x3e14a25d	0.14515062
110	0xbdb52fe7	-0.08847027
111	0x3d764085	0.060120124
112	0x3d0a3c75	0.033749063
113	0x3e13aed5	0.14422162
114	0x3de6c48e	0.112679586
115	0x3c8f9894	0.01752881
116	0x3e1b28a6	0.15152225
117	0x3d042b70	0.032267988
118	0x3da56884	0.080765754
119	0x3d431b18	0.04763326
120	0xbd9ccf8f	-0.07656776
121	0x3caf10d9	0.021370338
122	0xbc5a74cb	-0.01333351
123	0x3e181d13	0.14854841
124	0x3decbb81	0.11559201
125	0x3c1862de	0.0093009155
126	0xbdd076e3	-0.10178926
127	0x3c3fb9ce	0.011702014

layer2.weight f4 [64, 128]
0	0x3c4b45b1	0.012406752
1	0xbb272560	-0.0025504455
2	0xbd34797b	-0.044061165
3	0xbb3ea6c8	-0.0029091109
4	0xbd496451	-0.049167935
5	0xbcf5e568	-0.030016616
6	0xbd551c18	-0.052028745
7	0x3d07d9db	0.033166748
8	0x3d3c5255	0.045976955
9	0xbdc43aed	-0.09581552
10	0x3c9a0b9b	0.018804362
11	0x3d8c3484	0.06845954
12	0xbd533e55	-0.051573116
13	0xbadb445f	-0.001672875
14	0x3d39f9af	0.045404132
15	0xbb469327	-0.0030300112
16	0x3d2f4c07	0.042797115
17	0x3d20ed52	0.039288826
18	0xbcb58784	-0.022159345
19	0x3da664b5	0.08124677
20	0xbba057bc	-0.0048932713
21	0xbd82c8ff	-0.06385993
22	0x3d8f90f0	0.070100665
23	0xbd72fb12	-0.05932147
24	0x3c4374b2	0.011929678
25	0x3caa3d28	0.020781115
26	0x3d94502d	0.07241855
27	0xbc6ad7ae	-0.014333649
28	0xbd7f6907	-0.06235602
29	0x3cbec31b	0.023286393
30	0x3de361a8	0.11102611
31	0x3d4c43e0	0.04986942
32	0x3de15954	0.11003366
33	0x3db84d6b	0.08999141
34	0x3d116327	0.03549495
35	0x3dad3c69	0.08458788
36	0xbced547d	-0.028970951
37	0xbcbafb12	-0.022824798
38	0x3d5eabc8	0.054363042
39	0x3caa840c	0.020814918
40	0xbc0b8b79	-0.00851714
41	0x3ccd9137	0.025093658
42	0x39225986	0.00015482874
43	0xbd7bfac0	-0.06151843
44	0xbd5eb01f	-0.05436718
45	0xbd38a676	-0.045080625
46	0x3da05548	0.07828766
47	0x3d6308c4	0.05542828
48	0xbcd75c3a	-0.026289094
49	0x3db9ece4	0.090783864
50	0x3d9ea829	0.07746918
51	0x3d063348	0.03276375
52	0xbcd54c6d	-0.02603742
53	0x3d8e696c	0.069537014
54	0x3da97f75	0.082762636
55	0x3cb70a25	0.022343704
56	0x3d0e10f7	0.034684148
57	0x3cb14345	0.021638522
58	0xbd64dcbc	-0.05587457
59	0x3e257aac	0.16160077
60	0xbc6c6691	-0.014428751
61	0xbcb3f995	-0.021969596
62	0x3cc9fa2a	0.02465542
63	0xbc92ff4e	-0.017944004
64	0xbd55882a	-0.05213181
65	0x3e0e14ae	0.13875076
66	0x3d83f75d	0.06443665
67	0x3d0bd4c6	0.034138463
68	0xbd75d413	-0.060016703
69	0x3dc3a7fb	0.09553524
70	0xbd8f886a	-0.07008441
71	0xbdc3cd36	-0.09560625
72	0x3d96abd2	0.07356991
73	0x3d78f139	0.060776923
74	0x3d6badd1	0.05753881
75	0xbd723c59	-0.059139583
76	0x3d145a54	0.036218956
77	0xbd3951cf	-0.045244034
78	0xbd0b4d5b	-0.03400932
79	0xbce0398e	-0.027371194
80	0x3c816f1c	0.015800051
81	0xbe40d03c	-0.18829435
82	0xbd02e9a8	-0.031961113
83	0xbcbe0c35	-0.02319918
84	0x3e0aa70c	0.13540286
85	0xbced8cd8	-0.028997824
86	0xbda74bd8	-0.08168763
87	0x3db6f875	0.08934108
88	0x3a339612	0.00068506703
89	0x3cddf1a5	0.027092764
90	0xbe38190a	-0.17978302
91	0x3d5c3bef	0.053768095
92	0xbe4408db	-0.19144003
93	0x3d03cce8	0.032177836
94	0xbe02dcc3	-0.12779526
95	0xbd215e44	-0.03939654
96	0xbe011cfe	-0.12608716
97	0xbc984222	-0.018586222
98	0xbd45f65f	-0.04833066
99	0x3df950f9	0.121736474
100	0x3e0c217f	0.13684653
101	0x3d9cab27	0.07649832
102	0x3b443898	0.002994096
103	0x3dfb1f2a	0.122618034
104	0xbe1d34d4	-0.15352184
105	0xbd3dc1b1	-0.046327297
106	0xbdbd066e	-0.09229742
107	0xbd9ace40	-0.0755887
108	0xbc70b175	-0.014690747
109	0xbd882061	-0.06646801
110	0x3e365fb6	0.17809948
111	0xbd3f41d0	-0.046693623
112	0x3d7e2f70	0.06205696
113	0x3d1dce9f	0.038527127
114	0x3b533a5e	0.0032230834
115	0x3be99e4a	0.007129465
116	0xbc0adf40	-0.0084760785
117	0x3da2b9c1	0.07945586
118	0x3d90d3c2	0.070716396
119	0xbb3c3df2	-0.0028723446
120	0x3cea8bbb	0.028631082
121	0x3d1317d1	0.035911385
122	0x3e02c687	0.12771045
123	0x3c254c58	0.010089003
124	0xbb1ca2bd	-0.002390071
125	0xbdd82f69	-0.10555918
126	0x3c089a36	0.008337548
127	0x3df93f0e	0.1217023
128	0x3cb82a9f	0.02248126
129	0xbcb4eda3	-0.02208597
130	0x3dabf974	0.08397189
131	0x3de51295	0.11185185
132	0x3e07fb5e	0.13279483
133	0x3d07f623	0.03319372
134	0x3d3d86d1	0.04627115
135	0xbd6f0959	-0.058358524
136	0x3dbf1a81	0.09331227
137	0xbd25841d	-0.040409196
138	0x3d268752	0.040656395
139	0x3c1e9cc9	0.009680935
140	0xbd9bd6a9	-0.076093026
141	0x3d946a60	0.07246852
142	0xbc841ed4	-0.016127981
143	0xbdf1145c	-0.11771461
144	0x3dbad5a0	0.09122777
145	0x3dd3554b	0.10319003
146	0x3cb96e70	0.022635669
147	0x3d76e241	0.060274366
148	0x3d8e43b9	0.06946511
149	0xbd7e1c2a	-0.062038578
150	0xbd96f657	-0.07371204
151	0x3d902bed	0.07039628
152	0x3d379c87	0.04482701
153	0xbd467783	-0.04845382
154	0x3dc86117	0.097841434
155	0x3c40b3b5	0.0117615955
156	0x3d36a65c	0.044592246
157	0x3d9857ad	0.07438598
158	0x3d17c52c	0.037053272
159	0xbc8097aa	-0.015697319
160	0x3e011108	0.12604153
161	0xbd4a7f1d	-0.04943763
162	0x3c6a51c7	0.014301724
163	0x3cb13f3c	0.021636598
164	0xbd80d8bf	-0.06291341
165	0xbb7683a8	-0.0037615094
166	0x3c9e19cf	0.019299416
167	0x3e24ea4c	0.16105002
168	0x3cf534aa	0.029932339
169	0x3d315775	0.043296296
170	0x3def00a4	0.11670044
171	0x3d1cdf1d	0.038298715
172	0xbd4888dd	-0.048958648
173	0x3dd41298	0.10355109
174	0x3ddc31b8	0.107516706
175	0x3ddc8d64	0.107691556
176	0x3dbb9c73	0.091607
177	0x3cd3094d	0.02576127
178	0x3d6178cb	0.055046838
179	0x3bc8fa11	0.006133326
180	0xbd8190c4	-0.0632644
181	0xbe153eb7	-0.14574705
182	0xbc60055f	-0.013673156
183	0xbd56ca26	-0.052438878
184	0xbc816017	-0.01579289
185	0x3debb0e6	0.1150835
186	0x3da62f71	0.081145175
187	0x3e0c4753	0.13699083
188	0x3d37c9a0	0.04487002
189	0x3d6dcbbe	0.05805563
190	0x3da9de07	0.082943015
191	0xbd76d40a	-0.06026081
192	0xbd825c44	-0.063652545
193	0x3de94d67	0.113917165
194	0xbc853144	-0.016258843
195	0xbcf06547	-0.029345168
196	0xbd6ca502	-0.05777455
197	0x3dcfbe4d	0.10143719
198	0x3d47a56f	0.048741754
199	0xbde399dc	-0.11113331
200	0x3e8c2507	0.27372
201	0x3dbc01f0	0.09180057
202	0xbe155854	-0.14584476
203	0xbdcc72a2	-0.09982802
204	0xbd55df84	-0.052215114
205	0x3d19df09	0.03756622
206	0x3b0bc6a0	0.0021328107
207	0xbe3d1f3e	-0.18468949
208	0x3db7cb4f	0.08974325
209	0x3e8ebe69	0.27879646
210	0xbd2215c2	-0.03957153
211	0x3dcaed0f	0.099084966
212	0x3a20e00d	0.0006136902
213	0x3d3f61f7	0.046724286
214	0xbbaddab9	-0.005305615
215	0x3de0cddf	0.10976767
216	0x3e0de3d1	0.13856436
217	0xbc853afd	-0.01626348
218	0x3db0cfe8	0.08633405
219	0xbcf41a97	-0.029797835
220	0xbdf73986	-0.120715186
221	0x3cd92df8	0.026511177
222	0xbc58e6ab	-0.013238589
223	0xbc8f3d42	-0.017485265
224	0xbe21031c	-0.15723842
225	0x3c9f9b8e	0.019483354
226	0x3dd200bd	0.10254047
227	0x3d604d37	0.054761138
228	0x3d1c7f89	0.038207565
229	0xbc7dd0af	-0.015491649
230	0x3cecd5c3	0.028910523
231	0x3d2fa9ca	0.042886533
232	0x3c98dba3	0.018659418
233	0xbdc722b2	-0.097234145
234	0xbd83b4ed	-0.06430993
235	0x3ddc89f1	0.10768498
236	0x3da1a63b	0.07893034
237	0x3dc07b04	0.09398463
238	0x3d34009a	0.043945886
239	0xbcebf708	-0.028804317
240	0xbd1d2581	-0.038365845
241	0xbc183f5f	-0.009292453
242	0x3e1a4e6b	0.15068977
243	0x3da1cb9d	0.07900164
244	0x3df2bebb	0.11852785
245	0x3d10f9c2	0.035394438
246	0x3da9c638	0.0828976
247	0xbd1edc1b	-0.038784128
248	0xbc8bd0cc	-0.017067336
249	0xbd6a8900	-0.05725956
250	0x3ce98d4c	0.028509758
251	0xbd18c01c	-0.037292585
252	0x3c9b2f28	0.018943384
253	0xbca5cab0	-0.02023825
254	0xbc34d9ab	-0.011038224
255	0x3cc435cb	0.023951432

layer2.bias f4 [64]
0	0x3d555caf	0.052090343
1	0x3d893569	0.0669964
2	0xbd5f1645	-0.054464597
3	0xbc452051	-0.012031631
4	0x3dbea40c	0.09308633
5	0xbd218ad4	-0.039439037
6	0xbd2d9894	-0.042381838
7	0xbccbd096	-0.024879735
8	0xbbee4eb3	-0.0072725653
9	0xbd0b61ff	-0.034029003
10	0xbd2fe96e	-0.042947225
11	0x3da6b0b0	0.08139169
12	0x3d9a7766	0.07542305
13	0xbccb591a	-0.02482276
14	0xbc8e2133	-0.017349815
15	0xbd98d0e2	-0.07461716
16	0xbd1e6c71	-0.038677637
17	0x3caf674a	0.021411557
18	0xbcfcea57	-0.03087346
19	0x3d779b05	0.060450573
20	0x3c8b5883	0.01700998
21	0xbd0775c4	-0.033071294
22	0x3d868038	0.065674245
23	0x3c9ea942	0.019367818
24	0xbd8290e8	-0.06375295
25	0xbd4d8c13	-0.050182413
26	0x3d772abd	0.060343493
27	0x3d7720a3	0.06033386
28	0x3dcbe03f	0.09954881
29	0x3db3aeae	0.08773552
30	0x3da0393d	0.07823417
31	0xbd828569	-0.06373102
32	0xbd674c76	-0.056469403
33	0x3d8258aa	0.063645676
34	0xbcafbd7c	-0.021452658
35	0x3d8c4e9e	0.068509325
36	0x3de0bd90	0.10973656
37	0x3d994470	0.074837565
38	0x3befb4a5	0.0073152357
39	0xbda502f0	-0.08057201
40	0xbd116d47	-0.035504606
41	0xbc6aeefc	-0.014339205
42	0x3cfc05f0	0.03076455
43	0xb971e052	-0.00023067117
44	0x3db0c5f4	0.086315066
45	0x3b90cb4d	0.0044187666
46	0xbbf26249	-0.0073969704
47	0x3dc7c64b	0.09754618
48	0x3d81c74e	0.063368425
49	0x3d8babe4	0.06819895
50	0x3c9affe5	0.018920848
51	0xbda21a07	-0.079151206
52	0x3d800011	0.06250013
53	0x3d178270	0.03698963
54	0x3ca6115a	0.020271946
55	0xbd18b5f7	-0.03728291
56	0x3d95f2bc	0.073216885
57	0x3d05511f	0.032548066
58	0xbc668f5d	-0.014072266
59	0x3cfd6e25	0.03093631
60	0x3d6032d7	0.054735985
61	0xbd66f8a3	-0.056389462
62	0xbd2a874d	-0.04163294
63	0xbd40d055	-0.04707368

layer3.weight f4 [6, 64]
0	0xbdf11734	-0.11772004
1	0xbddb5435	-0.107094206
2	0x3d987dfa	0.07445903
3	0x3d069a71	0.03286213
4	0xbe37c78c	-0.17947215
5	0xbdc07173	-0.09396639
6	0xbe266940	-0.16251087
7	0x3b23f77e	0.0025019343
8	0x3d29f8e0	0.04149711
9	0xbe09501c	-0.13409466
10	0xbe1e1eb5	-0.15441401
11	0xbdd39da8	-0.10332805
12	0xbd4798de	-0.04872977
13	0x3d3027dd	0.043006767
14	0xbe9f464b	-0.31108317
15	0x3e08822a	0.13330904
16	0x3c88f52a	0.016718466
17	0xbce3230e	-0.027726676
18	0xbe027910	-0.12741494
19	0x3cee1e1d	0.029067094
20	0x3e3afca6	0.1826044
21	0xbce73c47	-0.028226985
22	0x3db52373	0.08844652
23	0x3d8a6c90	0.06758988
24	0xbe140484	-0.14454848
25	0xbda65e75	-0.08123485
26	0x3dadbc1a	0.08483143
27	0xbda7e8ff	-0.08198737
28	0xbcb0adc5	-0.021567235
29	0xbdf7c936	-0.12098925
30	0x3db57412	0.08860029
31	0x3d4bff4e	0.049804024
32	0x3eac3175	0.33631483
33	0xbd78c9ba	-0.060739256
34	0x3e6ed95b	0.23325102
35	0xbc832f2f	-0.01601371
36	0xbd3cb79c	-0.04607354
37	0xbcd48e0b	-0.025946638
38	0x3d9ea096	0.07745473
39	0x3ca46e36	0.020072084
40	0x3dbd2892	0.09236254
41	0xbd9a0a4d	-0.07521496
42	0x3e8376be	0.2567653
43	0xbdea4961	-0.11439777
44	0xbe06adc5	-0.13152225
45	0x3d7ecc29	0.06220642
46	0xbba9d825	-0.005183237
47	0xbdc88177	-0.097903185
48	0x3dd6ab9f	0.10481953
49	0xbc2c27ea	-0.010507563
50	0xbdf14ad7	-0.11781853
51	0xbc8fc394	-0.017549314
52	0xbd112ef2	-0.03544516
53	0x3dc30350	0.09522116
54	0xbe078b6b	-0.13236777
55	0xbdeb1128	-0.11477882
56	0xbdb7891d	-0.08961699
57	0xbdafb7a5	-0.08579949
58	0x3dddde3a	0.10833402
59	0xbdce6766	-0.100783154
60	0xbe116a71	-0.1420076
61	0x3d342aba	0.04398606
62	0x3e42f00c	0.19036883
63	0x3d66e0e5	0.05636682
64	0x3d0d73a6	0.03453412
65	0xbdf4a094	-0.1194469
66	0x3df9729e	0.121800646
67	0xbb3ec40b	-0.002910855
68	0x3d4515a3	0.048116338
69	0xbe0afbaa	-0.13572565
70	0x3e46610f	0.19372962
71	0x3db57c0a	0.08861549
72	0xbde086c8	-0.109632075
73	0x3d7c4cec	0.061596796
74	0x3e3b7b2e	0.18308708
75	0xbdd10320	-0.10205674
76	0xbe133b55	-0.14378102
77	0xbe08d367	-0.13361894
78	0x3e541e62	0.20714715
79	0x3d86f929	0.06590492
80	0xbd22c94a	-0.039742745
81	0x3dae2730	0.08503568
82	0xbe11df69	-0.1424538
83	0xbe230585	-0.15920074
84	0xbe0d01ed	-0.13770266
85	0xbe2b06bd	-0.16701789
86	0xbddd7f8c	-0.10815343
87	0xbb913eb6	-0.0044325246
88	0x3dbf7e85	0.093503036
89	0x3d308f59	0.043105457
90	0x3d8cf655	0.068829216
91	0xbd6e86c8	-0.058234006
92	0xbd138c25	-0.036022324
93	0xbc1b2219	-0.009468579
94	0xbd8daa39	-0.06917233
95	0x3d8460c5	0.0646377
96	0xbe471cc8	-0.19444573
97	0xbd8143c6	-0.06311755
98	0xbd647766	-0.05577793
99	0xbdc5f90b	-0.09666642
100	0xbe1db030	-0.15399241
101	0xbd1a1303	-0.037615787
102	0xbe672fa4	-0.22576767
103	0x3db7d786	0.08976655
104	0x3e5205f8	0.2051009
105	0xbdb9daf4	-0.09074965
106	0xbe8c6507	-0.27420828
107	0xbe067538	-0.13130653
108	0xbdeb4e00	-0.11489487
109	0x3cf337f8	0.029689774
110	0x3db2041c	0.0869219
111	0xbd99cfdd	-0.0751035
112	0xbd66c3e9	-0.05633918
113	0xbe0dc623	-0.13845114
114	0xbdc02e5a	-0.09383841
115	0x3d66d796	0.056357943
116	0xbe1e3f2d	-0.15453787
117	0x3d8aeb59	0.0678317
118	0xbd97843e	-0.0739827
119	0xbd2a9d36	-0.041653834
120	0xbdf1ac14	-0.118003994
121	0xbd231e6e	-0.039823942
122	0xbd5bab12	-0.053629942
123	0xbd40b83e	-0.047050707
124	0x3ccf1d34	0.02528248
125	0x3e13b883	0.14425854
126	0xbc9d6b3c	-0.019216172
127	0x3df37e9a	0.11889382
128	0x3d8b3d52	0.06798805
129	0x3d8fe1c8	0.07025486
130	0x3de63d1a	0.11242123
131	0x3dfc3d6e	0.12316404
132	0xbdab67c5	-0.08369402
133	0x3bce487f	0.0062952633
134	0x3dc7348e	0.09726821
135	0xbc33d86b	-0.010976891
136	0xbe0b0ef6	-0.13579926
137	0x3a31a2a8	0.0006776252
138	0x3df64ce3	0.12026384
139	0x3d3f241f	0.046665307
140	0xbca8a1e6	-0.020585012
141	0xbe2cc489	-0.16871847
142	0xbe91c2c1	-0.28468898
143	0x3dc5d4cb	0.09659728
144	0x3d2cc8c8	0.042183667
145	0x3db989af	0.09059464
146	0xbdba060d	-0.09083185
147	0x3dc800ac	0.09765753
148	0x3dec814c	0.11548099
149	0x3ebf10cc	0.37317502
150	0x3e33e1ac	0.17566556
151	0x3da4511a	0.080232814
152	0xbd69be40	-0.057066202
153	0xbe06787a	-0.13131896
154	0xbd9be67d	-0.076123215
155	0xbe044aac	-0.1291911
156	0xbd9fb2e9	-0.07797796
157	0xbda2163c	-0.07914397
158	0xbdf0ca6a	-0.117573574
159	0xbd9b5604	-0.075847656
160	0xbe95ccf3	-0.29257926
161	0x3d85be7f	0.06530475
162	0x3bbcf1b3	0.0057661175
163	0xbd6aa328	-0.057284504
164	0x3d93fcc9	0.07225949
165	0xbe24f206	-0.1610795
166	0x3e2bc6d2	0.16775063
167	0xbcd13501	-0.02553797
168	0xbba6b03c	-0.0050869267
169	0xbe698ced	-0.22807665
170	0x3d1e102f	0.038589653
171	0xbe213249	-0.15741839
172	0xbe31328c	-0.17304438
173	0xbefa6fd2	-0.48913437
174	0xbe2a7bab	-0.16648738
175	0xbde36c5a	-0.11104651
176	0xbe21d49a	-0.15803757
177	0xbd8ed0a4	-0.06973389
178	0xbd5bc101	-0.05365086
179	0xbdb96aec	-0.09053597
180	0xbe2ccc9e	-0.1687493
181	0x3d64d0a5	0.05586304
182	0xbe310372	-0.1728647
183	0x3db01eea	0.085996464
184	0xbc7fe6ca	-0.015618989
185	0xbd910909	-0.070818014
186	0xbde92e95	-0.11385838
187	0x3d3cb0d4	0.046067074
188	0x3d5ec806	0.054389976
189	0xbe5c167c	-0.21492952
190	0x3e3fde72	0.187372
191	0xbd23243d	-0.03982948
192	0xbdab3180	-0.08359051
193	0xbe26b231	-0.16278912
194	0x3ce0b0a7	0.027427984
195	0x3d9634b0	0.07334268
196	0xbe4005ac	-0.18752164
197	0xbde1dfdd	-0.11029027
198	0x3daee594	0.08539882
199	0x3d003302	0.031298645
200	0xbdcc2de3	-0.0996969
201	0xbdc4511d	-0.09585784
202	0x3e4e09c9	0.2012092
203	0xbdc4e351	-0.0961367
204	0xbdb964b1	-0.090524085
205	0x3b70bbba	0.0036732988
206	0x3da47ec9	0.08031995
207	0xbd8393a1	-0.06424642
208	0xbccd4024	-0.025054999
209	0x3e130b33	0.14359741
210	0x3d3ffb65	0.046870608
211	0x3ca88d30	0.020575136
212	0x3bc42864	0.0059862603
213	0xbe69d5b1	-0.22835423
214	0xbd5d1161	-0.053971652
215	0xbd248cc9	-0.040173326
216	0xbe2df78c	-0.16988963
217	0x3d8c52a1	0.06851698
218	0xbd0efaf6	-0.034907304
219	0xbddc329d	-0.10751841
220	0xbe11b4b1	-0.14229085
221	0x3dbeadfb	0.09310528
222	0x3d99611d	0.07489226
223	0xbc97448c	-0.018465303
224	0x3ed4ada7	0.41538736
225	0xbd871669	-0.06596071
226	0x3e0f4a91	0.13993289
227	0xbda57c14	-0.08080307
228	0xbd8d675a	-0.06904478
229	0xbd74b278	-0.059740514
230	0xbe1491ee	-0.14508793
231	0xbd981c90	-0.07427323
232	0xbdca595f	-0.098803274
233	0x3d523381	0.05131865
234	0xbb89c27b	-0.004204092
235	0x3d134be6	0.035961054
236	0x3ce62cfc	0.028097622
237	0x3deff551	0.11716712
238	0xbbcead76	-0.0063072992
239	0xbc9a13fc	-0.018808357
240	0xbe206eda	-0.15667287
241	0xbca0caf7	-0.019628031
242	0xbe679706	-0.22616205
243	0xbd8b3bde	-0.06798528
244	0x3c87567e	0.016520735
245	0x3d0e65ba	0.034764983
246	0x3da5e349	0.08099992
247	0xbd8124c0	-0.06305838
248	0xbe4a1965	-0.1973625
249	0xbddb6ec0	-0.10714483
250	0xbe58311a	-0.21112481
251	0xbdbf02c8	-0.09326702
252	0xbe370b7d	-0.17875476
253	0xbe42c9c5	-0.19022281
254	0xbd687d97	-0.056760397
255	0x3c625f73	0.013816702

layer3.bias f4 [6]
0	0xbd5db535	-0.05412789
1	0xbdb7a757	-0.089674644
2	0xbd663aa0	-0.056208253
3	0xbdbf5a69	-0.09343416
4	0xbd495f61	-0.049163226
5	0xbe18cf77	-0.14922892
