drl_deep_project/scripts/our_agent/models/dqn_20250118_172936.pt (torch, 29440 bytes, 6 tensors)

layer1.weight f4 [64, 32]
0	0x3e353ca6	0.17698917
1	0xbdf19fd6	-0.117980644
2	0xbd2292fd	-0.03969096
3	0x3e3f1c78	0.18663204
4	0x3df0b00f	0.117523305
5	0xbe37cec3	-0.17949967
6	0x3e1df77f	0.15426444
7	0x3d8911d6	0.06692855
8	0x3e0d6e7c	0.13811678
9	0xbd826f7f	-0.063689224
10	0xbaf45caf	-0.0018643345
11	0xbc496c82	-0.012293937
12	0x3e0ebfb6	0.1394032
13	0x3c92eb8e	0.017934587
14	0x3d40800e	0.046997122
15	0x3c710f47	0.014713115
16	0xbe380a89	-0.17972769
17	0x3e342e69	0.17595829
18	0x3e321bf7	0.1739348
19	0x3c2ee333	0.010674286
20	0x3e2df03d	0.16986175
21	0xbc4a4c9c	-0.012347367
22	0x3cce3a82	0.025174383
23	0x3d9f919e	0.07791446
24	0xbd48c728	-0.049018055
25	0xbe1d7a88	-0.15378773
26	0x3dea1b40	0.11430979
27	0x3ddbc381	0.10730649
28	0xbd260207	-0.040529277
29	0x3cb8024d	0.022462035
30	0xbdefa890	-0.117020726
31	0x3d8d6207	0.06903463
32	0x3e2b096c	0.16702813
33	0xbccd653b	-0.025072685
34	0x3d529b94	0.051417902
35	0xbdcdf319	-0.10056133
36	0x3d3e51ba	0.04646466
37	0x3b467047	0.0030279325
38	0xbe26f4e7	-0.1630436
39	0xbc89c528	-0.016817644
40	0x3d2bb12f	0.041917022
41	0x3df227f2	0.11824025
42	0x3e340698	0.1758064
43	0x3d909ffd	0.07061765
44	0xbdb6e3b6	-0.08930151
45	0xbd8c32be	-0.06845616
46	0xbddb6255	-0.10712115
47	0x3deaf67c	0.114727944
48	0x3d8b676b	0.06806835
49	0xbdc3cf98	-0.0956108
50	0xbd95ce5f	-0.07314753
51	0xbd477217	-0.04869279
52	0xbbead4aa	-0.007166465
53	0x3e19b776	0.15011391
54	0x3cc6cefd	0.024268622
55	0x3c3b19f0	0.011419758
56	0x3e1324df	0.14369534
57	0x3d0c5492	0.03426034
58	0xbe02df49	-0.12780489
59	0x3bd2eaf2	0.006436699
60	0xbe1e4a6f	-0.15458082
61	0x3d00409b	0.031311613
62	0x3c0276b4	0.007962871
63	0x3ca3a02c	0.019973837
64	0x3e3ba76f	0.1832559
65	0xbe26afb7	-0.16277967
66	0x3da07cf7	0.07836335
67	0xbd13910b	-0.036026996
68	0xbdb1fc8b	-0.08690747
69	0xbdfc89af	-0.123309486
70	0xbd1c8896	-0.038216196
71	0x3d5a7136	0.053330623
72	0x3dc9dea7	0.09856921
73	0x3e024f3e	0.12725541
74	0x3d2ba239	0.041902754
75	0xbc2c6f27	-0.010524548
76	0x3d966e27	0.07345229
77	0x3e2a12cf	0.16608737
78	0x3e2755ff	0.16341399
79	0xbe0e0684	-0.13869673
80	0x3dcace8b	0.09902676
81	0xbd021a20	-0.031763196
82	0x36f20d87	7.213737e-06
83	0x3d64e41e	0.055881612
84	0xbd98e28c	-0.074650854
85	0xbc9f52ca	-0.019448657
86	0xbd90531c	-0.07047102
87	0x3e2f7242	0.1713343
88	0xbcd2d591	-0.025736602
89	0x3cf69789	0.030101554
90	0xbe0b6746	-0.13613614
91	0xbe1e7707	-0.15475093
92	0xbe21033b	-0.15723889
93	0x3d7b2831	0.061317626
94	0x3caf9606	0.021433841
95	0x3e266bc4	0.16252047
96	0x3e41cdc4	0.1892615
97	0x3cba18c5	0.02271689
98	0x3c9684ec	0.018373929
99	0x3c8366f1	0.016040297
100	0x3df69312	0.1203977
101	0xbdf8d66d	-0.121502735
102	0x3e368e3f	0.178277
103	0xbd7c796c	-0.061639234
104	0x3a52750f	0.00080283073
105	0xbe08ca99	-0.13358535
106	0x3dd17487	0.10227304
107	0xbc17f1f7	-0.0092739975
108	0xbe20b552	-0.15694168
109	0xbe089cef	-0.13341115
110	0x3e26239d	0.16224523
111	0xbde069dd	-0.10957692
112	0xbe1e0fb0	-0.15435672
113	0x3e3e9357	0.18610893
114	0xbcbaa6fd	-0.022784704
115	0xbd3ceef3	-0.046126317
116	0x3d759722	0.059958585
117	0x3ded9435	0.11600534
118	0xbcc3f2fb	-0.023919573
119	0xbcdfe8d9	-0.02733271
120	0xbdb5b65a	-0.088726714
121	0xbde64d59	-0.11245222
122	0x3dca3042	0.09872486
123	0xbe22b9e9	-0.15891232
124	0xbe0a900b	-0.1353151
125	0xbdddd45c	-0.1083152
126	0x3e072aac	0.13199872
127	0x3cab4166	0.020905208
128	0x3e19b8a4	0.15011841
129	0xbcf76445	-0.03019918
130	0xbd1e37b6	-0.03862735
131	0xbda421b9	-0.080142446
132	0xbd69b02b	-0.057052772
133	0x3dbeea77	0.09322064
134	0xbd9a167b	-0.07523819
135	0x3dfb679a	0.1227562
136	0x3e317bdc	0.17332405
137	0x3c11e159	0.008903825
138	0x3d78e962	0.060769446
139	0x3e3453ad	0.17610045
140	0x3d9dbfd4	0.07702604
141	0xbe183661	-0.14864494
142	0x3d463db5	0.048398692
143	0xbded86d2	-0.115979806
144	0x3d37bea9	0.044859562
145	0x3db2b333	0.08725586
146	0x3c9e3a83	0.01931501
147	0x3d284043	0.04107691
148	0xbe3293d7	-0.17439209
149	0xbbf7b72d	-0.007559678
150	0x3c30cbad	0.010790748
151	0xbe14be79	-0.14525785
152	0x3c08d493	0.008351463
153	0xbc44cfae	-0.012012405
154	0xbd908622	-0.07056834
155	0x3e331ae9	0.17490734
156	0x3c7e81e4	0.015533898
157	0xbc17ac34	-0.009257365
158	0xbc47c97b	-0.012194033
159	0xbdd4603d	-0.103699185
160	0x3ca1fde4	0.019774385
161	0xbda54c01	-0.08071137
162	0x3e31d18d	0.17365094
163	0x3d106272	0.035250135
164	0x3d5a7ac1	0.053339723
165	0x3daa0e07	0.08303457
166	0x3c868e1b	0.016425183
167	0x3d80db0f	0.06291782
168	0xbc99983e	-0.018749353
169	0x3decb3cd	0.11557732
170	0x3d1e2f67	0.038619425
171	0x3dd76bda	0.10518618
172	0x3cc71f2e	0.02430686
173	0xbe055afc	-0.13022989
174	0x3d948c3c	0.0725331
175	0xbd762039	-0.060089324
176	0x3d29f9c6	0.041497968
177	0x3c786f13	0.015163201
178	0x3dbb2b8a	0.09139164
179	0x3df8b84c	0.12144527
180	0x3dbefa58	0.09325093
181	0x3c845eb7	0.016158445
182	0x3e33d580	0.17561913
183	0xbca7835b	-0.020448377
184	0x3e062dcc	0.13103408
185	0x3d2762d1	0.040865723
186	0xbcadfe1e	-0.021239337
187	0x3cadb5bf	0.021204827
188	0x3e09bf5c	0.13451904
189	0xbcd80242	-0.026368264
190	0x3d7908ce	0.060799412
191	0xbdcce86a	-0.10005267
192	0x3e26e75f	0.16299199
193	0x3dc73b29	0.09728081
194	0x3d5dc7f8	0.054145783
195	0xbe30c00e	-0.17260763
196	0x3df38ad3	0.11891713
197	0x3d83a715	0.06428353
198	0x3d588a50	0.05286628
199	0xbe1b8d83	-0.15190701
200	0xbd34e78b	-0.04416613
201	0x3d9422cf	0.07233202
202	0x3d8608e4	0.065446645
203	0x3e191a5f	0.14951466
204	0x3e12e4f5	0.14345153
205	0x3e08a178	0.13342845
206	0x3e293b2a	0.16526476
207	0x3da41680	0.08012104
208	0x3e304d2d	0.1721694
209	0xbd0e9050	-0.034805596
210	0xbe19b77a	-0.15011397
211	0x3b320d04	0.0027168402
212	0x3bfdd3c0	0.00774619
213	0x3de1aadd	0.11018918
214	0x3dc31848	0.09526116
215	0x3ab442b3	0.0013752788
216	0x3df80c36	0.12111704
217	0xbe38889f	-0.18020867
218	0xbdfa7c5b	-0.1223075
219	0xbd06c990	-0.03290707
220	0x3e0abb91	0.13548113
221	0xbcf0b356	-0.029382389
222	0x3e0a8d4a	0.1353046
223	0x3bcf3418	0.0063233487
224	0xbc1c32f0	-0.009533629
225	0x3cfa7ec1	0.03057802
226	0xbd056a1b	-0.032571893
227	0x3e1f7c39	0.15574731
228	0xbe0842f1	-0.13306786
229	0xbd93fb1f	-0.07225632
230	0x3e0dcf65	0.13848646
231	0xbc5ad57d	-0.013356564
232	0xbd59fb0b	-0.05321793
233	0x3d371d06	0.044705413
234	0xbd81abbd	-0.063315846
235	0xbbc87d55	-0.0061184564
236	0xbdcf875a	-0.10133238
237	0x3cba9459	0.022775816
238	0xbdaf3084	-0.085541755
239	0xbd8c0d8f	-0.068385236
240	0xbd9ab613	-0.07554259
241	0xbd006912	-0.031350203
242	0xbe0c1dc0	-0.13683224
243	0xbe2eef51	-0.1708348
244	0x3cf686ff	0.030093668
245	0x3dd974a6	0.10617952
246	0x3db3d0ae	0.08780037
247	0xbe0c74d9	-0.13716449
248	0xbdd41403	-0.103553794
249	0x3d212d87	0.03935006
250	0x3e09a754	0.13442737
251	0x3dcf96dd	0.10136197
252	0x3d7d832b	0.06189267
253	0xbaaa63ac	-0.0012999675
254	0x3ccf79d3	0.025326645
255	0xbcbd786f	-0.023128716

layer1.bias f4 [64]
0	0x3e171a18	0.14756048
1	0xbd9b665f	-0.07587885
2	0xbd8a5cbd	-0.0675597
3	0xbd9f2014	-0.0776979
4	0x3c9ac373	0.018892026
5	0x3df3405f	0.11877512
6	0x39c4a36b	0.0003750579
7	0xbd55c8c7	-0.05219343
8	0xbe0fb03e	-0.14032075
9	0xbd76a1cd	-0.0602129
10	0x3da02adb	0.07820674
11	0xbde55740	-0.11198282
12	0xbe3b4441	-0.18287756
13	0x3e05f097	0.13080059
14	0x3e292922	0.16519597
15	0x3b5e18d1	0.0033889303
16	0x3e1bf187	0.15228854
17	0x3d2e290d	0.042519618
18	0x3df42364	0.11920813
19	0x3de8cb17	0.11366861
20	0xbd97ab6a	-0.074057415
21	0x3e2d949e	0.16951224
22	0x3c5ea4af	0.013589068
23	0x3e2cd8b0	0.16879535
24	0xba02479b	-0.00049697765
25	0x3e3b8fb7	0.18316542
26	0x3dbfd960	0.09367633
27	0x3e2f830b	0.17139833
28	0x3dc786b7	0.09742492
29	0x3e3b5b66	0.18296584
30	0xbe217328	-0.15766585
31	0xbd028eba	-0.031874396
32	0xbdfbff05	-0.123045005
33	0xbd076319	-0.03305349
34	0x3aa289e4	0.0012400714
35	0x3e40b210	0.18817925
36	0x3bec3894	0.007208893
37	0xbdefb51b	-0.11704465
38	0x3c2f9c99	0.010718488
39	0x3d97848f	0.073983304
40	0x3db950cc	0.09048614
41	0xbd2e2805	-0.042518634
42	0xbe28b09c	-0.16473621
43	0xbd583792	-0.05278737
44	0xbdcd8afc	-0.10036275
45	0xbdaa6f93	-0.08322062
46	0x3e0e3778	0.13888347
47	0x3d1bcbbb	0.03803609
48	0xbe07a6eb	-0.13247268
49	0x3d848923	0.06471469
50	0x3cf094ac	0.029367767
51	0x3e4735ed	0.19454165
52	0xbdbbca68	-0.09169465
53	0xbe1975c6	-0.14986333
54	0x3c74a129	0.014931002
55	0x3e21361d	0.15743299
56	0xbd97bae7	-0.07408696
57	0x3dc20ff6	0.094757006
58	0x3e42ca82	0.19022563
59	0x3d19e428	0.037571102
60	0x3e1a8f3c	0.15093702
61	0xbc057dcd	-0.008147669
62	0xbb70745a	-0.0036690445
63	0x3e1eacae	0.1549556

layer2.weight f4 [64, 64]
0	0x3d1a0e26	0.03761115
1	0x3dd0ce2e	0.10195576
2	0x3cfe89f3	0.031071639
3	0x3d52328a	0.05131773
4	0xbd5a6ce9	-0.05332652
5	0xbc32d484	-0.0109149255
6	0xbdec4f82	-0.115386024
7	0xbcc06daf	-0.023489801
8	0xbdc3a65d	-0.09553216
9	0xbd083a4b	-0.033258718
10	0x3ddb6c0b	0.10713967
11	0x3dd954c2	0.106118694
12	0x3dfef61b	0.12449285
13	0xbd4cb86e	-0.049980573
14	0xbd93d65c	-0.0721862
15	0xbd9c9ca2	-0.07647063
16	0xbbb7a8c4	-0.005604835
17	0x3da89cf3	0.08233061
18	0xbd8a1133	-0.06741562
19	0xbd803e73	-0.06261911
20	0xbddd72ab	-0.10812887
21	0x3dc539ad	0.096301414
22	0xbcc0f327	-0.023553444
23	0x3cdd6ee5	0.027030418
24	0xbdc857e1	-0.097823866
25	0xbd5825ae	-0.05277031
26	0x3db6fd8a	0.089350775
27	0xbc7d95d3	-0.015477615
28	0x3d82a087	0.063782744
29	0x3dd48a22	0.10377909
30	0xbd50c8d2	-0.050972767
31	0xbdcb0dad	-0.09914718
32	0xbbd3196a	-0.0064422386
33	0xbbeee0b0	-0.0072899684
34	0x3d4fe68e	0.050756983
35	0x3d4f1016	0.05055245
36	0xbdab948f	-0.08377945
37	0xbd3166bc	-0.043310866
38	0x3d6faa04	0.05851175
39	0x3dc3225f	0.0952804
40	0xbc0d928b	-0.008640896
41	0x3d8e2a13	0.06941619
42	0x3dfbad79	0.12288947
43	0x3d34c8e8	0.04413691
44	0x3d044667	0.032293703
45	0xbde29d2f	-0.11065137
46	0xbdfd6581	-0.12372876
47	0xbc33e844	-0.010980669
48	0xbd886f05	-0.066618
49	0xbde2c4c9	-0.1107269
50	0x3a733f30	0.000927913
51	0x3b90d9be	0.004420488
52	0xbd3ad810	-0.04561621
53	0xbccee98a	-0.025257844
54	0x3d183d86	0.03716805
55	0xbd21dbb5	-0.03951617
56	0x3d5ddb95	0.054164488
57	0x3dbef801	0.09324647
58	0x3c1b9a0e	0.009497179
59	0xbde45e11	-0.11150754
60	0x3d0c0cbb	0.03419183
61	0xbdba5c4e	-0.09099637
62	0xbdc42b8d	-0.09578619
63	0xbc266c61	-0.0101576755
64	0xbbca1fd7	-0.0061683464
65	0xbcf8d173	-0.03037331
66	0xbd821905	-0.06352428
67	0x3dd634d2	0.104592934
68	0x3d8e13f1	0.06937397
69	0xbdff16bf	-0.1245551
70	0xbdd3735c	-0.103247374
71	0xbde78e6d	-0.113064624
72	0x3d87c7af	0.066298835
73	0xbd8380ff	-0.064210884
74	0xbd87c933	-0.066301726
75	0x3d276e71	0.04087681
76	0x3da0ffbb	0.07861277
77	0x3d5599b6	0.052148543
78	0xbdd686d0	-0.10474932
79	0xbcb3692c	-0.021900736
80	0xbcfb7f0b	-0.030700227
81	0x3dd174be	0.10227345
82	0x3d5d6b59	0.054057453
83	0x3d264709	0.04059509
84	0xbcc978c7	-0.024593724
85	0x3cfb2bd3	0.030660545
86	0x3da64009	0.081176825
87	0xbd683afd	-0.05669688
88	0x3ca8a681	0.020587208
89	0x3ddb02c9	0.106938906
90	0xbd83bc6b	-0.06432422
91	0xbdf6f206	-0.12057881
92	0xbdf3058a	-0.11866291
93	0xbd5461b6	-0.051850997
94	0xbb9dfd3e	-0.0048214486
95	0x3da8ea2d	0.082477905
96	0xbd776598	-0.06039962
97	0xbdca2cfb	-0.098718606
98	0xbd06c2cb	-0.032900613
99	0xba88b72b	-0.0010430565
100	0xbd7a0127	-0.061036255
101	0xbdbe0617	-0.09278505
102	0x3acd590a	0.0015666794
103	0x3cbe9b9f	0.023267565
104	0x3dd1b3fa	0.10239406
105	0xbdb30c48	-0.08742577
106	0x3d8bb45f	0.068215124
107	0xbdfd2d0b	-0.12362107
108	0x3cc9ebc7	0.02464856
109	0xbd7da2d7	-0.061922874
110	0x3d08c4d7	0.033390846
111	0x3d6c8634	0.057745174
112	0x3d8e0035	0.06933633
113	0x3d98ec50	0.07466948
114	0xbd92542e	-0.07144962
115	0x3df2f5dc	0.118633
116	0x3cca6b1f	0.024709282
117	0xbd767974	-0.06017442
118	0x3d6bf9ac	0.057611153
119	0x3dfb6d8b	0.12276753
120	0xbdefc5c2	-0.11707641
121	0xbd864d5b	-0.06557723
122	0xbddf3367	-0.10898476
123	0xbdaa9453	-0.08329072
124	0x3d0d3f47	0.034484174
125	0x3c4adce7	0.012381769
126	0xbdc7bfd7	-0.097533874
127	0x3da44913	0.0802175
128	0xbdcc3948	-0.09971863
129	0xbd9cf948	-0.07664734
130	0x3dca6cb8	0.09884018
131	0x3dd3e305	0.10346035
132	0x3da17014	0.07882705
133	0x3d53382f	0.051567253
134	0xbbb43544	-0.005499514
135	0xbd01b37a	-0.031665303
136	0x3d97b440	0.07407427
137	0xbd4442db	-0.04791532
138	0x3d2fafbc	0.042892203
139	0xbd7e0064	-0.06201209
140	0x3d63ede2	0.055646785
141	0xbd0769cf	-0.03305989
142	0xbc01ad06	-0.007914787
143	0xbcef8624	-0.029238768
144	0x3b86b93b	0.0041114367
145	0xbd364174	-0.044496015
146	0x3b949f0f	0.004535563
147	0xbd584dad	-0.052808452
148	0xbe04575c	-0.1292395
149	0xbd42bd6b	-0.047543924
150	0x3c4cc0da	0.012497151
151	0xbd13f946	-0.036126398
152	0x3da3e38e	0.08002387
153	0xbe0b88d9	-0.13626422
154	0xbc981090	-0.018562585
155	0xbd1c640f	-0.03818136
156	0xbdecfae2	-0.115712896
157	0xbd5cacd0	-0.053875744
158	0xbd7bc8b6	-0.06147071
159	0xbc1490ce	-0.009067727
160	0x3d9f2db5	0.0777239
161	0xbd5bc615	-0.053655703
162	0x3d0ff7ae	0.035148315
163	0x3cacc7ca	0.02109136
164	0xbd95fb2f	-0.073233
165	0xbde6a7b4	-0.112624556
166	0xbde923a6	-0.113837525
167	0x3dce6cb5	0.10079328
168	0xbd7ff0e3	-0.062485587
169	0xbdc5891d	-0.09645293
170	0x3d239ba1	0.03994334
171	0xbd85e575	-0.06537906
172	0xbca73bcf	-0.020414261
173	0xbd8d5373	-0.06900682
174	0xbd3d5ed4	-0.046233013
175	0x3cc9abf4	0.024618126
176	0xbdd691c8	-0.10477024
177	0x3d8f4266	0.06995086
178	0x3dd79e94	0.10528293
179	0xbe0e7deb	-0.13915221
180	0xbda17ff9	-0.07885737
181	0x3dea9938	0.114550054
182	0x3d77504f	0.060379323
183	0xbdbef25a	-0.09323569
184	0x3c30b7f4	0.010786045
185	0x3dcecec6	0.10098033
186	0x3dcf0545	0.10108427
187	0x3daeb5d2	0.08530773
188	0xbcea7690	-0.028620988
189	0x3cf4e464	0.029894061
190	0xbd9a2d32	-0.075281516
191	0xbc2c337a	-0.01051032
192	0x3d3be9ad	0.045877147
193	0xbbdb7479	-0.006697234
194	0xbc01a74a	-0.00791342
195	0xbe069272	-0.13141802
196	0xbcc354e5	-0.023844192
197	0x3b89a417	0.0042004692
198	0xbc724fec	-0.014789563
199	0x3b9001a0	0.004394725
200	0x3da7aed7	0.08187645
201	0xbd53233e	-0.05154728
202	0x3b9cce72	0.0047853524
203	0x3c1af7f8	0.009458534
204	0xbdb0812b	-0.08618387
205	0x3d34bb64	0.044124022
206	0xbd1bca7e	-0.03803491
207	0x3da4cc0d	0.08046732
208	0x3d297916	0.041375242
209	0xbd966eed	-0.07345376
210	0xbdf31753	-0.11869683
211	0x3bdb098f	0.006684489
212	0xbb04f91e	-0.0020290087
213	0xbd715d8f	-0.058927115
214	0xbda3c095	-0.079957165
215	0xbc6fd34f	-0.014637782
216	0x3c045e17	0.008079073
217	0x3de14409	0.10999305
218	0x3c5845b5	0.013200213
219	0x3ddbadca	0.10726507
220	0xbb634084	-0.0034675905
221	0xbdbd4b1d	-0.09242842
222	0xbcdc0bef	-0.02686116
223	0x39769d30	0.00023518945
224	0x3ccc3e74	0.024932124
225	0x3d903d9b	0.07043
226	0x3d2832b4	0.04106398
227	0x3d245490	0.040119708
228	0x3d731db9	0.059354518
229	0xbd227144	-0.0396588
230	0x3d0a26d4	0.033728436
231	0x3dd51368	0.10404092
232	0xbd794579	-0.06085727
233	0x3dde5ce0	0.10857558
234	0x3db79a38	0.08964962
235	0xbd4772f7	-0.048693623
236	0xbc8141bd	-0.015778417
237	0xbc24466b	-0.010026555
238	0xbd635f7e	-0.05551099
239	0xbdbb8fdf	-0.091583006
240	0x3dc0bd2d	0.094110824
241	0x3c9a7d6a	0.01885863
242	0x3d091781	0.03346968
243	0xbd55906a	-0.052139677
244	0x3d095d4e	0.033536248
245	0x3ce9be88	0.028533235
246	0x3e17dec3	0.1483107
247	0x3dc0e165	0.094179906
248	0x3dc8f33d	0.09812019
249	0x3dc2a4d4	0.09504095
250	0x3dabc4f1	0.08387173
251	0x3deeb2e9	0.11655218
252	0xbd83e7de	-0.064407095
253	0x3b70c1fd	0.003673672
254	0x3d899fda	0.067199424
255	0xbe05120d	-0.12995167

layer2.bias f4 [64]
0	0xbdda17c6	-0.10649066
1	0x3d3fc377	0.04681727
2	0x3da65300	0.081213
3	0x3c38d822	0.011281999
4	0xbdee13c1	-0.116248615
5	0xbdd50915	-0.10402123
6	0x3d97f1f3	0.07419195
7	0x3ccdee97	0.025138183
8	0xbd7450a6	-0.059647225
9	0x3dbbc362	0.09168126
10	0x3d2befc6	0.041976713
11	0x3da754d0	0.081704736
12	0xbd3000b0	-0.042969406
13	0xbd27176a	-0.040793814
14	0xbcf4dcae	-0.029890385
15	0x3d9ce1bd	0.07660244
16	0x3d9e7bc4	0.0773845
17	0xbde8e333	-0.1137146
18	0x3deeee75	0.11666576
19	0x3d7928c5	0.060829896
20	0x3c398bb4	0.011324812
21	0x3deb9b91	0.11504281
22	0x3daf53d2	0.08560909
23	0x3d94f498	0.07273215
24	0x3ded4c3e	0.11586808
25	0x3c0c66e2	0.008569451
26	0x3c1f137c	0.009709235
27	0x3dab929c	0.08377573
28	0x3d1742e7	0.036929037
29	0xbdeb129c	-0.11478159
30	0xbcc61edc	-0.024184637
31	0xbdc1448b	-0.09436902
32	0x3cad1cff	0.02113199
33	0x3df100aa	0.11767705
34	0xbd243445	-0.04008891
35	0x3d8106d6	0.06300132
36	0xbdf0addd	-0.11751912
37	0x3b2198f0	0.0024657808
38	0x3ddf3bb9	0.10900063
39	0xbdf04e61	-0.117336996
40	0xbda2c55c	-0.079477996
41	0xbcda5312	-0.02665094
42	0xbd37f9ab	-0.044915836
43	0xbd077d7f	-0.033078667
44	0x3d957b83	0.072989486
45	0x3dc73632	0.09727134
46	0x3dce3761	0.100691564
47	0x3d2225eb	0.039586943
48	0x3d8d3d2f	0.068964355
49	0x3d0e2737	0.034705367
50	0x3d6de7c1	0.058082346
51	0x3e11b060	0.14227438
52	0x3d3db1d7	0.04631218
53	0xbc62fa80	-0.013853669
54	0xbdbeee87	-0.09322839
55	0x3dbcaab3	0.09212246
56	0x3d0afe72	0.033934064
57	0xbd812cb9	-0.06307358
58	0xbdb6545a	-0.089028075
59	0x3cd152f3	0.025552249
60	0xbddb9bd9	-0.10723085
61	0xbdc5faaa	-0.09666951
62	0xbd9fe325	-0.07806996
63	0x3c8b4f77	0.017005665

layer3.weight f4 [6, 64]
0	0x3ddf662b	0.10908159
1	0xbbc52cf7	-0.006017323
2	0x3d882763	0.066481374
3	0xbddcae11	-0.10775388
4	0xbd3ecf32	-0.046584316
5	0xbdf43794	-0.11924663
6	0x3d2ff021	0.042953614
7	0x3daea89b	0.08528253
8	0xbdb8ca68	-0.09022981
9	0x3da7f9ff	0.0820198
10	0xbe03ad2e	-0.12859032
11	0xbdb526df	-0.08845305
12	0x3db8e6c4	0.0902839
13	0xbd94744b	-0.072487436
14	0x3d820421	0.06348444
15	0x3cf3723d	0.029717559
16	0x3dc4047f	0.0957117
17	0x3dd6ba8c	0.104848
18	0xbd219042	-0.039444216
19	0xbde3a8e3	-0.11116197
20	0x3d86c9bb	0.06581446
21	0x3d5a2227	0.053255226
22	0xbcad9755	-0.021190325
23	0xbc54738e	-0.0129670035
24	0xbd691a50	-0.05690986
25	0xbe07026d	-0.13184519
26	0xbdf60ed9	-0.12014551
27	0x3d9eb572	0.07749452
28	0x3daaff12	0.08349432
29	0x3dc61d5d	0.09673569
30	0x3bd0f273	0.0063765584
31	0x3da8a839	0.08235211
32	0x398397a5	0.0002509925
33	0xbc034c3e	-0.008013783
34	0xbd6a7c1f	-0.057247277
35	0x3cc361b5	0.023850301
36	0xbdbae52c	-0.09125742
37	0xbd29a7dc	-0.04141985
38	0x3ccf5783	0.025310284
39	0x3d21864b	0.039434712
40	0x3d6b6ee3	0.057478797
41	0x3dff23b7	0.12457984
42	0x3d9a8558	0.075449646
43	0xbdf81639	-0.12113614
44	0x3dd3bc03	0.10338595
45	0x3dbb59e6	0.09148006
46	0x3d10bcc7	0.035336282
47	0xbd908e37	-0.07058375
48	0x3c00e3a7	0.007866777
49	0xbdb2b355	-0.08725611
50	0x3bb8ab34	0.0056356434
51	0xbd49db54	-0.049281433
52	0xbdd8d333	-0.10587158
53	0xbcc9da37	-0.024640186
54	0x3b0369f9	0.0020052178
55	0xbdda9b53	-0.10674157
56	0xbcaf2cd2	-0.021383677
57	0xbdd2b77c	-0.10288903
58	0x3d0d436f	0.034488138
59	0xbda84d49	-0.08217866
60	0x3c500ea5	0.012698804
61	0xbe17f3ba	-0.14839068
62	0x3dde49ee	0.10853945
63	0x3da1e37c	0.07904717
64	0xbdad8c46	-0.08474021
65	0xbde535a5	-0.111918725
66	0x3dc30bf2	0.09523763
67	0xbdfe2c6b	-0.12410816
68	0x3d2004c0	0.03906703
69	0x3d254372	0.040347524
70	0xbd9c1b4e	-0.076223955
71	0xbd972438	-0.07379955
72	0xbd6de94b	-0.058083814
73	0x3dd366e1	0.10322357
74	0xbd821adf	-0.063527815
75	0x3defe11c	0.11712858
76	0xbdbb8e86	-0.091580436
77	0xbbeb0dff	-0.0071732993
78	0xbdaf2ad1	-0.085530885
79	0xbbb5232c	-0.0055278745
80	0x3cbe34ed	0.023218596
81	0xbdca9959	-0.0989253
82	0x3df2afa5	0.11849908
83	0x3c75694a	0.014978716
84	0x3c147e2e	0.009063287
85	0xbd568844	-0.052376047
86	0x3d9dbac2	0.07701637
87	0xbd1d7de5	-0.03845014
88	0xbdffbf31	-0.12487639
89	0xbd34204c	-0.043976113
90	0xbda0b9f4	-0.07847968
91	0xbdb3de11	-0.0878259
92	0x3d177191	0.03697354
93	0xbde8c531	-0.11365736
94	0xbdaa26d2	-0.08308186
95	0x3da8dcff	0.08245277
96	0xbdd2ee9b	-0.10299417
97	0x3d6ebd9f	0.058286306
98	0xbd807301	-0.06271935
99	0x3ccbae23	0.024863308
100	0xbc609afa	-0.013708824
101	0xbd95c47c	-0.07312867
102	0x3cec8837	0.028873546
103	0xbc7b92f0	-0.015354857
104	0xbd67c79d	-0.05658685
105	0xbde587f5	-0.11207572
106	0x3dc6352f	0.09678113
107	0x3e0400c9	0.12890925
108	0xbda69277	-0.08133405
109	0xbdc1024e	-0.09424268
110	0xbd06baeb	-0.032893103
111	0xbdaa7e9a	-0.083249286
112	0xbdb28ecf	-0.08718645
113	0xbdedbd73	-0.116084
114	0xbd8ab538	-0.06772846
115	0xbe069b76	-0.13145241
116	0xbdaef6ba	-0.08543153
117	0x3cf84b58	0.030309364
118	0xbdb76e8c	-0.08956632
119	0x3c629096	0.013828417
120	0xbd610c66	-0.054943465
121	0x3d9fc5b3	0.0780138
122	0xbdc81325	-0.097692765
123	0x3d60ab52	0.054850884
124	0x3d5002ae	0.050783806
125	0x3cf47d5e	0.029844936
126	0x3d2b119e	0.041764848
127	0xbd379527	-0.044819977
128	0x3d06a2e3	0.032870185
129	0x3dd4b8fa	0.10386844
130	0x3d1f117b	0.03883503
131	0x3dd9a319	0.106268115
132	0x3d379fcd	0.044830132
133	0xbd4c3e5a	-0.04986415
134	0x3cf56762	0.029956523
135	0x3d03827f	0.032106873
136	0x3d7036d5	0.058646042
137	0x3dd942fc	0.106084794
138	0xbae2ef09	-0.001731367
139	0x3ccb5ebf	0.024825452
140	0xbde0bec1	-0.109738834
141	0x3d1a9f81	0.03774977
142	0x3da9991a	0.08281155
143	0xbd1eeba2	-0.038798936
144	0xbe068de4	-0.13140064
145	0x3d71ab82	0.059001453
146	0x3d387937	0.045037474
147	0xbd423e2a	-0.047422566
148	0x3dd7861c	0.10523626
149	0xbd120f93	-0.035659384
150	0xbddd19b6	-0.107959196
151	0xbc84513f	-0.016152022
152	0x3d8f58e5	0.06999377
153	0xbdb07a80	-0.08617115
154	0xbe01c2b6	-0.12671933
155	0x3d6e9697	0.058249082
156	0xbe03ee25	-0.12883814
157	0xbcbbfe54	-0.022948422
158	0x3daeb0c8	0.08529812
159	0xbcc3a6ae	-0.02388319
160	0x3ccdb475	0.025110463
161	0xbd8b3273	-0.06796732
162	0x3d3f6341	0.046725515
163	0x3d49def2	0.049284883
164	0x3de89c7c	0.11357972
165	0xbaf0d07b	-0.0018372679
166	0xbdbc153a	-0.09183736
167	0x3ddea1b8	0.10870689
168	0x3dc29f9b	0.095030986
169	0x3d1a5272	0.037676282
170	0xbc8b9459	-0.017038511
171	0x3dd481d8	0.10376328
172	0xbc971afe	-0.018445488
173	0x3ce2d3ea	0.02768894
174	0x3d6b4837	0.057441916
175	0x3d80463b	0.062633954
176	0xbdfe443b	-0.12415358
177	0x3ddaca3e	0.10683106
178	0x3dc9ecc1	0.0985961
179	0xbdb1ac60	-0.08675456
180	0xbd140dfd	-0.036146153
181	0xbdd686a1	-0.10474897
182	0xbe14ef7a	-0.14544478
183	0xbe1b7df7	-0.1518477
184	0x3dda50dc	0.10659954
185	0xbd99c584	-0.07508376
186	0x3dbe15fd	0.09281538
187	0x3d0d18d5	0.03444751
188	0xbcdf6596	-0.02727012
189	0xbda3cf6f	-0.07998549
190	0x3dd57536	0.10422747
191	0x3da26a1f	0.07930397
192	0x3d9b6336	0.07587282
193	0x3d398e28	0.045301586
194	0xbc9f012b	-0.019409737
195	0xbc29f36e	-0.01037298
196	0xbd26ae01	-0.040693287
197	0xbd972cfc	-0.07381627
198	0x3d103236	0.035204135
199	0xbd72c154	-0.059266403
200	0xbdb40d84	-0.087916404
201	0x3c84e2a6	0.016221356
202	0x3da437e5	0.080184735
203	0xbde01fec	-0.109435886
204	0x3b9fd871	0.0048780967
205	0x3d49a340	0.049227953
206	0xbda038ac	-0.07823309
207	0x3d3577f3	0.044303846
208	0x3dbd862d	0.092541076
209	0xbd4c8ca7	-0.049938824
210	0x3d52e9a1	0.051492337
211	0xbd84c75f	-0.064833395
212	0x3d78f513	0.060780596
213	0xbdeac758	-0.11463803
214	0xbe0b5fb0	-0.1361072
215	0x3d82a5a0	0.06379247
216	0x3da9c27b	0.08289047
217	0x3d3db032	0.04631061
218	0xbdd96724	-0.10615376
219	0xbd24e885	-0.04026081
220	0xbdfff07b	-0.1249704
221	0xbcfcb70b	-0.030849
222	0xbdb7ba64	-0.08971098
223	0x3d898d3a	0.0671639
224	0x3cf7c71a	0.030246306
225	0x3d2ff8e7	0.04296198
226	0xbcb9418b	-0.022614261
227	0xbc91cca1	-0.01779777
228	0x3d3b00a8	0.045654923
229	0x3dc46821	0.095901735
230	0xbde93d2d	-0.113886215
231	0x3d631603	0.055440914
232	0x3bf39cd3	0.0074344664
233	0x3de23c69	0.110466786
234	0xbdacda3b	-0.08440062
235	0xbd06bf68	-0.032897383
236	0x3d8c3747	0.06846481
237	0x3dae12f8	0.08499712
238	0x3d0e0e4f	0.034681614
239	0xbc6e0750	-0.014528111
240	0x3d6e35d7	0.058156814
241	0xbe027bc0	-0.1274252
242	0x3b312e1a	0.0027035535
243	0xbd02dc42	-0.031948335
244	0xbb40fe26	-0.002944836
245	0xbdd838a8	-0.10557681
246	0x3d926a3e	0.0714917
247	0xbd226d03	-0.039654743
248	0xbd374295	-0.044741232
249	0xbd4d0356	-0.05005201
250	0xbd6e1f6c	-0.058135435
251	0x3d6c57a4	0.057700768
252	0xbe18739d	-0.14887853
253	0xbe170cd5	-0.14750989
254	0xbd9409e7	-0.07228451
255	0xbca440c9	-0.020050423

layer3.bias f4 [6]
0	0x3d25391f	0.040337678
1	0xbdcdffc8	-0.10058552
2	0x3d9199c3	0.07109406
3	0xbd9bdf7f	-0.07610988
4	0xbc89f69b	-0.016841223
5	0xbd9a170d	-0.07523928
