drl_deep_project/scripts/our_agent/models/dqn_20250121_212644.pt (torch, 78848 bytes, 6 tensors)

layer1.weight f4 [128, 80]
000000 d7 03 ac bc ef 13 5d 3b e2 a2 15 3d c5 e7 8b bd
       -0.020997925 0.0033733805 0.03653229 -0.06831316
000010 f4 c3 c6 be 38 c7 5b 3d a8 39 0d be 1d 90 db 3d
       -0.38821375 0.053656787 -0.13791525 0.10720847
000020 95 7c 02 bf b1 e4 49 bc 9d da 92 be dd ec 1d 3e
       -0.5097135 -0.012322591 -0.28682414 0.15422387
000030 3a 53 4d 3e 4f 18 f6 bd ed 4a 9a 3d b6 da a7 be
       0.2005128 -0.12016355 0.07533822 -0.3278405
000040 28 dc b2 be a8 df 44 3e 9c 2d db be 5d 2c e4 3d
       -0.3493359 0.19225943 -0.42808235 0.11141274
000050 3a ab 8d 3e a4 bb 07 3e 55 a4 44 3d c7 ab 2a 3e
       0.27669698 0.13255173 0.04800828 0.1666709
000060 11 04 89 bd df f0 a2 be c6 ee ab be fd 46 46 3e
       -0.06690229 -0.31824395 -0.33580607 0.19363017
000070 f3 93 c8 bd 4a cf 60 3c 3f af 46 bd 59 4d 35 3e
       -0.09793844 0.013721297 -0.04850697 0.17705287
000080 99 33 06 3e 20 1c 22 3e 28 f3 a2 3d 0f 2b c9 3c
       0.1310562 0.15831041 0.079565346 0.024556665
000090 20 c8 2a 3d 6a 3c 6f bc 7e cc 26 be f5 1b ad 3c
       0.04169476 -0.014601806 -0.16288945 0.021131495
0000a0 41 aa b0 bc 3b 72 98 3d 09 f3 d4 bd 29 da 32 b9
       -0.021565558 0.07443663 -0.10397918 -0.00017056674
0000b0 4f 3d c0 bb bf 08 ae 3d fa 74 f2 3d 83 a1 ce bc
       -0.0058666836 0.08497762 0.11838718 -0.0252235
0000c0 6c 48 cb 3d c4 2e 9e 3e eb 3c 1d 3c 6f ce 50 bd
       0.09925923 0.30895054 0.0095970435 -0.05097812
0000d0 af 71 81 be d8 c3 f6 bd e6 d8 50 be 6a c0 7b be
       -0.25282046 -0.12049073 -0.2039524 -0.24585119
0000e0 63 3c 90 3d f6 0f 4e be 83 1d f2 bd 92 6e bd bd
       0.07042768 -0.20123276 -0.11822035 -0.09249605
0000f0 83 88 1b bd 2b 50 0c bd 6c d1 03 3c d3 c9 7a be
       -0.037971985 -0.03425614 0.008045536 -0.24491052
000100 b9 8c d0 bd a7 f9 07 3e a9 4e 7a 3d fd 1f 2d bc
       -0.10183091 0.13278829 0.061110172 -0.010566709
000110 a1 43 2f 3c 4b 5f 5b 3d 09 cc 2e be 1a 63 e2 3d
       0.010697276 0.053557675 -0.1707002 0.110540584
000120 91 a0 0e bd 67 48 6d 3c 3b 6c cf be cc 4c 8c bd
       -0.034821097 0.014482594 -0.4051226 -0.06850585
000130 2d 2a c7 bd 4f c3 9c 3d 3e 6b a1 3c d9 2a 5f 3e
       -0.09724841 0.0765444 0.019704457 0.21793689
000140 3c 30 cf 3d 67 96 60 be 54 1a 60 3e e1 ad 1e bd
       0.10116622 -0.21932374 0.21885043 -0.038740043
000150 a9 03 ec bd 22 f1 6a 3e f3 be 72 bd a9 6b 10 3e
       -0.115241356 0.22943547 -0.059264135 0.14103569
000160 de 28 f5 3d e2 d5 2c 3e 89 34 e0 3d 4c f3 09 3e
       0.119706854 0.16878465 0.1094752 0.13471717
000170 6e 80 4c be a2 79 50 3e 47 cd 28 bd 3b 8a 29 3e
       -0.19970867 0.20358899 -0.041211393 0.16556637
000180 b0 15 76 3b b3 c7 ec bb 02 e3 cc be 95 ee d9 3d
       0.0037549548 -0.0072259544 -0.40016943 0.10641209
000190 f7 e3 90 be 80 df 9f bd 85 6f 0c 3e a2 bf d6 3d
       -0.28298923 -0.07806301 0.13714416 0.1048577
0001a0 04 d7 96 3d 46 84 83 3c 75 4c 4a be e4 70 87 bd
       0.0736523 0.016054284 -0.19755729 -0.06613329
0001b0 d5 4f ed 3d bd 4d 25 3d 67 e2 bf ba ac f2 9f 3d
       0.115874924 0.04035734 -0.0014639617 0.07809958
0001c0 3e 69 d9 bc f8 0f 97 3e 15 9d 1c bd 03 81 2e 3d
       -0.026539441 0.2950437 -0.038235743 0.042603504
0001d0 60 94 7d bd 34 34 f5 3d 0a 06 fb 3d 3b 0f 21 be
       -0.06190908 0.119728476 0.12257011 -0.15728466
0001e0 bf 97 7a bc 1f 33 e8 3d 2d e4 26 be 9e 16 e5 bd
       -0.015294968 0.113378756 -0.1629798 -0.111859545
0001f0 3f 50 16 be e3 4b 1b 3d 5e 1d c7 3b 92 e5 27 3e
       -0.14679049 0.037914168 0.006076499 0.16396168
000200 ef 05 03 be ab 22 39 3c 07 97 26 3d e4 d9 df 3d
       -0.12795232 0.011299769 0.040671375 0.10930231
000210 9a 2f 54 be d9 81 9e bd c5 1f 24 3e a4 46 7d be
       -0.20721284 -0.0773961 0.16027744 -0.24733979
000220 a7 dd 9d 39 4a a6 87 bd 06 4f 91 bd 71 1e 3b 3e
       0.00030110517 -0.06623514 -0.07095151 0.18273331
000230 8d 98 6a 3e 2a a1 22 3e 6a 62 04 3c 06 86 88 3d
       0.22909756 0.15881792 0.008080104 0.06666188
000240 30 99 15 3c 78 71 be 3d da 59 9e 3e a3 4b 92 3e
       0.009130761 0.09298986 0.30927926 0.2857333
000250 87 b9 43 be 63 89 2c 3e 08 64 ac bd eb 88 c6 3d
       -0.19113742 0.16849284 -0.08417517 0.09694084
000260 28 70 cd bc a5 06 21 3c d8 24 84 3d ff 9a e5 3b
       -0.025077894 0.009828244 0.0645234 0.0070070024
000270 4b 16 cf 3b 0e dc c5 3a 2a 58 1d 3d 82 e3 b3 be
       0.006319796 0.0015095489 0.038414158 -0.35134512
000280 1e b7 56 3e 78 80 96 bd 54 86 6c 3e 52 bc 1c bc
       0.20968291 -0.07348722 0.23098117 -0.009566383
000290 cb ec 0f bb 94 b0 a9 bd b8 03 ea 3d a9 19 82 3e
       -0.0021961208 -0.08285633 0.114264905 0.25410202
0002a0 45 9d 5d be 90 62 9c be f9 ee 66 bc 23 3e 76 3e
       -0.21642025 -0.30543947 -0.014095061 0.24047141
0002b0 92 ad e5 3d 78 b2 13 bf 95 3c d4 bc 0c 53 9f bc
       0.112147465 -0.57694197 -0.025907794 -0.01944878
0002c0 27 79 0d be a9 a2 03 bc 32 81 d8 be 88 ad 5b 3d
       -0.13815747 -0.008034387 -0.42286068 0.05363229
0002d0 bb 5e 63 3e 90 e4 54 3f ce 42 33 be 27 c8 6f be
       0.22204106 0.8316126 -0.17505953 -0.23416196
0002e0 42 33 82 be 29 cf 07 be d5 40 0b 3e 97 2a 24 3e
       -0.25429732 -0.13262619 0.1359895 0.16031872
0002f0 bf b1 29 be c3 c6 1a 3d 15 82 f9 bc 18 85 97 bd
       -0.16571711 0.03778721 -0.030457536 -0.073984325
000300 49 19 96 bd dd bd f1 be 2f a3 0c 3e 64 3c 2f 3b
       -0.073290415 -0.47215167 0.13734125 0.0026738876
000310 d8 c5 04 bd 59 29 c6 3d 04 e8 21 be ec 94 16 bb
       -0.03241524 0.09675855 -0.15811163 -0.0022976948
000320 49 ea 95 bc b4 31 b3 3e 39 7b 91 3e d1 f3 56 be
       -0.018300192 0.34998858 0.28414324 -0.20991446
000330 c0 90 09 3e f7 af 27 bd fd ca 8d 3e e6 78 31 3e
       0.13434124 -0.040939298 0.2769393 0.17331275
000340 b0 6e 0a 3f 34 94 9e 3e 36 02 cb bc 37 d1 10 3f
       0.54075146 0.30972445 -0.024781328 0.56569237
000350 e5 28 60 be 2c cc b5 bd 23 5b ee 3d d3 f1 11 3c
       -0.218906 -0.08876833 0.11638477 0.008907753
000360 fb fa f1 bc f2 67 3c be c7 49 39 3d 6d f5 16 bd
       -0.029538622 -0.18399027 0.045236375 -0.03685515
000370 26 f6 4e 3e 92 1c e3 3d fd b9 58 3d f5 18 03 3f
       0.20211086 0.11089434 0.052911747 0.51209956
000380 dd 37 92 bd 46 58 a8 3d f7 d8 d6 3d a6 6b 36 3e
       -0.07139561 0.08219962 0.104906015 0.17814502
000390 2c 7e 15 be 50 fd 3e 3e 5d 80 80 3c 19 09 cc bd
       -0.14598912 0.18651319 0.015686208 -0.09962673
0003a0 91 8e 63 bd f4 35 ed be 3f 78 99 be b2 f1 14 3e
       -0.055555884 -0.46330225 -0.29974553 0.14545324
0003b0 eb ed 52 bd d3 3f 82 bd 16 27 97 bd 52 77 c4 3e
       -0.051496428 -0.0635983 -0.07380502 0.38372284
0003c0 bb f9 27 be 12 78 99 bc 73 ba ea 3c d0 12 34 3d
       -0.16403858 -0.018734012 0.028653359 0.043963253
0003d0 b2 3d 9a 3d ab 4c 07 3e b4 65 24 be bf 2e dc bb
       0.07531299 0.1321284 -0.16054422 -0.0067194398
0003e0 7b 8b 42 be 7c 74 1c 3e 73 26 49 3f 6d b9 2d 3f
       -0.1899852 0.1527881 0.78574294 0.6786106
0003f0 9f 95 c4 bc 1f d1 ce 3e 06 f8 02 3e e7 e6 f1 bd
       -0.023997126 0.40393922 0.12789926 -0.11811619

layer1.bias f4 [128]
000000 be 88 cd bd 85 50 10 bd 09 54 e7 bc d5 7b b8 bc
       -0.10035847 -0.03523304 -0.028238313 -0.022519985
000010 0f 96 ba bd 24 fe 2e 3d ff 87 8d 3d 4e 8e 9d 3d
       -0.09110653 0.042722836 0.06910705 0.07693158
000020 95 c3 86 bd a1 0c 8e 3d 71 8c ae 3d 1f 35 28 3d
       -0.06580273 0.069360025 0.08522881 0.041066285
000030 5c b2 94 3d 0a fb b2 3d 2a 92 31 3e 27 13 45 3d
       0.07260582 0.08739288 0.17340913 0.04811397
000040 1a 10 a8 3d 27 8a 51 bc 89 81 13 3d 8c 86 8a 3d
       0.08206196 -0.012789286 0.036012206 0.06763944
000050 f2 31 ac 3d 39 96 37 be 4b c6 11 bd ee 83 66 bc
       0.08407964 -0.17928399 -0.035589498 -0.01406954
000060 33 ce 01 3d c1 4f b3 3c 8c 87 eb 3b c7 3a d2 3c
       0.031690788 0.021888616 0.0071877893 0.025662793
000070 78 79 13 3d 9f af c3 3c d6 a2 4c 3d 62 ba 5f bd
       0.036004514 0.023887454 0.04995998 -0.054621108
000080 60 dc c7 3c 58 86 e8 3d 4c 09 77 3d 9a a5 de 3c
       0.024397075 0.11353749 0.0603116 0.027178574
000090 c0 24 c9 3d 16 db 08 3d ab 16 68 3d 24 67 02 bd
       0.09821463 0.03341206 0.056662243 -0.031836644
0000a0 14 de b5 bc f4 b1 70 3d ac 83 ad 3c 3c 7a 25 3d
       -0.022200622 0.05876346 0.02118095 0.040399775
0000b0 4d 0d 94 3c 62 e5 06 bd d9 c7 55 3d 8b 7d 56 3c
       0.018072749 -0.0329336 0.052192543 0.013091455
0000c0 52 18 81 bc 43 ee f8 3b f4 7b e1 3d 1d c8 f9 bc
       -0.015758667 0.0075967624 0.1100997 -0.03049093
0000d0 f8 18 00 bd 98 fd fa 3c 7b c8 22 3d 0d 77 f8 bc
       -0.031273812 0.030638501 0.039741974 -0.030330205
0000e0 57 60 6e bc dd 75 b6 bc 5a 93 b9 3c f7 c2 ae 3d
       -0.014549336 -0.022272998 0.02265327 0.0853328
0000f0 cb dd 14 3c 46 ca 0d bd 65 cc 11 be ac 6d af ba
       0.009086083 -0.03461673 -0.14238127 -0.0013384125
000100 8e 11 50 3d de e8 08 be 76 8d bb bc 02 11 2f bd
       0.05079799 -0.13370082 -0.022894602 -0.04274083
000110 88 09 28 bb db 71 8a bd 28 ae 62 3c 13 0a d5 3b
       -0.0025640447 -0.067599975 0.013835467 0.006501445
000120 ce 25 c6 bc 37 65 2b 3d e9 ac 66 3d bf 65 5b bd
       -0.024187949 0.041844573 0.056317244 -0.05356383
000130 87 d3 34 3d 86 13 b4 3d 08 5a 5c bc 6a 4b 13 3e
       0.04414704 0.08792786 -0.0134491995 0.14384237
000140 7e 2c 4f 3d 4c a4 87 bc 78 1a 4d 3c d6 e5 46 3e
       0.05057954 -0.016557835 0.012518518 0.19423613
000150 29 c3 5a 3d a6 f3 eb 3d 78 cb 4d 3c 1a f5 bf bd
       0.053408775 0.115210816 0.012560718 -0.09372921
000160 1d dc 56 3d b5 98 e7 3d c3 c4 6e bd 59 53 d7 3c
       0.05245601 0.113084234 -0.058293115 0.02628486
000170 e4 c8 cd 3c af 67 3b bd 16 e5 61 bd 17 77 ed bd
       0.025120206 -0.045753177 -0.055150114 -0.1159498
000180 c3 58 53 bc 10 9b f5 b9 9e 0f 7a bd 68 6c f0 3d
       -0.01289958 -0.00046845572 -0.06105005 0.11739427
000190 0d fe 34 bc 64 73 34 3e 35 4e 8b 3b f2 90 9c 3d
       -0.011046899 0.17622143 0.0042512664 0.076448336
0001a0 be f8 60 3c dc 6d 9d 3c 79 ab 91 bd 46 f5 ab 3d
       0.01373118 0.019217424 -0.07112784 0.083963916
0001b0 e1 6d 30 3d 68 dc 93 bd 71 55 63 3d 8b c4 ca bc
       0.04307354 -0.072197735 0.055501405 -0.024751922
0001c0 a3 f8 1a 3e 6a 30 0d 3e 40 1d 39 bd 00 09 95 bc
       0.1513391 0.13788 -0.04519391 -0.018192768
0001d0 7d e6 0d 3e e7 4b 37 3d 5b e9 2f bc 94 8d 07 be
       0.13857456 0.04475012 -0.010736789 -0.13237602
0001e0 57 de 1e 3c e8 ba b9 3c c4 d4 6d bc b8 7a ea bc
       0.009696565 0.022672132 -0.014516059 -0.02862297
0001f0 d3 87 52 3e 14 fb ff 3d 86 2d 1a 3d 57 46 82 bd
       0.20559625 0.12499061 0.03764107 -0.063610725

layer2.weight f4 [64, 128]
000000 3e d0 e2 3d 54 14 d7 bd 7c 64 2a be d6 58 08 3d
       0.11074875 -0.10501924 -0.16639894 0.033287846
000010 29 fc 82 3c c0 4c 8f bd 30 45 55 3d 82 fe 9b 3a
       0.01598938 -0.06997061 0.052067935 0.0011901411
000020 42 0c 73 3e 3c 26 0e be b3 4f c4 bd 9c 2a 5f be
       0.23735145 -0.13881773 -0.09585514 -0.21793598
000030 40 d3 9b 3d 13 68 19 bc 7e 45 94 3d f8 24 91 bd
       0.07608652 -0.009363192 0.07239817 -0.07087129
000040 84 c3 9e 3e fb b3 59 3e 7d 61 63 bd 4c 0b a0 3d
       0.31008542 0.21260063 -0.055512894 0.07814655
000050 7e 5d fb bd 95 0c a9 bd 6c 6a 60 3e 6a 68 0d 3d
       -0.122736916 -0.08254353 0.21915597 0.034523405
000060 a6 55 72 be 64 38 1b bd a5 5c 6e be 99 61 c3 3c
       -0.23665485 -0.037895575 -0.23277529 0.02385025
000070 84 a6 08 3e ed d1 3b bd 2a b9 22 bd f3 7c 82 be
       0.1334477 -0.045854498 -0.039727367 -0.25485954
000080 ac 95 de 3d cb ca a2 bd a7 24 9a bd ac 9a 2a 3d
       0.108683914 -0.07948836 -0.07526522 0.041651413
000090 a1 6d 63 3e 31 4a 2e bd 11 25 fe 3d 58 3e 75 bc
       0.22209789 -0.042551223 0.124094136 -0.014968477
0000a0 91 d3 5e 3d bb 37 23 bd b8 d8 6d 3c c3 ce 8c 3c
       0.054400984 -0.03984807 0.014517002 0.017188435
0000b0 1e 4a 4e be ad d3 f5 bd f3 11 96 be 04 20 49 be
       -0.20145461 -0.120032646 -0.2931057 -0.19641119
0000c0 3a d7 a0 3b 13 a3 e4 3d be b5 6e be 77 4e 50 be
       0.0049084695 0.111639164 -0.23311517 -0.20342432
0000d0 30 fa 4b 3e 78 d6 c3 bd f6 de 08 3d a5 67 27 3e
       0.19919658 -0.09562391 0.033415757 0.16348131
0000e0 58 72 97 bd 44 3d 72 3e b2 34 18 be 2f 15 cf 3d
       -0.07394856 0.23656183 -0.14863852 0.10111462
0000f0 6c 01 f1 3d 8c 95 bb bd 57 0c 27 be e2 00 20 bd
       0.11767849 -0.09159383 -0.16313301 -0.039063342
000100 f2 61 4e 3e f2 51 36 3e 7f 58 d4 3c 60 26 42 bd
       0.2015455 0.17804697 0.025921104 -0.04739988
000110 d7 a1 f5 3c f4 da e2 3d b5 b9 81 3d 51 af 67 3d
       0.029984398 0.11076918 0.06334249 0.05656368
000120 63 09 1a 3e b6 02 f9 3c a1 b1 14 3e b5 1d 73 3d
       0.15042643 0.0303968 0.14520885 0.059354503
000130 e2 9b f8 bd d4 d7 fd bd ae 4b cb bd 62 6d 6e 3d
       -0.12139107 -0.123946816 -0.09926544 0.058209784
000140 99 7d ce 3d c8 28 d2 3d 35 59 09 be 7f 74 ac 3e
       0.100825496 0.10261685 -0.13412936 0.3368263
000150 c6 eb 97 3e f3 2a bd 3d c7 a7 da 3e c8 82 b2 bd
       0.29672068 0.092367075 0.4270613 -0.08716351
000160 d4 6d db bd 38 10 a8 be 21 16 46 bd bd 95 a3 3e
       -0.107143074 -0.32824874 -0.048360948 0.3195018
000170 0f ea 5c 3d cf fe 92 3d 60 45 b4 3d 45 04 a3 be
       0.053934153 0.07177507 0.08802295 -0.31839195
000180 2c 8f 46 bd 92 ba 92 3e 60 81 89 bc f8 61 4f 3e
       -0.048476383 0.28657967 -0.016785324 0.20252216
000190 32 99 0b 3e 2e 3e 53 be b4 e3 eb 3e fe f3 4d 3d
       0.13632658 -0.20629188 0.4607216 0.050281517
0001a0 db d7 d4 bd a0 7c 3b 3d de fc 0d bd 86 c1 e6 3d
       -0.10392734 0.04577315 -0.03466498 0.112673804
0001b0 03 96 ff bd 5d 80 54 3d d1 29 0d be 2d e4 51 bd
       -0.12479784 0.05188023 -0.13785483 -0.051242996
0001c0 7e 1c ab bb 91 28 cf 3d 4f 0d 66 3e a1 0d 8c 3d
       -0.0052219024 0.10115159 0.22466014 0.06838537
0001d0 11 d5 dc bd 5b e3 8c 3d b7 b2 cb 3d 8e 88 06 be
       -0.10782827 0.06879302 0.099461965 -0.13138029
0001e0 95 42 13 3e 63 cb 76 3d 43 bc ba 3e 6e d3 c2 3e
       0.14380868 0.06025256 0.36471757 0.38051933
0001f0 a2 f6 66 be b2 70 6b 3e 59 71 67 3e 13 81 83 3e
       -0.2255502 0.22992209 0.22601832 0.25684413
000200 c0 78 25 3e e3 ee 15 be 9a 32 6b 3c 30 62 e2 3c
       0.16159344 -0.1464191 0.014355326 0.02763471
000210 dc c9 80 be d9 00 46 3e ab cd 63 bd 06 9f 93 3e
       -0.25154006 0.19336261 -0.055616062 0.28832263
000220 42 66 48 3e 04 a2 80 be c4 c8 72 3c b1 1c 98 3d
       0.19570258 -0.25123608 0.014818374 0.074273475
000230 5f c7 90 bc 09 7f 08 be 03 fd 09 be 8c ca 66 3e
       -0.017673193 -0.1332971 -0.13475423 0.22538203
000240 b8 c9 a1 3e 74 d5 98 3e c9 c5 ad 3d 87 a3 3a be
       0.31599212 0.29850352 0.0848499 -0.18226443
000250 c9 93 12 be c8 91 ca be 16 fa de 3d 3b 42 b9 3c
       -0.14314188 -0.39564347 0.10887544 0.022614589
000260 bf 86 ea 3e 94 c6 c0 bd ad 9e 46 3d ac 8a 31 3e
       0.45805928 -0.09412876 0.04849117 0.17338055
000270 05 b8 92 3c cd 63 91 be 83 2e 27 bd c9 07 b2 bc
       0.017910013 -0.28396454 -0.04081584 -0.021732228
000280 d6 7f 8a 3d 08 a1 30 3d c1 24 3b be ed 97 91 bd
       0.06762664 0.04312232 -0.18275739 -0.07109056
000290 57 1b 0b be 3f 3a b2 3c bb f2 30 3e 90 91 d4 bd
       -0.13584648 0.02175629 0.17280094 -0.10379326
0002a0 71 4c 2b be c5 5a 80 3d e0 d1 ba 3e 3f 31 59 be
       -0.16728379 0.06267313 0.36488247 -0.21210192
0002b0 b4 33 1f be 2e a1 b4 3d 04 09 40 3e 97 72 36 bf
       -0.15547067 0.08819805 0.18753439 -0.712686
0002c0 26 0f a8 bc 5e 1f da be f3 64 a3 3d b4 35 6a bd
       -0.020515036 -0.42602056 0.07978239 -0.05718012
0002d0 10 27 5c 3e 94 16 40 3e 4a 2a 26 be 63 26 e2 3d
       0.21499276 0.18758613 -0.1622707 0.11042478
0002e0 04 8f 11 3f 17 cc 63 be 2b f9 86 bc fb 87 f8 3d
       0.5685885 -0.22245823 -0.016476234 0.12135311
0002f0 c0 4c 77 3d 4c 5f 6f 3d ac 49 69 3d b2 02 96 be
       0.06037593 0.05844049 0.056955025 -0.2929893
000300 9c ae 9d bb f9 2e d1 bd 76 d7 c9 3d 60 ab 48 be
       -0.004812075 -0.102140374 0.09855549 -0.19596624
000310 3f dd 8b bd 02 be 7c 3e 85 da bc 3e 4e 75 1d bf
       -0.06829309 0.24681857 0.36885467 -0.6150712
000320 b7 b0 37 be e5 06 21 3e fa 68 26 3e f7 2d 07 be
       -0.17938505 0.15725286 0.16250983 -0.13201128
000330 0f 5c 0d bf 9e 72 f8 bd 5e 8f d8 3d c6 2d 6f 3e
       -0.55218595 -0.121312365 0.1057422 0.23357305
000340 b0 f4 0c bd da ee 8d 3c 9a 0b 70 be 40 24 53 3e
       -0.03441304 0.017325807 -0.23441926 0.20619297
000350 6e 15 9b 3e c1 2c 98 be ed 76 87 bc b4 6e a7 3c
       0.30289787 -0.29721645 -0.0165362 0.02043853
000360 d4 54 98 be 85 c8 9d 3d d1 f5 db 3d 6d e9 0d 3e
       -0.2975222 0.07704262 0.10740245 0.13858576
000370 64 ff a3 3e 0b 03 02 bc b7 98 90 3d 19 bf b3 bd
       0.32030785 -0.007935296 0.07060378 -0.08776683
000380 28 53 62 be 13 25 01 3c 89 a6 95 3e c1 3a e2 be
       -0.22102034 0.007882374 0.2922862 -0.4418545
000390 dc 24 1f 3f 2a 57 81 bd c9 05 b5 3e 5b 60 64 3e
       0.6216562 -0.06315453 0.35355976 0.22302382
0003a0 8e 60 8c be cd a3 f3 3d f8 96 58 3e 87 a8 5f 3c
       -0.27417415 0.11896477 0.2115134 0.01365102
0003b0 b9 68 a5 bd 4b d2 bc 3b 03 89 2d be 51 bd 4c be
       -0.08076615 0.0057623736 -0.16946797 -0.19994093
0003c0 10 4b 90 be 74 35 71 3c 1b 9d 9e 3e 17 5c 24 bd
       -0.28182268 0.014722217 0.30979237 -0.040126886
0003d0 29 28 fb 3c d0 d2 15 be d6 b0 3f 3e 35 c1 50 be
       0.030658798 -0.146312 0.18719801 -0.20386203
0003e0 f0 d5 09 3f 86 f6 38 be b1 c6 59 bd b8 17 dd 3e
       0.5384207 -0.18062791 -0.053168003 0.43182158
0003f0 85 df 5c 3c 40 1c 18 be 6b 28 02 be 76 0d 12 3e
       0.013481026 -0.14854527 -0.1271073 0.14262947

layer2.bias f4 [64]
000000 5d fb ff 3c fb 00 c1 3d be 6b 73 3c ef 3f 37 bd
       0.031247789 0.09424015 0.014857231 -0.044738706
000010 46 48 2a 3d 52 b1 81 bb f9 ce 1e bd c7 c9 f8 3b
       0.04157283 -0.003957906 -0.038771603 0.007592413
000020 21 7e 9c 3c f9 e1 c4 bb 52 89 7f 3d 25 f5 20 bd
       0.019103112 -0.0060083834 0.06238682 -0.039296288
000030 aa f5 64 3c 60 a0 0a bb 56 ee 87 3c ae 6a b4 bb
       0.0139745865 -0.002115272 0.01659314 -0.0055058813
000040 3d 45 f1 3b d2 d7 17 bd a9 3a 13 3d 47 09 e8 38
       0.00736299 -0.037071057 0.035944615 0.0001106435
000050 2e eb c7 3d 01 60 9a bc 37 ec 27 bb fd b8 2a 3e
       0.09761654 -0.018844606 -0.0025622973 0.1667213
000060 3f 15 5f 3c 9c 19 ee 3c 61 81 31 bd 05 9a 76 bd
       0.013615905 0.029064946 -0.043336276 -0.06020548
000070 e4 0a 2f 3d e4 c8 28 3d 01 f1 7f 3d 48 57 81 bc
       0.042734995 0.04120721 0.0624857 -0.01578869
000080 63 90 fb 3c db c5 1b 3e 41 68 4e bd a1 85 43 bd
       0.030708497 0.15212195 -0.050392393 -0.04773486
000090 8f ee 6e bc 4f 83 a4 bc fc b7 ff 3d 62 57 18 3e
       -0.014583244 -0.020082144 0.12486264 0.14877084
0000a0 6a c0 cc 3b 52 35 04 bc a4 1c 9a bd b2 ff 44 3d
       0.0062485235 -0.008069353 -0.07524994 0.048095413
0000b0 f6 af 98 3c ac 07 9e 3c 05 7e 77 bd 8e 58 d0 3c
       0.018638592 0.019290768 -0.060422916 0.025432851
0000c0 9f e4 5a bd ee 24 da bc b6 b3 81 3c a3 e5 90 bd
       -0.053440686 -0.026628938 0.015832763 -0.0707505
0000d0 36 0d 1c 3d 5e 99 af 3d aa 8f 1d be e9 67 20 bc
       0.038098536 0.08574174 -0.15386835 -0.009790399
0000e0 79 13 7c 3d 61 5f d6 bd 6e 4b 4e 3c e8 fe cc 3c
       0.061542008 -0.10467411 0.012591226 0.025023893
0000f0 12 ec c3 bd a1 db c1 3d 98 22 14 3d 03 f0 09 bb
       -0.09566511 0.09465719 0.036165804 -0.00210476

layer3.weight f4 [6, 64]
000000 e4 d7 f4 be af ed 8d bf 51 38 a2 3e 0e 66 e2 be
       -0.4782096 -1.108816 0.3168359 -0.44218487
000010 98 cb 8a bf 94 04 31 3f a7 0a c2 bf ad df 92 3e
       -1.0843382 0.6914761 -1.5159501 0.28686276
000020 9a a4 ce 3f a2 e5 27 be 5d 86 8d 3f 43 4e e2 bf
       1.6143982 -0.16396192 1.105663 -1.7680134
000030 3f f0 88 bf ed f7 fa be 17 50 06 3e 82 9d 89 bf
       -1.0698317 -0.49017277 0.1311649 -1.0751193
000040 f3 e1 01 bf 9c 56 bb bc 14 a4 3c be 9a 3d 04 3f
       -0.50735396 -0.022868447 -0.18421966 0.51656497
000050 e3 b9 19 be 94 d0 22 3f a7 77 5c 3f 3a 1c ef 3d
       -0.15012316 0.63599515 0.86120075 0.11675306
000060 6e 2a 55 3d 7d b0 1b 3f 71 a6 f9 bc 0f ab 0f be
       0.052042417 0.60816175 -0.030474873 -0.14030097
000070 7e e4 4a 3f 21 48 c3 3d e0 dd 3c 3f 11 0f 11 3f
       0.792549 0.09535242 0.73776054 0.56663615
000080 e7 f8 9c 3e f4 b7 36 3e 54 ed 7e be 54 ce d3 be
       0.30658647 0.1784361 -0.24895221 -0.41368353
000090 32 e6 57 bf 35 56 9a be a9 78 5f be e9 e9 c4 3e
       -0.84335625 -0.30143896 -0.21823372 0.3845971
0000a0 51 5c 06 bf 06 f6 39 bf cf a3 7a 3f 0e 51 33 3f
       -0.52484614 -0.72641027 0.979062 0.70045555
0000b0 e1 d8 b3 3e 4a 87 8f 3e 8d b0 a4 be cc a7 66 bf
       0.35126403 0.28032905 -0.32165948 -0.9009979
0000c0 d0 c0 c7 3e 5d 6e 9a bf 0a 01 b2 bd d8 e4 7f 3d
       0.39014292 -1.206493 -0.086916044 0.0624741
0000d0 5d 15 2c c0 e4 f7 42 bf 1e d9 b4 be 9a f3 f8 bd
       -2.688804 -0.761595 -0.35321897 -0.12155838
0000e0 ce ba 98 be ee e4 30 3f 43 35 27 3f 3e 96 5f bf
       -0.2983002 0.6909932 0.65315646 -0.87338626
0000f0 0f f1 4e bf 06 77 24 3e a5 86 9c bd 65 01 bf 3e
       -0.80836576 0.16061029 -0.07642869 0.3730575
000100 71 e6 7b be 10 4e 2c 3e 0f 20 88 3f 1b be b0 bd
       -0.24599625 0.16826653 1.0634784 -0.0863001
000110 81 3d a1 3e 81 6d a0 3e 2e 31 7d bd ff 5d 39 3e
       0.31492236 0.31333545 -0.06181448 0.18102263
000120 29 a0 af 3f df 95 ce bf b4 f2 1d 3e cc 78 31 bf
       1.3720752 -1.6139487 0.15424615 -0.69324946
000130 c7 43 f2 bd 96 9d 80 be 71 f0 f5 bd 70 40 d3 bf
       -0.11829334 -0.2512023 -0.12008751 -1.650404
000140 7f f9 40 bf cb 08 03 c0 d2 ad 53 bf 65 4f 1b be
       -0.753807 -2.0474117 -0.82687104 -0.15167005
000150 4c 66 27 be 84 42 d3 be 8f 8b c0 bf d0 52 92 3d
       -0.16347617 -0.41261685 -1.504259 0.071447015
000160 d0 21 9c be f5 3f a8 3e c3 43 5c 3d 84 03 c6 bf
       -0.30494547 0.32861295 0.05377556 -1.5469823
000170 c7 74 6b 3f 6c ad eb 3d 10 2b 28 be 04 fd a2 bf
       0.91975063 0.11507687 -0.16422677 -1.2733464
000180 e6 da cf 3d 74 14 d4 3e c6 d3 91 3f 96 3e fb be
       0.101491734 0.41421854 1.1392753 -0.49071187
000190 ed 61 01 bd d1 b6 e7 bf cb 95 90 3e 05 88 79 3e
       -0.03158753 -1.8102666 0.28239283 0.24368294
0001a0 c1 59 5b be c1 3e a9 be 0b 1b 09 bf 60 0f 0d bf
       -0.21420957 -0.3305569 -0.5355689 -0.55101585
0001b0 eb 17 5b 3f b3 45 8f be 1c a1 40 be db 07 19 3f
       0.8558337 -0.27982864 -0.18811458 0.5977761
0001c0 2c 73 6c 3f b1 55 97 bd ec f9 80 3f 2e 5d dd 3e
       0.9236324 -0.07389391 1.007627 0.43235153
0001d0 03 80 cb 3d 8d b8 4d be f0 ed 2c 3e 8a f2 f2 be
       0.09936526 -0.20089932 0.16887641 -0.47450668
0001e0 06 dc f5 3e d7 b0 9c bf 85 9f 13 3f 8a 11 00 bf
       0.48019427 -1.2241467 0.5766528 -0.5002676
0001f0 16 72 0f 3f 3d 53 71 be ee 67 76 bf 3f 3f 75 bf
       0.56033456 -0.23566909 -0.96252334 -0.9579963
000200 f0 ea 06 bf 52 0e 50 bf 48 0a 91 bf ad 16 e9 3d
       -0.52702236 -0.8127185 -1.1331263 0.11381278
000210 cd 14 c0 bf 0f b5 49 3d be fd 7a 3f 96 7c 4e 3e
       -1.5006348 0.049244937 0.9804343 0.20164713
000220 af f4 73 3f 4c a6 a1 bd b8 4b a0 bf 7f 71 0a 3e
       0.9529523 -0.07893047 -1.2523108 0.13519858
000230 cf ca 99 be 02 01 66 bf 69 13 b4 be 61 b1 a0 3f
       -0.30037543 -0.8984529 -0.3517106 1.2554132
000240 12 37 d6 be c6 4f 05 3f 50 7f a0 bf cc 23 cb 3e
       -0.4183889 0.5207485 -1.2538853 0.39675748
000250 52 7e 71 be f2 e2 15 c0 78 83 4e 3f c8 40 bb 3e
       -0.23583344 -2.3419766 0.80669355 0.36572862
000260 10 e1 f2 bf 78 5d a2 3e 51 77 a3 bc 2d 96 eb be
       -1.8974934 0.31711936 -0.019954355 -0.46013013
000270 ba 64 8a 3e 08 7e 87 c0 62 cd 76 3f c5 b3 7c bf
       0.27029973 -4.2341347 0.9640714 -0.98711807
000280 e3 0c 52 bf d5 88 1c 3e 36 84 98 3f 64 19 0b bf
       -0.82050914 0.15286572 1.1915348 -0.5433562
000290 44 96 0f bf 33 81 2f bf 98 10 64 3d 62 5f 84 3d
       -0.5608866 -0.6855652 0.055679888 0.06463505
0002a0 d1 95 68 3e 1d 41 70 3d 20 b5 86 3f 4f 9a e2 bd
       0.227134 0.058655847 1.0524025 -0.11064588
0002b0 3c 6b 29 3f 55 e9 0e bf 7e 95 67 bf 4f c2 34 bf
       0.6617925 -0.55824786 -0.9046248 -0.7060899
0002c0 00 6a c8 bd 59 3b 65 bf 9a f7 4c 3e 92 43 64 3f
       -0.09785843 -0.8954368 0.20016328 0.89165604
0002d0 04 4a 27 3e f3 68 67 3f 3d bc 02 bf b3 91 4b 3e
       0.16336828 0.90394515 -0.5106848 0.19879799
0002e0 c7 d7 97 3e 6c d3 8c bf e4 6e 00 3f 6e 87 3f bf
       0.29656813 -1.1002021 0.50169206 -0.74816024
0002f0 5b d3 ff bd 60 c8 fa 3d b8 3f f5 3e 15 5d 26 3f
       -0.12491485 0.1224525 0.47900176 0.6498578
000300 19 08 bb bd af cc 80 3e 50 e0 b1 bf 05 c8 2b c0
       -0.09132404 0.2515616 -1.389658 -2.6840832
000310 e4 84 96 3e c6 94 5e 3f 72 59 0a bf d5 1c 5e c0
       0.29398263 0.8694576 -0.5404273 -3.4705098
000320 72 d6 36 3f 9c f2 b6 be 53 61 c9 be 63 10 d9 be
       0.7142097 -0.3573197 -0.39332065 -0.42395315
000330 e9 65 1c 3f 01 be 85 be 59 a4 8f bf d8 3b 58 bf
       0.61093 -0.26121524 -1.122203 -0.84466314
000340 a9 bf 31 bf 9f 43 16 bc 9e c8 db bb 03 f0 a3 3e
       -0.69433075 -0.009171396 -0.006707265 0.32019052
000350 86 93 38 be f0 68 23 3f 80 b0 e4 bf a8 bc 91 bd
       -0.18025026 0.63831997 -1.7866364 -0.071160614
000360 e5 a2 35 bf 14 18 d7 3e e7 89 e3 bc 29 ff 3b 3f
       -0.7095168 0.42010558 -0.027775718 0.7343622
000370 89 fa 46 3f fb 07 a5 3d 4e 65 94 bc 6e 24 af 3f
       0.77726036 0.08058163 -0.018114712 1.3682992
000380 2d 3b 07 bf 6d a0 d0 3e 2b 51 76 3f 77 93 1f 3e
       -0.5282467 0.40747395 0.962176 0.15583597
000390 58 8a a5 bf 3f 73 36 bf 92 2a ab 3e 29 08 48 3e
       -1.2932844 -0.712696 0.33430916 0.19534363
0003a0 54 b8 48 be ea 36 0a bf a1 3d 2c bf 5f d7 1b 3e
       -0.19601566 -0.5399004 -0.6728154 0.15218876
0003b0 29 a9 e7 bf 6b 93 8e be 9d 82 4e be 7a b8 de bf
       -1.8098499 -0.27846846 -0.20167013 -1.7400048
0003c0 14 5a da 39 5a 59 b0 3e 97 2a 9f bf 91 43 c3 3e
       0.00041647314 0.3444317 -1.2434872 0.38137487
0003d0 59 0f b0 bd 8d ee 77 3f 2e 73 a1 3f b8 c8 4b 3f
       -0.08596677 0.96848375 1.2613275 0.7960315
0003e0 74 8c c7 3e f8 6c 91 bf e6 7f e3 3e fc b0 aa be
       0.38974345 -1.136138 0.44433516 -0.33338153
0003f0 18 a2 9d be d7 76 80 3e 3a 59 40 bf de fc cb 3e
       -0.3078773 0.25090668 -0.7513615 0.3984136

layer3.bias f4 [6]
000000 ae eb 2d bd 49 8d 2b 3d 5a f2 6b 3d 16 ed 7f 3c
       -0.04246109 0.041882787 0.05760417 0.015620491
000010 d4 82 21 3e 5f 6c 31 3d
       0.15772563 0.04331624
