drl_deep_project/scripts/our_agent/models/dqn_a_20250119_002411.pt (torch, 29396 bytes, 6 tensors)

layer1.weight f4 [64, 32]
00000000: 1ee8 ad3d f0b4 5e3e ff68 023d 0f2d f93d
00000010: 1340 11bd 1d8b 4d3e 9633 fabd e60e c6bd
00000020: 0084 96bd cfec 25bd 698f c1bd 73ea 713d
00000030: 8fb5 483f bba2 acbd 4a5d d23e c950 02be
00000040: 6fa5 52be 425f 8fbd dcd8 bc3d 3f47 883e
00000050: 88b4 5f3e b514 ef3d f7f5 cf3e dd7f f23e
00000060: 6ead 863c 1576 fe3d 8844 0a3e ccbe ee3d
00000070: e50e 233d 4ec8 e93d dfbb 883d bae6 32be
00000080: 98bc 55be 4f78 6bbd feed c43d 800c 143e
00000090: 754b 863e ff9b 83bd 210b 4c3e 59a2 fb3d
000000a0: dd8d 813d 979c 693d 7f5f 50be 8c05 c13d
000000b0: 4149 7dbe 17e2 13bd 0322 67be f247 3e3e
000000c0: 8ca1 6ebd ca3c 57bd 53ce 2fbd 8f7b 133e
000000d0: 7931 f33d d720 0fbd 3682 3dbe 3cd7 143e
000000e0: 3ddc 04bc 924b 89be 5428 9cbd 3947 a23c
000000f0: dc9c ca3d 4eaf 6e3e 7283 23be d988 21be
00000100: 8d89 24bc 2268 d6bd ffad 2f3d 633b 383e
00000110: bb95 e7bc ed40 c83d 7e92 6a3e 0105 bf3d
00000120: d044 85bd d47a 0e3d 1df9 2b3d fde1 073d
00000130: 3f24 373d ad2f 24be a2c2 89bd 52b2 823d
00000140: d9d6 a2bd 8d93 9d3c 161e 28bd 0259 853e
00000150: 652f 27be 12ef 383e 068f 25be e71d 8dbe
00000160: 8aea 6f3d 6285 3bbe 7d04 b9bd 8dcc d43d
00000170: 27ee 9bbd d4f1 873e 910a 5bbe 7995 273c
00000180: c830 373e 719e 253e 832b 393e 7020 253d
00000190: fbfe 413e 7f2e 68bc b5a7 ce3d 82a9 923c
000001a0: cc9b af3e e28f 03bd 17a2 ac3e 6f8c 5fbe
000001b0: a140 c4be f15a b9bc a326 c13c fb88 513e
000001c0: 8ede 083d 9c42 053e f685 b33e f853 133e
000001d0: 9394 20be 83de 1b3e 44d4 1a3e 1f6c 723e
000001e0: 1efa 9dbd a8fb fc3d 76fc 88bd 1361 23be
000001f0: c15c a8bc 8515 b2bc 4980 193e 734e da3d
00000200: 165a 8a3c 1a0b 11bd aaa6 89bd 1da5 aa3d
00000210: 692e 14bd 8baf b03d 9286 473d d08e 0f3e
00000220: 7d5f 20be c283 a83c 2a29 903e 4fc1 6cbd
00000230: 3d81 1ebf 86ad 1c3e 9bc8 853e 2c2b 2c3e
00000240: 6d56 59bd 522d 26bd 1e97 88bd 3b12 453d
00000250: abd7 843e d33a 2dbe 0655 edbd 72da fcbe
00000260: 3946 fe3c bc27 aa3e 3d76 ae3d 3d53 05be
00000270: c0fd 11be e197 303e ea67 473e df72 bd3d
00000280: ee2e 453d b9f8 953c 7337 07be 414f 053e
00000290: 2050 3bbb d327 cc3d 6dae fb3d 5178 ed3d
000002a0: ca97 c53c c2e0 a53d 85c3 5bbd 46b0 be3d
000002b0: d127 8aba 82ee d23d ee4b 80be d852 dfbd
000002c0: 0f77 7cbe 7647 c13c db36 16bd b8b5 cf3d
000002d0: 441b 39bd 9ed1 f13d 998a 86be 88b4 5cbe
000002e0: 6852 9d3d 0a81 573e bad4 533d c785 29bd
000002f0: e7bb d13d 8947 a7bd 5542 7f3e c983 27bc
00000300: 77af efbd e76b 013e 8b10 743e 0463 8e3d
00000310: 9958 bcbc abb6 d73c 4b68 67be 102f 21bd
00000320: 347d 6bbe 1c57 aebd b5b1 a2be 4ba3 133d
00000330: a1fb 04be be4d 95bd 84bd c6be 2f60 2abe
00000340: fce7 aebd 5d77 1c3e 2aa2 b1be b291 a3ba
00000350: 4373 29be 681e 503e b002 093e 02af 843e
00000360: fe5d 843b 9c2c 383e cb23 0e3e 8e96 2a3e
00000370: 1735 e8bb 05fb c6bd f728 823e bae2 823c
00000380: 9925 47be 8eb8 31bd 4ba0 a83e b535 1c3e
00000390: 218a 29be a848 27be 1282 883e d02d 04bd
000003a0: a329 523e dfa2 3f3e 8ef0 303c a08f dfbd
000003b0: df91 bebd c896 843e 3376 8b3e 88b9 973e
000003c0: 8e5a 8c3d 9214 6c3c 3c3d 1dbe 3cba cc3d
000003d0: 1dda febd 3ab1 1c3d 05cc 1ebc a0b0 63be
000003e0: e9dd 523d f235 6e3e b088 69bd 0a02 11be
000003f0: 5e8b b3bd 134c 283e 4532 343e 8fc9 003e
0.084915385 0.2174871 0.031838413 0.12166797 -0.035461497 0.20072599 -0.122168705 -0.096708104
-0.07349396 -0.04050904 -0.094511814 0.05906148 0.78402036 -0.08429476 0.410868 -0.1272613
-0.2057092 -0.07000591 0.0922105 0.26616856 0.21846211 0.116738714 0.40617344 0.47363177
0.01644012 0.12424866 0.13502705 0.11657485 0.039809126 0.11415158 0.066764586 -0.17470828
-0.20872724 -0.057487782 0.09615706 0.14457893 0.26229444 -0.06426238 0.1992612 0.12286825
0.063258864 0.0570341 -0.20348929 0.09424886 -0.24734975 -0.036104288 -0.22571568 0.18582132
-0.05825953 -0.052548207 -0.042921375 0.14402603 0.118746705 -0.034943428 -0.18506703 0.1453523
-0.0081091495 -0.26815468 -0.076248795 0.019809352 0.098932 0.23309061 -0.15968111 -0.1577486
-0.01004256 -0.104690805 0.042890545 0.17991404 -0.02826964 0.097780086 0.22907445 0.09327126
-0.065072656 0.034785107 0.04198562 0.033174504 0.0447123 -0.16033812 -0.067265764 0.06381668
-0.07951135 0.019235397 -0.041044317 0.2604447 -0.16326673 0.18059948 -0.1616784 -0.27561876
0.058573283 -0.183126 -0.09034059 0.103905775 -0.07613783 0.26551688 -0.2139075 0.010228508
0.17889702 0.16173722 0.18083005 0.040314138 0.18944924 -0.014171242 0.10090581 0.017903093
0.3429855 -0.03211964 0.33717415 -0.21830915 -0.38330558 -0.022626372 0.023577994 0.2046241
0.03341537 0.1301369 0.35063142 0.143875 -0.15681677 0.152216 0.15120035 0.23674057
-0.07713722 0.12352687 -0.06688778 -0.15955 -0.020552041 -0.021738777 0.14990343 0.10659494
0.01688866 -0.035410978 -0.06721242 0.08332274 -0.036177073 0.08627232 0.04871232 0.14019322
-0.15661426 0.02057064 0.28156406 -0.05780154 -0.6191595 0.15300569 0.26129612 0.16813344
-0.053060938 -0.040570565 -0.06669448 0.04811309 0.25945792 -0.16916971 -0.115884826 -0.4938541
0.031039344 0.3323344 0.08518646 -0.13020034 -0.14256954 0.17245437 0.19473234 0.092504255
0.04814046 0.018307077 -0.13204746 0.13018514 -0.0028581694 0.09968533 0.122891285 0.11595214
0.02412023 0.0809951 -0.05365326 0.09310965 -0.0010540431 0.10299398 -0.2505793 -0.10904473
-0.24654792 0.023593646 -0.036673408 0.10142082 -0.04519202 0.118075594 -0.26277617 -0.21553242
0.07681733 0.21045318 0.051716544 -0.041387346 0.10240918 -0.08167941 0.24927647 -0.010224291
-0.11703389 0.12638818 0.23834436 0.069524795 -0.022991465 0.02633222 -0.22598378 -0.039351523
-0.2299698 -0.085127085 -0.31776205 0.0360444 -0.12986614 -0.07290219 -0.38816464 -0.16638254
-0.08540341 0.15279908 -0.34694034 -0.0012479334 -0.16547875 0.20324099 0.13379931 0.2591477
0.004039525 0.17985767 0.13880841 0.16658995 -0.007086407 -0.09715847 0.2542188 0.015977252
-0.19447936 -0.043388896 0.32934794 0.15254863 -0.16556598 -0.1633631 0.26661736 -0.032270253
0.20523696 0.18714474 0.01079954 -0.10916066 -0.093051665 0.25896287 0.27238616 0.29633737
0.068532094 0.014409201 -0.1535539 0.09996459 -0.124439456 0.038254954 -0.009692197 -0.22235346
0.05148116 0.23262766 -0.05701512 -0.14160934 -0.087668166 0.1643527 0.17597301 0.12576889

layer1.bias f4 [64]
00000000: 4888 123e dab1 8c3e e5d3 373e dfc8 6a3d
00000010: 5489 393d d85d 013e 1bf4 8d3d a9a4 bfbd
00000020: 9392 30bd c44a 553d 7112 713e d402 d8bc
00000030: 5399 423e 233e 38bd 2e81 f9bb 1e50 3fbc
00000040: c05f 22be c9c5 1cbe 6750 583e 2526 4d3d
00000050: 3ce7 c03d a920 50bd a41d 993d 213d 283d
00000060: aae0 a33c 02cd 453c 9736 00bd e8ec e4bd
00000070: 6804 023e 698c 49bc b52c a33d b8a4 ba3a
00000080: 10dd c13d 2963 60bc 6e93 40bd f08d 95bd
00000090: 2116 f83d 3c97 233e ed60 183e 9106 6e3e
000000a0: 3853 43bd 0860 b83d c9f0 54bd 2e5e ae3d
000000b0: 1ad7 313e ec75 cabd 13ae 34bd 4855 373d
000000c0: 12c7 aabd 5c01 ab3d c731 ba3d d8a2 213e
000000d0: 4fe8 07bd bce9 da3d 1c51 243d c531 c1bd
000000e0: d7de 663d 61bb 163e ef47 a93d 2704 e43d
000000f0: 7d57 b13d f986 273e a593 cbbd 0dd4 bb3c
0.143098 0.2747944 0.17951925 0.05732047 0.045296982 0.12633455 0.06931325 -0.09357578
-0.043108534 0.052073255 0.23542191 -0.026368536 0.19003801 -0.044981133 -0.0076142764 -0.011676816
-0.15856838 -0.15309824 0.21124421 0.050085206 0.094191045 -0.050812397 0.074763566 0.041073922
0.02000459 0.012072803 -0.03130206 -0.11177999 0.12696993 -0.012301543 0.079675116 0.0014239764
0.094659925 -0.013695517 -0.0470156 -0.07302463 0.12113596 0.1597566 0.14880724 0.23244692
-0.047686785 0.090026915 -0.051987443 0.08514057 0.17367211 -0.09885773 -0.044111323 0.044759065
-0.08338751 0.08349869 0.090915255 0.15784776 -0.03318053 0.106891125 0.040116414 -0.09433321
0.05636486 0.14719917 0.08265673 0.111336045 0.08659265 0.16360082 -0.0994027 0.022928262

layer2.weight f4 [64, 64]
00000000: d6e5 e2bc baae 96bd e63a c5bc 4670 0e3e
00000010: f786 f53d c698 403d d537 c13d b8ff 163e
00000020: ee37 8d3d 8851 69bd d236 ebbd 9970 26bc
00000030: e5d6 95bd 3101 113e a733 f03d 8543 2b3d
00000040: 69cf 66be 0738 0f3e 6c9e b1bd 1991 bf3d
00000050: df2e e2bc 58c1 873e 8017 aabc 0a6a 8e3e
00000060: 6efd 9ebd 032b 43be 00ae 893e 0e68 94bd
00000070: 7057 b9bd 0590 c3bc 781e 263c 5c3a 0abb
00000080: 3338 f53d f79e ff3c a5c0 8d3e ce99 58bd
00000090: 955d 813e 04ff 33bc f822 9ebd eb0c 5cbe
000000a0: 1520 bb3d dd18 f938 d6ca a1bd 4e4d 80be
000000b0: a569 1b3d 9df7 9dbc a517 153c 2952 84be
000000c0: 7005 04be a59c 593c 71ec 693d 8918 0439
000000d0: 89da af3c f3ac c03e 964e 913e ef6c e73d
000000e0: 40c4 1fbe 9260 8a3d 5d53 823e f933 31be
000000f0: f9c1 a3bd 4669 bdbc 305a aebd cad4 6fbb
00000100: 4c64 503d aff2 163c 406d abbc 3a3a 7cbc
00000110: 9dcc b7bc a5ad 33be bf56 35bd 98f7 a63d
00000120: c4ae 02be 27f3 843e b222 f1bc 4dbf a8be
00000130: e140 0a3e 396e 0c3e b7f2 dc3e 3ff0 d43b
00000140: 11d9 33bd 1481 033e eb32 f2bd fe88 923b
00000150: 9506 103d 32d9 91bd 678c b7bd 0345 4e3d
00000160: ac13 debc 84b4 d63d a880 003d 65d5 89bd
00000170: 2eae dcbd 1dc7 853c 83f1 863e a4ec 25be
00000180: 123e f33d 33e0 3dbe 8b2d 02bf 7dc5 8bbd
00000190: 3f32 cd3d 1203 313e a48e 1e3e bccd 37be
000001a0: 31a2 4b3e 7f1e fabd 3dab 523e d21a f33d
000001b0: 69e0 94bb 7f2b debd 50a5 5e3c 2ba1 f0be
000001c0: ba6c 92be 2cf0 a4bd d466 c53d 94d3 73bd
000001d0: 3190 a63e 2058 b23d 9041 1dbd 3068 0e3e
000001e0: fb80 d1be 4f5b ffbb 286e a33d f166 433e
000001f0: 8818 b63c 1e1a 103d 7572 8f3e 3e6e 85be
00000200: 9c84 9c3d bc49 653d 4025 97bd 7f47 583d
00000210: 5c4e 98bd 7a99 77bd e41e 483e 701c 01bd
00000220: e6a0 a2bd 901a 2a3e 1123 a1bd 8b42 95bf
00000230: be77 193d e82c 79bd 6557 8c3d 3075 173e
00000240: f5b4 d93d b55f d1be 3d2e 1f3b a9be a5bd
00000250: 797c 83bd 744a e33d 3738 373d c6e3 523e
00000260: 0e9f 0bbe 6608 adbc 3324 54be 2e82 0b3e
00000270: 0580 9b3d a165 22be c4a7 3cbd c6b0 ccbd
00000280: 7fe1 013e 1ee5 05be 3df8 71be 6330 9ebd
00000290: 6ba7 f53e d450 21bd dd2e bebd e46a 4fbe
000002a0: 578c c13d 0c34 dd3d a65b 343e d7bb 1f3d
000002b0: 11f0 09be 8504 603d 9c28 c0be f462 1f3e
000002c0: ac28 ee3d 3767 f4be 9034 923e 6953 4dbd
000002d0: a14b cf3d 5dad 59bd 134c b73d bbc0 e5bc
000002e0: 0859 023d 0b22 9bbd cd6a c53c 18cb b6bd
000002f0: 2f18 c93d 2e58 f6bb d48d 803d 2c50 d4ba
00000300: 6e80 da3d 2086 1fbd d6ff da3d caa3 363e
00000310: 74c2 523d cb9d c4bd 6788 eabd 30d2 90bd
00000320: f57c ba3d 9f7b 523e ea46 bf3d 95f6 353f
00000330: c699 a0bc c8b1 483b 4e63 e0bd 6a9a 213d
00000340: 3751 4c3d ea9b 413e f16b ce3d 39d4 a33d
00000350: 8ef4 2bbd 0b31 ba3c 51c2 143e fc81 bfbd
00000360: f33f 0e3e 5a07 023e 6ff5 da3d 25ab 243e
00000370: 70f8 1f3d 6c4b 823d 8663 163e 3b46 193d
00000380: 995c 3cbd 919e 423e f0f2 ff3d a574 093d
00000390: 5c8c f7be 4bc1 9b3d 6423 7bbd 565c 043e
000003a0: a57a fa3c 9252 d9bd 3da3 443e 6fbe bc3b
000003b0: 9217 b23b e94d 993d 4641 513e 291a f3bc
000003c0: 0dfd fabd 6fb3 333d 387b 983d 6401 403e
000003d0: 318f 393d 61cf 8c3d eb82 2f3c 2584 7fbd
000003e0: 4ed6 163e aa86 ca3d e21a bc3d 8e71 2c3e
000003f0: a05b 36ba 8004 923d 0bd7 b63d 968e e2bd
-0.027697485 -0.07357545 -0.024075937 0.13910016 0.11988633 0.047020696 0.09434477 0.14745986
0.06895433 -0.05696252 -0.114850655 -0.010158681 -0.073163785 0.1416061 0.11728602 0.04181244
-0.22540058 0.13986216 -0.08672795 0.09353847 -0.02761024 0.26514697 -0.020763159 0.27815276
-0.077631816 -0.19059376 0.26890564 -0.07246409 -0.090498805 -0.023872385 0.0101391 -0.0021091914
0.1197361 0.03120373 0.2768604 -0.052881055 0.2526671 -0.010986093 -0.077215135 -0.21489303
0.091369785 0.000118778764 -0.07900016 -0.2505898 0.037942547 -0.01928311 0.009099876 -0.25843933
-0.12892699 0.013281976 0.057110254 0.00012597641 0.02146651 0.3763195 0.2838027 0.11300074
-0.15602207 0.067567006 0.25454226 -0.17304982 -0.07995982 -0.023121487 -0.08513296 -0.0036595338
0.0508769 0.009213134 -0.020926118 -0.015394742 -0.022436434 -0.17546709 -0.04427218 0.081526935
-0.1276198 0.2596676 -0.02943549 -0.3295845 0.13501312 0.13713922 0.43153927 0.006498366
-0.043908183 0.12842208 -0.11826118 0.004471897 0.035162527 -0.07121505 -0.089623265 0.050358783
-0.02710899 0.104836494 0.031372696 -0.06730155 -0.1077541 0.016330296 0.26356134 -0.16203552
0.11877073 -0.18542556 -0.50850743 -0.06824777 0.10019349 0.17286327 0.154841 -0.17949575
0.1988609 -0.12212848 0.20573135 0.1187035 -0.0045433533 -0.1084814 0.013589218 -0.4699796
-0.28598577 -0.08053622 0.096387535 -0.05952795 0.32531884 0.08708215 -0.038392603 0.13906932
-0.40918717 -0.0077928673 0.07979995 0.19082238 0.022228494 0.035181157 0.2801701 -0.2606067
0.07642481 0.05597852 -0.07380152 0.05280256 -0.07436821 -0.0604491 0.19543034 -0.03152126
-0.07940845 0.16611695 -0.078680165 -1.1660932 0.03746771 -0.06083384 0.06852607 0.14790797
0.10630218 -0.4089333 0.0024289035 -0.08093006 -0.06420226 0.11098185 0.044731345 0.20594701
-0.13634893 -0.021122169 -0.20716934 0.13623878 0.07592777 -0.15859081 -0.04605843 -0.09994654
0.12683676 -0.13075683 -0.23629852 -0.07724073 0.47979292 -0.039383724 -0.09286282 -0.2025562
0.09450596 0.10800943 0.17613086 0.038997497 -0.13470484 0.05469181 -0.37530982 0.15565091
0.11628851 -0.47734997 0.28555727 -0.050128374 0.10121847 -0.053143848 0.08950057 -0.028046003
0.031823188 -0.075748526 0.024098778 -0.08925456 0.09819066 -0.007517836 0.062770516 -0.001619821
0.10669027 -0.03894627 0.10693328 0.17835918 0.051454976 -0.09600409 -0.11451798 -0.0707134
0.09105865 0.2055497 0.09339698 0.7107938 -0.019604575 0.0030623544 -0.10956441 0.0394539
0.04988214 0.18907133 0.10079182 0.07999463 -0.041981272 0.022728464 0.14527251 -0.093509644
0.13891582 0.12698117 0.10691344 0.16080911 0.039055288 0.06362042 0.14686403 0.037420493
-0.045986746 0.19005801 0.124975085 0.033558507 -0.48349273 0.07605227 -0.061313048 0.12925848
0.03057606 -0.10611452 0.19202895 0.005760006 0.0054349387 0.07485563 0.20435056 -0.02967556
-0.12255297 0.043872293 0.07445377 0.1875053 0.045302574 0.06875492 0.010712366 -0.062381882
0.14730188 0.098889664 0.09184815 0.16840193 -0.0006956402 0.071297646 0.08927735 -0.11062352

layer2.bias f4 [64]
00000000: d15f 13be 6de6 b8bc 48b5 883d c2dd 9e3d
00000010: da5b 2bbd bacc 0a3d bf0a e2bc 5062 4fbd
00000020: 9ae2 46bc 55ba 4f3d 5d0f 0dbc 3a38 2ebd
00000030: 1090 8cbd f5d8 88bc ffb8 2c3d 5a43 8d3d
00000040: 9b97 9d3c bfb2 d5bc f23a 7a3d a86b 3cbd
00000050: 1ca1 3fbd 3fef 983d 865a 43bc 667b 6d3d
00000060: 1362 953c 913b e3bc 29c6 0f3e ab59 1bbd
00000070: 5f77 9dbd 32a8 673d 3f69 70bd f379 2c3e
00000080: de85 9f3c 3ab1 543d 5762 b33d 2a9e 633c
00000090: db4c 483d 7ed6 e63d 3af0 283d 37d6 cebd
000000a0: b844 e03b 02d1 a13c 7e7f 103d e477 8b3d
000000b0: 125b a8bd 699f f8bc 490c 4a3d 8f25 55bd
000000c0: c378 eabd 5f9d bf3d a9aa 17bd bb26 373d
000000d0: 7668 de3d b8c3 ea3d 4a07 fe3c 00aa 0c3d
000000e0: 94f2 6c3d eca7 cd3d f3a0 7ebd 1624 62bd
000000f0: 9ae1 a1bd 3721 0d3e 3fdb 1bbc 0e3e 0dbd
-0.1439202 -0.022570813 0.06675202 0.07757141 -0.041835643 0.03388665 -0.027593015 -0.050630867
-0.012138987 0.05071481 -0.00860962 -0.04253409 -0.06863415 -0.016705016 0.042168614 0.06897612
0.01923733 -0.02608621 0.06109137 -0.046001107 -0.046784505 0.074675076 -0.011923438 0.05797901
0.018235242 -0.027738364 0.14040436 -0.03792731 -0.07688784 0.056556888 -0.05869412 0.16843395
0.019473013 0.05192683 0.08758991 0.01389269 0.04890142 0.1127138 0.041244723 -0.10099452
0.0068441294 0.019752983 0.035277836 0.06809977 -0.08220495 -0.03034945 0.049328122 -0.05203777
-0.11448815 0.09356188 -0.03702799 0.04471467 0.10859768 0.11463112 0.031009335 0.034341812
0.057848528 0.10041794 -0.062165212 -0.055210195 -0.07904358 0.13782202 -0.009512722 -0.034483008

layer3.weight f4 [6, 64]
00000000: 5c79 87be ae31 2c3e 1868 d03e e9d3 16bd
00000010: a380 aabe 89a2 07be ac32 843c a134 90bd
00000020: 1b83 bebe 618e 9bba d587 0abe 62f9 49be
00000030: b175 74bd b4f8 14be 82af 3a3e 4644 19be
00000040: 3f45 973c e9ca e7be e185 143c 076d 473e
00000050: 41dd 083d ca8d bb3d 96cf ae3e 9deb f8bc
00000060: 9f15 073f b532 863d e8ee c4bd 103b d33e
00000070: 5740 dd3c 1cd5 53bd 0251 b43e 5b57 5b3e
00000080: 48f2 0c3e 3184 97be f1a6 edbb 994c babc
00000090: 05d7 ec3c 404a 31be 9996 42be bab2 83bd
000000a0: 2e4b 813e 7194 463d 074f 573e fa7f c4bc
000000b0: 3020 e5bd 3509 893c 2420 08be c1a6 db3d
000000c0: 1a36 703e d926 a7be dab0 833e 6869 e6bd
000000d0: c244 00be 3202 0bbe f11c 13be 1e55 303e
000000e0: c50e 14be aba3 54be 2cc8 3e3c e8c1 c23d
000000f0: 902f a03d 1559 783a 8ad8 4d3d 4ab8 15bd
00000100: 0f47 703e 60a9 4c3e 5c0f 003e f5cb 45bd
00000110: db39 0abe 09ff 43be c8a8 7fbe 56c7 46bd
00000120: a778 4e3e 9a2e b3be 50d4 ce3d 6482 30be
00000130: da1e aabd db14 03be 75ed 87be 5fc1 9c3b
00000140: 5a61 adbe 21dd 5abf 4b98 bb3d a131 543f
00000150: 5dc8 9a3e eecc 90be c34a 7c3e 6e98 393d
00000160: 3c77 37be 8dfa 0a3e 9e26 d43c a17f b0be
00000170: 0698 e1be 31f6 f23d 8272 dbbe 9bf3 98bd
00000180: f906 e83d c4dd 65bb 5fb7 f43c d30f 443c
00000190: 292a 543d 76e8 7ebe da5a 82bd c442 9dbb
000001a0: 6cff e53d 246e 5bbe b647 9f3e 16c3 55bc
000001b0: dee0 0a3b 5bd4 373f 470c 0ebe 1c48 f73e
000001c0: 4ad7 033e 9024 133f dc09 a63e af59 2cbe
000001d0: 4cb5 0dbd 9429 013d 7970 e4bd 43f9 d4bd
000001e0: 9a98 0abe 856e fabd c1fb a03e b3d0 c63d
000001f0: 8fa5 2fbd 36ad 0ebe ac90 483d 8a76 e53b
00000200: 16af 223e 7d0c e53e 652f 42bd 7b61 5bbd
00000210: 13d7 0bbe 9219 953c 6199 1c3e 3123 a3be
00000220: 9e64 e0bd 3467 bfbd 78fc 7abd 9fb8 30be
00000230: 14b3 9a3d 8eb8 dfbd 5299 74bd 13cb f43b
00000240: fd77 123e c774 51bc 1f77 32bc 7717 1e3e
00000250: 3b1b dd3c 2cae 293e 5843 32be 28d2 57bc
00000260: cbc4 a8be 8599 6abe f5b9 8dbd 32e7 8e3e
00000270: 6c08 373f 62ee b3bd 5977 07bf e3a0 d63c
00000280: f9f9 0fbd ecff 61be 4b4a 913d af00 903d
00000290: b0ab d73d f0ac 37be cfcc 143e 0880 99bd
000002a0: 5e46 a9bd 7b4e 4abd 4963 4ebe 1127 d8be
000002b0: 03cd 2a3e 7730 cbbd 243e 95bd ac2c 9cbd
000002c0: 8d92 083f 97fd 923e 67cf fabe b9f3 29be
000002d0: fa36 26bd d818 5a3c 52ca f4bd 9c57 a73c
000002e0: d4da f03d 1c46 84be 1b27 823e 0b12 8f3c
000002f0: dd79 163d 6f2a eebd 6302 d0bd 60b1 fdbc
00000300: 5a2d cf3c 234f 303f 5d52 823e 8501 5ebd
00000310: 5a57 9f3d a5a0 6fbe 5993 3ebd a684 66be
00000320: 3b44 a4be f5cb 07be ab39 1b3f 7d47 9abc
00000330: 69cf bdbd 247a 72bd 36c3 3a3e 337d 663d
00000340: 1f35 cbbe 8627 71bd 6a12 c53d 242b fdbd
00000350: 95ec 07be b101 49be d8fe 193e 1d7a 14bb
00000360: c8e2 e8bc 920c 463e 8406 47bd a228 633f
00000370: 14ca e6bd 5b68 02be dd9c 4ebe c0a9 4d3e
00000380: e89f 10be fb1f e038 0436 3b3d 8020 663b
00000390: 4212 70bd cd52 06be bc32 d5be a440 ecbe
000003a0: c6a0 453d b945 883d 72a9 1c3b c035 67be
000003b0: 109c 2d3e 332a 29bf dbbe 91bd 9564 30be
000003c0: 1c91 813e 4411 0d3e dd93 953e 2f37 59be
000003d0: 88df 28be 79eb 14be 93d0 3bbc af7b 183c
000003e0: 0349 97be eb4a 0bbd f338 39be cb84 f5bd
000003f0: 9df5 34bd ead2 9abd 6f23 173e e15d 3fbe
-0.26459777 0.16815826 0.40704417 -0.036823187 -0.33301267 -0.13245596 0.016137443 -0.07041288
-0.372094 -0.0011867994 -0.13528378 -0.19724038 -0.05968255 -0.14547998 0.18231013 -0.1496745
0.018465636 -0.45271996 0.009065122 0.19475184 0.03341413 0.091579035 0.3414275 -0.030385787
0.52767366 0.0655264 -0.0961588 0.41256 0.027008219 -0.05171691 0.35218054 0.21420042
0.13764298 -0.29593042 -0.007252567 -0.022741603 0.028911123 -0.1731348 -0.19002761 -0.06430574
0.2525267 0.04848141 0.2102624 -0.023986805 -0.1118778 0.016728023 -0.1329351 0.10725165
0.23458138 -0.32646826 0.25720865 -0.112505734 -0.12526229 -0.13575056 -0.14366509 0.1721997
-0.14458759 -0.2076556 0.011644404 0.09509641 0.07821572 0.00094737235 0.050255336 -0.036552705
0.23464607 0.19986486 0.12505859 -0.04829021 -0.13498633 -0.19140257 -0.24966729 -0.048529945
0.20163213 -0.34996492 0.10099089 -0.1723724 -0.08306666 -0.12800924 -0.26548353 0.004783794
-0.33863336 -0.85493666 0.09159907 0.8288823 0.3023099 -0.2828135 0.24637894 0.045311384
-0.17916578 0.1357214 0.02589732 -0.34472373 -0.44061297 0.118633635 -0.428608 -0.07468339
0.11329455 -0.003507481 0.029872594 0.011966663 0.05179802 -0.24893364 -0.06364985 -0.004799219
0.112303585 -0.21428734 0.311094 -0.013047 0.002119116 0.71808404 -0.13871871 0.48297203
0.12875095 0.57477665 0.32429397 -0.16831087 -0.034596726 0.031533793 -0.11154265 -0.103991054
-0.13534775 -0.12228111 0.31442073 0.09707775 -0.0428825 -0.13933262 0.048966095 0.0070026563
0.15887102 0.4473609 -0.04740848 -0.05355976 -0.13656263 0.01820067 0.15292884 -0.31862786
-0.10956691 -0.09345856 -0.06127593 -0.17257927 0.07553688 -0.10923873 -0.05971653 0.0074704974
0.14303584 -0.01278419 -0.0108926585 0.15438639 0.026990524 0.16570348 -0.17408502 -0.013172664
-0.3296264 -0.22910126 -0.06920234 0.27910763 0.71497226 -0.08785702 -0.52916485 0.026199764
-0.035150502 -0.22070283 0.070942484 0.070313804 0.10530794 -0.17937064 0.14531253 -0.07495123
-0.082653746 -0.04939125 -0.20155062 -0.42217305 0.16679768 -0.09921353 -0.07287243 -0.07625708
0.5334862 0.287091 -0.4898636 -0.16596879 -0.040579773 0.013311587 -0.11952652 0.020427518
0.11760488 -0.2583474 0.2542046 0.017464658 0.03673731 -0.11629187 -0.10156705 -0.030968368
0.02529018 0.68870753 0.25453463 -0.054200668 0.07780333 -0.23401125 -0.04652724 -0.22511539
-0.32083306 -0.13261397 0.6063487 -0.018832916 -0.09268076 -0.059198514 0.1823853 0.056271743
-0.39688966 -0.058875583 0.09622653 -0.12361744 -0.13273843 -0.19629551 0.15038621 -0.0022655793
-0.02842845 0.19340733 -0.0485902 0.88733876 -0.11269012 -0.12735121 -0.20177026 0.20084286
-0.141235 0.00010687109 0.04570581 0.0035114586 -0.058611162 -0.13117523 -0.4164027 -0.46143067
0.04824903 0.066539235 0.0023904708 -0.22579098 0.16954064 -0.66080016 -0.07116481 -0.17225869
0.25306022 0.13776118 0.29214373 -0.21212457 -0.1649152 -0.1454295 -0.011463302 0.009306832
-0.2954789 -0.034006994 -0.1808813 -0.11988219 -0.044179548 -0.0755976 0.1475961 -0.18688156

layer3.bias f4 [6]
00000000: 04d0 413d af4d 1bbc 1d0f 0cbd 892f 8f3d
00000010: c018 94bd 47a9 4c3d
0.04731752 -0.00947897 -0.0341941 0.069914885 -0.07231283 0.049966123
