drl_deep_project/scripts/our_agent/models/dqn_20250119_195525.pt (torch, 29440 bytes, 6 tensors)

layer1.weight f4 [64, 32]
-0.016026007 -0.01511198 0.0031474598 -0.027341448 -0.02235901 -0.023961024 -0.018294383 -0.0026750336
0.021541735 0.012082794 -0.13454857 -0.001895243 0.023047602 0.025255654 -0.028100125 -0.010496144
-0.068485394 0.03477404 -0.034242347 -0.008024301 -0.0013828924 0.03854013 -0.038356077 -0.0014340394
-0.85123575 0.04181522 0.016761512 0.19409218 -0.022755453 -0.00576714 -0.03769189 -0.027091984
0.095962964 0.0977288 0.27540952 0.032460622 -0.039479855 0.13748968 -0.0018873033 0.07390986
1.6402301 0.014925458 -0.11300702 0.015848953 -0.24414355 -0.0073172855 -0.061624687 -0.00016380362
-0.13925184 -0.03712618 -0.26165658 0.030575836 -0.07629371 0.015741304 -0.08024399 0.042046607
-0.33521652 0.22848782 0.20259762 0.22934344 0.06509326 0.01520021 0.14075582 0.036759056
0.07833942 0.03959187 0.088713706 0.18529409 0.004493841 -0.018850677 0.13758348 0.15455262
-3.0355334 0.03171826 0.065588295 -0.031794384 0.07511495 0.017915364 0.052605428 -0.0063073444
0.5354452 0.02442546 -0.001208127 0.024206558 0.085544236 0.022561042 -0.124494135 0.033865623
0.66552824 0.025772944 0.19787757 -0.22734113 0.22596519 -0.022318887 0.091849364 0.05093566
-0.007194823 0.0065035755 -0.061797645 -0.060136724 0.010070218 -0.014342707 -0.037321575 0.036879487
-0.262658 0.013775484 0.00085715164 0.0409886 -0.206401 0.025014587 -0.044886574 -0.0027141164
-0.14941266 0.024598343 -0.11461357 -0.006268006 -0.07602424 -0.02800199 0.042240914 0.017096277
-0.33179337 -0.036489848 -0.07861728 0.19209526 -0.105837256 0.024524573 0.0027000497 0.07104266
0.12150053 -0.15781492 0.13943753 0.081688374 -0.12960486 -0.076366715 0.008189101 -0.013130956
2.4199028 -0.021220809 0.07252414 0.01398301 0.6331498 0.017333096 -0.039758638 -0.03841146
0.6803976 0.027169213 0.23212497 -0.036744606 -0.33777514 -0.034780588 -0.033239078 0.043859456
-2.0977297 -0.0873087 0.06728809 0.4728585 0.06665058 -0.037000693 0.034974806 0.044991966
0.09524543 0.004955679 0.0968397 -0.023545362 -0.041887727 0.016766949 0.032986477 -0.028983794
1.5549353 0.024640197 -0.20134676 0.008271761 -0.26006186 -0.0011306842 -0.0966862 -0.008495751
-0.19277233 0.01409244 -0.19908506 -0.017002186 -0.11781445 0.00248858 -0.022097584 -0.007204673
-0.22889648 0.18232945 0.18276265 0.2130335 0.019965934 0.019624403 0.121839 0.043283395
0.0038819867 0.0704085 0.08136445 0.0073035914 0.012097369 0.0013385054 -0.06257393 -0.037635017
1.4715877 -0.024196602 -0.03750278 -0.0433993 -0.12365844 0.008388681 0.068009086 0.02367313
-0.43091136 -0.023117958 0.16148715 0.004545844 -0.17545229 0.04237549 -0.07561269 -0.012403031
-0.35096237 0.051953375 0.13598533 0.29382578 0.19645736 0.043626618 0.087463364 -0.047675356
-0.03447218 -0.066252805 -0.050316017 -0.048731565 0.021738673 -0.012477122 0.032846853 -0.015304576
0.0044895667 0.004723119 0.025515974 0.04317319 -0.017111236 0.020717734 0.018421201 -0.014148405
-0.32813862 -0.01869527 -0.012019335 0.008514769 -0.009848811 0.004065432 -0.017503016 0.04048842
0.50676596 -0.11719597 -0.22240321 0.2590892 -0.2514013 0.044469584 -0.05121787 -0.015030836
00000000: f948 83bc 3d98 77bc 9d45 4e3b 2cfb dfbc
00000010: 3e2a b7bc e949 c4bc 1ade 95bc 9e4f 2fbb
00000020: 4b78 b03c e9f6 453c 1ac7 09be cd69 f8ba
00000030: 53ce bc3c f2e4 ce3c 3c32 e6bc 05f8 2bbc
00000040: 1242 8cbd 396f 0e3d b441 0cbd 5c78 03bc
00000050: 2b42 b5ba 41dc 1d3d 431b 1dbd 61f6 bbba
00000060: 96ea 59bf 7046 2b3d 704f 893c 1ac0 463e
00000070: a569 babc 47fa bcbb d062 1abd 02f0 ddbc
00000080: 3b88 c43d 0926 c83d 7a02 8d3e 6ef5 043d
00000090: a1b5 21bd 18ca 0c3e 645f f7ba 0d5e 973d
000000a0: 0ff3 d13f e889 743c 3970 e7bd aad5 813c
000000b0: c400 7abe d7c5 efbb 2b6a 7cbd b3c2 2bb9
000000c0: 0998 0ebe 9f11 18bd daf7 85be 2d7a fa3c
000000d0: e03f 9cbd e8f3 803c f656 a4bd 1039 2c3d
000000e0: 80a1 abbe b6f8 693e c075 4f3e 02d9 6a3e
000000f0: 9d4f 853d 4d0a 793c 4b22 103e aa90 163d
00000100: 6b70 a03d 162b 223d 88af b53d bcbd 3d3e
00000110: 1241 933b bc6c 9abc afe2 0c3e 0b43 1e3e
00000120: 2e46 42c0 02eb 013d 2853 863d d43a 02bd
00000130: ded5 993d 3ec3 923c ca78 573d d7ad cebb
00000140: f012 093f e717 c83c 045a 9eba d54c c63c
00000150: d131 af3d efd1 b83c c8f6 febd aeb6 0a3d
00000160: 0f60 2a3f c821 d33c 6ba0 4a3e 1dcc 68be
00000170: 6b63 673e 19d6 b6bc 851b bc3d e9a1 503d
00000180: 8dc2 ebbb f21b d53b 871f 7dbd ed51 76bd
00000190: 8efd 243c acfd 6abc 82de 18bd f20e 173d
000001a0: 1c7b 86be 91b2 613c 79b2 603a aae3 273d
000001b0: c95a 53be 64eb cc3c fcda 37bd 51df 31bb
000001c0: a2ff 18be 7782 c93c 85ba eabd d863 cdbb
000001d0: 99b2 9bbd 6e64 e5bc cf04 2d3d 7e0d 8c3c
000001e0: d2e0 a9be 6176 15bd 1902 a1bd 9fb4 443e
000001f0: 34c1 d8bd c2e7 c83c 51f3 303b d07e 913d
00000200: 45d5 f83d 3c9a 21be b6c8 0e3e 3c4c a73d
00000210: 23b7 04be 2766 9cbd 942b 063c 3923 57bc
00000220: b0df 1a40 43d7 adbc 8987 943d ff18 653c
00000230: 1b16 223f 23fe 8d3c f4d9 22bd 5655 1dbd
00000240: 8a2e 2e3f f891 de3c 2bb2 6d3e 8381 16bd
00000250: ddf0 acbe 1776 0ebd b325 08bd f9a5 333d
00000260: 3441 06c0 e7ce b2bd 57ce 893d 821a f23e
00000270: 1980 883d 0a8e 17bd be41 0f3d 7f49 383d
00000280: 0910 c33d 4063 a23b e553 c63d 34e2 c0bc
00000290: 7792 2bbd d75a 893c d41c 073d 6c6f edbc
000002a0: 1f08 c73f 3dda c93c d82d 4ebe 4886 073c
000002b0: d426 85be 7733 94ba 6a03 c6bd c331 0bbc
000002c0: 1c66 45be fae3 663c f4dc 4bbe 2b48 8bbc
000002d0: b448 f1bd 7217 233b fe05 b5bc 2d15 ecbb
000002e0: d763 6abe 92b4 3a3e 2226 3b3e 7425 5a3e
000002f0: 998f a33c 5bc3 a03c ba86 f93d ee49 313d
00000300: ee68 7e3b 5532 903d 68a2 a63d f752 ef3b
00000310: 0b34 463c ca70 af3a c326 80bd 2d27 1abd
00000320: fc5c bc3f f437 c6bc 849c 19bd 77c3 31bd
00000330: a340 fdbd ae70 093c 5948 8b3d 27ee c13c
00000340: 6aa0 dcbe df61 bdbc e35c 253e 4ef5 943b
00000350: c4a9 33be ec91 2d3d d3da 9abd 1536 4bbc
00000360: 57b1 b3be 10cd 543d bd3f 0b3e 5570 963e
00000370: 1e2c 493e d3b1 323d fe1f b33d 3c47 43bd
00000380: b332 0dbd 8daf 87bd 2b18 4ebd c09a 47bd
00000390: 4d15 b23c d86c 4cbc 6c8a 063d 0bc0 7abc
000003a0: 371d 933b 65c4 9a3b e006 d13c 5fd6 303d
000003b0: dd2c 8cbc 3db8 a93c 0fe8 963c b6ce 67bc
000003c0: c901 a8be d326 99bc bfec 44bc 8881 0b3c
000003d0: e85c 21bc 5137 853b 7c62 8fbc 2fd7 253d
000003e0: 6abb 013f 7104 f0bd abbd 63be 57a7 843e
000003f0: acb7 80be bd25 363d d4c9 51bd e543 76bc

layer1.bias f4 [64]
0.010323965 0.20378819 0.12060713 -0.11016374 0.06293185 0.1903594 0.11028322 -0.21105722
-0.12668255 -0.020321265 0.05173591 -0.018605214 0.13968919 -0.12035338 0.13948688 0.15488441
0.12672664 0.11117546 -0.085214995 -0.0060816547 0.16565073 0.13321246 -0.018037036 0.19728917
0.1840124 0.16728503 -0.009798648 0.10240921 -0.037468445 0.061760757 0.15950933 0.14930229
0.17793785 0.20914683 0.088358365 0.21935523 -0.0010851853 0.06096819 -0.021348903 0.05948812
0.18750514 -0.035347924 0.085762456 0.1748785 0.14958546 0.07598573 -0.04026951 0.11426739
-0.097136006 0.14070497 0.19486982 0.13779213 0.18174008 0.18431745 0.19956979 0.13027127
0.15942621 0.044479914 0.16399963 0.1339402 -0.1027198 0.022653954 0.036611557 -0.0009972901
00000000: d925 293c daad 503e df00 f73d 879d e1bd
00000010: 6ae2 803d 93ed 423e 2bdc e13d 621f 58be
00000020: 12b9 01be c878 a6bc 09e9 533d f669 98bc
00000030: af0a 0f3e d57b f6bd a6d5 0e3e 059a 1e3e
00000040: a1c4 013e f6af e33d 3385 aebd 9e48 c7bb
00000050: 58a0 293e d968 083e 68c2 93bc 2c06 4a3e
00000060: bf6d 3c3e c44c 2b3e 828a 20bc ebbb d13d
00000070: 8378 19bd d9f8 7c3d 6a56 233e b3e2 183e
00000080: 5735 363e 962a 563e 3bf5 b43d a89e 603e
00000090: c73c 8eba c8b9 793d e5e3 aebc d1a9 733d
000000a0: 5901 403e fcc8 10bd 3aa4 af3d 5913 333e
000000b0: ee2c 193e 689e 9b3d a4f1 24bd 0505 ea3d
000000c0: 3eef c6bd f714 103e f48b 473e 6119 0d3e
000000d0: 121a 3a3e b7bd 3c3e 065c 4c3e d565 053e
000000e0: a040 233e 9230 363d 85ef 273e 9f27 093e
000000f0: c25e d2bd c994 b93c 00f6 153d 81b7 82ba

layer2.weight f4 [64, 64]
0.008781497 -0.0443493 -1.0689039 0.091512494 -1.3617507 0.032904763 0.15175146 0.090497695
1.3245776 -0.24003035 1.2163835 -0.0064450125 -0.84980255 0.33950907 0.13229151 0.08389227
-1.0536561 -0.02027345 1.4356397 0.5989445 0.0029311492 0.446237 0.8981862 0.16475391
-0.017979963 0.15457198 0.09880575 0.18276638 0.11816853 -0.27720326 0.2775973 0.06690922
-0.941441 -0.83686936 -0.32401368 -0.073192164 1.1579905 0.18911944 0.65530837 0.20225818
-0.8950563 -0.05385567 -0.78023773 -0.2822775 0.15532471 -2.3432524 -0.08191949 -0.5332118
0.08031536 0.12150474 -0.7275445 -0.9482533 -0.08166376 0.35180637 0.09944082 0.21429639
-1.0869683 -1.7805899 0.45638278 -0.1466669 0.32739902 0.020637268 -0.4281452 0.59722054
0.023439717 0.070931114 0.17933099 0.0405289 -1.3023012 0.11852083 -0.07287808 -0.048155565
0.5193269 0.16806135 1.3022581 -0.015058978 0.15340343 0.23053113 0.023478016 0.013891804
0.25332442 0.19703881 1.0023384 0.4005226 0.004692132 0.13982415 0.3941381 0.060677342
0.075335145 0.028321981 0.003762807 0.04171647 -0.09758495 0.084965214 0.017938254 -0.008882825
0.16355863 0.22932799 0.020168103 0.0741737 0.84937304 0.07000973 0.08690481 -0.18691655
0.22841227 -0.10769444 0.10071939 0.27433622 -0.21697074 -1.764138 0.3295098 0.06879675
-0.06994336 -0.026081719 0.083451286 0.23826401 0.16486195 0.043293536 0.020595923 0.09482474
0.060463358 -1.0496571 0.07177739 0.078488216 -0.43578538 0.12961313 0.29167327 0.1417996
0.03744106 -0.07801163 -0.06285024 0.2418216 -0.9824583 -0.07072467 0.020059979 -0.038818397
-1.0618771 0.05131721 -1.0011864 -0.011795046 -0.2784849 -0.21460511 0.13065231 -0.09260061
-0.13360426 -0.117737755 -1.67112 -0.05593826 0.010080453 -0.0268452 0.06253756 -0.08908829
0.050618384 0.02869535 -0.039077424 -0.7236318 0.31714207 0.14560774 -0.097503066 0.11457058
0.20176862 -0.0072031254 0.04585068 0.09479313 -0.3473793 0.16601229 -0.013234447 0.18586539
0.10575473 -0.048578955 -0.07573636 0.123992726 -0.0034853276 -0.6245745 0.083645076 0.24928242
-0.102701545 -0.007124059 -0.005023178 0.21514155 0.07904406 0.043067113 0.058537394 -0.053999268
0.08839382 0.61455166 -0.022325873 0.0982918 0.11241063 -0.16554534 -0.07547145 -0.25083646
-0.1301719 0.11054382 0.07331052 -0.15957901 0.27354968 0.06471413 0.04224194 -0.038390126
0.24911591 0.0093043335 -0.87364477 0.019916983 0.039078303 -0.50801915 -0.063307345 -0.036252838
0.06807236 0.11807319 -0.6037991 -0.10870066 0.121652946 -0.02736319 -0.5145099 0.08671283
0.16443996 0.03459439 -0.18309815 0.25310427 -0.014949078 -0.12037391 0.11957172 0.05768677
0.0038251055 -0.13371971 0.0032676894 0.030148178 -1.5841469 -0.34058347 -0.041598883 0.031847876
-0.080377765 0.2119618 0.10857727 -0.18118678 -0.035259563 -0.8913078 -0.20235555 -0.04500579
0.07587865 0.0040006153 0.19321088 0.13713731 -0.050147343 0.14305228 -0.0005127919 0.11971116
0.023975119 -0.5366698 0.22127815 -0.005306322 0.1188336 -0.03695524 -1.4859499 0.07282882
00000000: 45e0 0f3c 9da7 35bd d8d1 88bf e76a bb3d
00000010: d94d aebf 25c7 063d bc64 1b3e db56 b93d
00000020: c28b a93f 84ca 75be 74b2 9b3f af30 d3bb
00000030: a98c 59bf 22d4 ad3e 6d77 073e b6cf ab3d
00000040: 34de 86bf 8214 a6bc 0bc3 b73f 6d54 193f
00000050: 8618 403b 2d79 e43e 88ef 653f 40b5 283e
00000060: b74a 93bc 1e48 1e3e ab5a ca3d 1c27 3b3e
00000070: 5802 f23d 96ed 8dbe 3c21 8e3e b307 893d
00000080: 4702 71bf 123d 56bf 1fe5 a5be c6e5 95bd
00000090: 0839 943f 87a8 413e 4ac2 273f c51c 4f3e
000000a0: 6922 65bf c397 5cbd a9bd 47bf ad86 90be
000000b0: 710d 1f3e d9f7 15c0 68c5 a7bd 9280 08bf
000000c0: 617c a43d 7ad7 f83d 5b40 3abf bac0 72bf
000000d0: 543f a7bd f71f b43e a1a7 cb3d 8370 5b3e
000000e0: c721 8bbf 5fea e3bf 01ab e93e d92f 16be
000000f0: d8a0 a73e 7d0f a93c d935 dbbe 72e3 183f
00000100: a604 c03c 5544 913d 8ba2 373e a201 263d
00000110: ceb1 a6bf 0dbb f23d 1a41 95bd c53e 45bd
00000120: 9cf2 043f 4618 2c3e 65b0 a63f efb9 76bc
00000130: ca15 1d3e 5a10 6c3e f854 c03c 739a 633c
00000140: bdb3 813e 8bc4 493e a04c 803f 4c11 cd3e
00000150: 75c0 993b 102e 0f3e 78cc c93e ce88 783d
00000160: 5049 9a3d 8003 e83c 6d99 763b e4de 2a3d
00000170: 9eda c7bd 3e02 ae3d 3ff3 923c 4589 11bc
00000180: ea7b 273e f5d4 6a3e 9437 a53c 61e8 973d
00000190: 8370 593f 4361 8f3d 26fb b13d 0d67 3fbe
000001a0: e8e4 693e e78e dcbd f845 ce3d cc75 8c3e
000001b0: 942d 5ebe 46cf e1bf 82b5 a83e 4fe5 8c3d
000001c0: 773e 8fbd 54a9 d5bc 82e8 aa3d 7bfb 733e
000001d0: 92d1 283e 9054 313d c8b8 a83c 7933 c23d
000001e0: 6da8 773d 2a5b 86bf 0600 933d 6ebe a03d
000001f0: 431f dfbe 4eb9 043e 3356 953e ea33 113e
00000200: cc5b 193d 90c4 9fbd a0b7 80bd 15a0 773e
00000210: 6382 7bbf 19d8 90bd d354 a43c 0a00 1fbd
00000220: 97eb 87bf ff31 523d e026 80bf 0240 41bc
00000230: 9395 8ebe 71c1 5bbe b8c9 053e 63a5 bdbd
00000240: 8ecf 08be 7e20 f1bd 43e7 d5bf 841f 65bd
00000250: 7c28 253c 77ea dbbc b113 803d ec73 b6bd
00000260: 3955 4f3d 8312 eb3c a60f 20bd ef3f 39bf
00000270: 7260 a23e 321a 153e b0af c7bd fba3 ea3d
00000280: 6f9c 4e3e 3208 ecbb eccd 3b3d e722 c23d
00000290: b3db b1be 20ff 293e 4bd5 58bc 7f53 3e3e
000002a0: f095 d83d bafa 46bd aa1b 9bbd e6ef fd3d
000002b0: 186a 64bb 1de4 1fbf 1c4e ab3d e443 7f3e
000002c0: 3055 d2bd f070 e9bb 7999 a4bb 114e 5c3e
000002d0: dae1 a13d 2467 303d e8c4 6f3d 562e 5dbd
000002e0: d207 b53d 4253 1d3f c0e4 b6bc 364d c93d
000002f0: 8b37 e63d b884 29be c790 9abd a36d 80be
00000300: c84b 05be cc64 e23d d323 963d ae68 23be
00000310: b40e 8c3e d788 843d e205 2d3d f73e 1dbd
00000320: 3e18 7f3e 3471 183c 2fa7 5fbf f128 a33c
00000330: 9210 203d 8b0d 02bf 48a7 81bd db7d 14bd
00000340: 8569 8b3d 5bd0 f13d 9492 1abf 749e debd
00000350: 2e25 f93d c528 e0bc ecb6 03bf 7f96 b13d
00000360: f362 283e d9b2 0d3d 157e 3bbe e296 813e
00000370: faec 74bc 9986 f6bd 05e2 f43d f648 6c3d
00000380: 9fae 7a3b d2ed 08be bb26 563b 50f9 f63c
00000390: 53c5 cabf f560 aebe 9763 2abd eb72 023d
000003a0: 199d a4bd 840c 593e c25d de3d 0789 39be
000003b0: 556c 10bd bf2c 64bf 4b36 4fbe fe57 38bd
000003c0: 4466 9b3d 9817 833b 13d9 453e b96d 0c3e
000003d0: 4d67 4dbd 4c7c 123e e26c 06ba 202b f53d
000003e0: 7867 c43c 3163 09bf bd96 623e a8e0 adbb
000003f0: 085f f33d 615e 17bd 9b33 bebf 4727 953d

layer2.bias f4 [64]
0.029532742 0.15885362 0.043495677 0.11012632 0.019634437 0.10869592 0.04348903 0.09904314
0.03757533 -0.021199182 0.038624983 0.059792943 0.3652838 0.04563606 0.07186579 0.06485671
0.1230048 0.04026378 0.019440537 -0.013490813 0.036753703 -0.114327915 0.08912413 0.16854382
0.14337422 -0.09253611 0.07686249 0.09306375 -0.042598817 0.07351033 -0.025425961 0.023547845
0.004328971 0.018950803 0.05329878 0.22699684 -0.026633468 0.060604263 0.11089219 0.012469133
0.14395306 -0.028287878 0.06963376 0.060030214 0.0828844 -0.03941915 0.12686205 -0.02854719
-0.02913833 -0.2591009 0.08478553 -0.111554086 0.0063040946 0.13989158 0.14894627 -0.08326183
0.07035703 0.13628279 0.0049032792 -0.0061855833 0.10612074 0.040461127 0.01657876 0.048407994
00000000: a6ee f13c 86aa 223e 8628 323d e889 e13d
00000010: 66d8 a03c f79b de3d 8e21 323d 21d7 ca3d
00000020: 97e8 193d e8a9 adbc 3b35 1e3d 72e9 743d
00000030: 7a06 bb3e e1ec 3a3d 5f2e 933d 98d3 843d
00000040: f1e9 fb3d a2eb 243d c341 9f3c 9208 5dbc
00000050: 0d8b 163d c124 eabd b686 b63d c096 2c3e
00000060: b1d0 123e 9283 bdbd 156a 9d3d 3598 be3d
00000070: 197c 2ebd 958c 963d 1b4a d0bc 69e7 c03c
00000080: 0ada 8d3b b73e 9b3c d24f 5a3d dc71 683e
00000090: 6e2e dabc 2d3c 783d 721b e33d 564b 4c3c
000000a0: 6e68 133e fbbb e7bc 259c 8e3d 3ee2 753d
000000b0: 4cbf a93d fa75 21bd 20e8 013e ccdb e9bc
000000c0: 82b3 eebc e0a8 84be 09a4 ad3d 7876 e4bd
000000d0: 9492 ce3b bd3f 0f3e 5f85 183e 2e85 aabd
000000e0: 5917 903d b78d 0b3e b0ab a03b 6fb0 cabb
000000f0: d555 d93d 91ba 253d 2ed0 873c 7647 463d

layer3.weight f4 [6, 64]
1.442753 0.34272814 -0.39668712 -0.055202488 -0.116822995 0.3085922 0.34904596 0.33042708
0.73922855 -0.4418598 2.224925 -0.23048496 2.164413 1.9379059 -0.030573228 0.33606988
0.22876412 0.3757763 -1.565825 -0.6705041 0.28993258 -0.39745286 0.35505068 0.36318508
0.34980148 -0.7752167 0.3354091 0.2976041 0.03589428 0.3064745 -0.12839468 0.35731646
1.072223 -0.4307393 -0.47535226 2.3505912 -0.0065885857 -0.55609655 0.3504427 -0.00047481342
0.3224878 0.9226401 1.8047724 0.25743705 -0.056098957 0.10177487 0.3096212 -0.028367832
0.5199311 -1.7680819 -0.33635926 -3.489768 0.07494837 0.3570044 2.2683733 -0.14141968
-0.7760053 -0.84543544 -0.14963348 1.4383179 0.3416642 -0.18430668 0.46585858 0.19754966
-0.18891315 0.283492 0.43170014 -0.7369287 -0.24173294 0.25605428 0.26281717 0.21182065
-0.50522643 -0.052647904 0.036576934 -0.48539352 -0.78546786 0.11300468 -1.0272715 0.18734139
0.2882566 0.20389551 -0.37476626 -0.32852057 0.24691312 0.039588284 0.2771235 0.23297906
0.2583276 -0.8032864 0.20570934 0.20383564 0.04407439 0.23403871 0.86129165 0.2179936
0.66792125 0.8391097 -0.08374378 -0.25338244 0.017894773 -0.3781137 0.2356773 0.50136554
0.19962929 0.12637194 -0.23164849 -0.4990637 -0.16212745 0.009093627 0.2526099 0.002957902
0.32465902 0.6340228 0.06617197 -1.0303104 -0.014571427 0.16927221 -0.27592322 -0.7792907
-0.62215686 0.14734125 0.23933083 -0.34356403 0.22796793 0.009767937 0.24313813 -0.15436952
1.0069312 0.41651583 -0.4677178 -0.55157 -0.18830162 0.27213433 0.34066406 0.2856752
-0.3241333 -0.74336046 1.3468328 -0.4850563 0.6372595 1.2283125 -1.0436963 0.29841855
0.3104948 0.34539646 0.013197518 -0.3264734 0.3532649 -0.53178895 0.2550513 0.26712915
0.23648818 -0.5782019 0.3462593 0.34852886 0.017694417 0.33508965 0.8560049 0.3224989
1.4310788 -0.46866402 -0.25472504 0.9068107 0.008156795 -0.32311437 0.34319866 0.003675037
0.3244069 0.30263042 0.74749416 -0.55059886 -0.46921206 -0.059016954 0.3240662 -0.01210381
0.27671483 -1.2566594 -0.41708583 0.29336417 0.07998182 0.28828648 0.959436 -0.12560757
-0.515763 0.33079427 0.37181014 1.0004389 0.30766162 -0.8240751 0.3647656 0.40435162
1.5361494 0.24161498 0.3793583 -0.33190724 -0.4291827 0.22241893 0.32656306 0.35295814
0.09103935 0.04362407 2.0566082 0.09801084 1.509884 1.9718367 -0.6589512 0.35736054
0.31903398 0.346102 -0.909981 -0.8000455 0.33566335 -0.035739414 0.31848848 0.29446867
0.21835572 -0.8718724 0.37216914 0.36508927 0.09488802 0.33658117 -1.5399741 0.3855773
1.5296037 0.42078272 -0.40501428 1.3785716 0.025657237 -0.4107545 0.3582623 0.05771903
0.3413522 0.33197212 1.3303603 0.41292864 -0.3783327 0.14475967 0.22806972 -0.02228758
0.37518397 -0.8824104 -0.3324623 0.5380042 0.16353896 0.347432 1.4679121 -0.5916675
-0.045393474 0.045117855 -0.2073519 1.5479057 0.24852711 -0.67470556 0.4142989 0.3121793
00000000: 21ac b83f 107a af3e 931a cbbe 011c 62bd
00000010: e540 efbd ccff 9d3e 27b6 b23e bd2d a93e
00000020: 153e 3d3f 733b e2be 2c65 0e40 4004 6cbe
00000030: be85 0a40 4d0d f83f b574 fabc 5a11 ac3e
00000040: 2441 6a3e c065 c03e f46c c8bf 28a6 2bbf
00000050: 0b72 943e f17e cbbe 34c9 b53e 65f3 b93e
00000060: 2e19 b33e 9a74 46bf beba ab3e 915f 983e
00000070: e105 133d 3aea 9c3e e579 03be 2ff2 b63e
00000080: 9a3e 893f dd89 dcbe 5f61 f3be 1670 1640
00000090: 10e5 d7bb 585c 0ebf 3a6d b33e 61f0 f8b9
000000a0: 1f1d a53e 2432 6c3f c802 e73f cace 833e
000000b0: 05c8 65bd 586f d03d ac86 9e3e a863 e8bc
000000c0: 341a 053f 8250 e2bf 4837 acbe 5c58 5fc0
000000d0: 887e 993d 48c9 b63e 072d 1140 52d0 10be
000000e0: 49a8 46bf 756e 58bf 8539 19be cd1a b83f
000000f0: 9cee ae3e e4ba 3cbe 0485 ee3e 754a 4a3e
00000100: 7372 41be dd25 913e cd07 dd3e 5ca7 3cbf
00000110: d788 77be 8c19 833e f98f 863e 83e7 583e
00000120: 8556 01bf 54a5 57bd b2d1 153d 8085 f8be
00000130: 6c14 49bf ff6e e73d a27d 83bf 6cd6 3f3e
00000140: 5e96 933e fcc9 503e 5de1 bfbe d933 a8be
00000150: cbd6 7c3e 5327 223d 22e3 8d3e 1092 6e3e
00000160: 8443 843e 2da4 4dbf 78a5 523e 4aba 503e
00000170: 5987 343d d8a7 6f3e 9c7d 5c3f b739 5f3e
00000180: e3fc 2a3f e5cf 563f dc81 abbd 58bb 81be
00000190: 0f98 923c 1e98 c1be 6455 713e 7e59 003f
000001a0: 9f6b 4c3e a567 013e 4335 6dbe 4785 ffbe
000001b0: bd04 26be 70fd 143c 1656 813e 5cd9 413b
000001c0: b539 a63e 514f 223f 2b85 873d 36e1 83bf
000001d0: ffbc 6ebc b255 2d3e cf45 8dbe 987f 47bf
000001e0: ac45 1fbf a0e0 163e 2413 753e a0e7 afbe
000001f0: 6d70 693e b209 203c 34f9 783e 0b13 1ebe
00000200: 1fe3 803f 9041 d53e b578 efbe b133 0dbf
00000210: 24d2 40be 3155 8b3e 856b ae3e 0544 923e
00000220: cdf4 a5be df4c 3ebf 0465 ac3f 4d59 f8be
00000230: 7023 233f 5839 9d3f d797 85bf 51ca 983e
00000240: 2df9 9e3e ced7 b03e 673a 583c 8627 a7be
00000250: 23df b43e 5223 08bf 1696 823e 27c5 883e
00000260: f529 723e 0a05 14bf e648 b13e 6072 b23e
00000270: e2f3 903c df90 ab3e 2323 5b3f 931e a53e
00000280: 972d b73f bbf4 efbe 526b 82be bf24 683f
00000290: 14a4 053c 3f6f a5be bcb7 af3e e4d8 703b
000002a0: a918 a63e 60f2 9a3e c75b 3f3f 0cf4 0cbf
000002b0: 903c f0be c3bb 71bd 01ec a53e 0f4f 46bc
000002c0: 91ad 8d3e 37da a0bf 468c d5be d433 963e
000002d0: 82cd a33d 499a 933e 999d 753f 459f 00be
000002e0: 0b09 04bf de5d a93e e65d be3e 620e 803f
000002f0: d385 9d3e 96f6 52bf 8fc2 ba3e 2d07 cf3e
00000300: 8ba0 c43f eb69 773e 403b c23e bfef a9be
00000310: d6bd dbbe cac1 633e 4633 a73e eeb6 b43e
00000320: d772 ba3d 27af 323d 789f 0340 e8b9 c83d
00000330: e143 c13f 2565 fc3f 07b1 28bf f6f7 b63e
00000340: 6c58 a33e 4834 b13e 84f4 68bf c8cf 4cbf
00000350: 11dc ab3e 7e63 12bd ec10 a33e 99c4 963e
00000360: a498 5f3e 0833 5fbf f48c be3e fbec ba3e
00000370: a654 c23d 5e54 ac3e df1d c5bf 636a c53e
00000380: 0eca c33f d570 d73e 085e cfbe 0975 b03f
00000390: 202f d23c 6a4e d2be 286e b73e ca6a 6c3d
000003a0: b7c5 ae3e 40f8 a93e 3f49 aa3f 626b d33e
000003b0: d3b4 c1be e13b 143e 1c8b 693e 7194 b6bc
000003c0: 1d18 c03e a6e5 61bf 8038 aabe a5ba 093f
000003d0: c276 273e 9be2 b13e 8be4 bb3f 8577 17bf
000003e0: 82ee 39bd 80cd 383d 0e54 54be c621 c63f
000003f0: e47d 7e3e 81b9 2cbf fc1e d43e f7d5 9f3e

layer3.bias f4 [6]
0.11109728 0.01631582 0.021712972 0.074386805 0.14950699 0.060624138
00000000: f986 e33d c1a8 853c 67df b13c 1c58 983d
00000010: 5c18 193e 0451 783d
