drl_deep_project/scripts/our_agent/models/dqn_20250120_200145.pt (torch, 78784 bytes, 6 tensors)

layer1.weight f4 [128, 80]
0	0x3d875e92	0.06609835
1	0x3d119b88	0.035548717
2	0x3df37e6c	0.118893474
3	0x3df1e27f	0.11810779
4	0x3d80cad6	0.06288688
5	0xbc1e7d8b	-0.009673486
6	0x3d8086e0	0.06275725
7	0x3d91d762	0.07121159
8	0x3e7ac8b4	0.24490625
9	0xbd92b0f7	-0.071626596
10	0x3e6404e4	0.2226749
11	0xbd67b9ab	-0.05657355
12	0x3d0dd9c5	0.03463151
13	0x3d740546	0.05957534
14	0x3b9f249a	0.004856658
15	0x3d0a388f	0.033745345
16	0xbd570d58	-0.05250296
17	0x3cd3f424	0.025873251
18	0xbca6bfcb	-0.020355126
19	0xbd0c4da8	-0.034253746
20	0x3e7056b5	0.23470576
21	0x3de1427f	0.10999011
22	0xbd89c94d	-0.06727848
23	0x3ce6514a	0.028114934
24	0xbce6e086	-0.028183233
25	0x3d2411ab	0.040055912
26	0x3dcb0621	0.09913278
27	0x3cc7a569	0.024370866
28	0xbc1dff7c	-0.009643432
29	0x3db32541	0.0874734
30	0x3da6ce83	0.08144858
31	0xbdb2e91c	-0.08735868
32	0x3d8e20ed	0.06939874
33	0x3dc039f7	0.09386056
34	0x3ce59136	0.028023344
35	0xbd214337	-0.03937074
36	0x3de9196f	0.11381804
37	0xbc8cbfe6	-0.017181348
38	0x3d5f7b9d	0.054561246
39	0xbb974086	-0.004615846
40	0xbd1f617b	-0.038911324
41	0x3dde7af2	0.10863294
42	0x3c1375ba	0.009000236
43	0xbaf19cec	-0.0018433607
44	0x3d3a6de2	0.04551495
45	0x3d890ee5	0.06692294
46	0x3d533fdb	0.05157457
47	0x3d339a19	0.04384813
48	0x3daeb8e7	0.08531361
49	0x3cc869b2	0.024464462
50	0x3d694fd7	0.056960907
51	0x3de97c4e	0.11400662
52	0x3da34006	0.07971196
53	0x3db04522	0.08606936
54	0x3e56a72a	0.20962206
55	0xbe125a4b	-0.14292257
56	0xbdca272f	-0.09870755
57	0x3dc650b7	0.09683364
58	0xbd199b30	-0.037501514
59	0x3d679c84	0.05654575
60	0x3a18c604	0.00058278465
61	0xbe172115	-0.14758714
62	0x3c42abbc	0.011881765
63	0x3bd4d06d	0.006494573
64	0xbd24cfcd	-0.040237237
65	0xbdbcfa56	-0.09227435
66	0xbd9db095	-0.07699696
67	0xbe0e4600	-0.1389389
68	0x3d37f7f3	0.044914197
69	0x3beee640	0.0072906315
70	0xbe025a4f	-0.12729762
71	0x3de6fc95	0.11278645
72	0xbd92751a	-0.071512416
73	0xbde64567	-0.11243706
74	0x3d011984	0.031518474
75	0xbc5d0b61	-0.0134914825
76	0x3ba96127	0.005169052
77	0xbdbd3ec9	-0.09240491
78	0xbdbc6bc0	-0.09200239
79	0x3d944beb	0.07241043
80	0x3e39a5e2	0.18129686
81	0x3dea16ed	0.11430154
82	0x3e3181fe	0.17334744
83	0x3de3793b	0.11107107
84	0xbd0f4f62	-0.034987815
85	0xbb3183b4	-0.0027086558
86	0x3bc3aa81	0.0059712534
87	0xbbb9d3f2	-0.005671018
88	0x3d6739dd	0.056451667
89	0xbd9e88b4	-0.07740918
90	0xbe1aeca7	-0.15129338
91	0xbde80de3	-0.11330774
92	0x3d24d2d0	0.04024011
93	0x3dcb26e2	0.09919526
94	0xbbe7b0bd	-0.0070706294
95	0xbd6cffef	-0.057861265
96	0xbe5b9f93	-0.21447591
97	0x3d55a569	0.0521597
98	0x3d9103dd	0.07080815
99	0x3cac04e0	0.020998418
100	0x3cbab138	0.022789583
101	0xbcb13e46	-0.02163614
102	0x3c169626	0.009191072
103	0x3dfb7e95	0.12280003
104	0xbd8a5c18	-0.06755847
105	0xbd91f551	-0.071268685
106	0xbd123ffb	-0.035705548
107	0xbe09347d	-0.13398929
108	0xbc61620f	-0.013756289
109	0xbc05b855	-0.008161624
110	0x3c391d00	0.011298418
111	0xbc2e874a	-0.010652373
112	0xbd30fb75	-0.043208558
113	0xbd6a916a	-0.057267584
114	0x3db741e3	0.08948114
115	0xbd0dc1e0	-0.03460872
116	0x3e108d3b	0.14116375
117	0xbcae6752	-0.021289501
118	0xbd43821b	-0.0477315
119	0xbc1f053d	-0.009705839
120	0xbd999934	-0.07499924
121	0xbe4951d8	-0.19660127
122	0xbcf5a14c	-0.029984139
123	0xbd650999	-0.055917356
124	0x3c9e190e	0.019299056
125	0x3dc0c521	0.09412599
126	0xbe8a20d9	-0.26978186
127	0xbc529266	-0.012852287
128	0xbe948e5c	-0.29014862
129	0xbe3439d8	-0.1760019
130	0x3d9ac001	0.07556153
131	0xbea311d4	-0.3184954
132	0xbeab4cca	-0.33457023
133	0xbdc911d3	-0.09817853
134	0xbea37347	-0.31923887
135	0xbe8b9d03	-0.27268228
136	0xbd7ca5d5	-0.061681587
137	0xbf4b3c2f	-0.7938871
138	0xbef88ba5	-0.4854404
139	0x3c9588e3	0.01825375
140	0x3b771db7	0.003770692
141	0xbeb5add3	-0.3548418
142	0xbdb337e1	-0.087508924
143	0xbe291217	-0.16510807
144	0xbee347f9	-0.44390848
145	0xbd00517c	-0.03132771
146	0xbe13eba4	-0.14445359
147	0xbf3cd61b	-0.737642
148	0xbd6833c7	-0.056690004
149	0xbeb4090c	-0.35163152
150	0xbf2a0f0d	-0.66429216
151	0xbd58cd47	-0.052930143
152	0x3e21364c	0.15743369
153	0xbd4bc884	-0.049751773
154	0xbddbd6e0	-0.107343435
155	0xbe5656d3	-0.20931558
156	0x3eee6485	0.46561065
157	0x3ec29859	0.38006857
158	0xbd1f0725	-0.038825173
159	0xbdcd6458	-0.10028905
160	0x3d615520	0.055012822
161	0x3e07d819	0.13266028
162	0x3dc2ac94	0.09505573
163	0x3bb8db47	0.0056413743
164	0x3da934d0	0.08262026
165	0xbd0a68a8	-0.033791214
166	0xbd6005a6	-0.054692887
167	0x3d7e92a6	0.062151574
168	0xbe0d4857	-0.13797127
169	0x3d439936	0.047753535
170	0xbccb5cb3	-0.024824476
171	0x3ccd0d02	0.025030617
172	0x3e1ab60a	0.15108505
173	0xbd00506e	-0.031326704
174	0x3d383087	0.044968154
175	0xbe61d5f1	-0.22054268
176	0x3dd77460	0.10520244
177	0x3de4a586	0.111643836
178	0xbe6f0bf5	-0.23344405
179	0xbd7bef78	-0.061507672
180	0xbca3aa5d	-0.019978696
181	0x3d800586	0.062510535
182	0x391994c2	0.00014646634
183	0xbc61151b	-0.013737942
184	0x3d955f7c	0.07293603
185	0xbea4be58	-0.3217647
186	0x3e16499c	0.14676517
187	0xbd3b352b	-0.045705
188	0xbe5bd7a2	-0.21468976
189	0x3d98cbc3	0.074607395
190	0x3d850d5b	0.06496688
191	0x3e45c6c1	0.193141
192	0x3e0156a6	0.1263071
193	0x3d893c24	0.06700924
194	0xbd5dbafc	-0.0541334
195	0xbd8c390f	-0.068468206
196	0x3e054121	0.13013126
197	0x3d5219cf	0.051294144
198	0xbdccdcca	-0.1000305
199	0x3d5a24a9	0.053257618
200	0xbdafd708	-0.08585936
201	0x3db30aa2	0.087422624
202	0x3d4fcfb0	0.050735176
203	0x3cb7cd64	0.022436805
204	0xbdc3ddf8	-0.095638216
205	0x3d276311	0.04086596
206	0x3decdf7c	0.11566064
207	0x3dd60abb	0.104512654
208	0x3e598969	0.21243824
209	0xbd8259e6	-0.06364803
210	0x3d8fd487	0.07022958
211	0xbc4cf641	-0.012509883
212	0xbe0d8bb2	-0.13822821
213	0x3d2c14ca	0.042012013
214	0xbdedf4db	-0.11618968
215	0x3df163cb	0.11786612
216	0xbd900624	-0.07032421
217	0x3d30592d	0.043053795
218	0x3e1c3460	0.15254354
219	0x3d4ab7b9	0.049491618
220	0x3dd834dd	0.10556958
221	0x3e8822a8	0.2658894
222	0xbcb1a439	-0.021684753
223	0xbe58b1b7	-0.21161543
224	0x3e19e8ca	0.15030208
225	0x3d96edf0	0.07369602
226	0xbdc8d57c	-0.09806344
227	0x3df923f6	0.12165062
228	0x3da96c5b	0.0827262
229	0xbd4ee215	-0.050508577
230	0xbd8cc908	-0.06874281
231	0x3db773cd	0.08957634
232	0x3e01ea96	0.12687144
233	0x3e05d54f	0.13069652
234	0xbb030697	-0.0019992942
235	0xbd06681d	-0.032814134
236	0x3d58e3fa	0.05295179
237	0x3e563010	0.20916772
238	0x3e73ac33	0.23796158
239	0x3defcc43	0.11708882
240	0xbaad58e4	-0.0013225344
241	0xbcad38e9	-0.021145301
242	0x3ce99ec8	0.028518096
243	0xbd8287b4	-0.063735396
244	0xbd190d4f	-0.037366208
245	0xbd86499e	-0.0655701
246	0x3d3af02b	0.0456392
247	0xbd033ced	-0.032040525
248	0xbd135316	-0.03596791
249	0xba879a91	-0.0010345747
250	0x3d14d9c0	0.036340475
251	0xbd844b69	-0.06459696
252	0xbd3d9480	-0.0462842
253	0x3e2ec718	0.17068136
254	0x3d468370	0.048465192
255	0x3da19453	0.07889619

layer1.bias f4 [128]
0	0xbd408709	-0.04700378
1	0x3dfd15a8	0.12357646
2	0x3d4d9596	0.050191484
3	0xbd9c6b19	-0.07637615
4	0x3dcd5d30	0.1002754
5	0x3dfd5323	0.12369373
6	0xbd8f6872	-0.07002343
7	0x3c247a85	0.010038977
8	0x3dc922c1	0.09821082
9	0xbd1525e9	-0.036413107
10	0x3df43bb4	0.1192545
11	0x3e0b86fb	0.1362571
12	0x3c38ce36	0.011279633
13	0xbd07cd1d	-0.033154596
14	0xbb08f851	-0.0020899961
15	0x3db30841	0.08741809
16	0xbda7c139	-0.08191151
17	0x3c815116	0.015785735
18	0xbd80af7f	-0.06283473
19	0xbca42be1	-0.020040454
20	0xbd31102d	-0.043228317
21	0xbc90bfaf	-0.017669527
22	0x3e0c632c	0.13709706
23	0x3de57092	0.11203112
24	0xbcb27823	-0.021785801
25	0x3d7bc22a	0.061464466
26	0x3d93ea48	0.0722242
27	0x3d2d0ff5	0.042251546
28	0x3d8098c1	0.062791355
29	0x3c984da8	0.018591717
30	0x3c0bc830	0.008531615
31	0xbd5dc153	-0.054139446
32	0xbc730e29	-0.014834919
33	0xbdb7ba92	-0.08971132
34	0xbda75098	-0.08169669
35	0x3d874c17	0.0660631
36	0x3e1233ad	0.14277525
37	0xbd36c9c0	-0.044625998
38	0xbd2ba01a	-0.04190073
39	0x3e168226	0.14698085
40	0x3e154da3	0.14580397
41	0xbccd4ef8	-0.02506207
42	0x3d4f0e4e	0.05055075
43	0xbc642029	-0.013923683
44	0x3a70ee37	0.000919077
45	0x3dc718a6	0.09721498
46	0x3d86de66	0.06585388
47	0x3b74d81f	0.0037360264
48	0x3d2473fe	0.04014968
49	0x3d323a66	0.043512724
50	0x3d1ea097	0.03872737
51	0x3da3a6b9	0.07990784
52	0x3d85c874	0.06532374
53	0xbcee1138	-0.029060945
54	0xbcf91236	-0.030404191
55	0x3c5bf6d2	0.013425546
56	0x3d8dd902	0.069261566
57	0x3d3e498e	0.046456866
58	0x3e078731	0.13235165
59	0x3def64f7	0.116891794
60	0x3e0e59cf	0.13901447
61	0x3e07b4e8	0.13252604
62	0x3de7924d	0.113072015
63	0x3c5eda71	0.013601885
64	0x3e083238	0.13300407
65	0x3d57b2f6	0.052660905
66	0x3de4e1c5	0.111758746
67	0x3e559da1	0.20860912
68	0xbc2c5207	-0.010517604
69	0xbc502782	-0.012704732
70	0xbdd2b5b5	-0.10288564
71	0x3c61be50	0.013778284
72	0xbd259ba7	-0.040431645
73	0xbbc3cc9e	-0.00597532
74	0xbd40bc7e	-0.04705476
75	0x3d2ef099	0.04270992
76	0x3dcfed4d	0.101526834
77	0xbd8f9dae	-0.07012497
78	0xbddf3dd3	-0.10900464
79	0x3de24641	0.11048556
80	0xbd2da1f8	-0.042390794
81	0xbd7768d3	-0.060402703
82	0x3c7b3afc	0.015333887
83	0xbd6bdee0	-0.057585597
84	0x3d23f187	0.04002526
85	0xbd74fa02	-0.05980874
86	0xbc66c003	-0.014083865
87	0xbd814e7c	-0.06313798
88	0xbc81f0db	-0.01586192
89	0xbd2d44e5	-0.04230203
90	0x3e161b1f	0.14658783
91	0xbc42d5b1	-0.011891768
92	0x3d36302f	0.044479545
93	0xbd860528	-0.06543952
94	0x3e23f68c	0.16012019
95	0x3d38f65a	0.045156814
96	0xbb17b199	-0.0023146628
97	0xbcf2ef5c	-0.029655151
98	0xbd8c27e3	-0.06843545
99	0x3d930b62	0.071799055
100	0xbdb2681c	-0.087112635
101	0x3e09b53e	0.13448045
102	0x3d59fa26	0.053217076
103	0xbca90e55	-0.020636717
104	0x3c36386e	0.011121852
105	0xbd4444e5	-0.047917265
106	0xbd37c20b	-0.04486279
107	0x3b60c9da	0.00343
108	0x3d608160	0.05481088
109	0x3de5ad1a	0.11214657
110	0xb8940bc6	-7.059383e-05
111	0xbcfcf318	-0.030877635
112	0xbd032242	-0.032015093
113	0x3d354ed2	0.044264622
114	0x3c48fd61	0.0122674415
115	0x3d8efeeb	0.069822155
116	0xbddfd061	-0.10928417
117	0xbd5b99d2	-0.05361349
118	0x3dbe3f11	0.09289373
119	0x3dee468f	0.11634552
120	0x3da3bb6e	0.07994734
121	0xbd6d0d6a	-0.05787412
122	0xbcbdf115	-0.023186246
123	0x3d131388	0.0359073
124	0x3cf2a098	0.029617593
125	0x3db8fa15	0.09032074
126	0xbd35a6b3	-0.04434843
127	0xbd47c683	-0.0487733

layer2.weight f4 [64, 128]
0	0x3d965ff4	0.0734252
1	0xbe811424	-0.2521068
2	0x3dbbb4f1	0.09165371
3	0x3d47fa3d	0.04882263
4	0xbe2f589d	-0.17123647
5	0xbe3c38c5	-0.18381031
6	0xbe95471c	-0.29155815
7	0x3e05badc	0.13059562
8	0xbd81811b	-0.06323453
9	0xbeb4949a	-0.35269624
10	0x3d64149d	0.05568372
11	0x3c8f57d5	0.017497936
12	0xbe87e619	-0.26542738
13	0x3a5752f1	0.00082139584
14	0xbe0d886c	-0.13821572
15	0xbea162d2	-0.31520706
16	0x3bf79708	0.007555846
17	0x3c801275	0.015633801
18	0xbe9a041f	-0.3008127
19	0x3d66abac	0.056316063
20	0x3e4fe7a8	0.20303214
21	0xbd1ada84	-0.03780605
22	0x3e457045	0.19281109
23	0xbd9461e9	-0.072452374
24	0x3d6c62e2	0.05771149
25	0x3f0f33d9	0.5593849
26	0x3e8b095e	0.27155584
27	0xbe3c1bf8	-0.18370044
28	0x3da3eb52	0.08003868
29	0x3e33c197	0.17554317
30	0x3dc912f3	0.098180674
31	0xbd772768	-0.060340315
32	0xbe258642	-0.16164497
33	0x3c227468	0.009915449
34	0x3ded3289	0.115819044
35	0x3d8758e4	0.066087514
36	0x3c985072	0.018593047
37	0x3d6a60f6	0.057221375
38	0xba25105e	-0.00062966894
39	0xbe81478e	-0.25249904
40	0xbd10f13f	-0.03538632
41	0x3e72ac0f	0.23698448
42	0xbd662e5a	-0.056196548
43	0x3d5f097b	0.0544524
44	0xbe052e00	-0.13005829
45	0xbd3cdcb7	-0.046108928
46	0xbd235c50	-0.039882958
47	0x3dd335b1	0.10312975
48	0x3c8654f4	0.01639793
49	0xbcca753e	-0.024714109
50	0xbdd437a5	-0.10362176
51	0xbaadb443	-0.0013252575
52	0xbe057d61	-0.1303611
53	0x3e423db4	0.1896885
54	0x3df4c109	0.11950881
55	0x3ea548a8	0.32281995
56	0x3ce9fa1d	0.028561646
57	0x3e948fdb	0.29016003
58	0x3d7f49da	0.06232629
59	0xbdd2e941	-0.10298396
60	0xbbaf0a1b	-0.005341781
61	0x3d97e675	0.07417003
62	0xbde9a61d	-0.11408637
63	0x3c891f55	0.016738573
64	0xbbdc76f4	-0.0067280475
65	0xbe483499	-0.19551314
66	0xbc9de9e3	-0.019276565
67	0x3d761e7c	0.060087666
68	0xbe8176d1	-0.25285962
69	0x3d9094e8	0.070596516
70	0xbc2e9c10	-0.010657325
71	0x3e86a2ca	0.26296073
72	0x3c43330a	0.011914024
73	0x3e705b3a	0.234723
74	0x3e09f8f2	0.13473871
75	0x3de0bda5	0.10973672
76	0xbd2942f0	-0.041323602
77	0x3ba7627b	0.0051081753
78	0xbeb0501f	-0.34436128
79	0xbec29bc9	-0.3800948
80	0x3e6aa001	0.22912599
81	0x3cd0e85c	0.025501423
82	0x3e6487ad	0.22317381
83	0xbcf0416c	-0.02932807
84	0x3c37eb66	0.011225557
85	0x3dce6f02	0.10079767
86	0xbe473be7	-0.19456445
87	0x3ea28048	0.31738496
88	0x3e2062cd	0.1566269
89	0x3f0dbb94	0.55364347
90	0x3c6106e2	0.013734551
91	0x3e6a085b	0.2285475
92	0x3e19bf7f	0.15014456
93	0xbd56193d	-0.052270163
94	0xbce7dd05	-0.028303633
95	0xbd6c17b5	-0.057639796
96	0xb9101a3a	-0.0001374268
97	0x3dc4a0d9	0.09600992
98	0x3e2b63d0	0.16737294
99	0xbec67146	-0.38758296
100	0xbeb3ae2e	-0.35093826
101	0x3df7c21f	0.120975725
102	0x3e8212b3	0.2540489
103	0x3e7e3e63	0.24828486
104	0xbed6103d	-0.41809264
105	0xbd16e525	-0.036839623
106	0x3d6044e6	0.054753207
107	0xbe1ab7dd	-0.15109201
108	0xbce98080	-0.028503656
109	0x3d1b39f7	0.037897076
110	0xbe06bc3f	-0.13157748
111	0x3b9f481a	0.00486089
112	0xbd0f4737	-0.034980025
113	0x3d92f79c	0.07176134
114	0xbda86128	-0.08221656
115	0xbeb78cb5	-0.35849538
116	0xbe2c151a	-0.16804925
117	0xbdd9db22	-0.106374994
118	0x3cd79c4a	0.026319642
119	0x3cb3d60f	0.021952657
120	0xbc490bc4	-0.012270872
121	0x3df33293	0.11874881
122	0x3dab1006	0.083526656
123	0xbda5bb17	-0.08092325
124	0xbd564b3f	-0.052317854
125	0xbdfa52fa	-0.12222858
126	0xbc9cc5fc	-0.019137375
127	0xbea3f55b	-0.3202313
128	0x3c322609	0.010873326
129	0x39884143	0.00025988565
130	0xbd52a493	-0.05142648
131	0xbc542f9c	-0.012950804
132	0xbca7e69b	-0.020495703
133	0xbc809fb5	-0.015701154
134	0x3dd40eb6	0.103543684
135	0x3d2fbfc7	0.042907503
136	0x3a7cd7fe	0.00096452225
137	0x3c3f3a40	0.011671603
138	0xbc548c31	-0.012972877
139	0xbd694ef2	-0.056960054
140	0x3e2b44ab	0.16725414
141	0x3d534839	0.05158255
142	0x3e8a4026	0.27002066
143	0xbca1f369	-0.019769387
144	0xbd78c6e8	-0.060736567
145	0x3e01ce4c	0.12676352
146	0xbc7ab1ab	-0.015301148
147	0x3e451eea	0.19250074
148	0x3db45068	0.08804399
149	0xbe5db583	-0.21651272
150	0x3cb5ad15	0.022177259
151	0xbc79d7c6	-0.015249198
152	0xbe632a75	-0.22184165
153	0xbe1ca516	-0.1529735
154	0x3c1c7510	0.009549394
155	0xbe16cce3	-0.14726596
156	0x3d2046b1	0.039129917
157	0x3d6ed830	0.05831164
158	0x3db00aa7	0.08595782
159	0x3dce348c	0.10068616
160	0xbd868077	-0.065674715
161	0x3da14223	0.07873943
162	0x3e1b154e	0.15144846
163	0xbc9961c2	-0.018723372
164	0xbb984c41	-0.004647762
165	0xbca3457a	-0.01993059
166	0x3bb029d1	0.0053760787
167	0xbc5bcc8d	-0.013415468
168	0xbc5c0ac2	-0.013430299
169	0xbe1eca5b	-0.1550688
170	0xbda6680e	-0.081253156
171	0xbe36fbac	-0.17869443
172	0xbd8ef8d0	-0.06981051
173	0xbda8ec19	-0.08248157
174	0x3c90b7e2	0.017665807
175	0xb9f74235	-0.0004716084
176	0xbd13cd2a	-0.03608433
177	0x3e534543	0.2063189
178	0x3e35a531	0.17738797
179	0xbc96897a	-0.0183761
180	0x3da5ece2	0.081018224
181	0x3c9abbb7	0.018888338
182	0x3d7b7c91	0.061398093
183	0x3e17654a	0.14784732
184	0xbc133308	-0.008984335
185	0x3c16dc82	0.009207847
186	0x3d1f2698	0.038855165
187	0x3dcb2ba4	0.09920433
188	0x3d0e9ae2	0.034815677
189	0x3b0258ad	0.001988928
190	0x3b226bfe	0.0024783607
191	0xbc313ddf	-0.010817974
192	0x3dbf77de	0.09349035
193	0x3e06f42f	0.13179086
194	0x3d1bb71c	0.038016424
195	0x3e3ab0ff	0.18231581
196	0xbd14c7c2	-0.036323316
197	0x3e64d85b	0.22348158
198	0x3ca55161	0.020180406
199	0x3e3568ea	0.17715803
200	0x3c5ad0fc	0.01335549
201	0x3dd1c5ba	0.102427915
202	0x3d3fb3a1	0.046802167
203	0xbe8eee64	-0.27916253
204	0xbcc6c28f	-0.024262695
205	0xbdce9437	-0.100868635
206	0x3e33b767	0.17550431
207	0xbe5cf337	-0.21577154
208	0x3e9c6f62	0.30553728
209	0xbda62c0a	-0.081138685
210	0xbb80cb69	-0.0039304984
211	0x3e4c4398	0.1994766
212	0x3d9b8042	0.075928226
213	0x3bbb924d	0.0057242275
214	0x3dc033a8	0.09384853
215	0x3db0667c	0.08613297
216	0x3e4ca666	0.19985351
217	0x3df412e1	0.11917663
218	0xbdd86ee4	-0.10568026
219	0x3e8514db	0.25992474
220	0xbde98c42	-0.11403705
221	0x3e358c1b	0.17729227
222	0xbdfa62ed	-0.122259
223	0xbd1b9717	-0.037985887
224	0xbc64391b	-0.013929631
225	0xbe70396d	-0.23459406
226	0xbcf34bcd	-0.02969923
227	0xbe434588	-0.19069493
228	0x3beecc3b	0.0072875298
229	0x3bfabb08	0.0076516904
230	0xbc7ad58c	-0.015309703
231	0xbd90de7a	-0.07073684
232	0xbe0a80f0	-0.13525748
233	0xbceb8630	-0.028750509
234	0x3b50b773	0.0031847626
235	0x3dc06de7	0.09395962
236	0x3dc06c30	0.09395635
237	0x3cc61435	0.024179557
238	0xbd536aed	-0.051615644
239	0xbd1ad7ea	-0.037803568
240	0x3d2b902e	0.041885547
241	0x3e410bb1	0.18852116
242	0x3c102f3a	0.008800322
243	0x3dc12d39	0.09432454
244	0xbdf99cb6	-0.12188093
245	0x3db7e0a7	0.08978396
246	0x3d93c4a1	0.07215238
247	0xbd5b9bc4	-0.053615347
248	0x3d98dd7d	0.074641205
249	0xbdd37b6b	-0.103262745
250	0xbd216ff6	-0.039413415
251	0x3d20e2b1	0.03927869
252	0xbc2cab53	-0.010538894
253	0xbdeb44a5	-0.11487702
254	0x3e83feef	0.25780436
255	0xbdcb96d4	-0.099408776

layer2.bias f4 [64]
0	0x3d44c5d5	0.04804023
1	0x3d1f8977	0.038949456
2	0xbd413a0c	-0.0471745
3	0x3cfdf814	0.031002082
4	0x3ce7f9be	0.028317329
5	0x3da22704	0.07917598
6	0x3cab987e	0.020946737
7	0x3d9ef9d3	0.07762494
8	0x3c6b5508	0.014363535
9	0x3d98754b	0.07444247
10	0xbd63610c	-0.055512473
11	0x3d971590	0.073771596
12	0xbd930443	-0.07178547
13	0x3bd031e4	0.0063536037
14	0xbd04a95a	-0.03238807
15	0x3d45ac49	0.048260007
16	0xbbb50ae1	-0.0055249785
17	0xbd623a51	-0.055231396
18	0xbcacad34	-0.021078683
19	0x3d8129f7	0.06306832
20	0x3d57fb53	0.052729916
21	0xbd37a438	-0.044834346
22	0x3c738fc2	0.0148658175
23	0x3d9265d7	0.07148331
24	0x3b73c8f3	0.0037198632
25	0xbb3b873c	-0.0028614542
26	0x3d8597f8	0.06523126
27	0x3c93e685	0.018054256
28	0xbbd58bc1	-0.006516904
29	0x3db77f2c	0.08959803
30	0x3d0fa2a3	0.03506721
31	0xbc2906ca	-0.01031656
32	0x3d36172d	0.044455696
33	0x3c05c1b1	0.008163855
34	0x3d376980	0.044778347
35	0xbd008249	-0.03137425
36	0xbcc4e1c8	-0.024033442
37	0x3bf5828c	0.007492369
38	0x3dc026dc	0.09382412
39	0xbd654b5d	-0.055980075
40	0x3d9e42bf	0.077275746
41	0xbd7c365d	-0.061575282
42	0xbd66bcb8	-0.05633232
43	0x3d76c292	0.06024415
44	0x3c652c00	0.013987541
45	0xbb8b7a1a	-0.004256499
46	0x3c1da6f4	0.009622324
47	0xbd7b5e5e	-0.061369292
48	0x3d47d792	0.04878957
49	0x3d76d1be	0.06025862
50	0x3b6da08e	0.0036259028
51	0xbc57dd58	-0.013175331
52	0x3d63f8c7	0.055657174
53	0x3cb22851	0.02174774
54	0xbd714248	-0.0589011
55	0x3ce601bb	0.028076997
56	0x3d1a6d52	0.037701912
57	0xbd36fada	-0.044672824
58	0xbd379d47	-0.044827726
59	0x3d286257	0.04110941
60	0x3dc4dc1b	0.09612294
61	0xbd38a431	-0.04507846
62	0x3d08224f	0.033235844
63	0x3d927900	0.07151985

layer3.weight f4 [6, 64]
0	0x3f6ebe95	0.93259555
1	0xbc5d5dc4	-0.013511125
2	0xbf9c2357	-1.2198285
3	0x3e99a047	0.30005094
4	0xbdd71a0b	-0.10503014
5	0x3f2361c3	0.6382105
6	0x3eb5cdae	0.35508484
7	0x3bcfc222	0.006340281
8	0xbe03ab5f	-0.12858342
9	0x3e29914c	0.16559333
10	0xbd9d0e8c	-0.0766879
11	0xbdfb3aeb	-0.12267097
12	0xbec29c8d	-0.38010064
13	0x3ecd268c	0.4006847
14	0xbdfda9ce	-0.12385903
15	0xbe26663f	-0.16249941
16	0xbf0540b9	-0.52051884
17	0xbe4c9ce4	-0.19981724
18	0xbe8edc3d	-0.27902403
19	0x3eb37c45	0.35055748
20	0x3e7f2145	0.24915035
21	0xbe0f1963	-0.13974528
22	0x3ea4d657	0.32194778
23	0x3e81926f	0.25307032
24	0xbd2995a9	-0.041402493
25	0xbe375fb3	-0.179076
26	0xbe294002	-0.16528323
27	0xbe043921	-0.12912418
28	0x3be7e711	0.007077106
29	0x3e5369e2	0.2064586
30	0x3d7aa3d5	0.0611914
31	0x3e11ae5f	0.14226674
32	0xbdacd957	-0.08439892
33	0x3bd80d6b	0.0065933964
34	0x3cb29d5e	0.021803554
35	0x3e972e85	0.2952768
36	0xbeaa0400	-0.33206177
37	0xbe32f092	-0.17474583
38	0x3f8b18d4	1.0866952
39	0x3cd8c3ba	0.026460517
40	0x3e050aee	0.1299245
41	0x3d4041de	0.046937816
42	0x3ee9c201	0.45655826
43	0xbdd07d92	-0.10180201
44	0x3ec7ace7	0.38999102
45	0x3f671c15	0.90277225
46	0xbe5dd582	-0.21663478
47	0xbe95bede	-0.29247183
48	0xbd96f071	-0.07370079
49	0xbccd61b1	-0.025070997
50	0xbe231094	-0.15924293
51	0x3e06955b	0.13142912
52	0x3ef50be6	0.4786064
53	0xbd6cec0f	-0.05784231
54	0x3e735651	0.23763396
55	0xbf4e9d6e	-0.8070897
56	0x3e85f58f	0.2616391
57	0xbf41cef2	-0.757064
58	0x3ed22d50	0.41050196
59	0x3e86a5ca	0.26298362
60	0x3f229910	0.63514805
61	0x3e5c52cd	0.21515961
62	0x3c2da246	0.010597771
63	0x3e1df252	0.15424469
64	0xbe955afd	-0.2917098
65	0xbcdc84ce	-0.026918795
66	0x3eb705d8	0.35746646
67	0x3ea0698e	0.31330532
68	0xbdc3c830	-0.09559667
69	0xbeb7bc54	-0.3588587
70	0x3f32d6e8	0.6985917
71	0x3ea3185d	0.31854525
72	0x3e37f6bc	0.17965215
73	0x3e6e1ba5	0.23252733
74	0x3e800251	0.25001767
75	0xbedd38e4	-0.43207467
76	0xbe23535e	-0.15949771
77	0xbf173831	-0.59070116
78	0xbe8cdae2	-0.27510744
79	0xbdccafda	-0.099944785
80	0xbc945e5e	-0.018111404
81	0xbcc1eeb2	-0.02367339
82	0x3e7c8b14	0.24662429
83	0x3ea12998	0.31477046
84	0x3ecbbcfc	0.3979262
85	0xbea43498	-0.32071376
86	0x3e2781cd	0.16358109
87	0x3e529a8e	0.2056677
88	0x3e15626c	0.14588326
89	0xbebb6e52	-0.36607605
90	0x3eb3712d	0.35047284
91	0xbe5264ab	-0.20546214
92	0xbdc4fd52	-0.096186295
93	0x3ded1976	0.11577122
94	0x3e40a18b	0.18811624
95	0xbf5fcb58	-0.8741965
96	0xbdbdad20	-0.092615366
97	0xbdfb7757	-0.12278622
98	0xbec2e5f0	-0.38066053
99	0x3d8d4a19	0.06898899
100	0x3e59c322	0.21265844
101	0xbd1de8a3	-0.038551938
102	0x3f0bb51f	0.54573244
103	0x3f35822d	0.7090176
104	0xbe539d8c	-0.20665568
105	0x3e90bb47	0.2826788
106	0x3ea3ac3d	0.31967345
107	0xbedea2cd	-0.43483582
108	0x3eb6fb59	0.35738638
109	0x3efcfe30	0.4941268
110	0xbe8753c5	-0.264311
111	0x3dc14c65	0.09438399
112	0xbdbb88d9	-0.09156961
113	0x3ebe5f2c	0.37181985
114	0xbe39b5cd	-0.18135758
115	0x3ea4add4	0.3216387
116	0x3f39f7dd	0.72643834
117	0xbcc24049	-0.023712294
118	0xbea46f29	-0.32116058
119	0xbec6e51b	-0.3884667
120	0xbe145d4a	-0.14488712
121	0x3e75e688	0.24013722
122	0xbe848ccd	-0.25888672
123	0xbeeb6c21	-0.45980933
124	0xbd9872c1	-0.074437626
125	0x3e6acede	0.22930476
126	0x38a774aa	7.984911e-05
127	0x3e897702	0.26848608
128	0x3eb4bdac	0.35300958
129	0x3ef39701	0.47576144
130	0xbf065184	-0.5246813
131	0x3e851826	0.25994986
132	0x3e6319af	0.22177766
133	0x3f101e5a	0.5629631
134	0x3de9fafc	0.114248246
135	0x3e84f2af	0.25966403
136	0xbd853c4c	-0.06505641
137	0xbee86058	-0.45386004
138	0x3e7cf9c4	0.24704653
139	0xbf8c722b	-1.0972341
140	0x3d97463f	0.07386445
141	0xbe53a1ea	-0.20667234
142	0x3c1b3b91	0.009474651
143	0xbe634ddf	-0.22197674
144	0xbeaad1c8	-0.33363175
145	0xbd50db5a	-0.05099044
146	0xbe9d30f7	-0.3070142
147	0xbe8d35e5	-0.2758018
148	0x3e3f73a2	0.18696454
149	0x3e460f63	0.19341807
150	0x3e0aee68	0.13567507
151	0x3e85bf50	0.26122522
152	0x3e5cee05	0.21575172
153	0xbe9a2a55	-0.30110422
154	0xbe341a16	-0.17588076
155	0xbe3edb53	-0.18638353
156	0xbe9b4e3b	-0.30333123
157	0xbe8c5987	-0.27412054
158	0xbe90b5dc	-0.28263748
159	0xbf239426	-0.6389793
160	0x3e628888	0.22122395
161	0xbe8cc56b	-0.27494368
162	0xbe4e1b12	-0.20127514
163	0x3dc544d8	0.096322715
164	0x3dbc0f4b	0.091826044
165	0x3d12b54b	0.035817426
166	0x3f2a3346	0.6648449
167	0x3f010150	0.5039263
168	0xbeb84c4f	-0.3599572
169	0x3e72bf22	0.23705724
170	0xbe8edeba	-0.27904302
171	0xbcd63175	-0.02614663
172	0x3f6b1e87	0.91843456
173	0x3e9da7b1	0.30792
174	0x3d8c79e3	0.068591855
175	0x3e9fcb87	0.31209967
176	0xbe520462	-0.20509484
177	0x3e6d0016	0.23144564
178	0xbe6e12ee	-0.23249409
179	0x3df9ba7e	0.12193774
180	0x3f21ca64	0.6319945
181	0x3ed535b7	0.41642544
182	0x3dba19cc	0.090869516
183	0xbe73c54a	-0.23805729
184	0xbd3b235d	-0.045688022
185	0x3d9e9c1a	0.07744618
186	0xbf9f87eb	-1.2463354
187	0x3dd3f049	0.10348565
188	0x3f0f47a8	0.55968714
189	0xbe8f135a	-0.27944452
190	0x3e886e41	0.26646617
191	0x3e81c309	0.25344113
192	0x3eb7c56e	0.35892814
193	0x3eee44c4	0.4653684
194	0xbe0830e8	-0.13299906
195	0x3db48911	0.08815206
196	0xbdef61c5	-0.1168857
197	0xbe30bcb3	-0.17259483
198	0xbe8ef1e7	-0.27918932
199	0xbe269799	-0.16268767
200	0x3e267ed9	0.16259326
201	0xbde12a98	-0.10994452
202	0xbbbc393f	-0.005744129
203	0xbf8f00d7	-1.1172131
204	0x3e931d27	0.2873318
205	0xbe70930a	-0.23493591
206	0xbe270614	-0.16310912
207	0xbdbfb111	-0.093599446
208	0xbdcba000	-0.09942627
209	0xbea18e3f	-0.31553838
210	0xbd7d5d9a	-0.061856844
211	0xbf3d47c5	-0.73937637
212	0xbf3945e0	-0.72372246
213	0xbc54583d	-0.012960491
214	0x3e129d85	0.14317901
215	0x3c85b97d	0.0163238
216	0x3e8d9c44	0.27658284
217	0xbe22ef2e	-0.15911552
218	0xbeba887d	-0.36432257
219	0xbd80b881	-0.06285191
220	0xbe352633	-0.17690353
221	0x3e2529b6	0.16129193
222	0xbe811edf	-0.25218865
223	0xbf1c2224	-0.60989594
224	0x3e5ffd7b	0.21874039
225	0x3df9ccc6	0.121972606
226	0xbeafa221	-0.34303382
227	0x3e482499	0.19545211
228	0x3eada38d	0.33913842
229	0xbeb160c3	-0.34644136
230	0x3fa076ee	1.2536294
231	0x3d5f33da	0.05449281
232	0x3df41f61	0.119200476
233	0x3e53abde	0.20671031
234	0x3ea43079	0.32068232
235	0x3e8660e6	0.26245803
236	0x3ec7604d	0.3894066
237	0x3dc0e06f	0.09417807
238	0xbe0597bd	-0.13046165
239	0xbba825fb	-0.0051314807
240	0x3d9ab5a9	0.0755418
241	0xbf3542d3	-0.7080509
242	0x3dbb33b1	0.09140719
243	0x3e7e55d1	0.24837424
244	0x3f0a5bf1	0.5404654
245	0xbeadd237	-0.33949444
246	0xbd27c64c	-0.040960595
247	0xbeb3d46a	-0.35122997
248	0x3d6498b5	0.055809695
249	0xbe996291	-0.29958013
250	0xbf8016e1	-1.0006982
251	0x3ea6fa95	0.32613054
252	0x3ece75d8	0.40324283
253	0xbf00ee0a	-0.5036322
254	0xbe8abc00	-0.27096558
255	0xbe0e7d87	-0.13915072

layer3.bias f4 [6]
0	0x3d6d9af7	0.058009114
1	0x3cadd0cb	0.021217724
2	0x3c3caf0f	0.011516347
3	0x3db339e7	0.08751278
4	0x3df8802e	0.12133823
5	0xbc803fa3	-0.015655344
