drl_deep_project/scripts/our_agent/models/dqn_20250119_185306.pt (torch, 29440 bytes, 6 tensors)

layer1.weight f4 [64, 32]
-0.006387609 -0.017551726 0.018827911 -0.021653134 -0.02968239 -0.029286304 -0.009409634 0.011093049
0.043894097 0.016060045 -0.17858571 -0.0025207805 0.033155575 0.033585947 -0.037362844 -0.013941438
-0.09090766 0.046179492 -0.045453366 -0.010648293 -0.001835755 0.05121012 -0.05095245 -0.001904468
-1.1194776 0.070175216 0.036888395 0.27259415 -0.025984636 -0.0076592946 -0.03680819 -0.025758347
-0.014939797 0.12180949 0.15067592 0.07128642 -0.033303294 0.090305604 -0.06387739 0.09083137
0.119905256 0.019841077 -0.052886296 0.021039497 0.08905315 -0.009720554 -0.05457463 -0.00021756411
0.11117984 -0.049259286 -0.37776953 0.040659104 0.08159076 0.020907925 -0.0055421917 0.05585034
-0.16283788 0.096618116 0.11445206 0.14990148 0.091365576 0.020216048 0.056879736 0.061168134
0.046127595 0.10227827 0.09879414 0.12212328 0.053913854 0.027342893 0.056982815 0.12931523
0.18401323 0.04210387 0.092591405 -0.04219691 -0.06253354 0.0237876 -0.12191843 -0.008388041
0.27898496 0.032479912 0.24824677 0.03217682 -0.049825825 0.029951764 -0.09362183 0.044951063
0.43410033 0.030838018 0.22128694 -0.34394777 0.23603655 -0.029628891 0.106472336 -0.113539144
-0.009561128 0.008640339 -0.08215418 -0.07996229 0.013360631 -0.01906358 -0.0495133 0.048938587
-0.34858587 0.018315317 0.0011396193 0.054407604 -0.27428785 0.033276007 -0.059589516 -0.0036026188
-0.19821747 0.03271929 -0.15234855 -0.008337462 -0.10094182 -0.037231997 0.056115303 0.022693487
-0.44055796 -0.04843206 -0.10439244 0.25525844 -0.14062607 0.032617148 0.0035838631 0.09434596
-0.023003554 -0.0896716 -0.0033642605 0.031469803 0.026686566 -0.009339675 -0.00023016176 -0.037759144
0.6451932 -0.028185278 0.16310696 0.01859202 0.11055483 0.023011854 -0.308527 -0.051029988
0.77498263 0.03612163 0.06918227 -0.048763238 0.043905124 -0.046188947 -0.049496476 0.058220025
-1.2105987 -0.35161716 -0.12683253 0.41253877 0.055376854 -0.049096156 -0.3387838 -0.12575962
0.030036736 -0.0043563973 0.03344622 0.012043541 -0.058318704 -0.019958777 0.011317452 -0.015635082
0.011736896 0.032777242 -0.1227072 0.01097824 0.0041172816 -0.001500991 -0.0803117 -0.011276892
0.12922414 0.018737925 -0.28109822 -0.022568032 0.028689843 0.0033027236 0.035831556 -0.00957344
-0.12516668 0.09290642 0.15331034 0.1934883 0.08418967 0.026060034 0.082664445 0.046906035
-0.001934579 0.054051768 0.10820024 0.061611768 0.005186594 0.016321221 -0.03340642 0.0532096
-0.15015846 -0.032163035 0.067334175 -0.057606485 0.11321092 0.011134134 0.10733836 0.031438228
-0.13498366 -0.030701775 0.17108846 0.006034004 -0.05958325 0.056287896 0.0023805227 -0.01650345
-0.24271603 -0.021843893 0.10550423 0.31543255 0.26423523 0.057909574 0.07107332 -0.038967427
-0.04575981 -0.08793087 -0.06692081 -0.06479457 0.028855274 -0.016599212 0.043592703 -0.02035111
0.0059608435 0.0062691094 0.033920646 0.057305004 -0.022713432 0.027508484 0.024445187 -0.018812545
-0.4355742 -0.024801478 -0.01597218 0.01130225 -0.01307661 0.005395189 -0.023251548 0.053725533
0.6727744 -0.15569304 -0.2957057 0.3438275 -0.33396512 0.05903353 -0.068080336 -0.019985972
00000000: 264f d1bb a3c8 8fbc fe3c 9a3c ea61 b1bc
00000010: 7c28 f3bc d5e9 efbc de2a 1abc 9fbf 353c
00000020: 4cca 333d 5b90 833c 2cdf 36be ae33 25bb
00000030: 24ce 073d 6b91 093d c809 19bd a16a 64bc
00000040: cc2d babd b526 3d3d 4f2d 3abd 2e76 2ebc
00000050: b79d f0ba b4c1 513d 84b3 50bd 589f f9ba
00000060: 0b4b 8fbf 06b8 8f3d 4918 173d 7691 8b3e
00000070: bbdd d4bc d2fa fabb 2fc4 16bd 2b03 d3bc
00000080: 0dc6 74bc 4177 f93d ca4a 1a3e 9dfe 913d
00000090: 0969 08bd 25f2 b83d 26d2 82bd cc05 ba3d
000000a0: e390 f53d c189 a23c 4d9f 58bd 065b ac3c
000000b0: 7f61 b63d f542 1fbc a689 5fbd ec21 64b9
000000c0: 42b2 e33d 1bc4 49bd 026b c1be 298a 263d
000000d0: 0e19 a73d 1947 ab3c 469b b5bb 53c3 643d
000000e0: f9be 26be b8df c53d d765 ea3d c67f 193e
000000f0: e01d bb3d 209c a53c bafa 683d 708b 7a3d
00000100: 4af0 3c3d 4577 d13d 9554 ca3d c51b fa3d
00000110: c6d4 5c3d 34fe df3c d066 693d 366b 043e
00000120: f76d 3c3e 1c75 2c3d 90a0 bd3d abd6 2cbd
00000130: 9611 80bd 37de c23c 5fb0 f9bd fe6d 09bc
00000140: 1ed7 8e3e a809 053d 6734 7e3e d7cb 033d
00000150: 2a16 4cbd 675d f53c cdbc bfbd 9b1e 383d
00000160: 6642 de3e 03a0 fc3c 0b99 623e ec19 b0be
00000170: 91b3 713e 4ab8 f2bc 2b0e da3d 3687 e8bd
00000180: 47a6 1cbc 3590 0d3c 7340 a8bd 45c3 a3bd
00000190: 8ce6 5a3c 3a2b 9cbc 75ce 4abd d473 483d
000001a0: d979 b2be 010a 963c 475f 953a 82da 5e3d
000001b0: 756f 8cbe 6c4c 083d 2314 74bd ea19 6cbb
000001c0: 85f9 4abe aa04 063d 4201 1cbe da99 08bc
000001d0: 96ba cebd 9480 18bd 29d9 653d b1e7 b93c
000001e0: d090 e1be b260 46bd b4cb d5bd 3cb1 823e
000001f0: 4800 10be 8f99 053d 3fdf 6a3b 7438 c13d
00000200: f371 bcbc bea5 b7bd ed7a 5cbb 7be6 003d
00000210: c99d da3c 7005 19bc 9457 71b9 55a9 1abd
00000220: 622b 253f d0e4 e6bc 8305 273e 4b4e 983c
00000230: 926a e23d 5b83 bc3c 40f7 9dbe d204 51bd
00000240: 4365 463f 46f4 133d 6faf 8d3d f6bb 47bd
00000250: dcd5 333d 9f30 3dbd d1bc 4abd 1f78 6e3d
00000260: e6f4 9abf 2a07 b4be 63e0 01be 4838 d33e
00000270: d7d2 623d 0d19 49bd 1275 adbe 21c7 00be
00000280: 9a0f f63c 1cc0 8ebb e7fe 083d 4652 453c
00000290: 98df 6ebd 9780 a3bc d66c 393c 2515 80bc
000002a0: 1c4c 403c 6e41 063d ea4d fbbd 13de 333c
000002b0: 43ea 863b e7bc c4ba 767a a4bd b7c2 38bc
000002c0: 5553 043e 4780 993c 1bec 8fbe 98e0 b8bc
000002d0: f606 eb3c 8272 583b 1cc4 123d ebd9 1cbc
000002e0: b22b 00be b945 be3d 63fd 1c3e cc21 463e
000002f0: a26b ac3d da7b d53c fa4b a93d 8b20 403d
00000300: b391 fdba 6365 5d3d 1698 dd3d 9f5c 7c3d
00000310: 4ef4 a93b 15b4 853c 2cd5 08bd 4ff2 593d
00000320: 24c3 19be 63bd 03bd 80e6 893d c7f4 6bbd
00000330: 20db e73d f16b 363c 37d4 db3d 5fc5 003d
00000340: 2839 0abe 4a82 fbbc d031 2f3e e5b8 c53b
00000350: 910d 74bd 238e 663d 8b02 1c3b 3e32 87bc
00000360: 8d8a 78be f7f1 b2bc 9a12 d83d 6080 a13e
00000370: d749 873e 9732 6d3d e48e 913d 4f9c 1fbd
00000380: a36e 3bbd 1a15 b4bd c70d 89bd 04b3 84bd
00000390: e561 ec3c 12fb 87bc 438e 323d 5fb7 a6bc
000003a0: 2e53 c33b 1a6d cd3b 60f0 0a3d a7b8 6a3d
000003b0: 8511 babc 7959 e13c 4641 c83c c41c 9abc
000003c0: 9503 dfbe 782c cbbc 17d8 82bc 132d 393c
000003d0: 473f 56bc 20ca b03b 087a bebc 4e0f 5c3d
000003e0: f13a 2c3f ff6d 1fbe bd66 97be 280a b03e
000003f0: 7afd aabe 25cd 713d b46d 8bbd 9fb9 a3bc

layer1.bias f4 [64]
0.028357139 0.1158709 0.1188113 -0.14646903 -0.13268623 0.16394047 0.07138691 -0.2803703
-0.038904034 -0.0013287558 0.22165258 -0.024684405 0.108262174 0.02319874 0.11269224 0.103412345
-0.007861393 0.07199314 0.050431527 0.028311335 0.09864576 0.0902894 0.052597024 0.14939612
0.15512703 0.15859881 -0.0015096331 0.07746368 -0.049709767 0.03466632 0.09727379 0.10404631
-0.04376417 0.056803424 0.12728448 0.19823144 0.10108429 0.04596968 0.111788936 0.08311999
0.025759606 -0.13572653 -0.15077467 0.17444246 0.011190797 -0.048066042 -0.08406471 0.07040071
-0.10965797 0.10760715 0.20098779 -0.049829513 0.17706466 0.16352826 0.16253445 0.085069016
0.08008258 -0.031393107 0.1289558 0.11543543 -0.13652588 0.014710004 0.07028797 -0.04501598
00000000: 3b4d e83c b94d ed3d 5753 f33d fafb 15be
00000010: e6de 07be 03e0 273e 4d33 923d b28c 8fbe
00000020: d659 1fbd a529 aeba e5f8 623e f336 cabc
00000030: 8fb8 dd3d 490b be3c 30cb e63d dac9 d33d
00000040: 12cd 00bc 2471 933d 4a91 4e3d 2ced e73c
00000050: ca06 ca3d a6e9 b83d fa6f 573d 4cfb 183e
00000060: 9fd9 1e3e ba67 223e e2de c5ba 47a5 9e3d
00000070: 789c 4bbd 45fe 0d3d 7b37 c73d 3b16 d53d
00000080: 0f42 33bd b5aa 683d dd56 023e 2ffd 4a3e
00000090: 4805 cf3d b44a 3c3d 99f1 e43d d03a aa3d
000000a0: cf05 d33c e5fb 0abe ad64 1abe 0ba1 323e
000000b0: 9b59 373c e6e0 44bd 1e2a acbd 3f2e 903d
000000c0: 5c94 e0bd 2361 dc3d becf 4d3e 081a 4cbd
000000d0: 7050 353e f473 273e 6e6f 263e aa38 ae3d
000000e0: 5602 a43d 0f96 00bd fd0c 043e 6969 ec3d
000000f0: 71cd 0bbe 3b02 713c 24f3 8f3d ad62 38bd

layer2.weight f4 [64, 64]
0.021344405 -0.00067892746 -0.47676554 0.121509075 0.24303164 -0.008443556 0.063040815 0.12014509
0.18530218 -0.05309884 0.022275014 -0.008565043 -0.26819047 0.09410177 0.0027405 0.07174305
-0.33427635 -0.08092076 0.21853334 0.09097931 0.00519257 0.09197612 0.05227593 0.04663716
-0.07320611 0.10919218 0.13144815 -0.19103655 0.15703031 -0.013178188 -0.043994024 -0.031498406
-0.2990498 -0.14164385 -9.074198e-06 0.040055156 0.11178623 0.043055885 0.029338537 0.2711385
-0.22423625 0.014237878 -0.0018528132 -0.23166929 0.089132056 0.08280864 0.045328777 -0.06959886
0.1104116 0.028161079 -0.0419607 -0.24723805 0.01878024 0.07376561 0.03294767 0.049782846
-0.48413178 -0.51719224 -0.030751608 -0.006530276 0.43456566 0.041983634 0.08969954 -0.04239059
0.041755185 -0.0048101936 0.1885967 0.05378074 -0.076823644 0.034056496 -0.08778967 -0.06399703
-0.1812037 0.07540009 0.6420286 -0.020024668 0.16761191 -0.062494963 -0.0172043 -0.06793835
0.33378908 0.14084908 -0.14856528 0.04411794 -0.091136 0.08968244 0.047020514 -0.039136868
0.027006444 -0.088044874 0.013212508 -0.07058431 -0.1297578 -0.017634414 -0.06590692 -0.05632659
0.25618297 0.22890733 -0.009137097 0.007298412 0.03975936 0.08113028 -0.024653308 -0.24721126
0.2677641 0.054642964 0.1893388 0.27273437 -0.56206477 -0.32860643 0.18716903 -0.004975137
-0.08404609 -0.10220281 0.128108 0.3324785 0.1480471 -0.004147854 -0.070666224 0.004201069
0.08978852 -0.43759406 -0.013680918 0.031505056 -0.5793833 -0.31412315 0.10030779 0.074403636
0.04877649 -0.0341281 -0.08979209 0.32160187 -0.20440613 -0.08831865 0.14445727 -0.05157227
-0.29003015 0.16512468 -0.05057361 -0.015661625 -0.3536543 -0.52793896 0.16644855 -0.017881662
-0.24823086 -0.11695272 0.028631628 0.111057855 0.01778616 -0.0022725188 -0.1373642 -0.057259608
0.045449134 0.061184306 -0.06055409 -0.8154964 0.42097172 0.20648493 -0.123941384 0.234905
0.25892082 0.10766066 0.07435306 0.14278424 -0.21641871 0.23263991 -0.108226135 0.24681956
0.23996495 -0.14941834 -0.08697411 0.20142905 -0.12826563 0.39189863 0.15051997 0.3253924
-0.13650241 0.023520777 -0.021549897 0.23686245 0.097062826 0.04703964 0.08234852 -0.053846847
0.121940255 0.5620411 -0.05122674 0.19220792 0.14946488 -0.33043894 0.2351638 -0.32297722
-0.18204536 0.027602725 0.16620037 -0.21176872 -0.08838572 -0.0024273084 -0.12710951 -0.05100012
0.26582068 0.0008949426 -0.45502117 0.02643241 0.09661179 -0.06283421 -0.1088273 -0.15159392
0.10888514 0.12383143 -0.21278432 -0.1418211 0.04234411 -0.10428672 0.1295648 0.020543396
0.17049675 -0.06658805 -0.24312182 0.33772552 -0.019873554 -0.05495051 0.06249668 0.015475273
0.0049626366 -0.10643828 0.041215196 0.008379054 -0.21544212 -0.53927803 -0.019513456 0.04226229
-0.08022681 0.22596675 0.06991557 -0.17492953 0.07708236 -0.42173123 -0.0042062616 -0.013210924
0.09883211 -0.08614024 0.2678295 0.1990286 -0.053868107 0.03948854 -0.0660737 0.0016350226
0.07018075 -0.06617449 0.10844348 -0.08227765 0.15794478 0.35679284 -1.0912167 0.16257147
00000000: 76da ae3c 0dfa 31ba 9d1a f4be c0d9 f83d
00000010: 49dd 783e d756 0abc 8b1b 813d a10e f63d
00000020: dbbf 3d3e 2b7e 59bd 177a b63c 6554 0cbc
00000030: 4350 89be 6eb8 c03d f699 333b 05ee 923d
00000040: 4526 abbe c9b9 a5bd 34c7 5f3e 5c53 ba3d
00000050: 6f26 aa3b fa5d bc3d 491f 563d 9b06 3f3d
00000060: 16ed 95bd 26a0 df3d 589a 063e 169f 43be
00000070: 8ecc 203e 54e9 57bc 1433 34bd 7904 01bd
00000080: 0e1d 99be 160b 11be 623d 18b7 e010 243d
00000090: 2ef0 e43d 5e5b 303d 5f57 f03c aad2 8a3e
000000a0: 309e 65be fd45 693c 18da f2ba b73a 6dbe
000000b0: de8a b63d 9497 a93d abaa 393d d989 8ebd
000000c0: 7a1f e23d 10b2 e63c fcde 2bbd f92b 7dbe
000000d0: 05d9 993c 6d12 973d 23f4 063d 19e9 4b3d
000000e0: 1fe0 f7be b666 04bf ccea fbbc edfb d5bb
000000f0: 647f de3e 08f7 2b3d 64b4 b73d c1a1 2dbd
00000100: 7c07 2b3d d49e 9dbb 7e1f 413e 3149 5c3d
00000110: b755 9dbd d37e 0b3d 12cb b3bd e010 83bd
00000120: 768d 39be 5d6b 9a3d fd5b 243f c60a a4bc
00000130: 75a2 2b3e b8fa 7fbd 08f0 8cbc 4323 8bbd
00000140: 67e6 aa3e be3a 103e 7f21 18be 03b5 343d
00000150: 83a5 babd 6dab b73d 9598 403d fb4d 20bd
00000160: 9e3c dd3c df50 b4bd 4679 583c 828e 90bd
00000170: 3bdf 04be 0c76 90bc 35fa 86bd b6b6 66bd
00000180: 6a2a 833e af66 6a3e c3b3 15bc 8427 ef3b
00000190: b6da 223d a227 a63d bcf5 c9bc f324 7dbe
000001a0: 6018 893e 4dd1 5f3d 08e2 413e d7a3 8b3e
000001b0: 7ae3 0fbf 1a3f a8be 3da9 3f3e 7906 a3bb
000001c0: 5b20 acbd b54f d1bd be2e 033e 9f3a aa3e
000001d0: a999 173e b9ea 87bb 74b9 90bd 1fa9 893b
000001e0: 0be3 b73d 540c e0be ee25 60bc 720b 013d
000001f0: 7752 14bf c0d4 a0be 2c6e cd3d ef60 983d
00000200: dbc9 473d e8c9 0bbd eae4 b7bd 00a9 a43e
00000210: d74f 51be 69e0 b4bd 9bec 133e 723d 53bd
00000220: d57e 94be 7216 293e 4626 4fbd cf4c 80bc
00000230: 2d12 b5be 0227 07bf 7d71 2a3e 907c 92bc
00000240: 3b30 7ebe e884 efbd e08c ea3c 4d72 e33d
00000250: 48b4 913c 8aee 14bb 33a9 0cbe 0d89 6abd
00000260: df28 3a3d 659c 7a3d 9107 78bd 5fc4 50bf
00000270: 9b89 d73e c970 533e fbd4 fdbd f08a 703e
00000280: 4591 843e 317d dc3d 6b46 983d 0836 123e
00000290: de9c 5dbe 2839 6e3e aaa5 ddbd 44be 7c3e
000002a0: 5fb9 753e 1f01 19be 7b1f b2bd 6b43 4e3e
000002b0: 1158 03be f0a6 c83e e821 1a3e d599 a63e
000002c0: 4ac7 0bbe a5ae c03c 6989 b0bc 128c 723e
000002d0: e0c8 c63d a3ac 403d 57a6 a83d 838e 5cbd
000002e0: d0bb f93d ede1 0f3f 21d3 51bd 27d2 443e
000002f0: 520d 193e 4b2f a9be c7ce 703e 455d a5be
00000300: 196a 3abe 1c1f e23c 6e30 2a3e e6d9 58be
00000310: 9303 b5bd 7a13 1fbb ff28 02be 80e5 50bd
00000320: a619 883e 959a 6a3a 89f8 e8be c888 d83c
00000330: 67dc c53d 39af 80bd d9e0 debd 703b 1bbe
00000340: 2cff de3d 559b fd3d 22e4 59be 8d39 11be
00000350: 0471 2d3d 4794 d5bd a3ac 043e a04a a83c
00000360: b396 2e3e 515f 88bd edf4 78be 5cea ac3e
00000370: ddcd a2bc c913 61bd 85fc 7f3d 008c 7d3c
00000380: 9d9d a23b 50fc d9bd 44d1 283d 4d48 093c
00000390: dc9c 5cbe 200e 0abf afda 9fbc 391b 2d3d
000003a0: f44d a4bd d463 673e e52f 8f3d ba20 33be
000003b0: 5bdd 9d3d 28ed d7be aed4 89bb a272 58bc
000003c0: 7d68 ca3d 4b6a b0bd f320 893e 27ce 4b3e
000003d0: cea4 5cbd bcbe 213d a651 87bd 414e d63a
000003e0: edba 8f3d 7e86 87bd 9e17 de3d 2f81 a8bd
000003f0: 47bc 213e 8dad b63e fdac 8bbf 2379 263e

layer2.bias f4 [64]
-0.010378578 0.13248865 0.044311702 0.10706904 0.026072802 0.14901513 0.093129374 0.0827274
0.016179642 -0.038474932 0.071487 -0.05416211 0.08721817 0.029077707 0.0027407722 0.113228634
0.094863735 0.1015246 -0.013620605 -0.019942362 0.06402326 -0.15199149 0.08216186 0.16845573
0.12309035 0.04186707 0.1264225 0.08055803 -0.056567054 0.06935284 0.073612675 0.08683788
-0.020986259 0.05597945 0.0032257747 0.20295183 -0.035405304 0.059872996 0.102960415 -0.0068030986
0.15608653 -0.105493724 0.07878666 0.022097744 0.06388297 -0.05233687 0.113126166 -0.037954383
0.0113319345 -0.056984294 -0.031287245 0.041101266 0.014111123 0.14143716 0.042353526 -0.11056697
-0.005904459 0.050071023 0.015256561 -0.008682469 0.097873956 -0.051950075 0.050190058 0.0268964
00000000: e90a 2abc 1bab 073e 3080 353d 0347 db3d
00000010: a196 d53c 6c97 183e 9dba be3d fc6c a93d
00000020: 2b8b 843c e497 1dbd c767 923d 17d9 5dbd
00000030: 719f b23d 5f34 ee3c 879e 333b 6ae4 e73d
00000040: eb47 c23d 21ec cf3d f528 5fbc 2a5e a3bc
00000050: a01e 833d a8a3 1bbe 7a44 a83d a97f 2c3e
00000060: cb16 fc3d ce7c 2b3d e674 013e 9cfb a43d
00000070: dbb2 67bd dd08 8e3d 3ec2 963d 0fd8 b13d
00000080: 60eb abbc b54a 653d 8567 533b 9bd2 4f3e
00000090: 2705 11bd 633d 753d e9dc d23d 87ec debb
000000a0: 26d5 1f3e 180d d8bd e75a a13d 5406 b53c
000000b0: 13d5 823d 305f 56bd b1ae e73d 0e76 1bbd
000000c0: 94a9 393c 5d68 69bd 0e27 00bd cd59 283d
000000d0: 5732 673c e7d4 103e e47a 2d3d f070 e2bd
000000e0: 317a c1bb 4617 4d3d a8f6 793c ea40 0ebc
000000f0: 2472 c83d 9ac9 54bd 1794 4d3d d755 dc3c

layer3.weight f4 [6, 64]
0.001251365 0.3870694 -0.3338128 -0.10442395 -0.15518019 0.15971723 0.15685138 0.12859452
0.052443907 -0.68847215 0.48860395 -0.33391732 0.32237676 0.38523006 -0.31884867 0.14459416
0.18375657 0.18929942 -0.96689284 -0.7298304 0.07885255 -0.5288411 0.1538335 0.16642882
0.18069775 -0.73799855 0.09888442 0.06849194 0.047657814 0.118763 -0.9176418 0.10339375
-0.017443951 -0.54810774 -0.3991995 0.52864194 -0.008751639 -0.55343765 0.10222382 -0.061371252
0.11976562 0.6474297 0.31909207 -0.124872014 0.011721158 0.13531098 0.13834341 -0.037719786
0.24098836 -0.6117072 -0.23767495 -0.5622166 0.105722934 0.1709488 0.4953688 -0.18782659
-0.8433487 -0.80736315 -0.03458717 -0.13443807 0.16293144 -0.15398346 0.26002693 0.12959477
0.10367581 0.293261 0.4754375 -0.72669095 -0.32147995 0.16315728 0.1496035 0.105732106
-0.3608175 -0.114519805 0.57863486 -0.40014303 -0.26202232 0.5113666 -1.1257956 0.08019723
0.27775508 0.07984236 -0.17478171 -0.33954853 0.13349456 0.052552126 0.17312367 0.14138769
0.17692262 -0.6245307 0.10001002 0.10769061 0.058506604 0.12549117 0.5336414 0.11347662
0.47894514 0.46207643 -0.14389169 0.12674071 0.023760831 -0.4795417 0.13328156 0.4974873
0.09263064 0.20555231 -0.1327527 -0.31452206 -0.27696946 0.012070529 0.16543326 0.003928062
0.10544424 0.48624724 0.09974644 0.04882729 -0.016307816 0.053997375 0.2679281 -1.0361394
-0.7397531 0.14524068 0.2267396 -0.05268193 0.13441032 -0.021604473 0.08339839 -0.27353358
0.1656833 0.40636522 -0.6480183 -0.22886463 -0.2500057 0.11124976 0.16114157 0.11286387
-0.080463655 -0.8004878 0.57361674 -0.44464645 0.055435903 0.4804476 -0.48796052 0.11578058
0.24145304 0.17427966 -0.9154891 -0.22352318 0.16240872 -0.7058023 0.0803473 0.11067991
0.08908973 -0.6862026 0.14414857 0.15692477 0.02350037 0.15058747 0.5188911 0.106258
0.08263545 -0.56875014 -0.23803358 0.25616455 0.010824951 -0.38097 0.14579482 0.020792322
0.14426492 0.4014356 0.30115598 -0.42975777 -0.39952514 -0.0784226 0.17397799 -0.016089145
0.0005916322 -1.1894339 -0.35648736 0.7761242 0.106129125 0.12469492 0.1020297 -0.16686879
-0.5539718 0.32915258 0.3613593 0.21880583 0.13494395 -0.72094256 0.17512697 0.27408457
0.17943393 0.21933655 0.6319387 -0.41449103 -0.57057977 0.0074661104 0.123169355 0.13940425
0.28055423 0.09261776 0.5741202 -0.22035655 0.06341078 0.67668736 -0.7666041 0.12947072
0.26189074 0.09714684 -0.73564386 -0.86327595 0.12732528 -0.04745649 0.15389636 0.098576985
0.0435756 -0.53829634 0.08160514 0.11462098 0.12602359 0.13333406 -0.18326242 0.079934746
-0.10703701 0.7959491 -0.3941795 -0.06460736 0.03410227 -0.4430864 0.10283972 0.23186053
0.1118994 0.50812554 0.15781267 0.40853074 -0.32335654 0.19216858 0.047088336 -0.029587148
0.008086175 0.19386934 -0.22023897 -0.05944664 0.2170639 0.11677593 0.04477253 -0.78509176
0.10359533 0.16163403 -0.15862942 0.22666891 -0.0071365344 -0.5116208 0.189306 0.13923876
00000000: d804 a43a f62d c63e 83e9 aabe 39dc d5bd
00000010: 8ee7 1ebe ea8c 233e a69d 203e 48ae 033e
00000020: 6ccf 563d b63f 30bf 4c2a fa3e 36f7 aabe
00000030: 910e a53e e03c c53e 2240 a3be 7e10 143e
00000040: af2a 3c3e b5d7 413e 4a86 77bf 2ad6 3abf
00000050: 727d a13d 2162 07bf 8786 1d3e 516c 2a3e
00000060: d508 393e 79ed 3cbf ea83 ca3d 8145 8c3d
00000070: d734 433d 043a f33d 93ea 6abf 1ac0 d33d
00000080: 9ee6 8ebc ca50 0cbf e063 ccbe 1455 073f
00000090: 0963 0fbc 17ae 0dbf b95a d13d 6c60 7bbd
000000a0: ad47 f53d f4bd 253f 0960 a33e e6bc ffbd
000000b0: 1a0a 403c f68e 0a3e e5a9 0d3e 1080 1abd
000000c0: a7c5 763e d898 1cbf 1061 73be 6ded 0fbf
000000d0: 4485 d83d 340d 2f3e fba0 fd3e 9d55 40be
000000e0: b3e5 57bf 5aaf 4ebf 47ab 0dbd 22aa 09be
000000f0: 80d7 263e d7ad 1dbe 4022 853e 7eb4 043e
00000100: fc53 d43d 4e26 963e 8b6c f33e 6b08 3abf
00000110: 0599 a4be b412 273e a931 193e 138a d83d
00000120: 12bd b8be 5c89 eabd 6a21 143f 8cdf ccbe
00000130: ca27 86be ece8 023f 121a 90bf 723e a43d
00000140: ea35 8e3e 6484 a33d faf9 32be 4ed9 adbe
00000150: ccb2 083e e640 573d 5547 313e efc7 103e
00000160: 342b 353e 3ee1 1fbf 0ed2 cc3d e58c dc3d
00000170: 9fa4 6f3d c280 003e b99c 083f 6e66 e83d
00000180: 4c38 f53e 4895 ec3e 5858 13be 51c8 013e
00000190: 13a6 c23c 7d86 f5be f67a 083e a8b6 fe3e
000001a0: 22b5 bd3d 4e7c 523e 53f0 07be 0909 a1be
000001b0: f1ce 8dbe 78c3 453c 5667 293e f9b6 803b
000001c0: 26f3 d73d 66f5 f83e dd47 cc3d 20ff 473d
000001d0: f897 85bc 5a2c 5d3d df2d 893e 37a0 84bf
000001e0: 7660 3dbf f9b9 143e 6d2e 683e 02c9 57bd
000001f0: dca2 093e ddfb b0bc c6cc aa3d 980c 8cbe
00000200: e2a8 293e 1a0f d03e 87e4 25bf 7d5b 6abe
00000210: bf00 80be ead6 e33d 4c02 253e 2c25 e73d
00000220: 21ca a4bd c5ec 4cbf 8cd8 123f b3a8 e3be
00000230: c210 633d 3afd f53e f6d5 f9be 5e1e ed3d
00000240: 773f 773e 5e76 323e 7e5d 6abf 43e3 64be
00000250: 794e 263e 76af 34bf 208d a43d 26ac e23d
00000260: ad74 b63d f9aa 2fbf af9b 133e e3b0 203e
00000270: d983 c03c 9a33 1a3e 0cd6 043f cb9d d93d
00000280: c63c a93d 9c99 11bf 13bf 73be 0028 833e
00000290: 235b 313c 800e c3be 3d4b 153e a954 aa3c
000002a0: 2fba 133e f888 cd3e 1e31 9a3e 3609 dcbe
000002b0: 8f8e ccbe 079c a0bd 4927 323e 62cd 83bc
000002c0: c417 1b3a 5f3f 98bf 8385 b6be 13b0 463f
000002d0: 3a5a d93d 0d60 ff3d f3f4 d03d a7df 2abe
000002e0: 19d1 0dbf b086 a83e 1604 b93e a30e 603e
000002f0: bf2e 0a3e b18f 38bf 7c54 333e d054 8c3e
00000300: 87bd 373e c399 603e bcc6 213f 2b38 d4be
00000310: 8411 12bf 46a6 f43b 3740 fc3d fdbf 0e3e
00000320: cea4 8f3e 61ae bd3d 8bf9 123f 26a5 61be
00000330: 83dd 813d 623b 2d3f 2b40 44bf f993 043e
00000340: 8b16 863e ecf4 c63d 2853 3cbf a7ff 5cbf
00000350: 8f61 023e bd61 42bd 0297 1d3e bbe2 c93d
00000360: 547c 323d cacd 09bf 9820 a73d 68be ea3d
00000370: 540c 013e b988 083e 25a9 3bbe d4b4 a33d
00000380: 3836 dbbd 52c3 4b3f e5d1 c9be dd50 84bd
00000390: d2ae 0b3d 38dc e2be a29d d23d d96c 6d3e
000003a0: 832b e53d 8414 023f a599 213e f12a d13e
000003b0: fd8e a5be d7c7 443e b3df 403d bf60 f2bc
000003c0: e07b 043c af85 463e 5386 61be 527e 73bd
000003d0: 0046 5e3e 3828 ef3d 6763 373d c6fb 48bf
000003e0: ca29 d43d 6483 253e c06f 22be e51b 683e
000003f0: 97d9 e9bb 95f9 02bf 6fd9 413e 9b94 0e3e

layer3.bias f4 [6]
0.035175525 0.018605579 0.0509447 0.0510982 0.23554653 0.012762225
00000000: 3614 103d ba6a 983c 64ab 503d 594c 513d
00000010: 1c33 713e a718 513c
